checkpoints/BioMetricNetwork_2023-08-31_09-42-03.pth (torch, 69567 bytes, 16 tensors)

gst_cls_model.touchscreen_data_network.rnn.weight_ih_l0 f4 [64, 4]
00000000: 8032 fe3b b0cd 54bc 4c2e 5abd 1859 f2bc
00000010: 9096 31bc 101c 9ebc 0ef7 debd c815 afbc
00000020: 8018 c53c d84d 8c3d 7686 b3bd 2054 82bb
00000030: 44c4 3cbd 8ca8 3dbd b255 e9bd 481a 3f3d
00000040: e85c 05bd 38f0 aebd d673 e83d 049a 56bd
00000050: 68c5 843c 88e0 fbbc b445 133d 5063 ffbc
00000060: c860 b83d 84cf 493d b0ee a3bc 143f ed3d
00000070: b823 09bd c010 6cbb 501b 9dbd 0483 05bd
00000080: 6832 06bd 3a99 ecbd 5871 dbbc e8c3 e03d
00000090: 20c5 d93c f4c3 2b3d 4625 d9bd a0a8 393c
000000a0: bc34 e5bd f029 573d b41c a0bd 8833 a0bd
000000b0: c064 64bc 7c43 6bbd 8020 be3d b8a9 cbbd
000000c0: f60b e4bd 7c01 bd3d d62f b63d 0c13 53bd
000000d0: 60de 173d 1cf1 4bbd c4e0 1ebd 80f7 ffbc
000000e0: 1c9a 22bd 5ce3 b5bd a250 c5bd 0423 313d
000000f0: 8cd6 bf3d 80e0 2abd a847 95bd 88f5 a53c
00000100: da12 be3d 002a 733a 48d1 eabd 340a f13d
00000110: c44f d5bd 10e2 b93d a23d 983d 00d0 00bb
00000120: 707d 2d3c 1282 ff3d 90ea b03c 64dc 763d
00000130: 5cac 1cbd 50ef eabd 9c4a 2abd 7289 d83d
00000140: 608e d1bd 504a 013d 549d 7cbd fa8d eb3d
00000150: e0da 023d d8bd e33c 6299 cc3d 20c0 6b3c
00000160: 78f4 fdbd ce0c d7bd beeb f3bd 884b b2bd
00000170: d09a c1bd 06d2 8dbd 2833 cbbd 1c0c ddbd
00000180: 7456 77bd 2edf c03d 9a52 febd 50e1 383d
00000190: 2027 bd3b e06b bd3d 580a b93d 4095 4ebd
000001a0: d856 ce3d 00fd 44bb 920a 9cbd 0a0d 9c3d
000001b0: 9cfd 8fbd ea10 f93d 64b1 a5bd aee6 ccbd
000001c0: a02b 9a3d 70bd 8e3d f226 b1bd 30f4 c2bc
000001d0: 2099 c93c 287f ed3c dcd2 223d 44fb 88bd
000001e0: e676 a2bd 5840 5e3d 8cb8 023d e0c5 1e3c
000001f0: 5287 d23d 9ef3 a4bd 188d 7abd 2014 29bd
00000200: b4c1 5fbd 1cc9 143d b0f5 7f3c 204c ac3b
00000210: 3849 45bd a0fd dbbc 0017 61bb 2c96 9dbd
00000220: c6ff cd3d 5ef1 913d 427c f73d 3e3c cf3d
00000230: f8c4 ccbc 1002 3dbd 085b af3c 80c7 5b3c
00000240: 6091 51bc 1a75 ebbd b81f cb3d 404f a93c
00000250: 58e3 9abd 546e e8bd 0030 143c 3090 8f3d
00000260: 1ea7 e7bd c023 3ebc 28b4 efbc 10d0 a8bc
00000270: 801f fb3d 9899 d03d be24 cbbd 10ef d63d
00000280: 0422 d5bd 0075 093b 18b2 dabd 5878 803d
00000290: e8d4 dd3d 6ea5 e3bd 1ca7 43bd 4056 ed3d
000002a0: 88c0 ae3c 506f 7cbc b018 f73c 4cde c93d
000002b0: b03a 5cbd b863 8ebc d0aa bebd 585c 46bd
000002c0: f64a d73d 10e3 713c c299 b73d ac21 99bd
000002d0: 5cfe e83d ba30 bfbd 7407 3d3d a43c 5abd
000002e0: a0f8 e7bd 80ea 14bd a09d c23c ec73 78bd
000002f0: 2c89 e13d e86f b83d c075 c13d 60a7 06bd
00000300: 5a3b d8bd d0f4 513d 12f8 f5bd 0440 99bd
00000310: 60d9 97bc 00cb 75bd 7669 d43d e869 973d
00000320: 8605 fa3d d071 12bc e4ff 5cbd 8c14 5ebd
00000330: 2c29 bbbd 60d6 57bc 2c0e fe3d c07e e33d
00000340: a06c 68bc b0ea 013d 3441 cc3d 90f6 913c
00000350: 0014 733c e6c4 d43d 900d a03d 64d1 2d3d
00000360: 2439 da3d c09d 183d acaf d43d 4812 0cbd
00000370: ec5f 373d f457 543d 108a b7bc 6010 a03b
00000380: 1038 13bd 5880 ff3d a0ec 973c 5853 c63c
00000390: f2d5 eabd 1655 bfbd 3084 d9bc 14f8 f0bd
000003a0: 6810 4cbd acef e4bd fa67 9a3d 9850 dd3d
000003b0: 3045 5e3c d8ad 7a3d fa75 933d daef a73d
000003c0: 9017 d33d d817 f93c d404 45bd 40bb 1bbb
000003d0: 283d e8bc e4fe 933d 8464 92bd 003d f33d
000003e0: 00f7 353a bc3c 9c3d d882 933d 4a51 96bd
000003f0: 08e3 983c e86b dc3c e0d8 81bc 5c85 38bd
0.007757485 -0.012988493 -0.05326681 -0.029583499 -0.01083912 -0.01930049 -0.10886966 -0.02137269
0.024059534 0.06850785 -0.08765881 -0.0039773136 -0.04608561 -0.046303317 -0.11393298 0.046655923
-0.032559305 -0.08541912 0.11350219 -0.052392974 0.016207412 -0.030746713 0.035955146 -0.031175286
0.090028346 0.049270168 -0.020011276 0.11584297 -0.03348133 -0.0036020726 -0.07671225 -0.03259565
-0.032762915 -0.11552663 -0.026787445 0.10974866 0.026583254 0.041934922 -0.106028125 0.011331707
-0.11191699 0.05253023 -0.07817975 -0.07822329 -0.013940036 -0.057437405 0.09283543 -0.09944481
-0.11135094 0.09228799 0.08895843 -0.051531836 0.037077308 -0.049790487 -0.038788572 -0.031245947
-0.03969775 -0.08881256 -0.0963452 0.043246284 0.093670934 -0.041718006 -0.07289058 0.02025868
0.092809394 0.0009275973 -0.114656985 0.11769524 -0.10415605 0.09076321 0.074336305 -0.0019655228
0.010588989 0.12475981 0.021596223 0.060268775 -0.038250312 -0.114714265 -0.04157506 0.105730906
-0.10232234 0.03156501 -0.061673477 0.11501689 0.031947017 0.027800485 0.09990193 0.014389068
-0.12400144 -0.10500489 -0.11910199 -0.08705813 -0.09453356 -0.069248244 -0.09921867 -0.10793325
-0.060385182 0.09417568 -0.12418099 0.04513675 0.0057724863 0.09249091 0.09035176 -0.050435305
0.10075158 -0.0030058026 -0.076192036 0.076196745 -0.07030794 0.12161429 -0.08090475 -0.10004936
0.07527852 0.06969726 -0.08650006 -0.023798078 0.024609149 0.028991297 0.039751872 -0.0668855
-0.07932834 0.05426058 0.03191428 0.009690732 0.102797166 -0.08054279 -0.061169714 -0.04127896
-0.05462809 0.036324605 0.015622541 0.0052580982 -0.04816553 -0.026854336 -0.0034345984 -0.07694659
0.100585505 0.07126115 0.12084247 0.10118912 -0.024996266 -0.046144545 0.021405712 0.013414264
-0.012791008 -0.11496945 0.09918159 0.020667672 -0.07562894 -0.113491684 0.009044647 0.070099235
-0.11311172 -0.011605203 -0.02926071 -0.020607024 0.122618675 0.10185546 -0.099191174 0.10494816
-0.104068786 0.0020974278 -0.106785 0.06272954 0.10831624 -0.111155376 -0.04776679 0.115887165
0.02133204 -0.015407398 0.03016314 0.09856853 -0.053766906 -0.017381534 -0.09309924 -0.04842791
0.105123445 0.014763609 0.08964874 -0.074771255 0.1137664 -0.09335466 0.046149686 -0.053280488
-0.11326718 -0.03635645 0.023756802 -0.060657427 0.110124916 0.090057194 0.09446287 -0.032874465
-0.105581954 0.051258862 -0.12010206 -0.07482913 -0.01853627 -0.06000805 0.103716776 0.07393247
0.12208085 -0.008938268 -0.053954974 -0.054218814 -0.09138712 -0.01317367 0.12405047 0.1110816
-0.0141860545 0.031717956 0.09973374 0.017817765 0.014836311 0.10389118 0.07815087 0.04243602
0.1065543 0.037259817 0.10385069 -0.03419712 0.044769213 0.05184169 -0.0224047 0.0048847646
-0.035942137 0.124756515 0.018545449 0.024209663 -0.11466588 -0.09342401 -0.02655229 -0.11766067
-0.049820334 -0.11178526 0.07539363 0.10806388 0.0135663 0.061200947 0.072002366 0.08200045
0.103072286 0.030406877 -0.048100308 -0.0023762733 -0.028349474 0.07226351 -0.07148078 0.11876869
0.0006941408 0.07628772 0.07202691 -0.073397234 0.018662944 0.026906922 -0.015850484 -0.045049056

gst_cls_model.touchscreen_data_network.rnn.weight_hh_l0 f4 [64, 64]
00000000: 1042 dc3c 607a 703d 6486 76bd 20ee 2ebd
00000010: 604f e7bc 5c94 d6bd f0aa 8d3c 6299 9f3d
00000020: 50fd d53d 8c90 1ebd d033 b33c 6821 713d
00000030: 98a1 923c 6e75 873d 20c1 c03c e864 853d
00000040: 587d 383d 806d 053b 7025 3b3c dc18 d53d
00000050: 007c f83b 70c4 04bc 8cf5 8cbd c04c 0abd
00000060: 5870 89bc 08a8 ec3c f448 f0bd 6050 923d
00000070: bc41 c7bd a001 c53b 30c7 cc3d b813 e23d
00000080: c8f6 d9bd 80aa f5bd a08e 023d 10ea 9bbd
00000090: 9ec6 f2bd 4009 903c f017 a5bc 8088 7c3b
000000a0: ae2b a23d 0cff d23d ae1d dcbd 2874 dc3d
000000b0: b039 2cbd 30cd debc 5ad0 fbbd 105b 37bc
000000c0: dc8e 9d3d 8c14 7fbd 7e05 db3d 509d e9bd
000000d0: 940a 483d 3261 fc3d fcfa bd3d 1c25 c23d
000000e0: 7846 bbbc 66bb debd d86b db3d ea58 88bd
000000f0: 52f6 c6bd a0bd 903b f86b 4c3d 3402 35bd
00000100: 30b2 0dbd 46c6 c2bd f861 e0bc 0acb fc3d
00000110: 9021 f03c 8069 b63b 1cca 723d 70e0 e33d
00000120: c87b e5bd b87b 2bbd 204f 9e3d 58d0 afbc
00000130: 583f c2bd 6439 eabd 68fb acbd bc5d 5d3d
00000140: 8c76 3abd c4da 46bd aa08 fbbd e8e5 87bd
00000150: 48ed d23c dc96 953d 4439 9cbd c808 4a3d
00000160: 8c43 7c3d 5a43 a03d 74ff 1cbd 5e73 cdbd
00000170: 5a6c fdbd d84c c5bd 000b ae3c 1846 1b3d
00000180: bc0d 4d3d 389f a9bd 3c9e d0bd 7c40 cfbd
00000190: 2044 be3c f015 643d 004c e33b 5070 a53c
000001a0: 90f9 6e3d fcbf 8bbd 3cae 5bbd c0f1 f3bd
000001b0: c605 c5bd dad3 a8bd b0b1 95bc d4a5 6c3d
000001c0: 404c 4fbb e0a1 54bc c0b3 79bb 9209 9d3d
000001d0: d0f6 133c 1401 dd3d 544b 3bbd b0d2 fb3d
000001e0: ba90 bbbd 80ff 8cbc 18f9 31bd f60a 8bbd
000001f0: 58b0 d33d 0ed6 b5bd 50d4 153d 1271 b9bd
00000200: 045b abbd e474 9e3d 44b2 3c3d 2085 ba3d
00000210: c040 a03c 66d6 a13d 205e f5bc bc84 563d
00000220: d8ed 74bd 40fe e1bb 8891 88bc 1cd4 973d
00000230: 4050 a23b 48eb 84bc 5a1d c83d 74bd 1b3d
00000240: 90fd 413d ea11 ec3d 8ef6 d5bd 8404 2cbd
00000250: 5619 a13d 12e6 d9bd 5409 e93d 6069 95bc
00000260: 8cd5 f93d 1842 863c aade a4bd d817 f63d
00000270: 246f b63d b8a8 b6bc a45d 383d b83a efbd
00000280: 0697 a2bd d8da 09bd eefe a4bd 9805 8f3c
00000290: 0c38 953d f882 153d 4cba 453d 0084 d03b
000002a0: 54d2 023d 20c8 d33c bcd6 31bd 009e 753a
000002b0: 0029 77bc 4a70 8abd 801a 7abc 2821 66bd
000002c0: 8c93 94bd 30a1 bc3c 32fe 9dbd 9050 34bd
000002d0: 6088 cb3d 322b d33d f856 eb3c 40a2 67bd
000002e0: 8060 67bc ead0 a4bd a0ef a5bb b07b 06bd
000002f0: 3e55 cc3d 0060 e73d 7826 d6bd 96ea fdbd
00000300: 8693 e73d 1af3 c6bd bc99 fbbd c0ab 0dbb
00000310: d8a2 b03c 8050 2abb 0073 df3c 2256 afbd
00000320: 6270 b73d c00e f13d 0a27 833d b868 11bd
00000330: 58e6 f53d 7c87 0fbd b080 1d3d 3ce0 75bd
00000340: 9c59 003d de02 bfbd 0c92 7f3d 5091 d23d
00000350: fab1 82bd 4891 a0bc f068 fd3c 5c52 e33d
00000360: 9479 d4bd 0447 47bd 34d3 bfbd 68f8 5ebd
00000370: ee13 a3bd 900b a4bd a04c f0bc 5058 fc3c
00000380: 30f1 7d3c 60da 2f3c b0f0 8f3c 64ed adbd
00000390: 52a7 e7bd c0a6 03bc e461 d5bd 800a 3bbc
000003a0: 4c2e f4bd befd 8e3d 9893 4abd 0044 d13b
000003b0: 808a 9e3d 860f bfbd b887 f4bd b80a 27bd
000003c0: e848 db3d 38a4 1a3d f81f b73c ea83 e93d
000003d0: d881 3abd 629f e73d 0ce8 543d 28eb aebd
000003e0: bc37 03bd 6c92 543d 0804 36bd 98f4 8e3c
000003f0: 1868 af3d 4402 12bd 80bb 883a 3c1f 063d
0.02688697 0.058710456 -0.06018676 -0.042707562 -0.028236091 -0.10477516 0.017293423 0.07792927
0.10448706 -0.03871207 0.021875292 0.05886975 0.01789932 0.06614195 0.02352959 0.06513387
0.045041412 0.0020359457 0.0114225 0.10405132 0.0075831413 -0.008103475 -0.06882772 -0.0337646
-0.016777202 0.028888717 -0.11732665 0.071442366 -0.09729335 0.0060121566 0.099989295 0.11038917
-0.10642773 -0.11995411 0.0318743 -0.07613003 -0.118542895 0.017582536 -0.020153016 0.0038533509
0.079184875 0.103025526 -0.107478485 0.107643425 -0.042047203 -0.02719745 -0.12295599 -0.011191145
0.07693264 -0.062275454 0.10694407 -0.11406958 0.048838213 0.12323226 0.09276387 0.09479734
-0.02286075 -0.10875587 0.10713929 -0.06657584 -0.097149506 0.0044171363 0.049907655 -0.044191554
-0.03459376 -0.09510474 -0.027390465 0.12343414 0.029312879 0.005566776 0.059274778 0.111267924
-0.1120525 -0.041866034 0.07729936 -0.02146165 -0.09484738 -0.11436728 -0.084463894 0.05404447
-0.04552321 -0.048548475 -0.12257512 -0.06635648 0.02574791 0.07304165 -0.0762811 0.04932478
0.061587855 0.07825346 -0.038329557 -0.1003177 -0.12374182 -0.096337974 0.02124548 0.037908643
0.050061926 -0.08282322 -0.10186431 -0.10119721 0.023225844 0.055684984 0.00693655 0.020195156
0.05834347 -0.068237275 -0.05363296 -0.119113445 -0.09620242 -0.082435325 -0.018273205 0.057775334
-0.0031631142 -0.012978047 -0.0038101524 0.07667841 0.009031013 0.10791221 -0.045726135 0.12296045
-0.09158464 -0.017211676 -0.043450445 -0.067892 0.10336369 -0.08878718 0.03657943 -0.090547696
-0.08366969 0.07737139 0.046068445 0.09107423 0.019562125 0.079022214 -0.029952109 0.05237268
-0.059797138 -0.006896764 -0.016670957 0.074135035 0.004953414 -0.016225472 0.09771223 0.038022473
0.047360957 0.11526854 -0.10447417 -0.041996494 0.078661606 -0.106395856 0.11378732 -0.018238723
0.12198934 0.016388938 -0.08050282 0.120162666 0.08907917 -0.022297248 0.045011178 -0.116811216
-0.07938962 -0.03365597 -0.080564365 0.017458722 0.07286081 0.036501855 0.04827337 0.006363392
0.031938866 0.025852263 -0.043417677 0.0009369552 -0.015085459 -0.06759699 -0.015265107 -0.056183964
-0.07254705 0.023026079 -0.077144995 -0.044022143 0.09938121 0.10310973 0.028727993 -0.056551218
-0.0141221285 -0.0804766 -0.005063966 -0.0328328 0.09977196 0.112976074 -0.10456556 -0.12398259
0.11307435 -0.09714337 -0.12285182 -0.0021617264 0.021562025 -0.0025987923 0.027276516 -0.085613504
0.08956982 0.117703915 0.064039305 -0.03550026 0.12006825 -0.035041317 0.038452804 -0.0600283
0.03133546 -0.09326719 0.06239514 0.102816224 -0.063816026 -0.019600525 0.030933827 0.11099693
-0.10374752 -0.04865171 -0.09366456 -0.054436117 -0.07962786 -0.08010018 -0.029333413 0.03080383
0.015499398 0.010733217 0.017570823 -0.08492544 -0.11311211 -0.008035362 -0.10419062 -0.011416078
-0.11922893 0.06981991 -0.049457163 0.00638628 0.077412605 -0.09329133 -0.11939949 -0.040781707
0.10707265 0.037754267 0.022354111 0.11402114 -0.045533985 0.11309697 0.05197911 -0.08540946
-0.032035574 0.05189745 -0.04443744 0.017450616 0.08564776 -0.035646692 0.0010431856 0.03274463

gst_cls_model.touchscreen_data_network.rnn.bias_ih_l0 f4 [64]
00000000: 9480 7f3d e0e2 4d3d 90a3 9fbc f817 b53c
00000010: 1049 60bc e8d3 ff3d ee7a a53d e4c7 2d3d
00000020: 8a55 aa3d 98c5 8c3c 104b 44bc da42 cf3d
00000030: 2ea4 cebd 2654 c43d 204b b7bc 600f 25bc
00000040: 5c04 f1bd 701f 88bc a2ec f13d 56d8 a73d
00000050: 4827 573d d83d fabd d8e6 913c 302c 9f3d
00000060: 0814 9f3c 1cda f9bd 989e 723d 9c51 3bbd
00000070: 5a76 d1bd 6c0d e53d ace0 8fbd d846 adbd
00000080: 8070 74bc 808e 083b 8267 8e3d fcea d3bd
00000090: 7418 18bd 6840 8bbc a891 2b3d c4bb c0bd
000000a0: aa89 813d 46ca 853d 00da 72bb ea81 86bd
000000b0: 1ecc d93d 1cfe 7a3d 8ce2 14bd 4478 09bd
000000c0: dcd2 74bd 684f afbd 5e78 9cbd a8eb c9bd
000000d0: 1010 28bc 4019 98bd 642d f33d 50a1 87bd
000000e0: 407d 1c3b f0e0 1bbc 6039 d0bc bcbf f6bd
000000f0: d427 013d 2ae1 bdbd ae12 a1bd 36a9 8f3d
0.06237848 0.050265193 -0.019487172 0.022106156 -0.013689294 0.1249159 0.080800876 0.04242696
0.083170965 0.017184064 -0.011980787 0.10120173 -0.100899085 0.095863625 -0.02237469 -0.0100744665
-0.117684096 -0.016616553 0.11812712 0.0819556 0.052527696 -0.12218827 0.01781027 0.077721
0.019418731 -0.12199804 0.059233278 -0.045732126 -0.10227652 0.11184201 -0.07025275 -0.08460778
-0.0149194 0.002083689 0.06953336 -0.10347554 -0.037132695 -0.016998485 0.041886955 -0.094108135
0.063250855 0.06532721 -0.0037056208 -0.06567748 0.106346354 0.061277494 -0.036348864 -0.03356196
-0.059771404 -0.085600674 -0.07640146 -0.09859401 -0.010257736 -0.07426691 0.11873892 -0.06622565
0.0023878366 -0.0095140785 -0.025417984 -0.12048289 0.031532124 -0.09271462 -0.07864891 0.07014696

gst_cls_model.touchscreen_data_network.rnn.bias_hh_l0 f4 [64]
00000000: 9830 763d c09a 90bd b80f c23d c01b 62bb
00000010: 00fb babb c63d b43d 980f 9bbc 9403 80bd
00000020: 8ad1 e63d 6625 cbbd 44d0 ec3d ec94 9a3d
00000030: a4f3 ae3d ecaf 9dbd 28fc b53c 9cf4 143d
00000040: b85a 8fbd b805 0a3d 58ff eb3d 6a92 e53d
00000050: f87d 2abd e66c e1bd 1c74 84bd cc64 193d
00000060: 0c41 e63d 88d8 68bd 8038 063d caea 87bd
00000070: d81e f8bc 404f 0ebb 4c6f 583d c091 df3b
00000080: f822 54bd 6429 e23d f463 963d 58d7 a63c
00000090: b026 523c e0c2 433d d099 48bd ee91 843d
000000a0: d860 e53c ac7f f53d daef c33d 184b 243d
000000b0: e80f 3fbd da52 cdbd 98d2 413d 682d 8f3d
000000c0: 8829 863c 6875 2cbd fafc f3bd c848 5ebd
000000d0: 404a d2bb 703b 1d3d 803e 7abc e05b afbb
000000e0: 14aa 8e3d f062 e93c 5c72 a93d 06ab bf3d
000000f0: 0800 39bd 0211 99bd d8b1 1e3d a034 96bd
0.060104936 -0.07060766 0.09475654 -0.0034501404 -0.005706191 0.08800845 -0.018928334 -0.062506825
0.11270435 -0.099192426 0.11563161 0.07547936 0.085425645 -0.0769957 0.022214964 0.03636609
-0.06999725 0.03369686 0.11523312 0.11209567 -0.04162404 -0.11007099 -0.064674586 0.037449643
0.112428755 -0.056847125 0.032768726 -0.06636579 -0.030288145 -0.0021714717 0.052840516 0.0068227947
-0.05179116 0.11043051 0.07343283 0.020366356 0.012826607 0.04779327 -0.048974812 0.064731464
0.02800028 0.11987242 0.095672324 0.040110677 -0.04664603 -0.10025568 0.04731998 0.069910824
0.016377226 -0.042104155 -0.11913486 -0.05426863 -0.0064175427 0.038386762 -0.01527369 -0.0053515285
0.069660336 0.02848956 0.082737654 0.09358792 -0.045166045 -0.07473947 0.038743824 -0.07334256

gst_cls_model.sensor_data_network.rnn.weight_ih_l0 f4 [64, 6]
00000000: 7476 a7bd 8038 463b b853 abbd 9a26 fc3d
00000010: bcef fb3d f0ea 103d 0046 633d 70a5 06bd
00000020: 60a3 aa3d 0e50 ad3d e4aa ab3d 841c aabd
00000030: e6b9 c2bd 082d a7bd 1a6d 80bd 3c86 2f3d
00000040: 7223 813d 54a7 8bbd 56d3 c6bd f47f 9cbd
00000050: 9c9e d5bd c05f 973b b040 0dbc 9804 923c
00000060: 48f4 fa3d 7809 963d 22db d7bd 40b9 a4bd
00000070: 14df 783d b888 c43c 3efd 823d 787f 9a3d
00000080: a010 16bc c8ea 09bd 1831 e93d 5471 313d
00000090: a83b 01bd c8db a83d e85d 51bd 2cbc bc3d
000000a0: c2a2 d2bd 080a e0bc a084 2bbd b66b ac3d
000000b0: 7825 813d 84ca 3d3d f041 22bd 2048 7ebc
000000c0: 8024 ec3b 70b3 d0bd f870 213d 6039 96bb
000000d0: aad4 fd3d c0b8 7cbd 6abb 8f3d b04f e53c
000000e0: 4091 ef3b d204 9a3d 007f e13c 2631 b83d
000000f0: 8496 b1bd 901a 0abd 6051 26bd 7e97 e23d
00000100: a853 593d 20a4 06bd f0f6 7f3d 905f 68bc
00000110: 6033 e4bd ea08 883d 40f4 40bb 603c c5bd
00000120: d876 173d 3c20 223d 0835 c1bd 4cc8 c03d
00000130: 7061 b8bd 04cf 623d 4a31 f4bd 3067 633d
00000140: 627e b23d fca5 6abd f453 3b3d 781d d3bd
00000150: e0b9 66bc d6de d7bd b05b 71bd bc79 a23d
00000160: 70a1 95bd d44d 0bbd 4220 ebbd 00e6 e2bb
00000170: 9ad2 dcbd 8c80 8bbd 5603 db3d 349a 9b3d
00000180: c04d 2d3d e822 88bc b851 cb3d 48b3 3b3d
00000190: 585d 94bc f6ba fbbd 8a4c 9abd f4db 813d
000001a0: fcd0 723d e2ca a9bd 482d 6f3d d4e7 01bd
000001b0: 2c2b bd3d 64d5 3fbd 00b4 99bc c016 853c
000001c0: c463 ba3d cc00 c93d 4890 c7bd f8d6 193d
000001d0: 7e51 8ebd 00d7 d83c 6c9a 99bd c009 d33b
000001e0: e057 40bd 22be 893d 3c2a 0f3d d043 363d
000001f0: 1c1e 8b3d c435 333d 6631 bfbd 74cb 0c3d
00000200: 8cd2 50bd 44b9 193d ccc0 96bd 666a c63d
00000210: 5ed4 9abd 2067 fcbc 4a31 dc3d 8cc9 ac3d
00000220: 9cbe 06bd c075 bbbc 6841 c9bc a0fe dcbb
00000230: 2a26 a7bd e029 54bc 708e 163d 0cd2 31bd
00000240: 968a a9bd e05e acbb 500e 323d f425 e4bd
00000250: b209 d93d 7a76 fdbd 2e4d c83d 20bc df3c
00000260: f887 ca3c 3434 b1bd e4e7 d43d 46b8 f83d
00000270: 003b 9cbc ee07 d5bd aa29 db3d de71 a6bd
00000280: b83c 803d c493 d03d daf9 973d 98af e93c
00000290: a284 d13d 40a9 1f3b 4295 de3d 90de d2bd
000002a0: 0cc3 31bd 40f7 a13b ea0f f43d c40e 4d3d
000002b0: 2cb3 22bd e040 f73c e4b0 69bd 0a25 8f3d
000002c0: 46e3 ee3d 3094 5a3d 2460 f23d 3882 0cbd
000002d0: 9a4f 873d c0ca b8bb e2bd d33d d404 09bd
000002e0: 689d e33c b450 f13d 44fb 0ebd c492 a73d
000002f0: 8a15 84bd 167a ecbd 8051 4ebd 0cb3 07bd
00000300: 3085 4dbd c80c 733d 7056 66bd 14e7 6b3d
00000310: aa05 d23d 28e1 aebd a800 843c b02c adbd
00000320: 6af6 d33d 0e6b c0bd 0e6e 94bd 0caa 0dbd
00000330: 2e2e b9bd 1882 24bd a07e f9bc 0e01 a7bd
00000340: b83f 3bbd d0d6 e23d 12ed ed3d 9e93 f03d
00000350: a0f1 95bb 58fc 8ebc 0814 e8bc 409c 51bd
00000360: 4424 0abd 009e b9b9 f011 913c 56e4 cdbd
00000370: b4bf c9bd 82bd ca3d c031 153c 829c bebd
00000380: 9297 e73d b401 3cbd 92c3 f63d f47d 723d
00000390: 4e7e c23d f0d1 4fbd 9c6e 71bd 20d4 3ebc
000003a0: b0ac 763d 7887 9abc 546d 04bd 149d 1d3d
000003b0: 7eae d8bd 58e4 c03c 80a5 d7bd b28f 9bbd
000003c0: 0872 e23c 8cad 103d 28d9 bdbd 8c4b 573d
000003d0: e888 8c3d d6d2 cc3d e8c8 dabc d847 df3d
000003e0: 30c7 85bc 544b e63d a037 6fbd f028 47bd
000003f0: 9020 a13d e29a 8b3d 6eca 9abd 14a3 c0bd
-0.0817689 0.003024608 -0.083655775 0.1231205 0.12301585 0.035380304 0.05548668 -0.032872617
0.083319426 0.08462535 0.08382204 -0.0830622 -0.095081136 -0.08162886 -0.062708095 0.042852625
0.06305589 -0.06819025 -0.09708278 -0.076415926 -0.10430643 0.0046195686 -0.00862138 0.017824456
0.12253624 0.07326025 -0.10539843 -0.08043146 0.06075962 0.023990974 0.06395958 0.07543844
-0.009159237 -0.03367117 0.11386317 0.04332097 -0.031551033 0.08245045 -0.051114947 0.092155784
-0.1028495 -0.027348533 -0.041874528 0.08418982 0.06305975 0.046335712 -0.039613664 -0.015520126
0.0072064996 -0.10190475 0.039414376 -0.0045844764 0.12394078 -0.06169963 0.07018168 0.0279921
0.0073110163 0.07520451 0.027526379 0.08993749 -0.08671287 -0.03371674 -0.04060495 0.11064051
0.053058296 -0.032871366 0.062491357 -0.01418294 -0.111426115 0.06642325 -0.002944246 -0.09630656
0.036978573 0.039581522 -0.09433943 0.094132036 -0.0900296 0.055373207 -0.11923464 0.05551833
0.08715512 -0.0572872 0.04573436 -0.10308355 -0.014082402 -0.105405495 -0.05892533 0.07933375
-0.073061824 -0.03400977 -0.11480762 -0.006924391 -0.107823566 -0.06811628 0.10693996 0.07597771
0.042310476 -0.016618207 0.09927696 0.045825273 -0.018110916 -0.12291519 -0.0753413 0.06340781
0.059281334 -0.0829065 0.058392793 -0.03171523 0.0923675 -0.046834365 -0.018762589 0.0162462
0.0910106 0.09814605 -0.09744316 0.037558526 -0.06949137 0.026469707 -0.07500157 0.0064403713
-0.046958804 0.06725718 0.034952387 0.044498265 0.06792852 0.043752447 -0.09335594 0.034373716
-0.050982043 0.0375302 -0.07360992 0.09688263 -0.07560037 -0.030810893 0.10751589 0.084368795
-0.032896623 -0.022883296 -0.024567321 -0.006744221 -0.08161576 -0.012949437 0.036756933 -0.043413207
-0.08278386 -0.0052603334 0.04347068 -0.111400515 0.10597552 -0.12376113 0.09780346 0.027311385
0.024723038 -0.08652535 0.10395792 0.12144522 -0.019071102 -0.10401903 0.10701306 -0.08127187
0.06261581 0.10184434 0.07420702 0.028526112 0.10230376 0.0024362355 0.108683124 -0.10296357
-0.0433989 0.0049428046 0.11917098 0.05006291 -0.039721653 0.030182302 -0.05705346 0.069894865
0.11664443 0.05336398 0.118347436 -0.034303874 0.0660698 -0.005639404 0.10338952 -0.03345187
0.027785018 0.11782971 -0.034907594 0.0818229 -0.06449421 -0.115467235 -0.050370693 -0.033129737
-0.050175846 0.05933836 -0.056234777 0.05759342 0.102549866 -0.08539039 0.016113594 -0.08455789
0.10349734 -0.09395419 -0.07247554 -0.034585997 -0.09042011 -0.04016313 -0.030455887 -0.08154498
-0.045715064 0.110761285 0.11617483 0.11746906 -0.004575923 -0.017454311 -0.028329864 -0.051174402
-0.03372599 -0.0003540367 0.017708749 -0.10053317 -0.098510176 0.09899427 0.0091061 -0.09307195
0.113082066 -0.04590006 0.12049021 0.05920215 0.09496747 -0.05073732 -0.058943376 -0.011647254
0.06022328 -0.018863425 -0.032330826 0.03847988 -0.10580157 0.023546383 -0.105296135 -0.07595767
0.027642265 0.035321757 -0.09269935 0.05256228 0.0686205 0.10001151 -0.026707128 0.10902375
-0.016330332 0.112448364 -0.058402658 -0.048623025 0.07867539 0.06816651 -0.07558142 -0.09406105

gst_cls_model.sensor_data_network.rnn.weight_hh_l0 f4 [64, 64]
00000000: 14c8 ee3d 4806 b13d 0627 df3d 20f1 f13d
00000010: c401 15bd 08f7 603d 8036 dbbb 8030 523c
00000020: 029a cb3d ea92 f13d 08b8 cbbd d81c 49bd
00000030: 02f5 f6bd 70d7 bc3c a084 953b e8f1 2e3d
00000040: c22a ccbd 7253 e83d 4060 babb 000c 0bbc
00000050: ce13 b7bd 749a a43d 205b 3cbc a24e b7bd
00000060: f8e3 debc 0846 843c 3807 183d 68b9 b6bc
00000070: d0b9 c2bd 1012 7b3c 883c 6ebd b84d 163d
00000080: c2ea babd cc04 c13d dc70 fabd 60cc 2bbc
00000090: 5012 6abc 2cc8 66bd dcd9 d6bd 4ef1 873d
000000a0: 1437 fbbd 984c ebbc 4e28 86bd 8495 703d
000000b0: c642 e43d 3c1c 97bd 5677 cd3d c8c5 f3bc
000000c0: ecdd 56bd 683e a63d 60f6 85bc 20e6 5b3c
000000d0: 003d 9fbb fe2f e0bd e663 a3bd f837 c7bc
000000e0: b477 d43d 06db f83d 02d1 bdbd e880 8cbd
000000f0: 18eb 6cbd 1453 313d e286 953d 6c4f bd3d
00000100: c031 853b 800a f5bb e633 96bd 007d dbbd
00000110: c6b5 babd 0a9a f9bd 5833 dfbd 401f c8bd
00000120: d6e9 883d 0ae5 aebd 60a3 98bd 083f 673d
00000130: f06f 09bd 5026 65bc 103e be3c 3013 513d
00000140: 264b f53d 7a86 dd3d a075 79bc c2cc e23d
00000150: 58bd 0dbd 100a 06bd 484a 993d a48f 173d
00000160: 503a 703c 406a d1bb 9ee1 d2bd 1625 f83d
00000170: 5e86 ccbd 3000 bf3d 30c7 26bc d087 99bc
00000180: 5892 31bd 642c 00bd 5afe 9d3d a817 a23c
00000190: 985c f13c 9097 3d3d 409f 1e3d b480 b4bd
000001a0: da12 ce3d 183b bdbc 8aac aebd c052 0bbd
000001b0: 2ee8 e83d 16f4 d7bd 3498 d63d 18af a8bc
000001c0: 8422 0fbd 2040 42bc bad5 83bd b87e e23d
000001d0: 4c18 fc3d 609a 073c 7470 ad3d 1ef3 c3bd
000001e0: 5a1a e23d 28d7 26bd 206e de3c 9402 b93d
000001f0: 6caa 59bd 9ed2 a5bd c6ce c03d 72cd e13d
00000200: fce3 d6bd 64d1 a3bd 4a03 8cbd 54b1 39bd
00000210: 3034 c73c ccb1 bbbd 30dd 053d 048f 6d3d
00000220: acd0 083d 38e9 9e3c 5616 f7bd 30d4 053c
00000230: cc8c 5f3d f08c 81bd d6f7 f1bd 40ff 9abb
00000240: 4208 c23d 8015 3b3c a818 bbbc d05c 86bc
00000250: b0d5 89bc b005 b1bd 7043 3c3d 90c4 7dbc
00000260: 0015 c0bd 30aa 87bd 788b bc3c c6fd f73d
00000270: 24cd 443d 4c2a e53d 86ae b1bd aee6 f13d
00000280: e644 e23d 4cf2 c0bd 90cb 4e3c 427a dc3d
00000290: 1086 b13d 3cff ba3d 4ae3 ab3d ee18 eabd
000002a0: 8e3b 8d3d d042 063d a807 8b3c 7856 8a3c
000002b0: d456 003d 4864 3d3d 72a3 b8bd 8876 dbbd
000002c0: f838 a63d dcc0 aebd 0810 0b3d 927c f2bd
000002d0: 4c78 fdbd 4417 bbbd 345a 003d ba48 873d
000002e0: 08e0 1fbd c04c 583b ba1e fbbd 40f5 8abc
000002f0: 0423 febd c08a cabd 609f 74bc b093 1a3d
00000300: 2e73 efbd f64a f6bd 6689 8b3d 6a73 90bd
00000310: 4e64 f33d 560e 93bd 223b db3d 801d 62bd
00000320: 58da 13bd 4002 92bc c0c5 283c 503f 1abd
00000330: 4a39 b73d 04bf 8c3d 84ef 5cbd 5cb5 b03d
00000340: d2ce f73d f68a 89bd 1677 bebd 2acb cabd
00000350: 4896 c7bd da13 9e3d 2804 9bbd 08cb 9b3d
00000360: c69e a53d 70b4 c5bd 4e75 9e3d 30c4 c9bd
00000370: 9cbd 56bd c0d0 9abb e219 cd3d 1893 1e3d
00000380: 8006 8bbd 4045 da3d 0091 543d 34dd ab3d
00000390: f283 ccbd ceaf a23d f8b6 f83c ae37 d13d
000003a0: e017 62bd d88a 2abd ccac bb3d 3882 b1bd
000003b0: 001b 173a e807 7b3d 50ee 73bc 4833 2f3d
000003c0: 1048 393c 421f de3d 786b d53c 688f ea3d
000003d0: e86c a6bd 905e d7bc befa d7bd 1ed7 eb3d
000003e0: c4df e13d 1a7f a03d 82e0 a8bd ccbb 643d
000003f0: 5007 58bd e884 2c3d 1ce8 b4bd 5004 d23d
0.116592556 0.08643776 0.10896115 0.11813569 -0.036378637 0.054923087 -0.0066898465 0.012828946
0.09941484 0.117956 -0.099472106 -0.049099773 -0.1205845 0.023051947 0.0045629293 0.04271117
-0.09969093 0.11344041 -0.0056877434 -0.008486748 -0.08939324 0.08037272 -0.011496335 -0.08950545
-0.027208313 0.016146675 0.03711626 -0.022305205 -0.09508097 0.015324131 -0.058163196 0.036695212
-0.09126808 0.09424743 -0.122285575 -0.0104857385 -0.014286593 -0.056343243 -0.10490772 0.06637822
-0.12266365 -0.028723046 -0.06550656 0.05873634 0.111455485 -0.07378432 0.10032527 -0.029757395
-0.052457735 0.08117372 -0.016352832 0.013421565 -0.0048595667 -0.10946654 -0.079780385 -0.02431868
0.10374394 0.121511504 -0.09268381 -0.068605244 -0.05784139 0.04329212 0.073011175 0.09243664
0.0040647686 -0.0074780583 -0.073341176 -0.10717201 -0.09116702 -0.12187584 -0.10898465 -0.097715855
0.06685226 -0.085397795 -0.07453036 0.056456596 -0.033554018 -0.013986185 0.023222953 0.05104369
0.11977224 0.10816665 -0.015225798 0.11074211 -0.0346044 -0.03272444 0.07484871 0.03700222
0.01466234 -0.00639084 -0.10296939 0.121164486 -0.09986566 0.09326208 -0.010179326 -0.018741518
-0.043352455 -0.031292334 0.07714529 0.01978667 0.029463097 0.04628712 0.03872609 -0.08813611
0.100621894 -0.023099467 -0.08529003 -0.034014463 0.1137241 -0.105446026 0.10478249 -0.020591304
-0.034945026 -0.011856109 -0.064372495 0.11059326 0.12309322 0.008276552 0.08468714 -0.09567855
0.110401824 -0.040732533 0.027152121 0.09033695 -0.053141043 -0.08096813 0.09414439 0.11025514
-0.10492703 -0.079989225 -0.06836565 -0.04533513 0.024316877 -0.091647714 0.032681644 0.05799772
0.03340213 0.019398317 -0.12064807 0.008168265 0.054577634 -0.0632571 -0.11814849 -0.004730135
0.09474231 0.0114187 -0.022838905 -0.016401678 -0.016825527 -0.08643663 0.04596275 -0.015488759
-0.093790054 -0.066242576 0.023015723 0.1210895 0.0480472 0.11189708 -0.08675866 0.11811577
0.110482976 -0.094212145 0.012621775 0.10765506 0.086681485 0.09130713 0.08392961 -0.11430536
0.06896125 0.03277856 0.016971424 0.016886935 0.031332806 0.046238214 -0.0901555 -0.107159674
0.08116335 -0.08532879 0.033950835 -0.11840166 -0.123764604 -0.09135297 0.031336024 0.06605668
-0.039032012 0.003300473 -0.1226172 -0.016962647 -0.124090225 -0.09889746 -0.014930576 0.037738502
-0.11691891 -0.120260164 0.06813316 -0.070532635 0.11884366 -0.07180469 0.10704638 -0.055203915
-0.0360969 -0.017823339 0.0103010535 -0.037658036 0.08946474 0.06872371 -0.053939357 0.086283416
0.12099995 -0.06715958 -0.093000576 -0.09902032 -0.09745461 0.0771863 -0.07569152 0.076070845
0.08086924 -0.09653556 0.07737218 -0.09851873 -0.05242692 -0.004724592 0.100147024 0.0387145
-0.06788349 0.1065774 0.051896095 0.083918005 -0.09986104 0.07943688 0.030360684 0.10215698
-0.05519855 -0.041636318 0.09163818 -0.086674154 0.0005764216 0.061286837 -0.014888361 0.042773515
0.011308685 0.10845806 0.026052222 0.11453134 -0.08126241 -0.026290208 -0.10545872 0.1151564
0.11029008 0.07836743 -0.082459465 0.05584316 -0.05274135 0.042118937 -0.08833334 0.10254729

gst_cls_model.sensor_data_network.rnn.bias_ih_l0 f4 [64]
00000000: c045 c5bd 6cf1 9bbd e848 393d 3483 70bd
00000010: 127a c4bd 6426 46bd f4f2 02bd 2a93 bc3d
00000020: 3a3f 853d 18f8 99bc 982a ac3c 2822 873c
00000030: 4a04 f9bd a63d b1bd 10fc febd f871 d6bc
00000040: 6809 19bd 305c 3a3c 7878 57bd b07d 7fbd
00000050: 140c 803d 5050 25bd ce8f cfbd a695 c6bd
00000060: 429f ee3d e83a ea3c 942d 8cbd 7ca4 653d
00000070: a0e2 683d a02f cc3d f018 b03d a680 d83d
00000080: 7037 0d3d 5e04 d13d 94d8 fdbd 0097 033d
00000090: b6e4 a8bd 3884 fc3d 38b2 7fbd 74d0 133d
000000a0: 087b 703d 7804 babd 6cff d43d 089c f23c
000000b0: 9c27 9cbd aa7a d13d 18e7 d7bd b012 53bd
000000c0: c80b e3bd 0891 dfbc 30c9 fd3d 8016 15bb
000000d0: 1cac 70bd 6e03 babd 14be d9bd ce92 bfbd
000000e0: b0cf 56bc e0c7 4a3d ec4c cc3d c4c0 893d
000000f0: 1611 bbbd 4018 6dbc e63a e0bd f810 b5bc
-0.096324444 -0.07614407 0.045235544 -0.058718875 -0.095935956 -0.048376456 -0.03196998 0.09207757
0.065062 -0.018795058 0.021016404 0.01649578 -0.12159021 -0.08654337 -0.12450421 -0.026177391
-0.037362486 0.011374518 -0.052605122 -0.062375724 0.06252304 -0.040359795 -0.101348504 -0.09696512
0.1165147 0.028592542 -0.06844631 0.056065068 0.05685675 0.09970021 0.085985065 0.10571413
0.034476697 0.10205911 -0.123948246 0.032126427 -0.08246748 0.12329906 -0.062425822 0.03608747
0.05871108 -0.090828836 0.1040028 0.029615417 -0.076247424 0.102284744 -0.105421245 -0.051531494
-0.110862315 -0.027290836 0.12391889 -0.0022749007 -0.058757886 -0.090826854 -0.10631958 -0.09354173
-0.01311104 0.049507022 0.09975609 0.0672622 -0.09134118 -0.014471114 -0.10948734 -0.022102818

gst_cls_model.sensor_data_network.rnn.bias_hh_l0 f4 [64]
00000000: 60cd fdbb 00ac cb3d 722b b73d 76aa d5bd
00000010: f424 2abd f821 10bd a08f cbbd e8fd f0bc
00000020: 0c82 6a3d d87d ec3d 1870 f63d 6825 06bd
00000030: 60a5 a0bc bcce 98bd 62e8 b63d d8d9 563d
00000040: 7025 dcbc 7409 e13d d093 563d 56a2 fa3d
00000050: 4050 21bc b8e7 943c b052 db3c 0053 44bd
00000060: aad1 853d 0052 693d 1aed adbd 006b 6dbc
00000070: 50aa 26bd c08a 753d 60ef 663d b23e cbbd
00000080: f633 f63d b409 0cbd 9ea5 c83d 88b5 383d
00000090: e06a 22bd 50f7 f4bd e2b4 ae3d 9809 29bd
000000a0: 3a96 c2bd 0a6e 8fbd 2cc9 683d 98c9 bdbd
000000b0: b283 fbbd 06bd 9f3d 5255 bcbd 26e8 b0bd
000000c0: e8cd 573d eaf4 893d e0f6 ebbd 1e2d db3d
000000d0: 6001 773c d41e aa3d 6e0e b83d 48db d8bd
000000e0: 6c96 5a3d b6da d3bd 44f6 f8bd 30dc 29bd
000000f0: b0c9 72bd f6d7 95bd 427a bdbd 60fd 3f3d
-0.00774543 0.09944916 0.089438334 -0.104329035 -0.041539147 -0.035188645 -0.09939504 -0.029417947
0.05725293 0.1154744 0.12033099 -0.032750517 -0.019610107 -0.074613065 0.08931042 0.052453846
-0.02687332 0.10988131 0.05238706 0.122379944 -0.009845793 0.018176898 0.026772827 -0.047930717
0.06534131 0.056962967 -0.08492489 -0.014490843 -0.040689766 0.059946775 0.05638063 -0.099240676
0.120216295 -0.03418894 0.09797214 0.045094997 -0.039652705 -0.119612336 0.085305944 -0.041268915
-0.0950131 -0.0700341 0.056832477 -0.092669666 -0.12280978 0.07799725 -0.09195961 -0.08638029
0.052686602 0.06736167 -0.11521697 0.10701965 0.015076011 0.08306661 0.08987127 -0.105886996
0.05336611 -0.1034445 -0.121563464 -0.041469753 -0.059274375 -0.07316582 -0.092518345 0.046872497

gst_cls_model.fc.weight f4 [8, 130]
00000000: 22a4 a33d fa65 45bb a202 863d 9b2a afbd
00000010: 0bac bcbc b470 fcbc 9577 27bd 9eaf 9e3d
00000020: 5de1 c4ba 2b4f 903d 472b 81bb 18ba 98bd
00000030: e2f2 b2bd 22ed 8e3d 3657 33bd 5b23 9b3d
00000040: a23b 04bb aa11 56bd 7f73 07bc d013 aa3d
00000050: f1b0 8fbd 5b39 fa3c c289 5cbd 988a 623d
00000060: 1521 493d f1c8 5dbd 38a6 dcbb d6e2 8abc
00000070: 7238 a73d 8029 bebc 1ca1 7e3d 3aa7 8abd
00000080: 52d2 9f3d 85a1 9dbd 6cec d5bc b64b 11bd
00000090: 70ef 343d bdd8 3bbb c2fd 9a3d dc0e 8e3d
000000a0: 3a5f 11bd 0e7e 033d 4167 933d bd9e b2bd
000000b0: 4a43 073d 4429 91bd 18c9 32bd 95f6 9a3c
000000c0: 2af7 16bd 22bc 85bb f6b3 88bd 0c06 6c3d
000000d0: 6a39 bc3c aae5 a13d 17e1 fd3c 71a8 4dbd
000000e0: 05f8 11bd 9a5f 263c df44 c73c 856a 3d3c
000000f0: 3dd5 f4bc f4df f53c d27b 893d b9ce 8d3c
00000100: cb94 513a 4a74 b1bd 6bca 613c 1590 98bd
00000110: 2f6d 91bd ec18 aa3c 1ee7 7dbc b348 b13d
00000120: cfb9 8e3d 0e38 873d 91ce 84bd 5163 72bd
00000130: 0a99 043c f094 ab3d 8ef8 f5bb 6bac b73c
00000140: cefc 6bbb 2cf5 42bd 3f9f 7e3d 3e32 32bc
00000150: 9c9a 1d3d 6dbd 51bd 8b30 02bd 5987 acbc
00000160: c207 6b3c 42f2 fdbc 3854 2ebd 0775 b13d
00000170: bd52 5ebd 25b8 363d e3f4 2fbd 7ab3 af3d
00000180: 90b0 913d 02ae 69bd 01ab a93d b403 72bd
00000190: fba7 933d 326a 1e3c 0e24 2dbb f4a1 0a3d
000001a0: 5408 d93c 52ca bfbc 99f1 38bd a748 9bbb
000001b0: 51c1 483c aed6 503d dd71 c73c aa4b 99bd
000001c0: 1091 ab3d a153 7cbd f127 93bd 0a0a 4a3d
000001d0: ab0d 02bd 9473 653d eb1f a63d d9a3 fd3c
000001e0: 44ff a93b dc89 9abd 6d14 43bc dec3 593d
000001f0: c6a2 2a3d 04dd 40bc f396 883d 1b30 68bd
00000200: 1881 4d3d 9c1d 0cbd ca0c c93c 35ce 113d
00000210: 05dd 73bd bf29 d4ba 3a09 3bbb aba3 9cbd
00000220: 5a7c b1bd ccd4 c23b 9825 433d 78e7 523d
00000230: ba54 5bbb df17 7dbc 6d48 953d bcc6 a9bd
00000240: 569b 95bd d221 763d 151e 85bd 8c40 54bc
00000250: ec61 29bd 02eb c23c 550f e73c 8aa2 9dbd
00000260: 4362 553d 2091 30bd 4927 913d 4243 1a3d
00000270: 6e21 b93c 8b09 c4bc 1563 bbbc fe89 553d
00000280: 4649 ff3c d616 abbd 9958 90bd 1a19 76bd
00000290: b96f 8dbd c62c c23c a7a0 90bb 0217 993c
000002a0: ed14 c6bc f483 82bd 3446 7fbd 8514 6b3d
000002b0: bde1 9d3d 89f0 73bd eaeb adbc 8105 cc3a
000002c0: 40bb a8bd 11b0 5eba 94a0 9e3d 20a5 1abc
000002d0: 20f3 263c 20c9 70bc 93e2 8b3d bf1e 82bd
000002e0: 3063 43bc f510 8cbd 3da2 66bd ef8e ac3c
000002f0: 96ce 8b3c b615 22bd 6b47 093d 89db a13d
00000300: 90a9 883d 04a7 ab3d f35c babc 5631 893d
00000310: 059f 383d d57b a83d 784f 3bbd 140a 2fbc
00000320: 7bf1 a43d d423 693d fc5d 23bc fc97 b9ba
00000330: ef15 fbbc e239 41bd 50f0 683c 7698 273d
00000340: de08 a7bd 3920 813d 49b0 54bb a649 89bd
00000350: 9313 6bbd fa77 53bd 82d6 69bd 9193 9c3c
00000360: e6be 8dbd d643 6bbc ec3a 523d 5632 89bc
00000370: 28b4 5d3d 260b a2bd 0e17 89bd 1f6b afbb
00000380: 6bf3 eebc e58a f3b9 54e2 db3c 3aff 51bd
00000390: 6397 8f3d 831e aa3d 0b2d 3a3c 6c1b 2fbd
000003a0: 4aaa 71bd 3541 33bd d491 363d 9f19 96bd
000003b0: 1464 86bd 8b2b 97bd 21b5 2c3d 435a 643d
000003c0: 5626 93bd d53a 90bd cd13 5a3d 7b6a 01bd
000003d0: 3fa7 843d 30da 283d f23a 1fbd 3957 c2bc
000003e0: 13df 86bc b82b 86bc b0cd ac3c 2990 963d
000003f0: 7c70 90bd 35c4 6dbd a0e6 a13d eeae 8fbd
0.0799029 -0.0030120597 0.06543471 -0.08553048 -0.023031255 -0.03081546 -0.040885527 0.0774834
-0.0015020777 0.0704635 -0.0039419266 -0.074573696 -0.087377325 0.06978823 -0.043784343 0.07575103
-0.0020177145 -0.05226294 -0.0082672825 0.0830456 -0.07016171 0.030544927 -0.053842314 0.055307955
0.049103815 -0.05414671 -0.006733682 -0.016953867 0.08165063 -0.023213148 0.062165365 -0.06770177
0.07803787 -0.07696823 -0.026113711 -0.035472594 0.044173658 -0.0028663122 0.07567932 0.06936428
-0.035491206 0.032102637 0.071974285 -0.08721683 0.033023156 -0.07087949 -0.04364881 0.018916408
-0.036856808 -0.004081265 -0.0667495 0.057622954 0.022976596 0.07905133 0.03099112 -0.050209466
-0.03563692 0.010154629 0.024324832 0.011561041 -0.029886836 0.030014016 0.0671307 0.017310487
0.0007994889 -0.086647585 0.01378117 -0.074493565 -0.07100903 0.020763837 -0.015496997 0.086564444
0.06969034 0.066024885 -0.06484712 -0.059176747 0.008093128 0.08378017 -0.0075064367 0.022421082
-0.0036008838 -0.047597095 0.062163588 -0.0108762365 0.038477525 -0.05120604 -0.031784575 -0.021060633
0.014345111 -0.030999307 -0.042560786 0.08664899 -0.054278124 0.044609208 -0.04295815 0.08579154
0.07113755 -0.057050712 0.082845695 -0.059085563 0.07209774 0.009668874 -0.0026419195 0.033845857
0.026493229 -0.023411904 -0.04515228 -0.0047388854 0.0122531215 0.050985985 0.024346286 -0.07485135
0.08377278 -0.061603192 -0.071853526 0.04932598 -0.031751316 0.056018427 0.081115566 0.030961918
0.0051879007 -0.07545826 -0.011906725 0.05316531 0.04165914 -0.011771444 0.06669416 -0.056686502
0.05017194 -0.034207925 0.024542231 0.035597045 -0.059536953 -0.0016186758 -0.0028539435 -0.07648405
-0.08666296 0.0059457775 0.047643274 0.051490277 -0.003346725 -0.015447586 0.07289205 -0.08289859
-0.073050186 0.060090847 -0.06499878 -0.012954842 -0.04135315 0.023793701 0.028205553 -0.076970175
0.052095663 -0.043107152 0.07087571 0.0376618 0.022598948 -0.023930332 -0.022874394 0.052133553
0.03116287 -0.08353965 -0.07048149 -0.060082532 -0.06906075 0.02370299 -0.0044136825 0.018687729
-0.0241799 -0.06372824 -0.06232281 0.057392616 0.07709072 -0.059555564 -0.021230657 0.0015565605
-0.0823884 -0.0008494864 0.077454716 -0.009438783 0.010189801 -0.014696389 0.06830325 -0.063535206
-0.011925504 -0.06839172 -0.056307066 0.02106425 0.017066281 -0.039571486 0.033515375 0.07903201
0.066729665 0.08381465 -0.0227494 0.06698863 0.045073528 0.08226744 -0.045730084 -0.010683555
0.08053871 0.056918934 -0.009971138 -0.0014159675 -0.030650107 -0.047174342 0.014217451 0.040916882
-0.08155988 0.06304974 -0.0032453707 -0.067035004 -0.057391714 -0.05162809 -0.057089336 0.019113334
-0.069211766 -0.014359435 0.051325724 -0.016747635 0.05412689 -0.07912283 -0.066938505 -0.005353346
-0.029168805 -0.00046452056 0.02684132 -0.051268794 0.070112966 0.08306601 0.011363278 -0.04275076
-0.05900029 -0.04376336 0.044572666 -0.073291056 -0.06562057 -0.07381352 0.042164925 0.055750143
-0.071850464 -0.07042471 0.05324154 -0.03159569 0.06477212 0.041223705 -0.038874574 -0.023723232
-0.016463792 -0.016378269 0.021094173 0.07351715 -0.07052705 -0.058048446 0.07905316 -0.07015787

gst_cls_model.fc.bias f4 [8]
00000000: 09b6 b0bd a71c 853d 15d6 893d 9479 ff3c
00000010: a5e7 52bd 965b 11bd 5c9a 59bd 3e4e 5e3d
-0.086284705 0.064996056 0.06730286 0.031185903 -0.051490445 -0.035487734 -0.053125724 0.054273836

id_recog_model.touchscreen_data_network.rnn.weight_ih_l0 f4 [64, 4]
00000000: 7f40 ef3e 34ba 163f b11c 253f 4fce da3e
00000010: 17f0 84bf bd70 05bf 9a0e 9abf 223b c6be
00000020: 2cc5 d13e 7c6d fe3e 809a 003f 4323 293d
00000030: 65b1 113f e3a6 253f e8e5 083f d9f6 3b3c
00000040: b80b cdbe 1f5d fcbe a925 1fbf 36a1 543c
00000050: 27c5 d7be 99cc e8be 3681 aabe f46d 283c
00000060: 7c81 2ebf fa72 19bf 5230 00bf 9cd0 a8be
00000070: bcda 2bbf 0daa b7be 3792 43bf 5ba5 4abf
00000080: a9c2 f73e 8e9e f63e a766 023f 618b 053f
00000090: d572 263f 4ac9 fb3e 86c1 173f 8aa7 263f
000000a0: f5c5 0b3f 4600 0dbf 0795 03bf 78dd 983d
000000b0: d17f 16bf 9093 14bf c36d 10bf 4a88 9dbe
000000c0: ca8b 04bd 1b0e 73be f5a8 f7be 1947 733d
000000d0: 3e68 b8be f33a 18bf fd27 24be 1802 88bd
000000e0: 5a58 223f f81f 1b3f 29a7 0f3f 0092 083f
000000f0: 0bdc bdbe 1713 31be 8fa1 0fbf 795b 04bf
00000100: eba3 18bf 4e71 15bf 5920 10bf 386e e3be
00000110: 2c86 183f e7c8 3e3f 9a16 053f 127c 123f
00000120: fbee 1ebf 87fe 01bf 6e02 14bf d29d 8dbe
00000130: 01bc 03bf 2691 04bf 1242 0abf 173b b9be
00000140: a7a4 073f 6607 fe3e 6bf9 2d3f 78bb 0cbd
00000150: 07e5 f5be 7361 edbe 8279 08bf 47a6 d2be
00000160: 9ce0 ac3e e1d6 223f f7d7 073f 1484 0ebd
00000170: cfc2 13bf 23a8 f8be 455e 4cbf be0b 2ebf
00000180: f064 10bf 4f74 e33e 5e65 0fbe f64b 86bf
00000190: 96f6 1c3f 4e26 1b3f 03df 0c3f 39e4 14bd
000001a0: 548a 133f 08df 183f 6aab 183f 9abf ba39
000001b0: 25b0 2f3f 5d44 123f 2c8c f83e f8c1 323e
000001c0: d826 103f 33e6 233f 75af 043f b086 1f3f
000001d0: 314b 11bf 3867 02bf 0326 28bf 9d60 eabd
000001e0: 890f 02bf 640b fbbe 79ca ecbe 6987 143c
000001f0: 3f70 063f 1a98 1f3f e5c3 283f 4c5e c23c
00000200: 3488 1cbf ef99 2cbf 5663 15bf 57ef fdbe
00000210: e57c 13bf adef 07bf a4d0 2bbf 1157 e8be
00000220: 514a 1a3f 15ea 0c3f b2c9 083f 6d00 1b3f
00000230: 4567 12bf 8703 33bf ed6b f9be 3555 2abd
00000240: fa62 10bf c88a 0abf 9959 19bf 67fe c1bc
00000250: 2bad ee3e 6729 183f ec94 293f 69c4 77bd
00000260: f4b7 09bf 1fb1 1fbf 4983 18bf 0abc 15bf
00000270: 6050 07bf 7e5b 06bf 1589 1abf c91d c6bc
00000280: 3f87 1d3f 9aa2 053f 7d76 013f af24 c33e
00000290: e284 f13e d965 093f ec84 283f 0c16 ff3b
000002a0: 70f5 293f 69e6 1d3f ac17 053f 12f3 033f
000002b0: 7ae3 0fbf 2ea4 14bf 8d31 1ebf e491 883d
000002c0: 4f08 d43e 6b0a 233f 1d1d 0a3f f800 8abd
000002d0: 1415 09bf 9372 0ebf 6454 07bf f015 cdbe
000002e0: f62c 643f e31c 2a3f 6ec1 fd3e 84a1 a33e
000002f0: 2b46 1ebf b938 04bf 82ab 2bbf 1683 4d3d
00000300: 1e30 34bf 3d92 36bf c6a6 24bf 5057 0abf
00000310: 91ae d9be 5662 02bf 57e8 28bf 3b0e b4bc
00000320: d451 4fbf 7c82 27bf 63dc bdbe 0050 b9be
00000330: 0215 b83c 5f74 20be 9bef f2be 67b3 523d
00000340: 95cc 013f 0818 063f 5994 093f 3c2f eebc
00000350: 6864 0cbf f2b1 19bf eac2 22bf a827 f7be
00000360: f823 103f 5557 013f 2b63 303f 0b1f dbbc
00000370: 431e 18bf ddc6 01bf 3434 28bf 910d 45be
00000380: 6fea 193f 5a09 3c3f 8e3a 313f 4808 1f3e
00000390: b6e2 f9be 6a7f 1ebf bbf9 fcbe 0097 3abd
000003a0: 042a 0abf 9d6c 24bf 4335 05bf 021d 20bf
000003b0: 3be1 cf3e 44e1 963e 742f d93e 866b 1d3d
000003c0: fdb5 393e bcc7 733f 49f1 d2be ad56 f9be
000003d0: 2615 133f 6a71 f23e 9d63 143f cfb6 723e
000003e0: f18b 383f a604 083f 3916 0d3f ad21 22bd
000003f0: 8d3a 1f3f ecd7 243f 0121 c03e 956b e93e
0.46728894 0.58877873 0.64496905 0.42735526 -1.038577 -0.5212515 -1.2035706 -0.3871699
0.40970743 0.49692905 0.5023575 0.041293394 0.5691131 0.64707774 0.5347581 0.011472427
-0.40048003 -0.49289796 -0.6216684 0.012977889 -0.42142603 -0.45468596 -0.33301705 0.010280121
-0.6816633 -0.59941065 -0.5007373 -0.32971656 -0.6713064 -0.35871926 -0.7639498 -0.7915856
0.483907 0.48167843 0.50937885 0.521658 0.6501897 0.4917701 0.5927967 0.65099394
0.54598933 -0.5507854 -0.5139927 0.07464117 -0.5878878 -0.5803766 -0.56417483 -0.30768043
-0.032359876 -0.2373585 -0.4837109 0.059393976 -0.3601703 -0.5946495 -0.1603088 -0.06641024
0.63416064 0.60595655 0.5611444 0.5334778 -0.37081942 -0.17292438 -0.56105894 -0.51702076
-0.5962512 -0.58376014 -0.5629936 -0.44420028 0.5957973 0.745253 0.5198761 0.57220566
-0.62083405 -0.50779 -0.5781621 -0.2765947 -0.51458746 -0.5178398 -0.54007065 -0.36177894
0.52985615 0.4961502 0.67958707 -0.03435847 -0.48026296 -0.4636341 -0.53310406 -0.41142485
0.33765113 0.6360913 0.5306391 -0.03479393 -0.5771913 -0.48565778 -0.79831344 -0.6798667
-0.5640402 0.44424674 -0.14003512 -1.0491931 0.6131376 0.60605323 0.5502779 -0.036350463
0.57632947 0.5971532 0.5963656 0.0003561944 0.6862815 0.57135564 0.48544443 0.17456806
0.5630927 0.6402313 0.51830226 0.6231489 -0.5675536 -0.5093875 -0.65683 -0.11444209
-0.50804955 -0.49032128 -0.46248224 0.009065487 0.52515024 0.62341464 0.6592391 0.023726605
-0.6114533 -0.67422384 -0.583547 -0.49596664 -0.5761245 -0.5310009 -0.67115235 -0.45378926
0.6026965 0.5504468 0.5343276 0.60547525 -0.57188827 -0.6992726 -0.48715153 -0.041585166
-0.56401026 -0.54118013 -0.5990234 -0.023680879 0.46616492 0.59438175 0.6624286 -0.060490046
-0.53796315 -0.6237964 -0.59575325 -0.5849005 -0.5285702 -0.52483356 -0.6036542 -0.024184125
0.61534494 0.52201235 0.50571424 0.38113925 0.47171694 0.5367103 0.6582782 0.0077846106
0.6639013 0.61679703 0.51989245 0.5154277 -0.56206477 -0.5806302 -0.6179436 0.066684514
0.4141259 0.6368777 0.53950673 -0.06738466 -0.5354779 -0.55643576 -0.52863145 -0.400558
0.89131105 0.6645033 0.49561638 0.31959164 -0.6182582 -0.5164905 -0.67058575 0.05017384
-0.7038592 -0.7131689 -0.64316976 -0.5403948 -0.42515996 -0.509313 -0.6597952 -0.021979442
-0.80984235 -0.6543348 -0.37082204 -0.36193848 0.022470955 -0.15669392 -0.4744843 0.051440623
0.5070279 0.5238042 0.53741986 -0.029075257 -0.5484071 -0.6003715 -0.63578665 -0.48272443
0.56304884 0.50523883 0.6890132 -0.0267482 -0.59421176 -0.50694066 -0.65704656 -0.19243456
0.6012334 0.7345177 0.6922997 0.15530503 -0.4880578 -0.6191317 -0.4940928 -0.04555416
-0.5397036 -0.6422823 -0.52034396 -0.6254426 0.40601525 0.2946874 0.42419016 0.03843262
0.1813583 0.95226645 -0.4119971 -0.4869894 0.57454145 0.47352153 0.579645 0.23702548
0.72088534 0.5313209 0.55112034 -0.039582897 0.62198716 0.6439197 0.3752518 0.4558989
