checkpoints/BioMetricNetwork_2023-09-01_20-45-08.pth (torch, 264216 bytes, 16 tensors)

gst_cls_model.touchscreen_data_network.lstm.weight_ih_l0 f4 [256, 4]
0	0x3bfbd820	0.007685676
1	0xbde01af8	-0.10942644
2	0xbd5a17b4	-0.05324526
3	0x3c5d0cf0	0.013491854
4	0x3d8b7e32	0.06811179
5	0x3db3bf3e	0.08776711
6	0x3bb1f720	0.005431071
7	0xbdd93d2e	-0.10607372
8	0xbdb10e54	-0.08645311
9	0xbdc3334a	-0.09531267
10	0xbc0861f0	-0.008324131
11	0x3db29ff0	0.08721912
12	0xbdb5a3ba	-0.08869119
13	0xbdb3befa	-0.0877666
14	0x3d2a78a0	0.041618943
15	0x3df4af0a	0.119474486
16	0xbdbdb674	-0.09263316
17	0xbc5d91f0	-0.013523564
18	0x3d970852	0.07374634
19	0x3cb54708	0.022128597
20	0xbdb279ba	-0.08714624
21	0x3d5c6968	0.05381146
22	0xbde18088	-0.110108435
23	0x3d55ce14	0.052198485
24	0xbd29a318	-0.041415304
25	0xbdb8a6ea	-0.09016211
26	0x3d3557a4	0.044273034
27	0xbd8fb152	-0.07016243
28	0xbdcab0ec	-0.098970264
29	0xbd9badc6	-0.07601504
30	0x3d9918e2	0.07475449
31	0xbd5c11f8	-0.053728074
32	0x3d69da9c	0.057093248
33	0xbdaffb76	-0.08592884
34	0x3c3b6870	0.011438474
35	0xbc953880	-0.018215418
36	0xbdf8038e	-0.12110053
37	0xbdeecdc0	-0.116603374
38	0xbddd9f1c	-0.10821363
39	0xbc331980	-0.010931373
40	0x3df0854e	0.11744176
41	0xbd66d4b4	-0.056355193
42	0x3d5df54c	0.05418901
43	0xbd442b6c	-0.047892973
44	0x3c79d8d0	0.015249446
45	0x3df76f2e	0.12081753
46	0xbde46f64	-0.111540586
47	0xbdc113ec	-0.09427628
48	0xbd794264	-0.06085433
49	0x3cac4918	0.021030948
50	0x3d95c83e	0.07313584
51	0xbca57fe8	-0.020202592
52	0xbd5138d0	-0.05107957
53	0x3c74d270	0.01494275
54	0x3b8a8c40	0.004228145
55	0x3d7b3eb4	0.061339095
56	0xbd9a89ba	-0.075458005
57	0x3d272b40	0.04081273
58	0x3db8fc16	0.090324566
59	0x3d88717a	0.06662269
60	0x3c324660	0.0108810365
61	0xb974b000	-0.00023335218
62	0xbdadfdb4	-0.08495656
63	0x3d9fbba0	0.077994585
64	0x3c662e30	0.014049098
65	0xbdeed6d4	-0.11662069
66	0x3db7edf0	0.0898093
67	0x3d97e1ba	0.07416101
68	0x3d973130	0.07382429
69	0xbc85ccc8	-0.016332999
70	0xbdf30f72	-0.1186818
71	0x3d03e638	0.032201976
72	0x3cc7dc88	0.02439715
73	0xbc290e50	-0.010318354
74	0xbcfb84a8	-0.030702904
75	0x3d66ba94	0.05633028
76	0xbd377eac	-0.044798538
77	0xbbd6ae80	-0.0065515637
78	0xbdb68adc	-0.08913204
79	0xbd8bf8c2	-0.06834556
80	0xbc8e5fc0	-0.017379642
81	0xbdf2bc78	-0.11852354
82	0xbccef870	-0.025264949
83	0xbdef03ec	-0.1167067
84	0xbdd7393c	-0.105089635
85	0x3c6e9b10	0.014563337
86	0xbdd9f3ce	-0.10642205
87	0x3db90ba6	0.09035425
88	0xbdc6d0fa	-0.09707828
89	0x3cd552e0	0.026040494
90	0x3cb8c720	0.022555888
91	0x3de9cfec	0.11416611
92	0x3d972302	0.07379724
93	0x3abc3b00	0.0014360845
94	0xbd38d18c	-0.045121714
95	0xbd827c0a	-0.06371315
96	0x3d3a9140	0.045548677
97	0xbdee039a	-0.11621781
98	0xbcbf3f20	-0.02334553
99	0x3dc09170	0.0940274
100	0xbd90b7f0	-0.07066333
101	0xbdb1bdde	-0.086787924
102	0xbdba8142	-0.09106685
103	0xbda2f84e	-0.079575166
104	0xbce3df38	-0.0278164
105	0xb9f45800	-0.00046604872
106	0x3de054bc	0.10953662
107	0xbde9825a	-0.11401816
108	0x3d4c24b0	0.049839675
109	0xbd40f6d4	-0.047110394
110	0x3dc0f046	0.094208285
111	0x3db8f0a2	0.09030272
112	0xbdf9a2cc	-0.12189254
113	0x3d8960f0	0.067079425
114	0xbd4830d0	-0.048874676
115	0xbd6709cc	-0.056405827
116	0xbcdbc780	-0.026828527
117	0xbd111594	-0.03542097
118	0x3d5e1b60	0.054225326
119	0xbdaea69c	-0.08527872
120	0xbc495e40	-0.012290537
121	0x3b6d4a00	0.0036207438
122	0xbd6eff08	-0.058348686
123	0xbca1ce00	-0.019751549
124	0x3db02f58	0.0860278
125	0x3b9b57c0	0.004740685
126	0x3d917090	0.07101548
127	0x3d87139c	0.06595537
128	0xbd8015e6	-0.06254177
129	0x3d3bc24c	0.045839593
130	0x3c07b270	0.008282289
131	0x3cd7cba8	0.026342228
132	0x3de713b0	0.11283052
133	0x3dda7d7c	0.106684655
134	0x3cab1bd8	0.0208873
135	0x3d658dec	0.05604355
136	0xbd1adf48	-0.037810594
137	0xbdf36466	-0.11884384
138	0xbc40ce80	-0.011767983
139	0x3d87be6c	0.06628117
140	0xbd5c6474	-0.053806737
141	0xbccf7e58	-0.0253288
142	0x3d4cc49c	0.04999219
143	0x3cd97a90	0.0265477
144	0xbcf724b0	-0.030168861
145	0xbd07c09c	-0.03314267
146	0x3db053cc	0.08609733
147	0xbc2708b0	-0.010194942
148	0x3da9a5ea	0.08283599
149	0x3dcbe452	0.09955658
150	0xbdc7c6a8	-0.097546875
151	0xbda1b96e	-0.07896696
152	0x3ddfa1a0	0.109194994
153	0xbd5a8220	-0.053346753
154	0x3dd8e13c	0.10589835
155	0x3c808348	0.0156876
156	0xbdc0a8f4	-0.09407225
157	0xbd96fe1c	-0.07372686
158	0x3d610d1c	0.054944143
159	0xbcfd3128	-0.030907229
160	0x3d736d90	0.05943066
161	0xbd6d0c64	-0.057873145
162	0xbcc00e90	-0.023444444
163	0x3d67887c	0.056526646
164	0x3d1feb10	0.039042532
165	0x3cbc3840	0.02297604
166	0xbdf3f2be	-0.11911534
167	0x3d19e1d8	0.037568897
168	0xba9a0a80	-0.0011752397
169	0x3d8a2bd8	0.06746644
170	0xbdb824c2	-0.08991386
171	0xbd2d4d94	-0.042310312
172	0x3d06865c	0.03284298
173	0xbd84ab64	-0.06478003
174	0xbda06c0e	-0.0783311
175	0x3c9e7ac8	0.019345656
176	0xbdb639f4	-0.088977724
177	0x3bf2a760	0.0074052066
178	0x3cc35bc8	0.023847476
179	0xbcd09830	-0.025463194
180	0x3d3dd228	0.046343
181	0xbd9793f0	-0.07401264
182	0xbd6f924c	-0.05848913
183	0xbb9b5580	-0.004740417
184	0x3b0a8640	0.0021137148
185	0xbd1bc130	-0.038026035
186	0xbd9f04ea	-0.07764609
187	0xbd3d5be0	-0.046230197
188	0x3da256d4	0.079267174
189	0xbdf70f7e	-0.12063502
190	0xbda7c3f6	-0.081916735
191	0xbcb28058	-0.021789715
192	0x3d455fa8	0.048186928
193	0xbc148a00	-0.009066105
194	0x3b77a4c0	0.0037787408
195	0x3cc21c68	0.023695186
196	0x3cbf1010	0.023323089
197	0x3ad04480	0.0015889555
198	0x3d2dfe64	0.042478934
199	0xbdabff12	-0.0839826
200	0xbc9f0ea8	-0.019416168
201	0x3d8843d2	0.06653561
202	0x3d059900	0.032616615
203	0xbb301c00	-0.0026872158
204	0xbdc3ac62	-0.09554364
205	0x3d16caf8	0.03681466
206	0xbd6c1338	-0.057635516
207	0xbbea9960	-0.007159397
208	0x3cc4a198	0.024002835
209	0xbdb2a1e8	-0.087222874
210	0xbdf8b8ea	-0.121446446
211	0xbdcdccba	-0.10048814
212	0xbd4597e8	-0.048240572
213	0x3c8d4048	0.017242566
214	0x3d08fd14	0.03344448
215	0x3d656e88	0.056013614
216	0xbd646ed4	-0.055769756
217	0xbdcab8a2	-0.09898497
218	0x3b26b8c0	0.002543971
219	0xbdb1d7a4	-0.08683708
220	0x3dfe7dcc	0.124263376
221	0xbdfcc66c	-0.123425335
222	0xbc592470	-0.013253316
223	0xbd46aff8	-0.04850766
224	0xbbfaff20	-0.007659808
225	0xbdfa6466	-0.12226181
226	0x3cda85a0	0.026675045
227	0x3d6d3fe4	0.05792226
228	0xbd999e4a	-0.07500894
229	0xbd93c8b2	-0.07216014
230	0x3dd1f446	0.102516696
231	0x3de2d574	0.11075869
232	0xbcfb9558	-0.030710861
233	0x3bb3eca0	0.0054908544
234	0xbdd6da3c	-0.10490844
235	0xbdf4ae9e	-0.11947368
236	0x3d97d50e	0.07413684
237	0x3dc44a52	0.09584488
238	0x3d9dc688	0.077038825
239	0x3c29b750	0.0103586465
240	0x3d1e3338	0.038623065
241	0x3dfe158a	0.12406452
242	0xbd1c30b0	-0.03813237
243	0xbd4da0f0	-0.05020231
244	0xbcc76308	-0.024339214
245	0x3dc2988e	0.09501754
246	0xbdc6fd68	-0.09716302
247	0x3c345d00	0.011008501
248	0x3c65b7a0	0.01402083
249	0x3bc40b40	0.0059827864
250	0xbd03ee98	-0.032209963
251	0xbd703fe0	-0.058654666
252	0x3d44d958	0.048058838
253	0x3dcd771c	0.10032484
254	0xbccbdf40	-0.024886727
255	0x3d9c977e	0.07646082

gst_cls_model.touchscreen_data_network.lstm.weight_hh_l0 f4 [256, 64]
0	0xbdbbd718	-0.09171885
1	0xbd7e51d4	-0.062089756
2	0x3d7d7520	0.061879277
3	0xbddc4234	-0.10754815
4	0xbd097148	-0.0335553
5	0x3c94df00	0.018172741
6	0x3dbbf26c	0.09177098
7	0x3df52df4	0.119716555
8	0xbc13dcf0	-0.009024844
9	0x3d8a1b2c	0.06743464
10	0xbdc77d04	-0.09740642
11	0xbd87b0fe	-0.066255555
12	0xbd49d868	-0.049278647
13	0x3dcf0616	0.10108583
14	0x3d853d30	0.06505811
15	0xbd857a76	-0.06517498
16	0x3cd37148	0.025810853
17	0x3dba3870	0.09092796
18	0xbd310468	-0.043217093
19	0x3d8e6580	0.06952953
20	0x3db29882	0.08720495
21	0xbd0a14e4	-0.03371133
22	0x3d8b502a	0.068023995
23	0xbdfe5830	-0.12419164
24	0xbdc9c080	-0.098511696
25	0x3c5ef000	0.013607025
26	0xbc149140	-0.009067833
27	0xbd0016a4	-0.03127159
28	0xbdc30b36	-0.09523623
29	0xbd5dc060	-0.05413854
30	0xbdf2aeac	-0.11849722
31	0xbb79f000	-0.0038137436
32	0x3cf6bef0	0.030120343
33	0xbdda70b0	-0.10666025
34	0x3dc734e8	0.09726888
35	0xbdf8b178	-0.121432245
36	0xbdde1784	-0.10844329
37	0x3ce70d20	0.0282045
38	0x3df1a5c6	0.11799197
39	0x3d06e4d0	0.032933056
40	0x3d0a385c	0.033745155
41	0xbd070fec	-0.03297417
42	0xbdcc6024	-0.09979275
43	0xbcbe0ee0	-0.023200452
44	0x3c5c3ef0	0.01344274
45	0xbce77f20	-0.02825886
46	0xbd6e4924	-0.05817522
47	0x3de87bfc	0.11351773
48	0xbd72a3e0	-0.059238315
49	0x3d236ccc	0.03989868
50	0xbdb9c604	-0.090709716
51	0x3de1217c	0.10992715
52	0x3de19eea	0.110166386
53	0x3d894726	0.067030236
54	0xbc84fcb0	-0.016233772
55	0xbde74118	-0.112917125
56	0x3d09a984	0.03360893
57	0xbcc89420	-0.024484694
58	0xbdfe3b3a	-0.1241364
59	0xbcb57618	-0.022151038
60	0xbd4620a8	-0.048370987
61	0xbdb26b56	-0.08711879
62	0xbd1e9a94	-0.038721636
63	0xbd1efd1c	-0.038815603
64	0x3db180de	0.086671576
65	0x3d162664	0.036657706
66	0xbd525710	-0.05135256
67	0xbd02cf14	-0.031935766
68	0xbdd7abea	-0.10530837
69	0x3db1e1c4	0.086856395
70	0x3bf65fe0	0.0075187534
71	0xbcb98f10	-0.022651225
72	0x3d56bcf4	0.052426293
73	0xbdbd94dc	-0.09256908
74	0xbb8301a0	-0.0039979964
75	0x3deae9c4	0.114703685
76	0xbd21a6f4	-0.03946586
77	0xbd062028	-0.03274551
78	0xbd0ce4a8	-0.03439775
79	0xbda155ce	-0.07877694
80	0xbdcdaa16	-0.10042207
81	0xbd94cab2	-0.072652236
82	0xbc3f5560	-0.01167807
83	0x3d93d276	0.072178766
84	0xbcdfad38	-0.027304277
85	0xbd464b0c	-0.048411414
86	0x3d920edc	0.071317405
87	0x3d62ad90	0.055341303
88	0x3d8a42e2	0.06751038
89	0x3dc48ccc	0.095971674
90	0xbd8346ee	-0.06410013
91	0x3d3edaec	0.0465955
92	0xbd43fb44	-0.047847047
93	0x3dfb8160	0.12280536
94	0x3d38a6c8	0.04508093
95	0x3dfa562a	0.12223466
96	0x3dbb130e	0.09134494
97	0xbb7cbec0	-0.0038565844
98	0x3da3664c	0.07978496
99	0xbdc90fd8	-0.09817475
100	0x3c69cc20	0.014269859
101	0x3da1726a	0.07883151
102	0xbbe86960	-0.00709264
103	0xbd9158d0	-0.07097018
104	0xbd8a969c	-0.06767008
105	0xbd2760a4	-0.040863648
106	0x3dbcac94	0.09212604
107	0xbd7d3fa4	-0.06182827
108	0x3d6be218	0.057588667
109	0x3dd89c76	0.105767176
110	0xbd85a740	-0.06526041
111	0x3dddd970	0.108324885
112	0x3d9b2134	0.07574692
113	0xbd9342d6	-0.07190482
114	0xbde48dc4	-0.11159852
115	0xbdb30508	-0.08741194
116	0xbdbf3c68	-0.093376935
117	0xbdb98878	-0.090592325
118	0x3d9c3bce	0.07628594
119	0xbb219740	-0.0024656802
120	0xbdc5b166	-0.09652977
121	0x3d3f61c0	0.04672408
122	0xbd90a0ac	-0.07061896
123	0xbde656f8	-0.11247057
124	0xbd905ffe	-0.07049559
125	0x3d0a7cec	0.03381054
126	0x3d87d086	0.066315696
127	0xbd66ce8c	-0.056349322
128	0xbd416564	-0.047215834
129	0xbde117c4	-0.10990861
130	0xbd8b69a6	-0.0680726
131	0x3d6b6bf8	0.057476014
132	0x3d63c864	0.05561103
133	0x39e7fc00	0.00044247508
134	0x3ddbcaaa	0.107320145
135	0xbdb83246	-0.08993964
136	0x3de2e07c	0.11077973
137	0x3cfab808	0.030605331
138	0xbcc794d0	-0.024362952
139	0xbd8e5324	-0.069494516
140	0xbd49e364	-0.049289122
141	0xbc48e1d0	-0.012260869
142	0x3d5e16d8	0.054221004
143	0x3da46d8e	0.080287084
144	0xbb969c60	-0.004596278
145	0xbbe71240	-0.007051736
146	0xbda4a23c	-0.08038756
147	0x3db4d68e	0.088299856
148	0xbdf23756	-0.11826961
149	0xbd270354	-0.04077466
150	0xbba8c280	-0.0051501393
151	0x3db00346	0.08594374
152	0xbd02f058	-0.03196749
153	0x3dd109de	0.1020696
154	0x3d93dae6	0.07219486
155	0x3d6e1500	0.058125496
156	0xbbd73c60	-0.0065684766
157	0x3df8954a	0.1213785
158	0xbdf4efb6	-0.11959784
159	0x3d53e2f4	0.05173011
160	0xbddf068c	-0.108899206
161	0x3de0aa7e	0.10970019
162	0xbc812d30	-0.015768617
163	0x3dccdab6	0.10002653
164	0x3d84218a	0.064517096
165	0x3ce1b870	0.027553767
166	0x3dce7ca6	0.100823686
167	0xbcb98998	-0.022648618
168	0xbca22348	-0.019792214
169	0xbce65478	-0.02811645
170	0xbc6ee990	-0.014582053
171	0x3dcd1f3a	0.100157216
172	0x3df432a2	0.1192372
173	0xbd5b7d50	-0.053586304
174	0x3c91f9f8	0.01781939
175	0xbcd47dd8	-0.025938913
176	0xbdf6aea6	-0.1204503
177	0x3df8bc6c	0.121453136
178	0x3dfe8d9a	0.12429352
179	0x3de8c59a	0.113658145
180	0xbc003900	-0.00782609
181	0xbd9349b4	-0.07191792
182	0xbd6ca548	-0.057774812
183	0x3b4f0000	0.0031585693
184	0x3cd55ce8	0.026045278
185	0x3d51ec0c	0.051250502
186	0x3d75bfb8	0.05999729
187	0xbca1fe90	-0.019774705
188	0x3d0d502c	0.034500286
189	0x3dfc5182	0.12320234
190	0x3d9ed170	0.07754791
191	0xbccda7f8	-0.025104508
192	0x3d86a2ae	0.065739974
193	0xbd9c08ec	-0.07618889
194	0xbd058654	-0.03259881
195	0xbd0da0d0	-0.03457719
196	0xbced0660	-0.028933704
197	0xbb67ba00	-0.0035358667
198	0xbdf6d6a4	-0.12052658
199	0xba641f00	-0.0008702129
200	0xbd8e5174	-0.0694913
201	0xbdc8d6e6	-0.098066136
202	0xbc643400	-0.013928413
203	0x3dc47450	0.09592497
204	0xbdfca776	-0.12336628
205	0x3dbd2abc	0.092366666
206	0x3da9bf62	0.082884565
207	0x3dbb4cdc	0.09145519
208	0x3debf9be	0.11522244
209	0x3d9e13ee	0.07718645
210	0xbcbb24c0	-0.022844672
211	0x3d99115a	0.07474013
212	0xbdc53e96	-0.09631078
213	0x3d42cc3c	0.047558054
214	0x3dd28714	0.1027967
215	0x3d45e0f4	0.048310235
216	0x3dfecaf8	0.12441057
217	0xbdebd720	-0.11515641
218	0xbc2f52d0	-0.010700896
219	0x3d45fba0	0.04833567
220	0x3d8e792c	0.069567055
221	0xbc9b1940	-0.018932939
222	0x3d24b9b0	0.040216148
223	0x3dd61b98	0.10454482
224	0x3d2db214	0.042406157
225	0xbb241340	-0.0025035888
226	0xbb7bea00	-0.0038439035
227	0xbd35dedc	-0.04440199
228	0x3cfc7ff8	0.030822739
229	0xbd2ff0e0	-0.042954326
230	0x3dacc7d6	0.08436553
231	0xbdb5692c	-0.088579506
232	0xbd019808	-0.03163913
233	0xbdd716fa	-0.10502429
234	0x3bced200	0.006311655
235	0x3da7a964	0.081866056
236	0xbdb42bce	-0.087974176
237	0xbdd7038c	-0.104987234
238	0xbcf1f428	-0.029535368
239	0x3d3d81a4	0.046266213
240	0x3d699364	0.05702533
241	0x3d0a6564	0.0337881
242	0xbd871cca	-0.06597288
243	0x3b5cf3c0	0.0033714622
244	0xbc3c7090	-0.011501446
245	0x3cd1b618	0.025599524
246	0xbda505c0	-0.08057737
247	0x3dad4762	0.08460881
248	0x3d17e18c	0.037080333
249	0xbc130bb0	-0.0089749545
250	0xbdcdf0f4	-0.10055724
251	0x3dfbb682	0.1229067
252	0xbd89955c	-0.06717941
253	0x3c9b8158	0.018982574
254	0xbd1d1a20	-0.038354993
255	0xbd0ebf14	-0.034850195

gst_cls_model.touchscreen_data_network.lstm.bias_ih_l0 f4 [256]
0	0x3d77fc64	0.060543433
1	0xbdc6a340	-0.09699106
2	0x3d0f4694	0.034979418
3	0x3a141b00	0.0005649775
4	0xbdd9c300	-0.106328964
5	0x3d971952	0.07377876
6	0xbbe8dd80	-0.007106483
7	0xbd808958	-0.06276196
8	0xbdc73cfa	-0.09728427
9	0x3d0bade4	0.034101382
10	0x3dc1d1d0	0.09463847
11	0xbcfccae8	-0.030858472
12	0x3cd1fea0	0.02563411
13	0xbde685da	-0.11255999
14	0x3de6fb9e	0.11278461
15	0xbca93a10	-0.02065757
16	0x3dcd24ee	0.100168094
17	0x3ddc8af6	0.10768692
18	0x3c8490d8	0.016182348
19	0x3d4cd0dc	0.05000387
20	0x3dfc5c8a	0.12322338
21	0xbd673d48	-0.056454927
22	0x3c5546e0	0.013017386
23	0x3cc5d6c0	0.024150252
24	0xbc6413e0	-0.013920754
25	0xbda6e32a	-0.08148797
26	0x3d2e5a94	0.04256685
27	0x3d91516a	0.070956066
28	0xbd01c084	-0.031677738
29	0xbdbbcaea	-0.09169562
30	0x3c3a71f0	0.011379704
31	0xbb916ae0	-0.0044377893
32	0xbde0c844	-0.10975698
33	0x3dc1b5f6	0.094585344
34	0xbca3a488	-0.019975916
35	0x3c2578a0	0.01009956
36	0x3b87bf20	0.004142657
37	0x3d943608	0.07236868
38	0x3d615afc	0.05501841
39	0x3d8ca09a	0.0686657
40	0x3df5f5e0	0.120097876
41	0xbdf5097c	-0.119646996
42	0xbd6dc9f4	-0.058053926
43	0x3dacfd36	0.08446734
44	0xbb28f700	-0.002578199
45	0xbdaacca8	-0.08339816
46	0xb82b7000	-4.0873885e-05
47	0xbcc7b4c0	-0.02437818
48	0xbd757f74	-0.059936002
49	0xbd9bf54a	-0.076151446
50	0x3dd78dca	0.10525091
51	0xbda9bbac	-0.08287749
52	0x3de09058	0.109650314
53	0xbca58f20	-0.020209849
54	0x3cf84e40	0.03031075
55	0x3bc442e0	0.0059894174
56	0x3dba1e88	0.090878546
57	0xbd6c0388	-0.057620555
58	0x3d377ebc	0.044798598
59	0x3ddec5c0	0.108775616
60	0x3db3c99e	0.0877869
61	0x3da48898	0.08033866
62	0x3de0092a	0.10939248
63	0x3db00bbe	0.0859599
64	0xbd3db670	-0.046316564
65	0x3db5ade4	0.08871058
66	0x3d8f78e6	0.070054814
67	0xbdf6e3e2	-0.12055184
68	0xbde5a530	-0.11213148
69	0xbd86b2a2	-0.0657704
70	0x3ce67200	0.028130531
71	0x3b486180	0.0030575693
72	0x3ddf3924	0.108995706
73	0x3da02a1a	0.0782053
74	0x3de49424	0.11161068
75	0x3d30a4d8	0.043125957
76	0xbcc723c0	-0.02430904
77	0x3db39cbe	0.087701306
78	0x3dbf0722	0.09327532
79	0x3d48e130	0.04904288
80	0xbdf2e50e	-0.11860095
81	0xbcfad240	-0.030617833
82	0xbd1845b0	-0.037175834
83	0x3d102bcc	0.035198018
84	0xbbbd6c00	-0.005780697
85	0xbdf71ce8	-0.1206606
86	0x3c68f8a0	0.014219433
87	0xbd25409c	-0.04034482
88	0xbd4a4da8	-0.049390465
89	0x3d9e3ac4	0.077260524
90	0x3c8021c0	0.015641093
91	0x3d98c602	0.07459642
92	0xbc98f1e0	-0.018670022
93	0xbdacd8da	-0.08439799
94	0x3cde4550	0.02713266
95	0xbdb27646	-0.08713965
96	0x3d0eb914	0.034844473
97	0x3d98f720	0.0746901
98	0x3d692b18	0.056925863
99	0x3b505c00	0.0031793118
100	0xbd6de6d4	-0.058081463
101	0x3d86d4e8	0.065835774
102	0xbdcd516e	-0.10025297
103	0xbd93e824	-0.07222012
104	0xbdeb1742	-0.114790455
105	0x3bf0ca00	0.007348299
106	0x3dcea3b0	0.10089815
107	0xbd166e6c	-0.0367264
108	0xbc51e600	-0.012811184
109	0xbdc2597e	-0.094897255
110	0xbdf59344	-0.11990979
111	0x3dddc17a	0.10827918
112	0x3dcd1f16	0.10015695
113	0x3d873326	0.06601553
114	0xbdc0e2d2	-0.094182625
115	0x3db658de	0.08903669
116	0x3db2ef68	0.08737069
117	0xbdce2078	-0.10064787
118	0xbca73998	-0.020413205
119	0xbde80986	-0.113299415
120	0xbcb28c88	-0.021795526
121	0xbacfbe80	-0.001584962
122	0x3d7ab828	0.06121078
123	0x3dcd9d04	0.10039714
124	0x3decec16	0.11568467
125	0xbd04b228	-0.032396466
126	0xbd6e5f48	-0.058196336
127	0xbdecef28	-0.11569053
128	0x3d677088	0.056503803
129	0xbdbf56f8	-0.0934276
130	0x3d9aaf62	0.07552983
131	0xbd858b60	-0.06520724
132	0x3d7e299c	0.0620514
133	0x3a8aa200	0.0010576844
134	0x3bd34b60	0.0064481944
135	0x3d4ce170	0.05001968
136	0x3da4a8fc	0.08040044
137	0xbde7eca4	-0.113244325
138	0xbd7af608	-0.06126979
139	0xbdd14ce4	-0.10219744
140	0xbc171850	-0.009222105
141	0x3cbfd1a0	0.023415387
142	0xbd9f9d54	-0.0779368
143	0xbd197f28	-0.03747478
144	0xbc8d0d60	-0.017218292
145	0x3c222dd0	0.009898618
146	0x3d727464	0.05919303
147	0x3ba22d80	0.0049492717
148	0x3cdca288	0.02693297
149	0xbcc7b090	-0.024376184
150	0x3d7e4768	0.062079817
151	0xbd383404	-0.04497148
152	0x3dbe16b8	0.09281677
153	0xbdeb9f82	-0.11505033
154	0x3d0bc700	0.034125328
155	0xbc8ab168	-0.016930297
156	0x3d397bbc	0.045284018
157	0xbdc5f36c	-0.0966557
158	0xbd60acb0	-0.054852188
159	0xbdc49390	-0.09598458
160	0xbd269668	-0.040670782
161	0xbdac2558	-0.0840556
162	0x3d80ac10	0.06282818
163	0x3deb2322	0.114813104
164	0xbdba4e7c	-0.09097001
165	0xbc095010	-0.008380905
166	0x3cf7f2b0	0.03026709
167	0xbd9dad9c	-0.07699129
168	0x3dd9026a	0.105961636
169	0xbdaa7f0c	-0.083250135
170	0x3abc3e80	0.0014361888
171	0xbdeffeb6	-0.11718504
172	0x3d5908ac	0.052986786
173	0xbdd813b8	-0.10550636
174	0x3dbf90f2	0.09353818
175	0xbdfe90d2	-0.12429966
176	0xbde47846	-0.11155753
177	0x3de90516	0.11377923
178	0x3dd04d14	0.101709515
179	0x3ce65f18	0.028121516
180	0xbdeda194	-0.11603084
181	0x3dd0b6a2	0.101910844
182	0xbdef31ec	-0.11679444
183	0xbdc7f244	-0.097630054
184	0x3cc130c8	0.023582831
185	0x3dfde2c6	0.12396769
186	0xbc6861f0	-0.014183506
187	0xbb96e8e0	-0.0046053976
188	0x3d4f18c0	0.050560713
189	0x3dba5958	0.09099072
190	0x3d8f1104	0.06985667
191	0x3ddd2b88	0.107993186
192	0x3d258bd4	0.040416554
193	0xbde950e6	-0.11392383
194	0x3dddfec2	0.10839607
195	0x3cde8320	0.027162135
196	0x3dc621f8	0.09674448
197	0x3b37de80	0.0028056204
198	0x3cef2b68	0.029195502
199	0x3d3ff3f4	0.04686351
200	0x3dd6bc22	0.10485102
201	0x3d85ca12	0.065326825
202	0x3dd928e2	0.10603501
203	0xba6f3b00	-0.0009125918
204	0x3d6517f0	0.05593103
205	0x3cce06d0	0.025149733
206	0x3dd3ac18	0.10335559
207	0x3c06b8d0	0.008222774
208	0x3da3c340	0.07996225
209	0x3de6d360	0.11270785
210	0x3d1db288	0.03850034
211	0xbd0a6304	-0.033785835
212	0xbd020618	-0.031744093
213	0x3d472318	0.048617452
214	0x3c000d70	0.007815704
215	0xbd7d32a8	-0.061815888
216	0x3d8826e6	0.06648044
217	0x3cdc9b78	0.026929602
218	0x3dcea23a	0.10089536
219	0x3c39c530	0.011338517
220	0x3d42497c	0.04743336
221	0xbd878aa8	-0.066182435
222	0x3d884aa2	0.0665486
223	0x3d99ae66	0.07503967
224	0x39152000	0.00014221668
225	0x3dabb084	0.08383277
226	0x3c9bed48	0.019034043
227	0x3d8c7a6e	0.06859289
228	0xbd522bec	-0.05131142
229	0xbc0fad10	-0.008769289
230	0xbdbef8e2	-0.093248144
231	0x3d3e967c	0.04653023
232	0x3b4de140	0.0031414777
233	0xbda04bb0	-0.07826936
234	0x3c96bed0	0.018401533
235	0x3d9f7e56	0.077877685
236	0x3d201eb8	0.039091796
237	0xbc635bb0	-0.0138768405
238	0xbdd5a832	-0.10432471
239	0xbdec6758	-0.11543149
240	0x3d33e75c	0.043921813
241	0x3d4ed2f0	0.050494134
242	0x3c8ed818	0.017437026
243	0x3d20cd1c	0.039258108
244	0xbd29d1ac	-0.041459724
245	0xbdbfcd56	-0.093653366
246	0xbd7dbb40	-0.061946154
247	0xbceeda10	-0.029156715
248	0xbdaa5a98	-0.08318061
249	0x3dfd47b6	0.123671934
250	0xbdd59d1c	-0.10430357
251	0x3d7e4a50	0.06208259
252	0x3d08b7a0	0.033378243
253	0xbd699a3c	-0.057031855
254	0xbca8f010	-0.020622283
255	0xbdef17ea	-0.11674483

gst_cls_model.touchscreen_data_network.lstm.bias_hh_l0 f4 [256]
0	0xbb16e100	-0.0023022294
1	0x3c8de668	0.01732178
2	0x3db77ae2	0.08958985
3	0xbde8662e	-0.11347614
4	0x3df5dc38	0.12004894
5	0x3dc99778	0.098433435
6	0x3dab7936	0.083727285
7	0x3ba753a0	0.0051064044
8	0xbd949790	-0.07255471
9	0xbcc109e8	-0.023564294
10	0x3dcda03e	0.100403294
11	0xbd7c4660	-0.061590552
12	0x3d46107c	0.048355564
13	0xbd7d3ef8	-0.06182763
14	0xbce9b720	-0.028529704
15	0x3dc89054	0.097931534
16	0x3df54058	0.11975163
17	0xbdff7fec	-0.12475571
18	0xbab50600	-0.0013810992
19	0xbde6fbee	-0.112785205
20	0xbdb29f26	-0.087217614
21	0x3d9aa388	0.07550722
22	0x3d2c4dd8	0.042066425
23	0xbd8a1ede	-0.06744169
24	0x3d3c5928	0.045983464
25	0xbdb0d0f4	-0.08633605
26	0xbd4852a0	-0.048906922
27	0xbc698e20	-0.014255077
28	0x3d14f130	0.036362827
29	0xbd2326b4	-0.039831832
30	0xbd5dce94	-0.054152086
31	0xbcc020d8	-0.023453161
32	0x3c962f38	0.018333063
33	0xbdd6676a	-0.104689434
34	0xbc8010c8	-0.015633002
35	0xbd313d34	-0.04327126
36	0x3daee4fc	0.08539769
37	0xbc5a1490	-0.013310567
38	0x3be893c0	0.0070976913
39	0x3da4f032	0.08053626
40	0xbd22a0e0	-0.039704204
41	0xbdf49832	-0.119430915
42	0x3dff5882	0.124680534
43	0x3d880ba0	0.06642842
44	0x3dfb8476	0.12281124
45	0xbdc74038	-0.09729046
46	0xbd53ff90	-0.051757395
47	0xbc079d00	-0.008277178
48	0x3cc12340	0.023576379
49	0x3db170b4	0.086640745
50	0xbcaf4430	-0.021394819
51	0xbd640a24	-0.055673733
52	0xbbae14c0	-0.005312532
53	0xbdedc14a	-0.116091326
54	0xbded5ea6	-0.115903184
55	0xbbb4d160	-0.0055181235
56	0xbd5acb08	-0.053416282
57	0x3d5b9fa4	0.053619042
58	0x3def9a7c	0.116993874
59	0x3dce547c	0.10074708
60	0x3db86e44	0.090054065
61	0x3c5727f0	0.01313208
62	0x3d90e440	0.07074785
63	0x3cab8fe0	0.020942628
64	0x3ce36ef0	0.02776286
65	0xbdab6440	-0.083687305
66	0x3df3caf8	0.119039476
67	0x3dd941a2	0.106082216
68	0xbcbd87c0	-0.02313602
69	0xbd2c17f8	-0.042015046
70	0x3ddd9e62	0.10821225
71	0x3d481b18	0.048853964
72	0xbd3806e8	-0.04492846
73	0xbde14d1c	-0.110010356
74	0xbd1f88e8	-0.038948923
75	0x3c57e110	0.013176218
76	0x3bcc5aa0	0.0062363893
77	0x3c83d3f8	0.016092286
78	0xbdbeda10	-0.09318936
79	0xbdca5508	-0.098795
80	0xbd9251e8	-0.071445286
81	0xbd417250	-0.047228158
82	0xbd4cfcb0	-0.05004567
83	0xbdae90ce	-0.08523713
84	0x3d87d5fe	0.06632613
85	0x3c130710	0.008973852
86	0xbd1b7364	-0.037951842
87	0x3dbf4b00	0.09340477
88	0xbdd08848	-0.101822436
89	0x3c879738	0.016551599
90	0x3b662d00	0.0035122037
91	0x3d97f9ae	0.074206695
92	0x3d30cd88	0.04316476
93	0x3ca190c8	0.019722357
94	0x3db4e732	0.088331595
95	0xbde7a810	-0.11311352
96	0xbdc1681e	-0.09443687
97	0xbde8208c	-0.11334333
98	0xbd5ea480	-0.0543561
99	0x3db9e82e	0.09077488
100	0x3dfba848	0.122879565
101	0xbd8afa7a	-0.06786056
102	0x3dcfa66a	0.10139163
103	0x3c05c6b0	0.008165047
104	0xbd6f410c	-0.058411643
105	0x3d64ed28	0.055890232
106	0x3cf29ae0	0.029614866
107	0x3dccf556	0.100077316
108	0x3bd7cfc0	0.006586045
109	0x3df752ec	0.12076363
110	0xbc0686d0	-0.008210853
111	0xbde0df34	-0.109800726
112	0xbd7d4138	-0.061829776
113	0x3d907394	0.07053295
114	0xbd98ec0e	-0.07466899
115	0xbbd82ba0	-0.0065969974
116	0x3c6d0550	0.014466599
117	0xbd6fe034	-0.058563426
118	0xbd3aad2c	-0.045575306
119	0x3d5d5630	0.054037273
120	0x3dee2704	0.116285354
121	0x3c173580	0.009229064
122	0x3c842610	0.01613143
123	0xbdd2b86e	-0.102890834
124	0xbdb5150a	-0.088419035
125	0x3dc5ada8	0.09652263
126	0x3a94bd00	0.001134783
127	0x3d9a9134	0.075472265
128	0x3d682be8	0.056682497
129	0xbdf683cc	-0.12036857
130	0xbdc37e84	-0.09545615
131	0xbdcd89fa	-0.100360826
132	0xbd097c14	-0.033565596
133	0x3d462528	0.04837528
134	0xbd01ece0	-0.031720042
135	0xbdafe0fc	-0.08587834
136	0xbdcd31ac	-0.1001924
137	0x3d8cb266	0.06869964
138	0xbcca8558	-0.024721786
139	0x3d824180	0.063601494
140	0xbcbbe500	-0.022936344
141	0xbd419a38	-0.047266215
142	0x3d8dea7e	0.069294915
143	0x3df86a76	0.12129681
144	0x3d4217c8	0.04738596
145	0xbda47b8c	-0.08031377
146	0x3d7bd9e0	0.06148708
147	0xbd1d883c	-0.03846
148	0x3d8c7a10	0.06859219
149	0xbd3ef1f8	-0.046617478
150	0x3cf40bb0	0.02979073
151	0x3df2e0e2	0.11859299
152	0x3cc94488	0.024568811
153	0x3dc6a768	0.09699899
154	0x3d9ebb1a	0.077505305
155	0xbd78cd58	-0.060742706
156	0x3daa1964	0.08305624
157	0xbd87bd10	-0.06627858
158	0x3d0a5d04	0.033780113
159	0xbbb079a0	-0.0053855926
160	0xbdfd340a	-0.12363441
161	0xbc9d9b90	-0.019239217
162	0xbd8ddeee	-0.06927286
163	0x3dc36036	0.09539835
164	0x3da98956	0.08278148
165	0xbd4402fc	-0.04785441
166	0xbc872b30	-0.016500086
167	0x3dbeda52	0.09318985
168	0xbda78448	-0.081795275
169	0x3dd14924	0.102190286
170	0xbdc96cae	-0.09835182
171	0xbd940c96	-0.07228963
172	0xbda2649a	-0.079293445
173	0xbd853b5a	-0.06505461
174	0x3d029544	0.031880632
175	0xbd708174	-0.058717206
176	0x3d84009e	0.0644543
177	0x3dbde042	0.092712894
178	0xbcd9df50	-0.026595742
179	0x3d5bfeb8	0.053709716
180	0xbc98eac0	-0.018666625
181	0xbd4d9594	-0.050191477
182	0x3d51c0dc	0.051209316
183	0x3db882ba	0.09009309
184	0xbdafde1c	-0.08587286
185	0xbb243d80	-0.002506107
186	0xbd9e43e8	-0.07727796
187	0x3dbdabea	0.09261306
188	0x3d98987a	0.074509576
189	0x3c0cff80	0.008605838
190	0x3dfa919e	0.122348055
191	0xbc28aa70	-0.010294542
192	0xbb88b280	-0.0041716695
193	0x3bf601a0	0.007507518
194	0xbc301fa0	-0.0107497275
195	0xbce9f780	-0.0285604
196	0x3d627dbc	0.05529569
197	0x3d926908	0.07148939
198	0xbcf34800	-0.029697418
199	0xbdcb35dc	-0.09922382
200	0xbdc0ae60	-0.094082594
201	0xbd352b90	-0.044230998
202	0xbd846154	-0.06463876
203	0x3bdc8c80	0.006730616
204	0xbcbf1ea0	-0.023330033
205	0xbdf05e56	-0.11736743
206	0x3dd7f86a	0.10545428
207	0xbceab828	-0.028652266
208	0xbdde6e5a	-0.10860892
209	0xbd15cb54	-0.036570862
210	0xbd1aab0c	-0.03776078
211	0x3c7f0560	0.015565246
212	0xbc6ee9d0	-0.014582112
213	0x3da1f074	0.07907191
214	0x3d6e76ec	0.05821888
215	0x3d83f660	0.06443477
216	0xbd294904	-0.0413294
217	0x3cc7e328	0.024400309
218	0x3d1826a0	0.03714621
219	0x3df9294e	0.12166081
220	0xbd52ce78	-0.051466435
221	0x3c6c7860	0.0144329965
222	0x3c98f128	0.01866968
223	0x3d8192c2	0.0632682
224	0x3ddaca86	0.106831595
225	0x3da283ae	0.07935272
226	0xbd1ad7e8	-0.03780356
227	0x3deb100c	0.1147767
228	0xbd95024a	-0.07275827
229	0x3cbf9600	0.023386955
230	0xbcc547b8	-0.02408205
231	0xbdb5b33e	-0.08872078
232	0x3dc4edbc	0.09615657
233	0x3dfa27fa	0.12214656
234	0x3c5ac8d0	0.0133535415
235	0xbdb10b30	-0.08644712
236	0x3cad3400	0.02114296
237	0x3d8fd17a	0.07022376
238	0x3cebd9f8	0.028790459
239	0xbd3825c0	-0.044957876
240	0x3db970b8	0.090547025
241	0x3d910ca2	0.07082488
242	0x3c94def0	0.018172711
243	0x3c9a1fa0	0.018813908
244	0xbc809d40	-0.015699983
245	0x3d659694	0.056051806
246	0x3b53d2c0	0.0032321662
247	0x3db32460	0.08747172
248	0x3daf5c0c	0.085624784
249	0x3ca2c7e0	0.019870698
250	0x3d626f98	0.055282205
251	0x3dd0e15e	0.101992354
252	0xbd9ae18e	-0.075625524
253	0xbdf5df02	-0.12005426
254	0x3dbed11c	0.09317228
255	0x3d88dc9c	0.06682703

gst_cls_model.sensor_data_network.lstm.weight_ih_l0 f4 [256, 6]
0	0x3db98512	0.09058584
1	0xbcd8e380	-0.026475668
2	0xbd70f690	-0.05882889
3	0xbdcbbb4e	-0.09947835
4	0x3def5faa	0.11688168
5	0x3cd92020	0.026504576
6	0xbd1fcedc	-0.039015636
7	0x3d489550	0.04897052
8	0xbd942066	-0.07232742
9	0xbd2f2578	-0.042760342
10	0xbda138ce	-0.07872163
11	0xbd5d52e8	-0.054034144
12	0x3da4ec32	0.08052863
13	0x3dfca7ea	0.123367146
14	0xbdeadbde	-0.114677176
15	0xbdb3c516	-0.087778255
16	0x3cbdaa70	0.02315256
17	0xbdce5f56	-0.10076778
18	0x3d294274	0.04132314
19	0xbd1faf24	-0.038985386
20	0xbcf72520	-0.03016907
21	0x3d8f8b2e	0.07008968
22	0xbcd72198	-0.026261136
23	0xbd797080	-0.060898304
24	0xbdd8af28	-0.105802834
25	0xbcfccda8	-0.030859783
26	0xbddcace8	-0.10775167
27	0xbdf6d1c8	-0.12051731
28	0x3da1fba2	0.07909323
29	0xbda5db4a	-0.08098467
30	0x3cbb72d8	0.02288191
31	0x3c95a608	0.018267646
32	0xbdfb0f5c	-0.12258789
33	0xbcd6fd68	-0.02624388
34	0xbd4a9964	-0.04946269
35	0xbdc02452	-0.093819275
36	0xbd7587fc	-0.059944138
37	0x3dbe03dc	0.0927808
38	0xbdd59dda	-0.104304984
39	0x3db009de	0.08595632
40	0x3dde7b50	0.10863364
41	0x3d884b12	0.066549435
42	0x3d079934	0.03310509
43	0x3828a000	4.0203333e-05
44	0xbdbbe0f0	-0.09173763
45	0xbcae0fd0	-0.021247774
46	0xbdde7de4	-0.108638555
47	0xbdfebebe	-0.12438725
48	0xbdb3d74e	-0.087813005
49	0xbd47f440	-0.04881692
50	0xbdf35efc	-0.11883351
51	0xbda36788	-0.079787314
52	0x3cf11090	0.029426843
53	0x3d875882	0.066086784
54	0x3d092da4	0.033490792
55	0xbd8e6116	-0.069521114
56	0x3c8b5680	0.01700902
57	0xbbf3d500	-0.007441163
58	0x3d190578	0.03735873
59	0xbce5cf38	-0.028052911
60	0x3bee4b00	0.0072721243
61	0x3caaaf50	0.020835549
62	0x3dc78674	0.09742442
63	0xbcc02978	-0.023457274
64	0xbde909d2	-0.11378826
65	0xbad91980	-0.0016563386
66	0x3ddb6872	0.10713281
67	0xbd0a3340	-0.033740282
68	0xbdea16da	-0.1143014
69	0x3c4db4e0	0.012555331
70	0x3d92bac4	0.07164529
71	0x3da737f0	0.08164966
72	0x3ce610c8	0.028084174
73	0x3dcd850e	0.10035144
74	0xbd9b7228	-0.07590133
75	0x3dc60a60	0.096699476
76	0x3d690094	0.056885317
77	0x3d3e6ce4	0.046490565
78	0xbde5a524	-0.11213139
79	0xbd10c574	-0.035344556
80	0x3d8a4f1e	0.06753372
81	0x3db0e328	0.086370766
82	0x3de63b56	0.11241786
83	0x3db4b6e2	0.08823945
84	0xbd2cd148	-0.042191774
85	0x3de6ce7a	0.11269851
86	0x3de21f3e	0.11041115
87	0x3c624010	0.013809219
88	0xbce4a8b0	-0.027912468
89	0xbcae4030	-0.021270841
90	0xbd975510	-0.07389271
91	0x3d25f018	0.040512174
92	0x3dc5357a	0.096293405
93	0x3d55c810	0.052192748
94	0xbda5caa8	-0.08095294
95	0x3c0408c0	0.008058727
96	0x3d18e000	0.037322998
97	0x3df067c0	0.11738539
98	0x3d5584c4	0.05212857
99	0x3de522d6	0.11188285
100	0x3d282d30	0.04105872
101	0xbc42edc0	-0.011897504
102	0x3bb661e0	0.005565867
103	0xbc0e9020	-0.008701354
104	0x3de68c9e	0.11257289
105	0xbd8acdec	-0.06777558
106	0xbddae834	-0.106888205
107	0x3cd843e0	0.026399553
108	0x3d548f74	0.05189462
109	0x3d25d128	0.04048267
110	0x3d6dfc80	0.05810213
111	0xbd25cd8c	-0.040479228
112	0x3ca8cff0	0.020606965
113	0x3cdf2738	0.02724038
114	0xbd2194ec	-0.039448664
115	0xbd8fa8dc	-0.07014629
116	0x3c9d8988	0.01923062
117	0x3d9e5710	0.077314496
118	0x3d32ff20	0.043700337
119	0x3dc63a86	0.09679131
120	0x3d1c925c	0.038225517
121	0xbc0a8d30	-0.008456513
122	0x3c84bcf8	0.016203389
123	0xbde4ad38	-0.11165851
124	0x3db970b4	0.090546995
125	0x3daa64f6	0.08320038
126	0x3dc0cef2	0.09414472
127	0xbd6b183c	-0.05739616
128	0xbca51a98	-0.020154282
129	0x3d1e737c	0.038684353
130	0x3debe4ba	0.115182355
131	0x3b1b3980	0.0023685396
132	0xbdcb25a8	-0.09919292
133	0xbc31b440	-0.010846198
134	0xbc879590	-0.01655081
135	0x3b5c9440	0.00336577
136	0x3d95dce0	0.07317519
137	0xbd583b30	-0.05279082
138	0xbd210ffc	-0.039321885
139	0xbdbcf24a	-0.092259005
140	0xbda88b3a	-0.0822968
141	0xbc3819b0	-0.011236593
142	0xbd6a4fb8	-0.057204932
143	0xbd8c6dde	-0.06856893
144	0xbdd15e90	-0.102231145
145	0x3bfded60	0.0077492446
146	0xbdf96fa4	-0.12179497
147	0xbdb8725c	-0.09006187
148	0xbcf45820	-0.029827178
149	0x3c4f9840	0.012670577
150	0x3d8540da	0.0650651
151	0xbca94490	-0.020662576
152	0x3d79f298	0.06102237
153	0x3ddb9882	0.10722448
154	0x3d97150c	0.07377061
155	0x3dfa28a6	0.12214784
156	0xbd99a1ac	-0.075015396
157	0x3ddbb072	0.10727014
158	0xbc6dc1a0	-0.014511496
159	0x3d5a8acc	0.053355023
160	0x3df9fa5c	0.122059554
161	0xbd579c70	-0.052639425
162	0x3dc12dd8	0.09432572
163	0xbd8b5046	-0.0680242
164	0x3de948b6	0.11390822
165	0x3debe5f0	0.115184665
166	0xbd04df70	-0.03243965
167	0x3cbc87a0	0.02301389
168	0xbdd0da06	-0.10197835
169	0x3d276be4	0.040874377
170	0x3d506ef4	0.050887063
171	0x3d855824	0.06510952
172	0x3d4146c4	0.047186628
173	0x3df418f4	0.11918822
174	0x3de5261a	0.11188908
175	0x3df7dcf2	0.12102689
176	0x3da33384	0.0796881
177	0x3def4934	0.11683884
178	0xbdecb134	-0.11557236
179	0x3db37dba	0.08764215
180	0x3dd98e6c	0.10622868
181	0x3de88a8a	0.11354549
182	0xbd85b02e	-0.06527744
183	0x3c896d30	0.016775697
184	0x3d13aaec	0.036051676
185	0x3d793190	0.060838282
186	0xbdd5dffc	-0.10443112
187	0xbcc3f470	-0.023920268
188	0x3db86480	0.09003544
189	0xbdde1ad4	-0.10844961
190	0xbdc04322	-0.093878046
191	0x3dd8baee	0.10582529
192	0x3d4d57c0	0.050132513
193	0x3d9b0466	0.07569198
194	0x3dc9da8a	0.09856136
195	0x3d1587b8	0.036506385
196	0x3db09d26	0.08623724
197	0xbdb7d726	-0.08976583
198	0x3dfb4204	0.12268451
199	0xbdf12a88	-0.1177569
200	0x3dacf030	0.0844425
201	0x3d7eabe0	0.06217563
202	0x3d3d94e8	0.046284586
203	0x3cf6e438	0.03013812
204	0xbcd02a48	-0.025410786
205	0x3dc9df30	0.09857023
206	0xbdc65e76	-0.09685986
207	0x3dd5d1c0	0.10440397
208	0x3db79456	0.0896384
209	0x3db0a374	0.08624926
210	0x3c8fa108	0.01753284
211	0x3d7dfb00	0.06200695
212	0x3caca368	0.021074012
213	0xbd0b2558	-0.03397116
214	0x3d9f4fb6	0.077788755
215	0x3dafc1b0	0.08581865
216	0x3dfdef58	0.12399167
217	0xbd02d66c	-0.03194277
218	0x3c2b8bd0	0.010470346
219	0xbd19d814	-0.037559584
220	0x3dd4f840	0.103989124
221	0xbbed4200	-0.007240534
222	0x3de3f4c6	0.11130671
223	0x385a5000	5.2049756e-05
224	0xbd89e5b0	-0.067332625
225	0xbcf72400	-0.030168533
226	0xbdaf6b20	-0.08565354
227	0xbcacb3d8	-0.02108185
228	0xbdf52e80	-0.1197176
229	0x3cc91c08	0.0245495
230	0x3d8572e0	0.06516051
231	0x3d98eec2	0.074674144
232	0x3d1ac230	0.037782848
233	0x3d710688	0.05884412
234	0x3d437500	0.047719
235	0x3c8c17f8	0.017101273
236	0x3de953a6	0.11392908
237	0xbc834608	-0.016024604
238	0xbdc1ac38	-0.09456676
239	0xbdf47cec	-0.119378895
240	0x3da14322	0.07874133
241	0x3d58657c	0.052831158
242	0xbd7f7b58	-0.06237349
243	0xbcbe3158	-0.023216888
244	0xbd6c369c	-0.057669267
245	0xbdbad02a	-0.091217354
246	0x3d5ec1d0	0.054384053
247	0xbd417814	-0.047233656
248	0xbcf903c0	-0.030397296
249	0xbdb6b0ac	-0.08920416
250	0xbdd4888e	-0.10377608
251	0x3dac878e	0.084242925
252	0x3bba2740	0.0056809485
253	0xbcac2750	-0.02101484
254	0xbdd00f3e	-0.10159157
255	0x3d1a2e2c	0.03764169

gst_cls_model.sensor_data_network.lstm.weight_hh_l0 f4 [256, 64]
0	0x3df53128	0.119722664
1	0xbdb884fa	-0.09009738
2	0xbcb3d0e8	-0.0219502
3	0xbd697a18	-0.057001203
4	0x3df0950a	0.11747177
5	0x3d7fa600	0.06241417
6	0xbd4297ec	-0.047508165
7	0xbdca10da	-0.098664954
8	0x3d8f6ca0	0.070031404
9	0xbc881000	-0.016609192
10	0x3d072ecc	0.033003613
11	0x3c4e6c10	0.012599006
12	0x3d314d94	0.043286875
13	0xbcd17be0	-0.025571764
14	0xbd75012c	-0.05981557
15	0xbca41900	-0.020031452
16	0xbda255a0	-0.07926488
17	0xbdb1879e	-0.08668445
18	0xbdc77388	-0.09738833
19	0x3c08eb50	0.008356884
20	0x3d0900b0	0.03344792
21	0xbd5b93d4	-0.053607777
22	0x3d9251a8	0.07144481
23	0xbdeeaa16	-0.11653535
24	0xbde39fce	-0.11114465
25	0xbc2cc020	-0.010543853
26	0xbdd04786	-0.10169892
27	0x3da2ecb2	0.07955302
28	0xbdbece92	-0.09316744
29	0x3d581d38	0.05276224
30	0x3dc9942a	0.09842713
31	0x3d3aaea8	0.04557672
32	0xbd61c58c	-0.055120036
33	0xbca2ba70	-0.019864291
34	0xbdad60b4	-0.0846571
35	0x3c61dff0	0.013786301
36	0x3de07094	0.109589726
37	0x3d012438	0.03152868
38	0x3dc7937e	0.09744929
39	0x3c1676c0	0.009183586
40	0x3cdc0428	0.02685745
41	0xbc050f90	-0.008121386
42	0xbc7109b0	-0.014711782
43	0xbd15e7b8	-0.036597937
44	0xbca13668	-0.019679263
45	0xbd9bd50e	-0.07608996
46	0xbdea9ed6	-0.11456077
47	0xbcc4ab40	-0.02400744
48	0x3d05e0c4	0.032685056
49	0x3d691860	0.05690801
50	0xbadd5400	-0.0016885996
51	0xbc4877a0	-0.012235552
52	0xbd8a7d36	-0.06762163
53	0xbdfd1012	-0.12356581
54	0x3c025250	0.007954195
55	0xbd55f3bc	-0.052234396
56	0xbd6fcb58	-0.058543533
57	0xbd9311f6	-0.0718116
58	0x3dafe2a4	0.0858815
59	0x3deb76fe	0.11497305
60	0x3df9fb18	0.122060955
61	0xbd435cdc	-0.04769598
62	0x3d524594	0.051335886
63	0xbca737e8	-0.0204124
64	0xbd1e760c	-0.038686797
65	0xbd405208	-0.04695323
66	0x3cdd2f78	0.027000174
67	0x3db31776	0.08744709
68	0xbcfaa2c8	-0.030595198
69	0xbdc46028	-0.09588653
70	0xbde89caa	-0.11358006
71	0x3de70786	0.11280732
72	0x3dc99d5c	0.09844467
73	0x3c0ea660	0.008706659
74	0xbc9a8288	-0.01886107
75	0x3d4b4540	0.04962659
76	0xbc26e760	-0.010187
77	0x3d53d15c	0.051713333
78	0x3c0770b0	0.008266613
79	0x3da1f348	0.0790773
80	0xbc628660	-0.013825983
81	0x3caca898	0.021076486
82	0x3d81c0f6	0.063356325
83	0xbb406100	-0.0029354692
84	0x3c6ca3e0	0.014443368
85	0x3d791e3c	0.06081985
86	0x3de650b8	0.11245865
87	0xbdbf6784	-0.09345916
88	0xbd8cb5e2	-0.06870629
89	0x3d6ec140	0.058289766
90	0x3d153d14	0.0364352
91	0x3deda0a8	0.116029084
92	0x3d832ffe	0.06405638
93	0x3dd070ac	0.101777405
94	0x3d3def7c	0.04637097
95	0xbdb8a09e	-0.0901501
96	0xbd759670	-0.05995792
97	0x3bd17500	0.0063921213
98	0x3de1ca0a	0.11024864
99	0xbdea306e	-0.114350185
100	0x3da8877c	0.082289666
101	0x3d93a006	0.072082564
102	0xbd73a1e8	-0.059480578
103	0xbded6d70	-0.11593139
104	0x3dec5a0e	0.11540614
105	0x3d44f088	0.04808095
106	0x3d4906e4	0.049078837
107	0x3cf3c9f8	0.029759392
108	0xbdb1acd4	-0.086755425
109	0xbde30fbe	-0.11086987
110	0xbda1fd3a	-0.07909627
111	0xbdaec500	-0.085336685
112	0xbdc5ccf8	-0.09658235
113	0xbc8cc8b0	-0.017185539
114	0x3d94aed0	0.07259905
115	0xbda1abb6	-0.078940794
116	0x3db3b2f2	0.087743655
117	0xbd0669e8	-0.032815844
118	0xbdcc41c2	-0.0997348
119	0xbd520a04	-0.051279083
120	0xbc856d48	-0.01628746
121	0xbba46520	-0.005016938
122	0xbc98b2e8	-0.018639997
123	0xbd2fa900	-0.04288578
124	0x3da0f2a2	0.078587785
125	0x3d833c06	0.06407933
126	0xbddf16a8	-0.10892993
127	0xbbe85cc0	-0.007091135
128	0x3cbdeb48	0.02318348
129	0xbd9b4a22	-0.07582499
130	0xbda3a6c0	-0.079907894
131	0xbb5c9900	-0.003366053
132	0xbdad761a	-0.08469792
133	0xbda40f6e	-0.080107555
134	0xbd7f7e0c	-0.062376067
135	0x3d6adf74	0.057342008
136	0xbca7b9f0	-0.020474404
137	0x3dd5731a	0.104223445
138	0x3c123a10	0.008924976
139	0x3bff43c0	0.007790059
140	0x3d3a43f4	0.04547496
141	0xbd7cb100	-0.061692238
142	0x3df819c0	0.121142864
143	0x3d915b0c	0.07097444
144	0x3dc7e36c	0.09760174
145	0x3d8483d6	0.06470458
146	0x3ca0ff28	0.019652918
147	0xbbf02980	-0.007329166
148	0xbdb3beaa	-0.08776601
149	0x3d115c84	0.03548862
150	0xbcb3bc88	-0.021940485
151	0xbdc0514c	-0.09390506
152	0xbd53d85c	-0.05172001
153	0xbd2a35c4	-0.04155518
154	0xbce2faa8	-0.027707413
155	0xbdb28da2	-0.087184206
156	0x3dbdad9e	0.092616305
157	0xbc1cf770	-0.009580478
158	0xbcd91680	-0.026499987
159	0xbd31245c	-0.043247566
160	0x3dcf7072	0.10128869
161	0x3d3de204	0.046358123
162	0x3dfc7f46	0.12328963
163	0xbc2d3810	-0.010572448
164	0x3da79258	0.0818221
165	0x3df500f6	0.11963074
166	0xbc74ad10	-0.014933839
167	0xbdce7dd6	-0.10082595
168	0xbd81a400	-0.06330109
169	0xbd5a6370	-0.053317487
170	0xbc3022b0	-0.010750458
171	0xbd491494	-0.04909189
172	0x3d478248	0.04870823
173	0xbde743ec	-0.11292252
174	0x3d33d4dc	0.04390417
175	0x3dd0683e	0.101761326
176	0x3c9b89b0	0.018986553
177	0x3dfaa428	0.122383416
178	0x3c9a9c10	0.018873245
179	0x3c916370	0.01774761
180	0x3d1302e8	0.035891443
181	0xbcf354f8	-0.029703602
182	0x3ceb70e8	0.028740361
183	0xbd56bbf8	-0.052425355
184	0xbd8eb8d0	-0.06968844
185	0xbd27b554	-0.040944412
186	0x3cd911e8	0.026497796
187	0xbde7e86e	-0.11323629
188	0xbd102d20	-0.035199285
189	0xbcad8780	-0.021182775
190	0x3dc4e4d0	0.09613955
191	0x3cab5840	0.020916104
192	0x3dc9f6da	0.09861536
193	0xbd81cf16	-0.06338327
194	0xbdd0c83a	-0.1019444
195	0x3dc7bf56	0.09753291
196	0xbd251bb4	-0.040309623
197	0x3dcae044	0.099060565
198	0x3df3e18a	0.119082525
199	0xbcf905a0	-0.03039819
200	0x3df6cd80	0.12050915
201	0xbbeae4e0	-0.0071683973
202	0xbdd6940c	-0.104774565
203	0x3df0413a	0.11731191
204	0xbd011210	-0.031511366
205	0x3d4cb51c	0.049977407
206	0xbdf0bf48	-0.11755234
207	0xbc977fe0	-0.018493593
208	0x3c1a87b0	0.0094317645
209	0xbce09ec8	-0.027419463
210	0x3d78b484	0.060719028
211	0x3dd39d40	0.103327274
212	0xbc9bdab8	-0.019025192
213	0x3d4cf9ac	0.050042793
214	0xbcff2130	-0.031143755
215	0x3c90bcf8	0.017668232
216	0xbdd2b09a	-0.1028759
217	0xbd64f754	-0.055899933
218	0x3df26cc4	0.11837152
219	0x3ddb18d4	0.10698095
220	0x3d613f4c	0.054992005
221	0x3a283500	0.0006416589
222	0x3d3b310c	0.04570107
223	0xbdcabc74	-0.09899226
224	0xbdaab572	-0.08335389
225	0x3da9d154	0.08291879
226	0x3d79a748	0.060950547
227	0x3da77138	0.08175892
228	0x3c32ca20	0.010912448
229	0xbca8ba28	-0.020596579
230	0x3dc119cc	0.094287485
231	0x3dc97966	0.09837608
232	0xbc151460	-0.009099096
233	0x3c947df0	0.018126458
234	0x3c28da20	0.010305911
235	0xbdedac4a	-0.11605127
236	0x3d511ac8	0.05105093
237	0xbd8295e6	-0.06376247
238	0x3c80e748	0.015735283
239	0xbda58d44	-0.08083585
240	0x3db0de0a	0.086361006
241	0xbdf981be	-0.121829495
242	0xbcc70f58	-0.024299309
243	0x3db2ecb0	0.08736551
244	0xbd608f64	-0.054824248
245	0xbdd3b3d8	-0.10337037
246	0xbd8056c4	-0.06266549
247	0xbcd54e58	-0.026038334
248	0xbd78ae08	-0.060712844
249	0x3ca222d8	0.019792005
250	0x3df2782c	0.11839327
251	0xba75b100	-0.00093723834
252	0x3d305108	0.043046027
253	0x3ddb2ddc	0.10702106
254	0xbd9cc0fc	-0.07653996
255	0x3d0373b0	0.03209275

gst_cls_model.sensor_data_network.lstm.bias_ih_l0 f4 [256]
0	0xbc8dee00	-0.017325401
1	0x3d135e4c	0.0359786
2	0xbb1a2b00	-0.0023524165
3	0xbcc91d80	-0.0245502
4	0x3d831aca	0.06401594
5	0xbd07e67c	-0.03317879
6	0x3dd2efd8	0.10299653
7	0x3c58ad40	0.0132249
8	0xbddad8ce	-0.106858835
9	0xbd85c874	-0.06532374
10	0x3ce3f730	0.02782783
11	0xbde7ce8a	-0.11318691
12	0xbd9c5e22	-0.07635142
13	0x3d8a4170	0.067507625
14	0xbd00350c	-0.03130059
15	0x3cfbaa88	0.030720964
16	0x3de28406	0.11060338
17	0x3cdc66e0	0.026904523
18	0xbdcfd002	-0.10147096
19	0x3bbc4ca0	0.005746439
20	0x3de59a86	0.11211114
21	0x3d1a5478	0.037678212
22	0xbd9fb46e	-0.07798086
23	0x3d33e188	0.043916255
24	0x3daedf2e	0.08538662
25	0xbde98a5c	-0.11403343
26	0x3d8cc4da	0.06873484
27	0xbd55cd4c	-0.05219774
28	0xbd9cc97a	-0.07655616
29	0xbc950530	-0.01819095
30	0x3cd33d28	0.025785998
31	0xbdd385fe	-0.10328291
32	0xbdb4a992	-0.088214055
33	0xbcfef9d8	-0.031124994
34	0xbdeb30da	-0.11483927
35	0xbc191040	-0.009342253
36	0xbd1cd560	-0.038289428
37	0xbc8f7db0	-0.017515987
38	0x3d7fb658	0.062429756
39	0x3d83cb9a	0.06435318
40	0xbca2ef30	-0.019889444
41	0xbdb60c68	-0.08889085
42	0x3cd71730	0.026256174
43	0xbd541f48	-0.051787645
44	0xbd94697c	-0.07246682
45	0xbcc4d1c8	-0.024025813
46	0xbce50768	-0.027957633
47	0x3df290be	0.11844014
48	0x3c859568	0.016306594
49	0x3d60ddd0	0.054899037
50	0x3defe8de	0.11714338
51	0x3aefee80	0.0018305331
52	0xbd909012	-0.07058729
53	0xbd7962a8	-0.0608851
54	0x3ca32c10	0.019918472
55	0xbd996708	-0.07490355
56	0xbde7cfcc	-0.11318931
57	0xbbd2cc60	-0.006433055
58	0xbddbff18	-0.10742015
59	0x3cc7b2d0	0.024377257
60	0xbde79046	-0.11306815
61	0x3df34222	0.11877848
62	0x3dba7898	0.09105033
63	0x3dce071e	0.10059951
64	0xbcc49d40	-0.024000764
65	0xbcb1f4a8	-0.021723107
66	0xbc854df8	-0.01627253
67	0xbdaa0dca	-0.08303411
68	0xbc5a8e20	-0.013339549
69	0xbd149164	-0.036271468
70	0x3dfa20a6	0.122132584
71	0x3dfe1da2	0.12407996
72	0xbdf2bbe6	-0.11852245
73	0x3d94c7bc	0.07264659
74	0xbd2281cc	-0.039674565
75	0x3d3f0834	0.046638682
76	0xbdabeb74	-0.083945185
77	0xbd87876e	-0.06617628
78	0x3dddddcc	0.1083332
79	0x3d876444	0.06610921
80	0x3cb7cbf8	0.022436127
81	0x3dfeda5c	0.124439925
82	0xbde108e6	-0.10988025
83	0xbdfca3f4	-0.12335959
84	0xbda2e186	-0.079531714
85	0xbded7a72	-0.1159562
86	0x3db183fa	0.08667751
87	0xbc6ec6e0	-0.014573783
88	0xbca26aa0	-0.019826233
89	0x3daca518	0.08429927
90	0xbd45397c	-0.048150524
91	0xbdbe8700	-0.09303093
92	0x3d3bc354	0.045840576
93	0x3da23a20	0.07921243
94	0x3d6dca6c	0.058054373
95	0xbdfb28ee	-0.12263666
96	0xbcf69f18	-0.030105159
97	0x3d85c3f0	0.06531513
98	0x3cb14b88	0.021642461
99	0xbd1ef1b4	-0.038804725
100	0xbca01ed8	-0.019545957
101	0xbdff38f6	-0.12462036
102	0x3d96f5dc	0.07371113
103	0xbd28d2e4	-0.041216746
104	0x3d4ce7c0	0.0500257
105	0xbda6f208	-0.081516325
106	0x3cd47358	0.025933906
107	0xbc52bf40	-0.01286298
108	0xbd67c6d8	-0.056586117
109	0x3d618c80	0.055065632
110	0x3db7a220	0.0896647
111	0xbd9c10dc	-0.07620403
112	0xbdd5a3e4	-0.1043165
113	0x3c8bd700	0.017070293
114	0xbda6cb3a	-0.08144231
115	0x3dfee896	0.12446706
116	0xbdbb5b74	-0.09148303
117	0xbd4accd8	-0.04951176
118	0xbb88ad60	-0.0041710585
119	0xbdcf7d94	-0.10131374
120	0xbd28993c	-0.04116176
121	0x3d9be206	0.0761147
122	0x3d23f2f0	0.040026605
123	0x3c8f68a0	0.017505944
124	0xbdb2f938	-0.08738941
125	0x3dcd6f90	0.100310445
126	0xbdefba18	-0.117054164
127	0x3d7ddbc4	0.061977163
128	0xbd9e65e4	-0.07734278
129	0x3c7c1000	0.015384674
130	0xbbc3d2c0	-0.005976051
131	0x3de31e3c	0.11089751
132	0xbd38f464	-0.045154944
133	0xbdf080ec	-0.1174334
134	0x3df79d44	0.12090543
135	0xbd068a84	-0.032846943
136	0x3ca78ec8	0.020453826
137	0xbd8d3364	-0.068945676
138	0xbd27f030	-0.041000545
139	0x3dd591ce	0.10428201
140	0xbde5bdf6	-0.11217873
141	0xbc830778	-0.015994772
142	0x3da81d02	0.08208658
143	0xbdc725ea	-0.097240284
144	0x3def896c	0.11696133
145	0xbddc37d0	-0.10752833
146	0x3dd75888	0.10514933
147	0x3d9cc030	0.07653844
148	0xbde93634	-0.113872916
149	0xbbe480c0	-0.006973356
150	0x3d264f54	0.040602997
151	0x3dbc17c4	0.091842204
152	0xbd293f58	-0.041320175
153	0x3c89b9b8	0.01681219
154	0xbdd126c8	-0.10212475
155	0xbd9f9412	-0.07791914
156	0x3dc047f0	0.09388721
157	0xbc781c00	-0.0151433945
158	0xbd8ce5a6	-0.068797395
159	0xbcbd9bc0	-0.023145556
160	0x3d8d8c60	0.0691154
161	0x3dd40c1a	0.10353871
162	0x3cdfdb68	0.0273263
163	0xbb0aeb40	-0.0021197349
164	0xbd83ea8e	-0.06441222
165	0xbdea99f4	-0.114551455
166	0x3cc72e30	0.024314016
167	0xbd5ddcb8	-0.054165572
168	0xbd076090	-0.033051074
169	0x3d82cb4e	0.063864335
170	0xbd8ae594	-0.0678207
171	0xbcb936d8	-0.02260916
172	0xbbb535a0	-0.0055300742
173	0x3c9bb088	0.019005075
174	0x3dcb35b6	0.09922354
175	0xbde69ff0	-0.112609744
176	0xbddd6222	-0.10809733
177	0xbdc13070	-0.09433067
178	0xbd1c2c58	-0.038128227
179	0x3de49038	0.1116032
180	0x3d5a0abc	0.053232893
181	0xbd28e50c	-0.04123406
182	0xbc7f4b50	-0.015581921
183	0xbbd4ffa0	-0.0065001994
184	0x3d1baa5c	0.038004264
185	0x3dd65092	0.10464586
186	0x3d08d1c4	0.033403173
187	0x3d31e9f0	0.04343599
188	0xbd6d8ec0	-0.057997465
189	0xbdd4bf10	-0.10388005
190	0xbd2d24f4	-0.04227157
191	0xbd87740a	-0.066139296
192	0xbc6307f0	-0.013856873
193	0x3da27b0e	0.07933627
194	0x3d3170a0	0.0433203
195	0xbd0cfcbc	-0.034420714
196	0xbd2f33d4	-0.042774037
197	0x3c4149a0	0.011797339
198	0x3dc91996	0.09819333
199	0xbd6b4e30	-0.057447612
200	0xbdd97f66	-0.106200024
201	0xbb890b00	-0.0041822195
202	0x3c9653b8	0.018350467
203	0x3d5f65b8	0.054540366
204	0x3dd4c568	0.10389215
205	0xbdf2d6f2	-0.11857404
206	0xbdce76e4	-0.1008127
207	0x3de8ddd4	0.11370435
208	0x3c249300	0.010044813
209	0xbca414e8	-0.0200295
210	0xbd5b7ff4	-0.053588822
211	0x3c832d10	0.016012698
212	0xbcc00eb0	-0.023444504
213	0x3da4a9a4	0.08040169
214	0x3dccc5ea	0.099986866
215	0xbd02b090	-0.031906664
216	0x3da98000	0.08276367
217	0x3df6d332	0.12052001
218	0xbdedebaa	-0.11617215
219	0x3dccf26e	0.10007177
220	0x3d5e318c	0.05424647
221	0xbd90399a	-0.070422366
222	0xbde37402	-0.11106111
223	0xbca2eb40	-0.019887567
224	0x3a97f600	0.00115937
225	0xbb63c400	-0.0034754276
226	0xbd61a264	-0.05508651
227	0x3cf36860	0.029712856
228	0x3d9af532	0.075662985
229	0xbdec7980	-0.11546612
230	0x3dee887c	0.11647126
231	0x3dbbeedc	0.09176418
232	0x3c21e590	0.009881392
233	0xbdec13f0	-0.1152724
234	0x3de26ff2	0.11056508
235	0xbdd8da66	-0.10588531
236	0x3d03cb3c	0.03217624
237	0x3d49f158	0.04930243
238	0xbd2573d0	-0.04039365
239	0xbd325420	-0.04353726
240	0x3d5e72c0	0.054308653
241	0x3de94968	0.11390954
242	0x3dee6c06	0.116416976
243	0xbcfbf420	-0.030756056
244	0xbcc898c8	-0.024486914
245	0xbd862854	-0.06550661
246	0x3dffccbe	0.12490223
247	0x3d0397f8	0.03212735
248	0xbde3cf48	-0.1112352
249	0xbd67272c	-0.05643384
250	0xbd1a5888	-0.037682086
251	0xbbe8ffa0	-0.007110551
252	0x3db06526	0.086130425
253	0xbdca7a9e	-0.098866686
254	0x3cd9ac20	0.026571333
255	0x3c24a150	0.0100482255
