checkpoints/BioMetricNetwork_2023-09-06_22-02-44.pth (torch, 232216 bytes, 28 tensors)

gst_cls_model.touchscreen_data_network.rnn.weight_ih_l0 f4 [64, 4]
00000000: 74f9 c1bd fc54 24bd 006f ef3d 8836 903c
00000010: b856 ea3d 9048 d93c c694 9cbd 7acc debd
00000020: 5e1d af3d d4da cdbd c8f0 143d 940e 2a3d
00000030: 409f e13b 8ea7 99bd 0ce3 88bd d254 f23d
00000040: ece8 25bd f62c 9c3d d06c 413c 28a2 d63d
00000050: 0820 3cbd a211 b3bd aa20 e7bd 2a59 bcbd
00000060: 249d 103d e020 8a3d 2c60 4bbd 5eb8 fdbd
00000070: 96fa 953d 2839 953c 043c c23d b404 713d
00000080: b28b b5bd 2827 d73d 68a8 ebbc 1636 af3d
00000090: fa1c edbd f266 e6bd a002 6a3c 4082 463d
000000a0: a4e5 d6bd 5605 ebbd 14ab 713d 24fa a83d
000000b0: e053 893b 5089 7abd 40ca 6d3d b816 933c
000000c0: f430 df3d 901e bb3c 4c1f 613d 6032 f23c
000000d0: cad5 ae3d c2cf e6bd f86e 4a3d b812 d9bc
000000e0: e06a 953d a863 3bbd e003 ae3c b8df 6bbd
000000f0: 044d 3cbd 6004 4f3d 645e d0bd a68e 86bd
00000100: d6c7 87bd f8c4 693d fccf 92bd e259 d4bd
00000110: b801 32bd ec51 823d 74c5 cf3d d071 0d3d
00000120: c058 0ebc 9c98 c9bd c81c cb3c bcd0 e33d
00000130: facf fabd 0ce7 cd3d 981e c9bc b886 eabd
00000140: 1012 193c ba01 fd3d e8b0 11bd f0ce 88bd
00000150: 50dd f73c 70b0 993c 2041 79bd 36bc fdbd
00000160: a25a e7bd 8049 b13c 8c8d 7ebd a06d 2bbd
00000170: 3677 aa3d fe2c 973d 5c9b 413d 1024 0fbc
00000180: e421 fabd 4c76 3dbd 9c66 d53d ae6d fb3d
00000190: 10dc d4bd f8c4 6ebd 808a 883a 4a47 abbd
000001a0: a454 f03d a8ab d13d c88c e6bd 7687 93bd
000001b0: 08c3 07bd a069 c63c 0e6d abbd a0ed 8a3c
000001c0: 1c59 6abd 8060 63bd c4c2 8a3d 267e cf3d
000001d0: 7cea 003d 6a18 c6bd bc6a 4d3d 92fe 99bd
000001e0: b4a5 debd 90f8 b83d e06a e8bd bc78 1b3d
000001f0: 0815 803c a86b 0bbd 3897 f3bc 5870 a7bc
00000200: e858 bc3d 602b 0bbc 90ef 1e3c 7899 7c3d
00000210: 42bd 863d 60b5 74bd f0d5 963d 708f 1a3c
00000220: 80aa b5ba 2005 0dbd 1030 96bd ecec 5a3d
00000230: b83e 95bc 10f6 d73d 6016 95bb 6cd4 9e3d
00000240: 8802 62bd c82a b03c 3c8d 813d 80cd 75bb
00000250: 383e 913c 60d9 e7bd c020 13bb 24f7 f73d
00000260: dc60 3abd d0b9 a03c 00df 6dba 8e8e d83d
00000270: a0d7 81bd 0091 4fbb 1cde a9bd 80d8 9abd
00000280: 1cab 7b3d 881d 4f3d d00f d83d 1886 223d
00000290: 603f e13c ec2a 553d 6224 e9bd 7a18 d33d
000002a0: c0cc a7bb f809 87bd 9015 2bbd 608f 03bc
000002b0: 4059 46bb 523f 9d3d 80e6 573d 948e a4bd
000002c0: 88af 513d 10ba 7d3c 505f 55bd acf9 0bbd
000002d0: ecad a63d 7004 4ebc 22ee 8b3d d86a 303d
000002e0: 50b4 a13c c0ba 02bd c222 f8bd 0a5f de3d
000002f0: 0061 4ebc 40fe 79bb a0dd 80bd 005e ec39
00000300: 2ca9 39bd caad 9abd c2df 933d 6a61 b13d
00000310: d40a ebbd 0cc5 4d3d 2483 60bd c0df 25bb
00000320: 3034 963d 625c dc3d 5060 ebbc 144f 4d3d
00000330: 80a5 303d 685f e93d 3a56 b13d 50b4 023c
00000340: 00d4 e83b 9a25 83bd 5412 72bd c4e3 78bd
00000350: a815 d9bc aa27 dcbd ceba dcbd 542c 883d
00000360: 3691 d53d 9e53 c13d 7a65 b53d 8c50 c4bd
00000370: 1095 4abc ccd3 e1bd 3c6d cdbd 08b4 943c
00000380: 1a6b f6bd 4079 013d a470 aa3d 10a8 3dbc
00000390: 60b1 95bb 68c7 93bc 00d9 d2ba 0ec9 e43d
000003a0: 04d6 72bd 44bb 41bd 0071 3e3b c678 dabd
000003b0: bcbd 8d3d d0a2 573d c8c9 93bc 503e 1e3c
000003c0: a831 0cbd d81f a0bc 2063 b6bc 9cdf c93d
000003d0: 9cff f93d 38b9 1abd 967e a0bd 5092 15bd
000003e0: a2b4 c63d 1281 8e3d 5664 b93d 8009 d33c
000003f0: 64ca 3ebd b859 f83c a0bd a1bd 089f c23d
-0.094714075 -0.04012011 0.116910934 0.017604128 0.114423215 0.026523858 -0.07645564 -0.108788446
0.08550523 -0.10051504 0.03636244 0.04151781 0.006885439 -0.07502662 -0.06683931 0.118325844
-0.040505335 0.07625763 0.011805728 0.104801476 -0.045928985 -0.087435976 -0.11285527 -0.09196694
0.03530611 0.06744552 -0.049652264 -0.12388681 0.07323186 0.01821573 0.09484103 0.058842376
-0.088645354 0.10505515 -0.028766826 0.08555238 -0.115777925 -0.11250104 0.014282852 0.04846406
-0.10493019 -0.11475627 0.059001043 0.082508355 0.004190907 -0.061166108 0.05805421 0.01795517
0.10898009 0.022841722 0.054961488 0.029565036 0.08536871 -0.112700954 0.049422234 -0.026498184
0.072957754 -0.045749336 0.021242082 -0.0575864 -0.045971885 0.05054128 -0.101742536 -0.06570177
-0.066299126 0.05707261 -0.07168576 -0.10368706 -0.04345867 0.063632816 0.10145083 0.03453237
-0.008688152 -0.09843561 0.024793997 0.11123797 -0.122467 0.10053834 -0.024550721 -0.11451477
0.009342685 0.12353845 -0.0355691 -0.06680095 0.030256897 0.01876089 -0.060853124 -0.12389414
-0.11296584 0.021641493 -0.06214671 -0.041852593 0.08323519 0.073816285 0.047267303 -0.008736625
-0.122134954 -0.046255395 0.10419962 0.12276779 -0.10393536 -0.058293313 0.0010417253 -0.08363207
0.11734894 0.10237819 -0.11257321 -0.072035715 -0.03314498 0.024220288 -0.0837041 0.016959012
-0.057213888 -0.05551195 0.0677543 0.10131483 0.03147362 -0.09672625 0.050150618 -0.075192586
-0.10871449 0.090317845 -0.1134851 0.03795694 0.015635028 -0.034038216 -0.029735193 -0.020439312
0.09196645 -0.008494228 0.009700671 0.061669797 0.06579067 -0.059743285 0.07365024 0.009433612
-0.0013860017 -0.034428716 -0.07333386 0.053448603 -0.018218383 0.105449796 -0.0045497864 0.0775536
-0.055178195 0.021504775 0.063257664 -0.003750652 0.017729864 -0.11320758 -0.002244994 0.12107685
-0.04550253 0.019619852 -0.0009074062 0.10574065 -0.06339955 -0.003167212 -0.08294317 -0.07560825
0.06144248 0.050565273 0.10549891 0.039678663 0.02749604 0.052042887 -0.113838926 0.10307403
-0.0051208436 -0.06593698 -0.04176861 -0.008029789 -0.00302656 0.07678093 0.052710056 -0.08035007
0.05119279 0.015486255 -0.05209285 -0.034173653 0.08138642 -0.0125743 0.068325296 0.043070644
0.0197393 -0.03191638 -0.121160045 0.10857971 -0.012596369 -0.003814593 -0.062922716 0.00045083463
-0.04532735 -0.07552679 0.07220413 0.086611584 -0.11476675 0.050236747 -0.054812565 -0.0025310367
0.07334173 0.10759808 -0.028732449 0.050124243 0.043126583 0.113951504 0.086590245 0.00797756
0.0071053505 -0.06403656 -0.05909951 -0.06076409 -0.026499584 -0.10749753 -0.10777818 0.0664908
0.104280874 0.09439777 0.08857246 -0.095856756 -0.012364641 -0.11026725 -0.100306004 0.018152252
-0.12032147 0.031609774 0.08322266 -0.011575714 -0.004568264 -0.01803942 -0.00160864 0.11171161
-0.059286132 -0.04729773 0.0029059052 -0.10667567 0.069209546 0.052645504 -0.018040553 0.009658411
-0.034227043 -0.019546434 -0.022264063 0.09857103 0.12206957 -0.037774295 -0.07836644 -0.036516488
0.09702422 0.06958212 0.09052341 0.025761366 -0.046579733 0.030316219 -0.07897496 0.09502989

gst_cls_model.touchscreen_data_network.rnn.weight_hh_l0 f4 [64, 64]
00000000: 90e6 e5bd 80e0 c43a 78a0 e63d 06d7 cc3d
00000010: 80f9 453b 04b0 293d d849 253d 90aa d63c
00000020: 06ff d83d 90c0 b6bd 3024 2dbd 188c 853d
00000030: ba76 a43d 60fb 9ebb 6c0e 81bd 30fe b9bc
00000040: 0087 8ebc feb0 df3d f460 55bd f0de 6bbc
00000050: 62ae afbd 209c d0bd 2054 893d 20fa b33d
00000060: 4c5d b83d 00d9 6e3b 2e30 f6bd f444 91bd
00000070: 280a 963c 3014 793d 225b d73d c210 ed3d
00000080: 009a fe39 e0db a7bb 140d 9cbd 7062 eebd
00000090: 4614 fe3d fc51 c83d 3a1b c2bd 0012 e23b
000000a0: 807e ccbd ec2a 7e3d d6fd afbd 60bd ff3c
000000b0: d822 6a3d 8e46 bf3d 08a1 39bd 8e05 d93d
000000c0: f40d f93d 3877 3ebd a0a0 36bd 1042 ec3d
000000d0: 1480 963d a878 ae3c 68d6 d93d 0ea0 bbbd
000000e0: 2c6d 0f3d 90c4 ccbc 1cab a13d 1853 c3bc
000000f0: e80e dfbd 7064 bbbc 140a ec3d b0bf 253c
00000100: a61b 86bd c02f c63d b83d 9e3d a8f2 fabd
00000110: dceb b4bd 0ced ccbd 70f2 833c 5ec4 aabd
00000120: 8a6a de3d a067 e7bd 8c97 f23d 4694 df3d
00000130: 4cca cfbd 708c e23d 0a23 8bbd c63b b4bd
00000140: 186b 993c 0027 efbc 0098 9739 16b3 9c3d
00000150: dcd4 c53d dc20 c43d e826 893d f0cf 743c
00000160: be3f bb3d 28be 11bd 20d4 46bd 8c29 b2bd
00000170: 2668 bcbd 8654 a03d d468 e83d 404f 3dbc
00000180: f433 95bd 6cc2 10bd 5cd9 b8bd c032 b1bb
00000190: fc5d b93d 88df e03d b023 5bbd 440b 183d
000001a0: 3c79 bf3d 6c60 8abd f44f 8bbd f6bf efbd
000001b0: f842 10bd 7cdf b13d 801a cbba 26e6 e53d
000001c0: e8e5 7f3d bace e33d 0ad3 bbbd 0e4c 893d
000001d0: 7000 403c bcd0 3b3d 984c f13c 667f bcbd
000001e0: 1071 d43c 188f 84bc 4618 febd bab2 f6bd
000001f0: 20bb ee3c 80c5 d13c c8b7 d0bd ae6d d73d
00000200: 22ab fabd 004f 17bb 6ebc ecbd e0b3 8f3d
00000210: 048f 5d3d 4063 14bc 623a ca3d a6e8 8a3d
00000220: 8aee af3d 7047 533d 901f 70bd 9273 c93d
00000230: 2810 d6bc 32ed 9dbd 4e5b 99bd 4093 383c
00000240: 40fa a5bc d049 2bbd f01c 183c 74ea cebd
00000250: 48ba aebc 76c7 c5bd 7ca8 87bd 3c7b 2fbd
00000260: dce1 a73d f0bd e3bd da33 f5bd c0cb 4b3b
00000270: 12da 8bbd 0088 c1ba 8023 f8bd 445a c33d
00000280: be44 cdbd 36ec 9abd ccef a0bd 7843 4e3d
00000290: aca1 4c3d 8848 91bc 1ed9 823d d8f5 ff3c
000002a0: d601 a73d 0094 64bd a281 ae3d 883f 153d
000002b0: 1802 ccbd 7eb8 b9bd 5096 01bd f279 b73d
000002c0: e032 973d 10fa 8bbc 58c3 813c 74a4 b2bd
000002d0: 089e e93c e00f c23d c4c4 753d 82d2 9a3d
000002e0: 04fe edbd e821 513d d05d 143d 40cd ea3b
000002f0: e834 9d3c 5cc2 59bd dcd5 483d e086 88bc
00000300: d08d c8bc 00e4 283a ac88 c23d ee62 bb3d
00000310: 60c2 aa3b 782f e03d 4060 fe3b 4077 bd3c
00000320: d0f1 27bc b6b7 c5bd 8c48 7f3d 80a6 b13c
00000330: 7ca4 423d 883a 9cbc 74fd 493d 68dc 84bc
00000340: 4ab9 d8bd 40ce d1bc ac59 ab3d ccde 623d
00000350: f853 92bc 3c73 173d 32bc b53d e21e 92bd
00000360: c881 e4bd bc80 52bd 9836 22bd 48a7 abbd
00000370: 90ea b53d 6af8 bdbd c006 fabb ec7e f53d
00000380: fcef 623d 90f5 bebc 4aa0 b13d e030 b2bd
00000390: d899 f8bd 304a 8f3c 1893 e2bc a81b bb3d
000003a0: 9cf5 1d3d 5065 af3d b862 ca3c 88eb 9e3c
000003b0: 58ef 2b3d d8e9 fc3d 585f 9cbc a4de a43d
000003c0: 72a6 973d 9877 5d3d 46be f53d d8e4 dd3c
000003d0: a884 96bc 7c61 49bd ae84 f2bd a279 853d
000003e0: a006 2e3c 68cc adbc 74e4 703d da85 f5bd
000003f0: e657 9e3d c821 373d 00b1 293c d2c1 ba3d
-0.11225617 0.001502052 0.11261076 0.1000195 0.0030208528 0.041427627 0.040353626 0.026204377
0.10595517 -0.08923447 -0.04227084 0.065208614 0.08030458 -0.0048517436 -0.06301579 -0.022704214
-0.017398357 0.109224305 -0.052094415 -0.014396414 -0.08578183 -0.101860285 0.06705499 0.08787942
0.0900217 0.003644526 -0.12020908 -0.0709323 0.01831539 0.060810268 0.10515429 0.11575462
0.00048561394 -0.0051226467 -0.07619682 -0.11639869 0.124062106 0.09781262 -0.09477849 0.0068991184
-0.099850655 0.062052652 -0.08593337 0.03121823 0.057162136 0.09339629 -0.045319587 0.105967626
0.121608645 -0.046500415 -0.044586778 0.11536038 0.07348648 0.021297768 0.10636598 -0.091613874
0.035016224 -0.024996072 0.07893965 -0.023843333 -0.10891515 -0.02287504 0.1152536 0.010116503
-0.06548242 0.09677076 0.07726616 -0.12253314 -0.08834049 -0.100061506 0.016106814 -0.08338235
0.108601645 -0.11299062 0.118453115 0.10916953 -0.10146007 0.110619426 -0.067937925 -0.088004634
0.018727824 -0.029193401 0.00028914213 0.076513454 0.0965974 0.0957658 0.06696874 0.014942154
0.09143017 -0.035581738 -0.048542142 -0.08699331 -0.09199552 0.078286216 0.113481194 -0.011554539
-0.072853 -0.035341665 -0.09025833 -0.005407661 0.09051129 0.10980135 -0.05350083 0.03712012
0.093492955 -0.06756672 -0.06802359 -0.117065355 -0.035220116 0.086852044 -0.0015495569 0.11225538
0.062475115 0.11123414 -0.09171112 0.067039594 0.011718854 0.04585336 0.029455468 -0.09203987
0.025932819 -0.016181514 -0.124069735 -0.12045808 0.029141963 0.02560687 -0.101913035 0.105189666
-0.12239672 -0.002308786 -0.115593776 0.0701673 0.05409147 -0.009056866 0.09874417 0.067826554
0.085904196 0.0515818 -0.05862385 0.098364964 -0.02613075 -0.07711257 -0.07488118 0.011265576
-0.02026093 -0.04181844 0.009284243 -0.10103312 -0.02132906 -0.09657185 -0.06623933 -0.042842135
0.08197376 -0.11120212 -0.119727805 0.0031096786 -0.06828703 -0.0014765263 -0.12116146 0.09538701
-0.10022877 -0.07564585 -0.078582376 0.050357312 0.04995887 -0.01773478 0.06389068 0.031245157
0.08154647 -0.055805206 0.08520819 0.03643754 -0.09961337 -0.09068392 -0.03163749 0.08958806
0.073827505 -0.017087013 0.015840217 -0.08722773 0.028517738 0.09475684 0.060002103 0.075596824
-0.11620715 0.051057726 0.03622228 0.007165581 0.019190267 -0.05316387 0.049032077 -0.016665876
-0.024481684 0.0006442666 0.09498724 0.09149729 0.0052111596 0.10946554 0.0077629387 0.023128152
-0.010250524 -0.09654181 0.062325045 0.021685839 0.047520146 -0.019070879 0.049313977 -0.01621838
-0.10582216 -0.025611043 0.08366713 0.055388257 -0.017862305 0.03697513 0.08873786 -0.07134797
-0.11157566 -0.051392302 -0.039602846 -0.08381516 0.0888263 -0.09275897 -0.007630199 0.11987099
0.05540465 -0.023310453 0.08673151 -0.087007284 -0.12138718 0.01749143 -0.02765803 0.091361344
0.03856431 0.08564246 0.024705276 0.01939942 0.041976303 0.1234929 -0.019088432 0.08050278
0.07404794 0.05406913 0.119991824 0.02708666 -0.018373802 -0.049165234 -0.11841713 0.0651734
0.010621697 -0.021215633 0.05881162 -0.11988421 0.07731609 0.04470995 0.0103571415 0.091189995

gst_cls_model.touchscreen_data_network.rnn.bias_ih_l0 f4 [64]
00000000: 7c27 ca3d 1290 b53d 3ae6 d13d 9046 dcbd
00000010: 5205 febd 00fc cdbc 460d ad3d c0b7 913d
00000020: 1070 7d3d b0e5 78bd 6876 c8bc cc35 3cbd
00000030: 1c62 7f3d 5049 0cbc 301a 713c 00eb cb3b
00000040: 6e70 c13d 2e6f fc3d 18e2 f73d 7cae 433d
00000050: aa13 ae3d 0cef 0c3d 4ce6 12bd 003e 96b9
00000060: 0827 a83c 80c1 223b 8c8a 7dbd 686f 813d
00000070: 603f 89bb 8040 2c3b 6e43 e5bd 7628 a9bd
00000080: 9a26 bbbd 6471 da3d a8b0 833d a0ff 40bd
00000090: d825 75bd 0088 983d 1085 5bbc bc64 5fbd
000000a0: 0015 29bc 28ba 9c3c 600f 493c a0b2 993d
000000b0: 2034 9c3d 389d d5bc fad7 8d3d 74b1 073d
000000c0: 7ac9 afbd a0b9 16bc 78f6 8f3d 70eb 003c
000000d0: 145a af3d d028 c4bc a09d dcbc 8a59 b5bd
000000e0: 00a9 a33c 489e efbc 72e3 c93d 6496 5bbd
000000f0: b4f3 e33d ec03 c83d 5e96 903d 5076 edbc
0.09870812 0.0886537 0.1024899 -0.10755646 -0.124033585 -0.025144577 0.08449797 0.07115126
0.06187445 -0.060765922 -0.024470523 -0.045949742 0.062349424 -0.008562401 0.014715716 0.0062230825
0.094452724 0.12325893 0.12103671 0.047773823 0.08499844 0.03440766 -0.03586416 -0.00028656423
0.020526424 0.0024834573 -0.061899707 0.06320077 -0.004188463 0.0026283562 -0.11194502 -0.082596704
-0.09138222 0.10666159 0.06430179 -0.047118783 -0.059850544 0.07447815 -0.013398424 -0.054539427
-0.010319948 0.019131735 0.012271732 0.07504773 0.076271296 -0.026075944 0.0692596 0.033128217
-0.085833505 -0.00919953 0.07029432 0.007868633 0.08562103 -0.023945242 -0.02693063 -0.08854969
0.019978046 -0.02925028 0.09857835 -0.05361022 0.11130467 0.09766373 0.0705993 -0.02898708

gst_cls_model.touchscreen_data_network.rnn.bias_hh_l0 f4 [64]
00000000: c8bf f23d 44c6 7e3d b0b8 5c3c e884 f7bc
00000010: 38f0 0c3d 14a5 24bd 30a5 23bd 14b1 cebd
00000020: 8079 e93a a8f5 fbbd b461 5bbd 50ea 933c
00000030: 0058 ba38 78e8 fc3c b070 e1bc a0b4 4b3c
00000040: 782a ad3d bcde f03d ac2a 72bd 5095 53bd
00000050: 9e8f 883d 10bc d13d a6a8 e7bd 0e27 83bd
00000060: 20e2 59bc 1e8f b23d 5233 fcbd 90de 103d
00000070: 0618 c63d 42f3 8f3d b6b4 e23d c02b ae3c
00000080: e22e cbbd 46b4 b13d 9cd0 58bd 00c7 b9bb
00000090: 8a44 c2bd b87b e53c 487c e33c d09a 7e3c
000000a0: 7c40 77bd 3067 713d c8cd 283d 88d1 123d
000000b0: 10ef 49bd c8d2 9fbd 1c2e 7abd 4ef5 82bd
000000c0: 263e 84bd c0af 98bd 5847 f2bd 86e3 fcbd
000000d0: 0a7e a33d 6c40 8bbd 0067 11bd dc9f 00bd
000000e0: 7a29 82bd a826 d5bd a072 33bd bee2 a73d
000000f0: 30ad fcbc 5026 963c 68a1 1c3d ecad 91bd
0.118529856 0.0622008 0.013471767 -0.030214742 0.034408778 -0.040196493 -0.039952457 -0.10092369
0.0017812699 -0.123027146 -0.053559974 0.018056065 8.8855624e-05 0.030872568 -0.027519554 0.012433201
0.08455366 0.11761233 -0.059122726 -0.051656067 0.06668018 0.10240948 -0.11311464 -0.064039335
-0.013298541 0.08718704 -0.12314476 0.035368502 0.09672551 0.070288196 0.11069624 0.021261096
-0.099210516 0.086769626 -0.05293332 -0.0056694746 -0.09485729 0.028013095 0.027769223 0.01553984
-0.06036423 0.058936298 0.041211873 0.035844356 -0.049300253 -0.07803875 -0.06107913 -0.063944444
-0.064571664 -0.07455397 -0.11830014 -0.12348084 0.079830244 -0.06799397 -0.03549862 -0.031402454
-0.06355567 -0.10407764 -0.043810487 0.081975445 -0.030844301 0.018328816 0.038239866 -0.07113251

gst_cls_model.touchscreen_data_network.rnn.weight_ih_l0_reverse f4 [64, 4]
00000000: ec69 40bd 7097 c8bd 2075 ffbc b04a 6f3c
00000010: 1044 2fbc ba70 b4bd 9cef 40bd b421 d63d
00000020: 7005 e3bc 40bf 2d3c 2064 b1bc a095 9e3c
00000030: ac19 3cbd b419 4e3d 82ec e93d ec48 903d
00000040: aaf2 b8bd 28a4 a3bc a070 c93b 9cbf 2abd
00000050: 0470 aabd 8a7d e43d b6f3 84bd ba6e ee3d
00000060: f0f8 51bc 7671 b03d daa2 a83d f0f5 ef3c
00000070: 1605 a73d 889c b5bd 3ec0 98bd 4c4c 6fbd
00000080: 5285 9bbd 6404 adbd 003a e33c ce09 92bd
00000090: 1859 533d 20e3 633d 7af0 88bd 289e c63c
000000a0: e039 3d3c 7a8a 8ebd 4acb abbd bc7b b3bd
000000b0: fc24 9f3d d83b a2bd 1670 c73d 2080 ed3b
000000c0: 6459 323d 30bf 35bd 8c34 d83d 089a 193d
000000d0: 904d 933c 4002 5abb 08ac 1b3d fc87 ffbd
000000e0: 2af1 b3bd 529a ee3d 7407 7fbd f21a c0bd
000000f0: 7894 a83d b8e2 763d 2a99 a33d ecf1 19bd
00000100: f02d 223c 180b d3bd 9820 abbc 94ff 683d
00000110: 9683 ea3d d4bb 95bd 08c7 973d 1e93 b73d
00000120: 5089 f83d 3c03 76bd c0ce 363c 603f c6bc
00000130: 3023 1e3c dc75 a63d b811 cb3c f631 e13d
00000140: 6c01 e2bd cc8f d33d daed 89bd 00b7 a4bc
00000150: bed4 b8bd 4414 e43d 006a d33d 82e1 b03d
00000160: 4474 4f3d 8c54 923d 40d1 06bd e08e 51bc
00000170: c081 cfbd 08f1 203d 8043 54bd d4dc 56bd
00000180: e494 70bd 169d b73d 88d8 c1bc 3c04 28bd
00000190: 5840 533d 2083 5f3d 580d b2bd a87f 26bd
000001a0: 24d8 9a3d 2605 e1bd eceb a8bd f04b 103c
000001b0: 4efe b6bd a04c bd3d 84c3 3d3d c853 243d
000001c0: c8d3 853c 60ee c83b 2053 873d a02e bcbd
000001d0: 80d7 52bd f0fb 3cbc 52cb afbd 8067 67bd
000001e0: f0f7 f53d 1003 2fbc 52b1 d5bd f81d 3fbd
000001f0: 1856 75bd 7090 10bd 545c 533d 105d 763d
00000200: 0ce4 f8bd e846 413d 3094 b2bc 006a 733b
00000210: f0e7 a9bc 08dc 0fbd 2aa7 be3d 2c49 17bd
00000220: dc4a 0abd 78a3 dbbd 9c57 ac3d 66cd e7bd
00000230: ac29 973d 704a 673d b0f2 f83c 02ec c03d
00000240: ce5c df3d e613 ab3d 003c 6a39 7843 cfbd
00000250: 5cfb 70bd c88d 68bd 3609 91bd 4460 71bd
00000260: 90a5 0fbd 70d3 7a3d 0018 c4bd 6e43 963d
00000270: 1441 27bd 40c5 eabb e0aa d3bb 06f1 ddbd
00000280: 8ec5 afbd 88c9 bfbc 2097 2b3c 10df 22bc
00000290: 4056 473b 44a0 a6bd ac8d 50bd d628 913d
000002a0: de6e 893d 36e6 813d 109f 533d a4eb a0bd
000002b0: 1a7d b6bd a8a2 bebc 9861 a9bd bcc9 f53d
000002c0: 0c71 133d 462d a2bd 441c 8ebd c43f 7fbd
000002d0: 4c07 813d 6e7d c93d c42f 1abd bc77 73bd
000002e0: 0000 0835 4808 ffbd d8e6 76bd ce12 e33d
000002f0: 20c4 18bd 4039 023d e2e0 c1bd a8cb ee3c
00000300: e8f1 5e3d f0af e2bc 8408 2d3d dc87 60bd
00000310: d87a b23c 403d 573b 7ed4 d63d 6caf 51bd
00000320: f487 db3d 6017 723d c0f7 7abd eee3 d0bd
00000330: 4e89 f93d 8866 c9bd 94a5 be3d 4a2c a03d
00000340: 42ff bdbd 003e 103d 5257 9ebd c893 82bd
00000350: c4e7 4abd 9ce3 71bd 00f2 4a3d f0cd 89bc
00000360: 3cd6 7bbd 948f 92bd a013 4fbc c0d9 343d
00000370: 60e5 943d c8a7 a8bc 14d2 603d d0e8 d63c
00000380: 80c8 9cbb 0033 16bc 8ef3 ccbd fc91 753d
00000390: f4f3 d7bd d0fe 2e3c 32d0 8ebd 60c4 05bc
000003a0: ce61 f4bd 90ff e9bc f086 e23d b8d6 2fbd
000003b0: e0cd 103c e084 893d 7635 b13d 52d1 bcbd
000003c0: a024 08bd f0a0 1c3d 8467 09bd c027 31bc
000003d0: 90df 48bc d0ea 0f3d bc2e d3bd 2866 ad3d
000003e0: 5625 f5bd 68c8 babd 8c51 933d 5a09 a43d
000003f0: 0cec dabd c82b 803c d47a d8bd 78b4 d1bc
-0.046976015 -0.097945094 -0.03118378 0.014605209 -0.01069738 -0.088105634 -0.04710351 0.10455647
-0.027712554 0.01060468 -0.021654189 0.019358456 -0.04592292 0.05031748 0.114220634 0.07045159
-0.090306595 -0.019975737 0.006147459 -0.04168664 -0.083221465 0.11156757 -0.06491797 0.11642213
-0.012815699 0.08615391 0.082341865 0.029292077 0.08155267 -0.088677466 -0.07458542 -0.05842237
-0.07593788 -0.08448103 0.027737617 -0.07130776 0.05159864 0.055636525 -0.06686492 0.024245337
0.011549443 -0.06960006 -0.08388384 -0.08763835 0.07770726 -0.079215705 0.097381756 0.0072479397
0.04354228 -0.044371784 0.105568975 0.03750041 0.01798132 -0.0033265501 0.03800586 -0.12477109
-0.08786233 0.11650528 -0.062262967 -0.093801394 0.08231443 0.06027481 0.07988198 -0.03758423
0.009898648 -0.1030485 -0.020889565 0.056884363 0.11450879 -0.07311216 0.07411009 0.08963607
0.12135565 -0.06006168 0.0111576915 -0.024200141 0.009651944 0.08127949 0.024788722 0.109958574
-0.110354275 0.103301615 -0.0673482 -0.020106792 -0.09024952 0.11136678 0.10322952 0.08636762
0.05064799 0.07145032 -0.0329144 -0.012790412 -0.1013217 0.039292365 -0.051822186 -0.05245669
-0.058735743 0.08965509 -0.02366282 -0.041019663 0.051575035 0.05456841 -0.08693951 -0.040649086
0.07560757 -0.1098731 -0.082481235 0.008807167 -0.089352235 0.09243131 0.046329036 0.040118963
0.016336337 0.006131932 0.06607652 -0.091885805 -0.051475048 -0.011534676 -0.08583702 -0.05649519
0.12010181 -0.0106818825 -0.10434212 -0.04665944 -0.05989656 -0.035293996 0.051601723 0.060147345
-0.121528715 0.047186762 -0.021799177 0.0037142038 -0.02074048 -0.035121948 0.09309228 -0.036935017
-0.033762798 -0.107245386 0.08415148 -0.113184735 0.07380995 0.056467474 0.03038916 0.09420015
0.10906373 0.08353405 0.00022338331 -0.101202905 -0.058833465 -0.056775838 -0.07081835 -0.058929697
-0.035070002 0.0612368 -0.0957489 0.0733708 -0.040833548 -0.0071646273 -0.006459579 -0.10836987
-0.085826024 -0.023411527 0.010473043 -0.009940878 0.00304164 -0.08136037 -0.05091636 0.07087867
0.06710599 0.063427374 0.051665366 -0.07857445 -0.0891058 -0.02327092 -0.08270568 0.120013684
0.03599648 -0.079187915 -0.06938985 -0.06231667 0.0630022 0.09838377 -0.03764321 -0.05944036
5.066395e-07 -0.124527514 -0.060278744 0.11087571 -0.037296414 0.03179288 -0.09466721 0.029149845
0.05442992 -0.027671784 0.04224445 -0.054817066 0.021787092 0.0032842904 0.104897484 -0.051192686
0.107192904 0.059104323 -0.06127143 -0.10199724 0.12184392 -0.098340094 0.09308925 0.078209475
-0.09277202 0.035215378 -0.07731499 -0.06375843 -0.049537435 -0.059054956 0.049547195 -0.016821831
-0.061483607 -0.071562916 -0.012638956 0.044152975 0.07270312 -0.020587817 0.054887846 0.02623406
-0.0047846437 -0.009167433 -0.10007392 0.059953675 -0.10544577 0.010680869 -0.06973304 -0.008164495
-0.11932717 -0.028564245 0.110608935 -0.04292938 0.008838147 0.06714797 0.08652775 -0.09219612
-0.033238053 0.03823942 -0.033545986 -0.0108127 -0.012260333 0.035136044 -0.10311648 0.084667504
-0.11970012 -0.09120256 0.07193288 0.08009596 -0.106895536 0.015645877 -0.105703026 -0.02559875

gst_cls_model.touchscreen_data_network.rnn.weight_hh_l0_reverse f4 [64, 64]
00000000: f283 d83d 64bc a2bd 3450 70bd 1238 fcbd
00000010: 580f cf3d f875 5dbd a66b cb3d 5045 6c3d
00000020: 8016 033d d0d1 a3bc e202 fabd 2421 8abd
00000030: 7e4a efbd 2cb2 b6bd 5092 11bc 0a69 f4bd
00000040: d0f2 88bd 545c 65bd 40c2 6a3c 903d 1a3c
00000050: c4d8 b5bd 883b aebc 8a0b 89bd 3a8e f13d
00000060: e273 b03d acfb b2bd a058 823c e0ce 673d
00000070: 849f 013d 6a11 d23d 889e 99bc 8a96 aebd
00000080: d81d 873d d076 f23c f0a3 00bd fccc 6abd
00000090: 80ef 773d c85b 133d 649c 383d 16fe bebd
000000a0: 185a e1bc 5004 78bc 84ab 0bbd e8b8 c83c
000000b0: 4471 a73d e870 583d d0d8 373c ae8b 973d
000000c0: 186a 6fbd b816 eb3c d0c3 513c 2213 993d
000000d0: 98c9 eebd 5873 a0bc 3cb1 e53d c0bf 2b3b
000000e0: 0e7f 803d cc5d 3dbd 50d4 09bd 30b1 4cbc
000000f0: 00c9 4cbb cc99 efbd 000d 683b e0c2 be3c
00000100: 2077 eb3d 0088 ae38 e88b b2bc 28da 2d3d
00000110: 1406 a73d 1efb c43d 32e0 82bd 2c47 553d
00000120: d62b d03d cad8 c7bd 182b a33d 30f8 da3c
00000130: 6209 d43d 622c e4bd c80d 8c3c 20bd 89bb
00000140: 1cff c83d ba18 e63d b83a d3bc ee02 d5bd
00000150: 10c0 803d d2ff fe3d 60ed b23d 9ce4 cf3d
00000160: be5f c53d 488f 783d 6cda 363d e077 183c
00000170: b61c 873d f6ab d7bd a21d d63d c659 853d
00000180: 7844 9e3d aa46 fe3d 46fd 8f3d f810 d03c
00000190: 54dc ee3d 4a51 ca3d 6ebe ecbd 967c e5bd
000001a0: c43a a1bd 040a 07bd 38a6 77bd 7c89 d8bd
000001b0: b48b 383d e069 53bd 36df fc3d 105a c53d
000001c0: 307f d8bd 922d a9bd 42ff 8ebd 202f 5c3c
000001d0: 50b2 9dbd b491 593d 40e4 d83b 5c74 213d
000001e0: c00e eebc b09f 323c 8016 133c cc3e a43d
000001f0: 985c f53d 1843 453d 9e77 9c3d 7e74 b93d
00000200: 4032 003d 8857 7e3d 4a4a 993d 0098 f53d
00000210: 6046 38bd f4f4 03bd 2c1d 323d 606e 263c
00000220: 5865 8fbc bcc1 97bd 2037 8c3b f68b 94bd
00000230: 5e27 e23d 7411 333d 78e5 ef3d 805c 48bd
00000240: 78ec 8fbc 2497 793d a00f 85bd 0071 be3c
00000250: a80b eb3c 48a3 1cbd 3032 8f3c 2057 e63c
00000260: 8e87 eebd 20bd 40bc 582a 603d 1005 073c
00000270: fce4 083d cc90 bdbd 60dd 1b3c 5611 dabd
00000280: ee53 fa3d 9c90 863d 20d1 53bc ce7e a83d
00000290: 9a4a 9a3d 3899 27bd a06e d63d 90ff 76bd
000002a0: f0a4 91bd 90c4 133d d0e3 96bc 98db 14bd
000002b0: 1800 e1bc 48cd c93d 7a86 a93d 22d2 f53d
000002c0: d000 f2bd 786d a7bd 780f 61bd 026b fbbd
000002d0: c0fd e13d 4656 ac3d 6a65 f3bd 869c b33d
000002e0: d601 e2bd 741a 03bd 8426 203d 080e d2bc
000002f0: cc47 55bd 5e7a 85bd 626d b33d f201 a6bd
00000300: 3e94 c5bd c453 41bd 7e3c e8bd 00de 82bd
00000310: 1085 bebd c4df b43d 341b 963d 06a2 c93d
00000320: 667f eb3d ec28 c83d 508a f8bd aca4 00bd
00000330: c0dc c0bd b87d 54bd bcaa c03d 90e8 19bc
00000340: f0b1 44bd 4cc6 e43d 8461 9b3d 98d8 d4bd
00000350: cc08 c03d 94e0 f8bd f001 2ebc 9060 8fbd
00000360: 74ed 663d fc0f d33d 7c5e 79bd 201c cc3d
00000370: 9aee f73d 5ef2 9e3d d482 bd3d d8b6 eebd
00000380: d0e9 7abd 4846 443d 50db 313c ec4d aebd
00000390: 9086 e5bc d079 113d 18a3 9b3c 707f 3ebd
000003a0: 74bd 3e3d 18f2 18bd 8010 9d3c b8b3 ff3c
000003b0: 1891 d83c 1aac 883d e09d c23d 207a 0e3d
000003c0: ca49 c2bd f0b5 1dbc b4ac ebbd c066 9bbb
000003d0: 601b 64bc b04c 143d d421 97bd fc4f b5bd
000003e0: 1623 e33d b809 5fbd 10e4 f4bc 704e 7e3d
000003f0: 9827 eb3d 6c71 20bd aac4 b63d f85a e2bd
0.105720416 -0.07946089 -0.058670238 -0.12315382 0.101103485 -0.054067582 0.09932642 0.05768329
0.03200388 -0.019997507 -0.12207581 -0.06744602 -0.1168413 -0.08920702 -0.008884981 -0.11934097
-0.06686938 -0.055996254 0.014328539 0.009414092 -0.088792354 -0.021268621 -0.06691654 0.11794706
0.08615853 -0.08739409 0.0159114 0.056593776 0.031646267 0.10257228 -0.018752351 -0.08524807
0.06597489 0.02959767 -0.031406343 -0.057324395 0.06053114 0.0359762 0.04507102 -0.09325807
-0.02750878 -0.015137747 -0.034099117 0.024502233 0.081759006 0.05284205 0.011221126 0.07399689
-0.05845079 0.028697357 0.012803033 0.074743524 -0.11659545 -0.01958625 0.112154454 0.0026206821
0.06274234 -0.04623203 -0.033649743 -0.012493417 -0.0031247735 -0.11699256 0.003540814 0.023286283
0.11497331 8.3222985e-05 -0.021795228 0.04244438 0.08155456 0.09618209 -0.06390418 0.052069828
0.10164611 -0.09758146 0.07967204 0.026729673 0.10353352 -0.11141278 0.017096415 -0.0042034537
0.09814283 0.11235185 -0.025784835 -0.104009494 0.06286633 0.124511376 0.08736682 0.10151026
0.09637402 0.06068352 0.044641897 0.009305924 0.06597273 -0.10530846 0.10454871 0.065112635
0.07727903 0.12415822 0.0703073 0.025398716 0.11663118 0.09878786 -0.11559759 -0.112054035
-0.07872537 -0.032968536 -0.060461253 -0.10573098 0.045055106 -0.051614642 0.123472616 0.09636319
-0.10571134 -0.08260645 -0.0698228 0.01343897 -0.07700026 0.05311747 0.0066190064 0.03941761
-0.029059768 0.01090233 0.008977532 0.0801979 0.119805515 0.04815969 0.07640003 0.09055422
0.031297922 0.062095195 0.07484873 0.11991882 -0.04498899 -0.032216027 0.04348485 0.010158151
-0.01750438 -0.07409999 0.0042790323 -0.07253258 0.11042665 0.043717816 0.117136896 -0.04891634
-0.017568812 0.060935155 -0.06497121 0.023247242 0.028692082 -0.038241655 0.017479986 0.028117716
-0.11646949 -0.011763841 0.054727882 0.008240953 0.0334215 -0.092561334 0.009513229 -0.10647838
0.122230396 0.06570551 -0.012928277 0.08227311 0.0753376 -0.040917605 0.10470319 -0.060302317
-0.071115375 0.03607613 -0.018419176 -0.036342233 -0.027465865 0.098536074 0.082776025 0.1200297
-0.11816561 -0.081751764 -0.054946393 -0.122762695 0.11034727 0.08414893 -0.118845776 0.08770089
-0.110355064 -0.03200765 0.03909923 -0.025641456 -0.052070424 -0.0651748 0.087610975 -0.0810584
-0.096474156 -0.047199026 -0.11339663 -0.063899994 -0.093027234 0.088317424 0.07329407 0.09845357
0.11498909 0.0977343 -0.12135756 -0.031407043 -0.09417105 -0.051877707 0.09407565 -0.009393826
-0.048021257 0.111706346 0.07586959 -0.103928745 0.09376678 -0.1215221 -0.010620579 -0.0700084
0.056378797 0.10305783 -0.060881123 0.09966302 0.121060565 0.077610716 0.09253469 -0.116559684
-0.061258137 0.047918588 0.010855511 -0.08510956 -0.028018266 0.03551656 0.018998668 -0.046508253
0.046567395 -0.037340254 0.019172907 0.031213626 0.026436374 0.06673451 0.095027685 0.034784436
-0.094867304 -0.009625897 -0.1150755 -0.0047424734 -0.013922542 0.036205947 -0.07379499 -0.088531464
0.110906765 -0.054452628 -0.029893905 0.062086523 0.11482161 -0.039170668 0.089242294 -0.11052507

gst_cls_model.touchscreen_data_network.rnn.bias_ih_l0_reverse f4 [64]
00000000: 308d 8dbc d493 f3bd e223 df3d 4059 2b3b
00000010: c093 20bd 4057 66bd cac4 debd e8de 63bd
00000020: 808b e8bb 00d0 733d 4c30 17bd cce5 adbd
00000030: 50c2 ecbd 7ca1 453d 28a5 cd3d b89d e23d
00000040: 6062 3e3c 0017 5bba 7e56 9bbd 30d9 343d
00000050: 2015 38bc b84a d9bc 003b 00ba 64c2 953d
00000060: 942a be3d 461d 9c3d 24fc 39bd da91 a13d
00000070: 7044 dc3c 980e 92bd 3e0e c63d c0e0 473d
00000080: 00e8 d739 da95 d6bd 64d4 65bd ccdc 9abd
00000090: e453 423d 968b c5bd 4c9c 74bd d089 973d
000000a0: faf4 b9bd 00e6 e5b9 c065 a93d 206a e63d
000000b0: 10a1 fdbd 6042 043c 20bb ddbb d0a0 aabc
000000c0: 883e a63d f091 8b3c fe91 8fbd 9e36 973d
000000d0: 081d bb3c a032 093c 023e d4bd 8476 503d
000000e0: b04f d13d 78b3 44bd 66d9 e2bd 0268 b2bd
000000f0: 66ad f7bd 24b4 c43d e8eb cebc 80f6 e03b
-0.017279238 -0.1189343 0.10895516 0.0026145726 -0.039203405 -0.05623555 -0.10877378 -0.0556325
-0.007096708 0.059524536 -0.036911294 -0.08491096 -0.115605 0.048249707 0.10041267 0.11065239
0.011620134 -0.0008357614 -0.075848565 0.04415244 -0.011235505 -0.026524886 -0.0004891604 0.07312468
0.09285465 0.07622771 -0.045406476 0.07889147 0.026888102 -0.0713169 0.09670685 0.048798323
0.0004118085 -0.10477801 -0.056110755 -0.07561645 0.047443286 -0.096457645 -0.05971937 0.073993325
-0.09079929 -0.00043849647 0.082713604 0.112507105 -0.12384236 0.008072466 -0.006766692 -0.020828635
0.08117396 0.017037362 -0.07010268 0.07383464 0.022840992 0.008373886 -0.103633896 0.050894275
0.10220277 -0.048022717 -0.11076622 -0.08711244 -0.1209362 0.096046716 -0.025258973 0.0068653226

gst_cls_model.touchscreen_data_network.rnn.bias_hh_l0_reverse f4 [64]
00000000: d058 843c a88c 2cbd e8b7 4e3d ca02 aebd
00000010: ec08 9b3d 10e1 55bc 9870 933d f048 61bc
00000020: c448 2fbd c02b a33b bccc 16bd 48fe f03c
00000030: 304b a53d bc14 323d 5411 b3bd 203d 953b
00000040: 3c34 2fbd c0bb 763d 847d fe3d 00a5 6c3c
00000050: dac7 e73d 8ef3 883d 04de 28bd e4b1 7a3d
00000060: e8cb d4bc 324a fdbd 5c88 993d 0602 e03d
00000070: 7cd8 5cbd 7814 5f3d d42d ac3d 269d db3d
00000080: 56e0 af3d e2ac 943d 586b 1f3d cc49 273d
00000090: 743d 8a3d 4c5a 51bd d8d2 62bd 8460 c5bd
000000a0: 6236 cf3d 3c52 00bd c49c 863d 8835 de3c
000000b0: 100f 533c d8c0 b5bc 1a6e 9fbd b42c 6d3d
000000c0: 1c62 4a3d e04e ef3b 0878 8abc 92c9 e8bd
000000d0: d03b 413d a800 de3d 802e bdbc f2b9 d2bd
000000e0: fcbd c43d d650 f3bd 189d bbbc 88f4 00bd
000000f0: 3c78 60bd dcb4 1fbd a488 b73d b436 7c3d
0.01615563 -0.042126328 0.050468355 -0.08496626 0.07570061 -0.013054147 0.0719921 -0.0137503
-0.042794004 0.0049795806 -0.036816344 0.029418126 0.080709815 0.043476805 -0.087435395 0.004554406
-0.042774424 0.060237646 0.12426284 0.014443636 0.113174155 0.06687079 -0.041227356 0.061204806
-0.025976136 -0.12367667 0.074967116 0.10937886 -0.053917393 0.05446288 0.084071785 0.10723333
0.085877106 0.07259537 0.03892073 0.040841863 0.067500025 -0.051111504 -0.055376858 -0.096375495
0.101177946 -0.031328425 0.065728694 0.027125135 0.012882009 -0.022186682 -0.07784672 0.05790396
0.04940997 0.007303104 -0.016902938 -0.113665715 0.047176182 0.10839969 -0.023093462 -0.102893725
0.09606549 -0.118806526 -0.022902057 -0.031483203 -0.054802164 -0.03899084 0.08961609 0.061575606

gst_cls_model.sensor_data_network.main_gru.weight_ih_l0 f4 [192, 6]
00000000: 70b2 20bc 18a6 af3c 58ee b73d 6c19 97bd
00000010: a095 2fbc 3822 bcbd 4ed7 89bd e07a 37bc
00000020: 3677 eebd f08e e43c fcf0 d13d f0a7 96bd
00000030: 14f1 29bd a0fc 64bd dc86 0d3d 309e c5bd
00000040: 8031 a0bb fc47 993d 6805 a2bd d8e2 b73d
00000050: 76f1 893d c8c8 e53d 60ad ce3d fe28 d6bd
00000060: 6a76 a0bd d0a2 c9bc ce2c 8b3d 5886 023d
00000070: 4c29 8e3d 64c2 25bd aaf7 80bd b4c8 553d
00000080: cc9c 403d 7055 123c 06f8 cc3d 0cbe 593d
00000090: 8020 61bb a085 cebc c805 dfbd 1a08 b6bd
000000a0: 94ea d23d 00cc 24b9 e8ed d2bd a01e ba3c
000000b0: 8039 9bbd 3ab1 99bd dc57 563d c209 efbd
000000c0: 5a3d 8dbd 10e6 93bd a03f fcbc 5c67 413d
000000d0: 0e06 ebbd 6241 e9bd 00f3 363b 40fb 5d3d
000000e0: aa0a e3bd 6820 33bd 94ac acbd 52f0 98bd
000000f0: 1861 e13c 6c2b 8a3d 5087 c43c 3465 e33d
00000100: 90b7 81bd 88bb ffbc cc35 863d 14ca bdbd
00000110: 8075 b83d 0ca5 31bd 8069 513d 4697 aabd
00000120: daf3 b8bd b8d4 8b3c 7ed5 bd3d e6c4 8bbd
00000130: 5cb1 0c3d 7633 d7bd b057 023c 382a 493d
00000140: 02ab db3d 98e4 123d 401d ea3c 386e 233d
00000150: 10f1 54bc fec4 9cbd 6439 c7bd 40b5 56bc
00000160: bc60 a9bd e43d 7fbd d6ad c43d 40f1 3fbc
00000170: 640b c6bd 4012 213d 60e3 cbbb f826 0e3d
00000180: dedd c8bd e49c 0a3d d035 3cbc f6e0 d33d
00000190: 8400 443d d0cc ecbc 0039 233d e4c2 d23d
000001a0: b451 26bd 80a8 1d3b 8073 f03d 9a32 dcbd
000001b0: 8067 d93b 040d bebd ae0f ab3d 9094 5c3d
000001c0: 94ef 6e3d e08b 063c 3caa df3d f01c f1bc
000001d0: 0895 95bc 8010 a23c 4083 11bc 3841 f53c
000001e0: 58b0 863d a0eb 08bc f055 6bbc 84c6 ee3d
000001f0: a477 4c3d 4054 dfbd 440b 193d 9295 ff3d
00000200: 80ee 3bbb 906f b33c c407 013d 30e2 3a3c
00000210: 8eac eb3d f698 d83d 9c8d 9a3d 44fb 673d
00000220: c4ad 23bd 8c86 ae3d 6c90 c6bd acf4 093d
00000230: 801c ae3a 7021 593c a872 cb3c 6837 93bd
00000240: d639 a3bd e0b4 fc3c 1c6c 543d e4b8 f7bd
00000250: 2edd a43d 9867 b2bd 9c9c 493d a2c3 e53d
00000260: a8ea cfbc 98b5 edbc 50a1 de3c 7a27 8ebd
00000270: 3cc2 73bd 4a21 e6bd 4092 fdbb 0cc6 243d
00000280: 241a 12bd e0d3 fbbb b8f2 8bbc f0ed ff3c
00000290: 4e08 f5bd 2411 67bd b00c 0cbc 803e 9bba
000002a0: 3839 c53d ec92 d4bd 4eee 873d e8bc 883d
000002b0: 3865 c2bc 1cb2 fb3d 1073 48bd 6a03 90bd
000002c0: 0a54 bc3d e298 b8bd bea7 aebd 04dc 5d3d
000002d0: 225c 91bd b44e 96bd 7a94 c5bd c42c 39bd
000002e0: cc2c 08bd 8074 5bbc 0c0f e7bd e0c1 fd3d
000002f0: 9a1f fdbd 987d f53c 3a62 80bd 6c5c 20bd
00000300: aea3 a93d e04c 9e3d 1cd5 e1bd 360e e0bd
00000310: b03a e4bd 98d2 7dbd 3cb7 163d ecdb de3d
00000320: f471 abbd 06af 84bd 403c 8c3c 808a 2c3c
00000330: 6868 bb3d 842b 803d ba9a ab3d 0c13 643d
00000340: 9a14 f0bd 62af e4bd a0f4 e1bb 68c0 bbbd
00000350: f0c2 77bc 207e 363d 800a f63a 344a 05bd
00000360: c6f1 903d d2ef a43d d06d 19bc 6051 8c3c
00000370: 0ebf 823d 005b 59ba 3418 39bd a03b b9bd
00000380: a8c6 0c3d badc c93d aac4 c03d 585c b5bc
00000390: 421c a4bd 5cc3 d2bd 401b db3b 143e 3abd
000003a0: 2054 cebb 20a6 503c fe1a ee3d dc4a cb3d
000003b0: 5c06 c6bd b4cf 40bd aa05 913d 0043 bb3c
000003c0: 5441 d93d 4064 7b3c b8da cb3d 8252 e0bd
000003d0: 9655 b7bd 08a6 e9bd 786c 243d a077 bc3c
000003e0: 1427 453d d86b 833c f0fc 71bc 70ce 4b3c
000003f0: 5c68 97bd 00be 033b c0d7 213d 22bb c03d
-0.009808168 0.021441504 0.08981007 -0.07377896 -0.010716826 -0.09186214 -0.06730519 -0.011198729
-0.116438314 0.02790019 0.10251042 -0.0735625 -0.041489676 -0.055904984 0.03455244 -0.096493125
-0.0048887134 0.07484433 -0.079111874 0.08978814 0.06735508 0.112199366 0.100916624 -0.104570374
-0.07835086 -0.024613768 0.06795655 0.0318664 0.069414705 -0.04046859 -0.06297238 0.05219336
0.047024533 0.008931503 0.10008244 0.05315976 -0.0034351647 -0.025210202 -0.108897746 -0.08888264
0.102986485 -0.00015716255 -0.10299283 0.022719681 -0.07579327 -0.075045064 0.052329883 -0.11671783
-0.068964675 -0.07221615 -0.030792058 0.04721771 -0.11475764 -0.11389424 0.0027915835 0.05419469
-0.110860184 -0.043732077 -0.08431354 -0.074677125 0.027512118 0.06746563 0.023990303 0.11103287
-0.0633384 -0.031217352 0.0655323 -0.09267059 0.09006786 -0.04337029 0.051126003 -0.08329634
-0.09030886 0.017069206 0.09269236 -0.06824665 0.03434883 -0.10507862 0.007955477 0.04911253
0.107259765 0.035862535 0.0285784 0.039900035 -0.012996927 -0.07654761 -0.09727743 -0.013104737
-0.08270404 -0.062314883 0.09603469 -0.011715233 -0.09670141 0.039324045 -0.0062221736 0.034705132
-0.09807943 0.03384103 -0.011487439 0.10345642 0.047852054 -0.028906256 0.03984928 0.10291079
-0.040605262 0.0024056733 0.1174078 -0.10751839 0.0066346526 -0.09279826 0.083526 0.053852618
0.05833395 0.00821206 0.109211415 -0.029432744 -0.01825954 0.019783258 -0.00888139 0.029938325
0.06576604 -0.008356959 -0.014363751 0.116589576 0.049918786 -0.10904741 0.03736426 0.124797
-0.0028676093 0.021903783 0.031501547 0.011406466 0.115075216 0.1057605 0.07546541 0.05663611
-0.039960638 0.085217565 -0.09695515 0.033680603 0.001328364 0.013252601 0.024834946 -0.07188302
-0.07970016 0.030847967 0.051860914 -0.12095812 0.08049999 -0.08711165 0.04922162 0.112189546
-0.025380448 -0.029017255 0.02717653 -0.06941123 -0.05951141 -0.11236818 -0.0077383816 0.040227935
-0.03566946 -0.0076851696 -0.01708351 0.031241387 -0.119644746 -0.05641283 -0.008547947 -0.0011844188
0.09630054 -0.103795856 0.0663725 0.06676656 -0.023729905 0.12289831 -0.048937857 -0.07031901
0.09195717 -0.09013535 -0.08528088 0.0541649 -0.07097651 -0.0733923 -0.0964746 -0.045208707
-0.033245847 -0.013394475 -0.11282167 0.12390494 -0.12359543 0.029967114 -0.06268735 -0.03915064
0.082831725 0.077295065 -0.110269755 -0.109402105 -0.11144006 -0.061968416 0.03679584 0.108817905
-0.08371344 -0.064786956 0.017118573 0.010531068 0.09150773 0.062583 0.08379121 0.055682227
-0.117226794 -0.11166264 -0.0068956167 -0.09167558 -0.01512216 0.044553876 0.001877144 -0.03254147
0.070773646 0.080535546 -0.00936456 0.017128646 0.06384097 -0.0008291453 -0.045189098 -0.09044576
0.03436914 0.098565534 0.09412511 -0.02213876 -0.08013202 -0.10291168 0.006686598 -0.04546936
-0.0062966496 0.01273492 0.11626242 0.09926388 -0.09669182 -0.04707308 0.070811585 0.022859097
0.106081635 0.015343726 0.09953827 -0.10953237 -0.08951871 -0.11408621 0.040142506 0.02300626
0.04813297 0.016042635 -0.014769778 0.012439355 -0.07392952 0.0020102262 0.039512396 0.09410693

gst_cls_model.sensor_data_network.main_gru.weight_hh_l0 f4 [192, 64]
00000000: d807 3cbd 2469 7f3d 583d c23c 722d d7bd
00000010: c05e dfbd 0c02 6d3d e02d ea3c 8cf7 9ebd
00000020: 7af0 f63d 882e d83d 8a13 85bd de6f d9bd
00000030: 1696 d7bd 5a75 bbbd 5091 a33c 1c89 9e3d
00000040: e49c 59bd 76e7 ce3d 1045 b8bc 748c 2d3d
00000050: 50b5 363d b222 af3d 944e 2f3d 0088 ce3a
00000060: 3092 b03d 287f 553d 8037 6f3c 4083 d73b
00000070: 30bc 3a3d 4cb8 8ebd d0f5 a73c 801f e3bc
00000080: c88c 27bd 0806 bcbc c8a2 263d 44e4 c73d
00000090: 8028 aa3b 247d e93d 0481 263d 26dd b33d
000000a0: 6c12 603d c012 7fbb 7853 8c3c 5478 b8bd
000000b0: 447d f3bd 969e bcbd 8ca2 55bd ae24 f53d
000000c0: 2453 dabd a07e 353d c0b5 4fbd c026 423b
000000d0: 0ccb a0bd f03c 71bc 68d9 72bd 54e7 723d
000000e0: 38db 19bd 4e32 853d 64eb a0bd 90c4 52bc
000000f0: f2dd 8a3d 80dc 3dbb 007a ecba b041 2dbd
00000100: 7cac 63bd 74d8 0ebd b84c 23bd 92ba f93d
00000110: a485 d93d 60fd d33b 20c5 673d 46bc e53d
00000120: 7a35 8cbd ccee 0d3d 70f8 dbbd dca4 433d
00000130: e4fe 22bd 4cc8 8d3d e84d ecbd 3c50 fc3d
00000140: e021 603c 14d6 9e3d c691 ddbd 5c60 6f3d
00000150: 4a84 a53d 00ba 643b 8021 b8bb 4894 3b3d
00000160: fac4 893d 646c ad3d 8424 7ebd 5479 b63d
00000170: 0c4a 97bd aa48 833d 60de c5bd 60ec 9dbd
00000180: fcb5 e53d 6869 0a3d e8e1 32bd 025c d7bd
00000190: b0e4 2abc 2cc6 bf3d ccae 793d aa36 b4bd
000001a0: 8a79 c83d a816 09bd 98ba d3bc 1c39 c83d
000001b0: 3443 2d3d 00af f9bc 5875 34bd bc23 96bd
000001c0: 206c e9bc a40d c03d 945c 343d 1045 20bc
000001d0: b8c9 6ebd 50a6 25bc 1852 d93d 2242 bdbd
000001e0: a80e ff3c 7859 413d 5650 bc3d 68a1 7b3d
000001f0: 804d 55bd 028f 89bd 9029 50bd 60d1 fa3d
00000200: 8ee3 efbd 0082 f3b9 8a00 b2bd e847 89bc
00000210: 7e53 b53d bc45 febd 6e8a 94bd ce64 ed3d
00000220: 10f4 103d 82b9 d2bd 8032 eb3b 9048 b83c
00000230: f637 8f3d 4e63 8a3d 403c 85bb a6c1 8abd
00000240: 800f 0d3b dce6 ca3d c031 b2bc 0454 083d
00000250: 9827 0abd 98c5 1a3d e2d7 d9bd 6aab b9bd
00000260: 0871 dd3c 08f3 243d 001b 733d b0dc 12bd
00000270: 0049 6a3d 6074 c7bc 5aec f1bd ac08 4a3d
00000280: 6448 0d3d 7054 78bc 0031 7f3b 1499 7f3d
00000290: 9858 e1bc 989f 853d 00eb f5bc 342e 99bd
000002a0: c05c 013d 8298 9fbd 50f0 813c d052 e03c
000002b0: 02a6 bf3d 4856 fd3c dc59 45bd b004 293d
000002c0: fcf3 863d dae2 87bd 4069 103c 04c4 55bd
000002d0: ccce 2d3d f4f5 083d d8d7 ed3d fa92 ac3d
000002e0: e8f7 af3c 9a85 88bd b488 dcbd d410 0f3d
000002f0: 2029 ec3c 9887 863d 50d1 39bc 088e 13bd
00000300: a050 a23c 980b d1bd d259 9f3d 28a1 b03d
00000310: 1cfd 353d 8aed 853d 10ea 4b3d 18cb eabc
00000320: 445e 0a3d a0f0 86bc 4018 3cbd 9c1b a13d
00000330: fc1a 5bbd b086 79bd 20b4 28bc c487 493d
00000340: cc81 b1bd 588b cebc 400e df3b 1812 a3bd
00000350: b2e7 b03d 5084 1a3d ec70 30bd c073 79bb
00000360: b4a9 aabd 6e0f ba3d 22a7 c93d ecfb cabd
00000370: b674 9fbd dc9a b8bd aeb3 9a3d 0c90 6cbd
00000380: 2825 ebbc 107d f13d b41c 403d 00ff 813a
00000390: ec10 f2bd b22a d13d 005f 263b eedd aebd
000003a0: 0ecf f53d b4fa 3c3d 76e7 a03d a01b 0e3d
000003b0: 6861 d13c ec17 c83d e6ba a53d 68ec 9b3c
000003c0: e039 0cbd deb3 f63d e0da be3d 54ee 2cbd
000003d0: c2de dabd 185e a3bc 54f8 a73d a042 d2bc
000003e0: 107e 92bc 007f d6bc c2b0 c53d 929c cc3d
000003f0: 60ea 2dbc a07f babd dceb 3abd 8005 dcbd
-0.045905918 0.06235613 0.023710892 -0.10506715 -0.10906744 0.05786328 0.028586328 -0.077620596
0.12057586 0.1055575 -0.064978674 -0.1061704 -0.105266735 -0.091532424 0.019966751 0.07740995
-0.05312814 0.101027414 -0.022493869 0.042370275 0.044606507 0.085515395 0.042799547 0.0015757084
0.08621633 0.05212322 0.014600635 0.0065769255 0.045589626 -0.069687456 0.020502955 -0.027724981
-0.040905744 -0.022952095 0.040682584 0.09760335 0.0051928163 0.11400822 0.040650383 0.08782415
0.05470507 -0.0038921088 0.017129645 -0.09007326 -0.11889127 -0.09209935 -0.05215697 0.11969887
-0.10660389 0.044310212 -0.05071044 0.0029625148 -0.07851228 -0.014724001 -0.059289366 0.059302643
-0.03756258 0.065037355 -0.07857397 -0.012864247 0.06780614 -0.002897054 -0.001804173 -0.042298973
-0.055584416 -0.034874395 -0.039868087 0.121937886 0.10621193 0.0064694136 0.056584477 0.11217551
-0.06846137 0.034651563 -0.10740745 0.047764644 -0.039793864 0.06922969 -0.11538297 0.12319991
0.013679951 0.07755676 -0.1081882 0.058441505 0.08081873 0.0034900904 -0.005619228 0.04579571
0.067270234 0.084679395 -0.062046543 0.0890986 -0.0738717 0.06410344 -0.09661555 -0.077111006
0.112163514 0.03379193 -0.043672472 -0.10515596 -0.0104305 0.0936397 0.060957715 -0.08799489
0.09788807 -0.033468872 -0.02584581 0.09776518 0.042300418 -0.030478954 -0.04405722 -0.073310345
-0.02849394 0.09377602 0.044033602 -0.009782091 -0.058297843 -0.010110453 0.10611361 -0.092411295
0.031134918 0.047204465 0.0919501 0.061433226 -0.052075863 -0.0671673 -0.050820887 0.12246966
-0.117133245 -0.0004644543 -0.08691509 -0.01675792 0.088538155 -0.124156445 -0.07252966 0.115914926
0.035389006 -0.10289289 0.007177651 0.022495538 0.069930956 0.06757222 -0.0040660203 -0.06775217
0.0021524131 0.09907314 -0.021752238 0.03328325 -0.033729166 0.037786096 -0.106368795 -0.09065898
0.027031437 0.040270835 0.05935192 -0.035854995 0.057198524 -0.024347484 -0.118126586 0.049324676
0.034492865 -0.01515685 0.0038939118 0.062401846 -0.027508065 0.06524581 -0.030019283 -0.07479516
0.031582594 -0.077927604 0.01586166 0.027383238 0.09357835 0.030924931 -0.0481814 0.041264236
0.06589505 -0.066350654 0.008814156 -0.05218889 0.042433545 0.033437684 0.116134346 0.08426471
0.021480516 -0.066661075 -0.107682616 0.034928158 0.028828204 0.06568831 -0.011341408 -0.036024123
0.019813836 -0.102072895 0.07780804 0.08624488 0.044430837 0.065394476 0.049783766 -0.028661296
0.033781305 -0.01647216 -0.045921564 0.07866594 -0.05349253 -0.060919464 -0.010296851 0.04920174
-0.08667335 -0.025212929 0.0068071187 -0.079624355 0.086379424 0.03772384 -0.04307644 -0.0038063377
-0.083331496 0.09084974 0.09846331 -0.099113315 -0.07785933 -0.09013912 0.075538024 -0.05775456
-0.02870424 0.11791432 0.046902373 0.0009917915 -0.11819634 0.102132216 0.0025386214 -0.085384235
0.12002383 0.046137527 0.07856648 0.034694314 0.025559142 0.09770188 0.08092289 0.019033626
-0.03423488 0.12046026 0.09319091 -0.042219475 -0.10687019 -0.019942328 0.08201662 -0.025666535
-0.017882377 -0.026183605 0.096528545 0.09990801 -0.010614961 -0.09106374 -0.04563509 -0.107432365

gst_cls_model.sensor_data_network.main_gru.bias_ih_l0 f4 [192]
00000000: 403f 70bd 0c75 5bbd a419 e8bd 20cc e83d
00000010: c022 dbbb 6099 2bbc 4ca1 333d a40e 323d
00000020: 981a fbbc 3074 fa3c e03d 903b 4447 0d3d
00000030: 64cc 79bd 14fb 20bd be73 9abd d4d6 71bd
00000040: c0e1 edbb a2bb f53d 2c63 c3bd a2f6 efbd
00000050: 8072 b43c a899 34bd 20b5 ecbd d0f6 0c3d
00000060: caac bfbd 68c8 293d 4080 6cbd dc37 733d
00000070: d6b4 a9bd 6068 df3b 8ef5 cebd 1ca8 7f3d
00000080: 004d eaba a87f d8bd dc91 453d 4007 733b
00000090: f6cf abbd 849f 52bd a034 e43d 9c2f ebbd
000000a0: 48da edbd 2091 ddbb a25d f5bd 506b 90bc
000000b0: 88ec d6bd e42b e5bd 60ce d0bb cabb c53d
000000c0: 246e 79bd ca56 803d c064 0bbb a434 473d
000000d0: 2a02 eabd 10ba dc3c f05c d93d e68b 843d
000000e0: d83e cf3d a00e 71bc a07d c5bc 4c4c 99bd
000000f0: 0267 af3d 38b2 d03d de29 f93d d240 a43d
00000100: c00f e63b fa0e eb3d 9060 0d3c cc7d a63d
00000110: f0e2 e9bd 92ea b03d f8d7 713d 9ae6 d9bd
00000120: 604a e2bb f66c b63d 82c4 e8bd 1c74 cb3d
00000130: 0229 9abd c467 b7bd 243d 603d d636 933d
00000140: 80d8 7bbd d051 07bc 6014 b3bb 72a2 c3bd
00000150: b467 82bd 40d7 8a3d d8ce 5b3d c04d 833b
00000160: 78a0 aa3c 38a3 febd 0e3b e4bd 7e98 ef3d
00000170: 20ec fcbb ba81 9dbd 3240 a83d f8a6 4c3d
00000180: 7851 96bd f6ec f9bd f808 8c3c f078 2fbc
00000190: 6a92 bf3d 5eb3 a5bd 90bd dcbc 36c1 d63d
000001a0: bc84 f13d ce7d fc3d 285a c3bc 6c94 013d
000001b0: a686 d83d e81a 443d d067 2fbd 1a9b ea3d
000001c0: 4466 4e3d 1024 31bc 2a29 b8bd 6079 133c
000001d0: 5829 113d 8a16 afbd 28ed fe3d 244f 223d
000001e0: 80ce 96ba 8c50 463d 76f2 e4bd 608b 353d
000001f0: 70af cebc 4840 6a3d d0cf 6c3d 7827 7f3d
00000200: 1057 8fbd feec ca3d 2055 edbb 1e84 dfbd
00000210: 7c58 673d d8db 27bd ac8e e13d 8a7a b03d
00000220: 8068 3fbc b827 f7bd ec72 7cbd 0815 b83c
00000230: e8e6 9ebd a019 cbbc e89b a43d 2a63 fbbd
00000240: d0be 9abd 52d1 d23d d872 fb3d 30fe 16bc
00000250: d0ec 483c c87b 46bd 18f4 dc3c 404c 953c
00000260: 564f b33d 0c6b de3d 00f0 3b39 c023 65bc
00000270: 3ae0 b6bd 5088 93bc 0035 903c 2467 ccbd
00000280: 209d 9dbc a800 803d 80ba d43c a0ef 383c
00000290: 2e02 d13d c0fb cbbc c255 ad3d 30fe 18bd
000002a0: 7044 033d d018 d53c 0827 b9bd 78b0 f13d
000002b0: d0b8 0b3c 78dd b53c 388a d53c 809f 763d
000002c0: 240e 553d b8aa 823c 2c22 5cbd 40b1 cc3b
000002d0: 2067 bf3b ba92 bb3d 9605 adbd 007c d5b9
000002e0: 04a4 debd 14f8 0ebd 98df 5abd 58e7 d2bc
000002f0: d4a0 213d 7289 ed3d 6028 813d 0447 bfbd
-0.05865407 -0.05357842 -0.113330156 0.11367059 -0.006687492 -0.010473579 0.043854997 0.043470994
-0.03065233 0.03057298 0.0044019073 0.034491792 -0.060985938 -0.039301947 -0.07541607 -0.059042767
-0.0072595775 0.11998679 -0.095404 -0.11716963 0.022027254 -0.04409185 -0.11557984 0.034415066
-0.09359129 0.041450888 -0.057739496 0.059379444 -0.08286445 0.0068178624 -0.101054296 0.06241618
-0.0017875731 -0.105712235 0.048234805 0.0037083179 -0.08389275 -0.051421657 0.1114285 -0.1148369
-0.116138995 -0.006761685 -0.1198075 -0.017629296 -0.104943335 -0.11190012 -0.006372258 0.096549585
-0.060896054 0.06266554 -0.0021269768 0.048634186 -0.11426194 0.02694419 0.106134295 0.06471996
0.10119408 -0.0147129595 -0.024107754 -0.074852556 0.08564569 0.101902425 0.12166189 0.08020176
0.0070209205 0.11477466 0.008628979 0.081294626 -0.11420238 0.08638491 0.059043854 -0.10639687
-0.006905839 0.089075014 -0.11365606 0.099342555 -0.07527353 -0.089553386 0.05474581 0.071881935
-0.061485767 -0.008259252 -0.0054650754 -0.09552468 -0.06367436 0.06779337 0.05366406 0.0040070713
0.02082847 -0.12433475 -0.11144076 0.116990075 -0.007718578 -0.07690759 0.08215369 0.04996392
-0.07339758 -0.122034 0.01709412 -0.010709986 0.09354098 -0.08090852 -0.02694586 0.10486071
0.11792895 0.12328683 -0.0238467 0.031635687 0.10572557 0.047877222 -0.042823613 0.114553645
0.050390497 -0.010811821 -0.089922264 0.009001106 0.03543982 -0.08549221 0.12447578 0.039626256
-0.0011505634 0.04841666 -0.11179058 0.04432237 -0.02523014 0.05719021 0.057815373 0.0622935
-0.06999028 0.09908484 -0.0072428137 -0.10913871 0.05648087 -0.040981144 0.110135406 0.086171225
-0.01168263 -0.120681226 -0.061633036 0.022470966 -0.077588856 -0.024792492 0.08037549 -0.122747734
-0.07555926 0.10293831 0.12277764 -0.009215876 0.012263492 -0.04845789 0.026971862 0.018224835
0.087553665 0.10860261 0.00017923117 -0.013985574 -0.089294866 -0.018009335 0.017603397 -0.0998061
-0.019239962 0.06250125 0.025967836 0.0112876 0.10205494 -0.024900317 0.08463623 -0.037351787
0.03204769 0.026012808 -0.09040648 0.11801237 0.008527949 0.022200331 0.026066884 0.060210705
0.05201544 0.015950546 -0.053743526 0.006246716 0.005841151 0.09158845 -0.08448331 -0.00040718913
-0.10871127 -0.034904554 -0.053435892 -0.025745079 0.03946002 0.11598481 0.06306529 -0.09339717
