checkpoints/BioMetricNetwork_2023-09-23_09-37-26.pth (torch, 348307 bytes, 28 tensors)

gst_cls_model.touchscreen_data_network.main_gru.weight_ih_l0 f4 [192, 4]
0	0xbd7c48a4	-0.061592713
1	0x3da61d4e	0.08111058
2	0x3c817d88	0.015806928
3	0x3d8c584c	0.06852779
4	0xbdef0936	-0.11671679
5	0xbdb19ed6	-0.08672874
6	0x3c199030	0.009372756
7	0xbcf5b638	-0.029994115
8	0xbda94e98	-0.08266944
9	0x3d727c7c	0.05920075
10	0x3dbdf6b2	0.09275569
11	0xbd183ec0	-0.037169218
12	0x3dac93f6	0.08426659
13	0xbd1e6b64	-0.038676634
14	0xbdc84474	-0.097786814
15	0x3ded9714	0.116010815
16	0x3dd90348	0.10596329
17	0xbc918738	-0.017764673
18	0xbcab2590	-0.020891935
19	0x3d24cad0	0.04023248
20	0x3d2368f4	0.039895013
21	0xbdd06b4c	-0.10176715
22	0x3c28a090	0.010292187
23	0xbdf56cb4	-0.11983624
24	0x3c81e038	0.015853986
25	0x3c04d210	0.008106723
26	0x3d9af7e8	0.075668156
27	0xbd2c039c	-0.04199563
28	0x3d73c858	0.059517235
29	0x3d74a1d4	0.059724644
30	0xbdfeb788	-0.124373496
31	0xbb855400	-0.0040688515
32	0x3c490c30	0.012270972
33	0xbdac0fa8	-0.08401424
34	0xbdb2db78	-0.087332666
35	0xbc5d1960	-0.013494819
36	0xbd928622	-0.0715449
37	0xbc383850	-0.011243895
38	0xbcb53cb0	-0.022123665
39	0xbd2c74c4	-0.042103544
40	0xbc74c1a0	-0.014938742
41	0xbdf56d8e	-0.119837865
42	0x3dea212c	0.11432108
43	0x3df9de92	0.12200655
44	0xbd14e4a4	-0.03635086
45	0xba88e680	-0.0010444671
46	0x3dc34b3c	0.09535834
47	0xbde2b71c	-0.110700816
48	0x3d8fb304	0.070165664
49	0x3dddeb8e	0.10835944
50	0x3bd51480	0.006502688
51	0x3d608f84	0.054824367
52	0x3c98bdc0	0.018645167
53	0xbd65e124	-0.056122914
54	0x3d7b0374	0.06128259
55	0x3de73282	0.112889305
56	0x3d57b07c	0.052658543
57	0x3c19c360	0.00938496
58	0x3d92c5e2	0.071666494
59	0xbd3ca9d8	-0.046060413
60	0x3dbfb2ac	0.09360251
61	0x3b24f780	0.0025171936
62	0x3c8564d0	0.016283423
63	0x3dc2dd9a	0.095149234
64	0x3ca48ed8	0.020087644
65	0x3d9918d0	0.07475436
66	0xbdb4df9e	-0.08831714
67	0xbd65343c	-0.055958018
68	0x3ce13308	0.027490154
69	0xbd138794	-0.03601797
70	0xbddff7f8	-0.10935968
71	0xbcb33c70	-0.021879405
72	0x3dd3a886	0.10334878
73	0xbd7ec570	-0.06220001
74	0x3d86aaae	0.06575523
75	0xbd7b86c8	-0.061407834
76	0x3dec60cc	0.115419
77	0xbd2f4f10	-0.04280001
78	0xbd5ffb54	-0.054683045
79	0x3d1f7570	0.038930357
80	0xbd02d294	-0.031939104
81	0xbdf7e7bc	-0.12104747
82	0xbcb27b60	-0.021787345
83	0xbdf4eb88	-0.119589865
84	0xbca3e230	-0.020005316
85	0xbdbaa26c	-0.09113011
86	0xbd7b3428	-0.061329037
87	0xbdec9dd4	-0.11553541
88	0x3d0b6178	0.0340285
89	0x3d476bf4	0.048686936
90	0x3dd723e6	0.10504894
91	0xbd8fc31a	-0.070196345
92	0xbdbcad1a	-0.09212704
93	0xbde4d93e	-0.11174248
94	0x3d873b8e	0.06603156
95	0x3d6e1938	0.05812952
96	0x3defb022	0.117035165
97	0x3cd26ab0	0.025685638
98	0x3dd86dd0	0.1056782
99	0xbcd1d248	-0.025612965
100	0xbdb6eaba	-0.08931489
101	0x3ccecdd8	0.025244638
102	0xbd38ab84	-0.045085445
103	0x3daf833e	0.08569954
104	0x3de0e15a	0.109804824
105	0x3b4c4200	0.0031167269
106	0x3cb0cb88	0.021581426
107	0x3d484870	0.048897207
108	0x3d3a83e8	0.04553595
109	0xbdb04ae4	-0.08608034
110	0x3dd31f48	0.10308701
111	0xbd89277c	-0.06696984
112	0x3c4acf90	0.012378588
113	0xbd20d38c	-0.039264247
114	0xbdc1f4ee	-0.09470545
115	0x3d38f448	0.04515484
116	0xbccf9f68	-0.025344566
117	0x3dee4074	0.11633387
118	0x3d435d3c	0.047696337
119	0x3c2799c0	0.010229528
120	0x3da5d3d2	0.08097042
121	0xbd3420dc	-0.04397665
122	0x3d66490c	0.056222007
123	0x3d0ea1a0	0.034822106
124	0x3d76f684	0.06029369
125	0x3d288ea0	0.041151643
126	0x3d5dfbf8	0.054195374
127	0x3de07fd6	0.10961883
128	0x3c4ab7a0	0.012372881
129	0x3c9c62b8	0.019090042
130	0x3de059d0	0.109546304
131	0x3df86530	0.12128675
132	0x3db49774	0.0881795
133	0x3ce547a8	0.02798827
134	0x3dc3e054	0.095642716
135	0x3d4450cc	0.047928616
136	0x3d2dbd24	0.042416707
137	0x3d11b8a8	0.035576493
138	0x3de17298	0.11008185
139	0xbd3d1e00	-0.04617119
140	0xbd418de8	-0.047254473
141	0xbd771448	-0.060322076
142	0x3dae10f2	0.08499326
143	0xbdb4eec8	-0.088346064
144	0x3d931daa	0.07183392
145	0xbc706a70	-0.014673814
146	0x3de5ba0c	0.11217126
147	0xbdb1cda4	-0.08681801
148	0x3d7fd284	0.062456623
149	0xbddf9a62	-0.10918118
150	0xbdf2cc8e	-0.11855422
151	0x3d52a0fc	0.051423058
152	0xbdc384c8	-0.095468104
153	0x3c8dc0a0	0.017303765
154	0xbd89a6dc	-0.06721279
155	0x3da70b5e	0.08156465
156	0x3dbc119a	0.09183045
157	0x3df43f62	0.11926152
158	0xbdb8502c	-0.089996666
159	0xbd4bea40	-0.049783945
160	0xbdb98da4	-0.09060219
161	0xbdad9d46	-0.08477263
162	0xbdaf1206	-0.085483596
163	0xbdc0acc8	-0.094079554
164	0x3cb97548	0.022638932
165	0xbbd6c620	-0.00655438
166	0xbd3a62bc	-0.045504317
167	0x3db662ae	0.089055404
168	0x3d168aec	0.03675358
169	0xbc05f2a0	-0.008175522
170	0xbd7eaeb8	-0.062178344
171	0xbddded68	-0.10836297
172	0x3dd286e8	0.102796376
173	0x3d8d9f40	0.0691514
174	0xbdb1420c	-0.086551756
175	0x3d14fafc	0.03637217
176	0x3d2b30dc	0.041794643
177	0xbdd5bd1e	-0.10436462
178	0xbc2617d0	-0.010137513
179	0xbdc91076	-0.09817593
180	0xbc443d70	-0.0119775385
181	0xbdcd4af4	-0.10024062
182	0xbbea18a0	-0.007144049
183	0x3d48e6dc	0.04904829
184	0x3c980888	0.018558756
185	0x3d4279a8	0.0474793
186	0xbd556fd0	-0.052108586
187	0xbd2fdf68	-0.042937666
188	0x3dd4a93c	0.103838414
189	0xbc396be0	-0.011317223
190	0x3d4e1c98	0.050320238
191	0x3dd5789c	0.10423395
192	0xbba49e60	-0.0050237626
193	0xbdb8d966	-0.090258405
194	0xbd6184e0	-0.05505836
195	0x3df39906	0.11894421
196	0x3dc9d574	0.09855166
197	0xbd977dec	-0.073970646
198	0x3d076908	0.03305915
199	0x3bf17c00	0.0073695183
200	0xbdb7044a	-0.08936365
201	0x3d1456e8	0.036215693
202	0x3df95058	0.121735275
203	0x3cd0efe8	0.025505021
204	0xbdc5b36e	-0.09653364
205	0xbda48b56	-0.08034389
206	0x3da65336	0.0812134
207	0x3dbc8358	0.09204739
208	0xbc1d2740	-0.009591877
209	0xbd5e93f0	-0.054340303
210	0x3d874498	0.0660488
211	0xbd9f64da	-0.07782908
212	0xbcda7ae0	-0.02666992
213	0xbdd12328	-0.10211784
214	0xbd9b04c2	-0.07569267
215	0xbd629a98	-0.055323213
216	0xbd748f44	-0.05970694
217	0xbdf1fac2	-0.118154064
218	0xbdc50a54	-0.096211106
219	0x3dcfb95c	0.10142776
220	0xbcc22450	-0.023698956
221	0x3da5fc84	0.08104804
222	0xbd64711c	-0.055771932
223	0xbde153f2	-0.110023394
224	0x3b2a3000	0.0025968552
225	0x3dde1ce4	0.10845354
226	0x3d4da74c	0.050208375
227	0xbde57338	-0.11203617
228	0xbdb38338	-0.08765262
229	0x3ce5bc78	0.02804397
230	0x3dd1c158	0.102419555
231	0x3da04a66	0.078266904
232	0x3c766e20	0.015040904
233	0xbdf226dc	-0.11823818
234	0xbd9850ce	-0.07437287
235	0x3c90ca40	0.017674565
236	0xbda6caee	-0.081441745
237	0xbcbb3458	-0.022852108
238	0xbc1a5550	-0.009419754
239	0xbc95bdf0	-0.018279046
240	0x3d483c60	0.048885703
241	0xbbe2d420	-0.00692226
242	0x3d0f8c5c	0.035045967
243	0x3dc04e92	0.09389986
244	0xbd94065a	-0.07227774
245	0xbbe9ca60	-0.0071347207
246	0x3cc71d40	0.02430594
247	0xbd08ead4	-0.033427075
248	0xbdcf25ac	-0.10114607
249	0xbd55cdf8	-0.05219838
250	0xbcac3bf8	-0.02102469
251	0xbc969b20	-0.018384516
252	0x3d24938c	0.040179774
253	0xbde6409e	-0.112427935
254	0xbd96bb5a	-0.07359953
255	0xbde401e4	-0.11133173

gst_cls_model.touchscreen_data_network.main_gru.weight_hh_l0 f4 [192, 64]
0	0xbc5d6cc0	-0.013514698
1	0xbd4bb0b8	-0.04972908
2	0xbd5913f4	-0.052997544
3	0x3d94dbdc	0.07268497
4	0xbd0eb890	-0.03484398
5	0xbd98e3b6	-0.074653074
6	0xbd0fef90	-0.035140574
7	0x3dd4bf66	0.10388069
8	0x3d89e8d6	0.06733863
9	0xbde9316e	-0.11386381
10	0xbd6b40c0	-0.057434797
11	0x3ccb5f60	0.024825752
12	0x3b8b4d40	0.0042511523
13	0xbd30f810	-0.04320532
14	0xbd5dcf20	-0.054152608
15	0x3c138060	0.009002775
16	0xbdcd5b98	-0.10027236
17	0xbc53bc40	-0.0129233
18	0xbd0cd188	-0.034379512
19	0xbdca680e	-0.09883128
20	0xbde8316e	-0.11337553
21	0xbcbf78a0	-0.023372948
22	0xbd9403c6	-0.07227282
23	0xbd83aef0	-0.06429851
24	0x3cd0a020	0.025466979
25	0xbd371da0	-0.044705987
26	0xbde55ca0	-0.111993074
27	0xbd9c42fe	-0.07629965
28	0x3b815a00	0.0039474964
29	0x3d06cd50	0.032910645
30	0x3c1d81d0	0.009613469
31	0x3cbfde48	0.023421422
32	0x3d40ba30	0.047052562
33	0xbd6430d8	-0.055710644
34	0x3c054d20	0.008136064
35	0x3d296420	0.041355252
36	0x3d6b8804	0.05750276
37	0x3ceb6780	0.028735876
38	0xbd2a892c	-0.041634724
39	0xbd871a0e	-0.065967664
40	0xbdfcaac0	-0.123372555
41	0xbd8d45ae	-0.06898056
42	0x3de72f64	0.11288336
43	0xbd52d5b4	-0.051473334
44	0x3d3c7080	0.046005726
45	0x3dfecaa4	0.124409944
46	0x3d2be054	0.041961983
47	0xbdab7bb8	-0.08373207
48	0x3c988538	0.018618211
49	0xbddcadd2	-0.10775341
50	0x3c6aaf90	0.014324084
51	0x3de5ea50	0.11226332
52	0x3dd23824	0.10264614
53	0x3aebdf00	0.0017995536
54	0x3d0a626c	0.03378527
55	0x3d68e9a4	0.056863442
56	0xbb41f880	-0.002959758
57	0xbd7575d0	-0.059926808
58	0x3df1e6d2	0.118116036
59	0x3df2b73e	0.11851357
60	0x3ccdcae8	0.025121167
61	0x3d632a20	0.055460095
62	0xbdf48f84	-0.11941436
63	0xbde13c54	-0.10997835
64	0x3ccd0a88	0.025029436
65	0xbdff2864	-0.12458876
66	0x3dbe2c74	0.092858225
67	0xbdc329a4	-0.09529427
68	0xbdcac66e	-0.09901129
69	0x3c6975d0	0.01424928
70	0xbd9c5ac0	-0.07634497
71	0xbd535948	-0.051598817
72	0xbc948070	-0.01812765
73	0xbc3114b0	-0.010808155
74	0xbd92f14a	-0.071749285
75	0xbdc40d9c	-0.09572908
76	0x3d9e573a	0.07731481
77	0xbd4d8ffc	-0.050186142
78	0x3da049ea	0.07826598
79	0xbc06b130	-0.008220956
80	0x3c120c10	0.008914009
81	0x3d04c054	0.03240998
82	0xbcd22eb8	-0.025657043
83	0x3d9b975e	0.075972304
84	0x3de1ad4a	0.110193804
85	0x3bac6340	0.005260855
86	0xbcf81638	-0.030284032
87	0xbdce5a1c	-0.10075781
88	0x3dd47dce	0.10375558
89	0x3d3520a0	0.044220567
90	0xbdffd6e8	-0.12492162
91	0x3d305d34	0.043057635
92	0xbd9b9fd4	-0.07598844
93	0xbdbbd7ce	-0.09172021
94	0xbddce558	-0.10785931
95	0x3d0d92c8	0.03456381
96	0x3c8eb528	0.017420366
97	0xbd8c5b6c	-0.06853375
98	0xbd00067c	-0.031256184
99	0xbcc84710	-0.024447948
100	0xbd85b420	-0.06528497
101	0xbd281840	-0.04103875
102	0xbd766398	-0.060153574
103	0x3dae7caa	0.085198715
104	0xbcdae030	-0.026718229
105	0x3da672ee	0.0812739
106	0xbc3dc800	-0.011583328
107	0xbd2eaa48	-0.04264286
108	0x3d82a704	0.06379512
109	0x3d7cd288	0.061724216
110	0x3d5c4258	0.053774208
111	0xbdab2f04	-0.08358577
112	0xbc91ef40	-0.017814279
113	0x3b5fab00	0.0034129024
114	0xbd2473e0	-0.04014957
115	0x3cbd9100	0.02314043
116	0x3da44a08	0.08021933
117	0xbd962c14	-0.07332626
118	0xbdcc55aa	-0.099772766
119	0x3ced5418	0.028970763
120	0xba178d00	-0.00057812035
121	0x3dcfcaaa	0.10146077
122	0xbd834af0	-0.064107776
123	0xbdef3e26	-0.11681776
124	0xbd9348da	-0.0719163
125	0x3d0f9cf0	0.035061777
126	0xbd74d884	-0.059776798
127	0xbda545fc	-0.08069989
128	0x3dfa5d8a	0.122248724
129	0x3dade5be	0.084910855
130	0xbd34071c	-0.043952093
131	0xbd530d48	-0.051526338
132	0x3d591f08	0.05300811
133	0x3d1b5910	0.037926733
134	0xbda5ac48	-0.08089501
135	0x3cea3110	0.028587848
136	0xbd90ed34	-0.07076493
137	0xbd307a08	-0.043085128
138	0x3de8cccc	0.11367187
139	0xbbd10260	-0.006378457
140	0xbd51d9b0	-0.051232994
141	0x3d57e074	0.05270429
142	0xbdac2868	-0.084061444
143	0xbd5a5cbc	-0.053311095
144	0xbd55f204	-0.052232757
145	0x3df57bbe	0.119864926
146	0xbd3b23c4	-0.045688406
147	0x3d137fe0	0.036010623
148	0x3d98fad8	0.0746972
149	0xbc1af790	-0.009458438
150	0x3df3c93c	0.11903617
151	0x3ddf8b0a	0.109151915
152	0x3d902216	0.070377514
153	0x3dc1bf18	0.09460276
154	0xb9df4c00	-0.000425905
155	0xbc7a30a0	-0.015270382
156	0x3bd962a0	0.0066340715
157	0x3c7531d0	0.0149654895
158	0xbd9e6c24	-0.0773547
159	0xbdfccf06	-0.12344174
160	0x3ddcaeb0	0.107755065
161	0x3d52bc10	0.05144888
162	0x3dc98d3e	0.09841393
163	0xbd762678	-0.06009528
164	0xbd6f3534	-0.058400348
165	0xbcf2fc88	-0.029661432
166	0xbdc41f4c	-0.09576282
167	0xbcdca6e0	-0.026935041
168	0xbd8f4a60	-0.06996608
169	0x3cf93d78	0.030424818
170	0xbd9fad82	-0.07796766
171	0xbdd9b09c	-0.10629389
172	0x3c942d28	0.018087938
173	0x3db93706	0.09043698
174	0xbdf507a8	-0.11964351
175	0xbce929a0	-0.028462231
176	0xbd9d60fc	-0.07684514
177	0xbd1017b4	-0.035178855
178	0xbdf1f78a	-0.118147925
179	0x3dccac0c	0.09993753
180	0x3cd931f0	0.02651307
181	0x3d905972	0.0704831
182	0xbcf31178	-0.029671416
183	0x3cdfdc10	0.027326614
184	0x3d07d58c	0.03316264
185	0xbd836a8a	-0.06416805
186	0xbdee6244	-0.116398364
187	0x3cfc5e18	0.030806586
188	0xbd99bd40	-0.075068
189	0xbd00399c	-0.03130494
190	0xbda9eac0	-0.08296728
191	0xbde303e0	-0.110847235
192	0xbdb49edc	-0.088193625
193	0xbd2797a4	-0.0409161
194	0x3da79c5c	0.0818412
195	0x3de37712	0.11106695
196	0x3d420970	0.04737228
197	0xbd6f707c	-0.058456883
198	0x3d10c36c	0.03534262
199	0x3beaf540	0.0071703494
200	0xbd8c3818	-0.068466365
201	0xbc258240	-0.010101855
202	0xbd6cc5c0	-0.057805777
203	0x3dadf004	0.08493045
204	0xbd2ecc50	-0.042675316
205	0x3db7c55a	0.08973189
206	0x3c05aef0	0.008159384
207	0xbdc43c50	-0.09581816
208	0x3d8ffa9e	0.07030223
209	0x3d6aa950	0.057290375
210	0x3d021f0c	0.03176789
211	0x3d547358	0.051867813
212	0x3da55bfe	0.08074187
213	0xbd9281a8	-0.07153636
214	0x3d1adf7c	0.037810788
215	0x3df4eb58	0.11958951
216	0xbdca91e0	-0.09891105
217	0xbdc8ccc6	-0.098046824
218	0x3d8ab5e2	0.06772973
219	0x3d490540	0.049077272
220	0x3d6fa6c4	0.05850865
221	0xbdfcf2fe	-0.123510346
222	0x3d5ad22c	0.05342309
223	0x3d8ffb8c	0.07030401
224	0x3c91e1a8	0.017807797
225	0xbd7fc364	-0.0624422
226	0x3d988222	0.07446696
227	0xbd97ff02	-0.07421686
228	0xbde6cc96	-0.112694904
229	0x3d3c44a0	0.045963883
230	0x3de02b58	0.10945767
231	0x3df2b108	0.11850172
232	0xbcaa1c10	-0.020765334
233	0x3dd704de	0.10498975
234	0x3d5e7d98	0.054318994
235	0x3d7005f8	0.058599442
236	0x3dd189c8	0.10231358
237	0x3ba2e620	0.0049712807
238	0x3d91ca4c	0.07118663
239	0xbd6f7d8c	-0.05846934
240	0x3da42b98	0.08016127
241	0xbdc1bd30	-0.09459913
242	0x3d4afa68	0.049555212
243	0xbccdd330	-0.025125116
244	0xbd4cba1c	-0.049982175
245	0xbd54a828	-0.05191818
246	0x3d085c40	0.0332911
247	0xb5aa0000	-1.2665987e-06
248	0xbdf61488	-0.12015635
249	0x3c3ea950	0.011637047
250	0xbd98035c	-0.07422516
251	0xbdb26bf4	-0.08711997
252	0x3d5043f4	0.050846055
253	0xbcf3c7d8	-0.029758379
254	0x3d019570	0.031636655
255	0x3c9344e8	0.017977193

gst_cls_model.touchscreen_data_network.main_gru.bias_ih_l0 f4 [192]
0	0x3d04b04c	0.032394692
1	0xb984a800	-0.00025302172
2	0x3d88a622	0.06672312
3	0x3d3415a8	0.043965966
4	0xbd7ab584	-0.061208263
5	0x3cd4eef8	0.025992855
6	0xbd961abe	-0.073293194
7	0x3cf302e0	0.029664457
8	0xbd2291c4	-0.039689794
9	0x3dec22a4	0.11530045
10	0x3cf7a5e0	0.030230463
11	0xbc91e028	-0.017807081
12	0xbba0ee40	-0.004911214
13	0x3d5991b0	0.053117454
14	0x3d3ca4c0	0.046055555
15	0xbd7b79f8	-0.061395615
16	0x3dfa8e22	0.12234141
17	0x3db2e81e	0.08735679
18	0xbd7067f4	-0.058692887
19	0x3dfabc9c	0.12243006
20	0xbbd57760	-0.0065144747
21	0xbc3ac9b0	-0.011400625
22	0x3bc6a7a0	0.006062463
23	0xbd3dbe70	-0.046324193
24	0x3d860c3e	0.06545304
25	0xbdaec69c	-0.085339755
26	0xbd82fb3a	-0.06395574
27	0x3df15bcc	0.11785087
28	0x3df14740	0.11781168
29	0x3de48862	0.111588255
30	0xbdefcb08	-0.11708647
31	0x3db24f14	0.08706489
32	0xbd6acda8	-0.057325035
33	0x3b6f0900	0.003647387
34	0x3da0584e	0.07829343
35	0xbde3853c	-0.11109397
36	0xbdcf9524	-0.10135868
37	0xbd7a7088	-0.061142474
38	0x3c72b690	0.014814034
39	0xbd17ccfc	-0.037060723
40	0xbdcae9ea	-0.09907897
41	0x3cf39f00	0.029738903
42	0x3d1b9d20	0.037991643
43	0xbc4add50	-0.012381867
44	0x3db235ca	0.08701666
45	0x3d89ec3c	0.06734511
46	0xbc4c8050	-0.012481764
47	0xbd7a92c8	-0.061175138
48	0x3d61a8e4	0.055092707
49	0x3d5df63c	0.054189906
50	0x3b528b00	0.0032126307
51	0xbd801c78	-0.0625543
52	0xbd3d8f14	-0.046279028
53	0xbdd4ab8a	-0.10384281
54	0x3d4f80d8	0.050659984
55	0xbbfc7ba0	-0.007705167
56	0xbdaaa8bc	-0.08332965
57	0xbce4a0a8	-0.027908638
58	0x3a76a300	0.0009408444
59	0x3dd1e862	0.10249402
60	0xbd181214	-0.037126616
61	0x3d7acc84	0.061230198
62	0xbd915b8a	-0.07097538
63	0xbd9a704c	-0.0754095
64	0xbd1c3144	-0.03813292
65	0x3d889ffc	0.066711396
66	0x3d31f63c	0.043447718
67	0xbdee1d9c	-0.11626741
68	0xbdb7abcc	-0.089683145
69	0x3d9112fc	0.07083699
70	0x3d1c8598	0.038213342
71	0x3df903b6	0.12158911
72	0x3cc89de8	0.024489358
73	0x3b766540	0.003759697
74	0xbcc1f320	-0.023675501
75	0x3d407470	0.046986043
76	0x3d1a3194	0.037644938
77	0x3dbb2ede	0.091397986
78	0x3cecccf0	0.028906316
79	0x3d2901f0	0.041261613
80	0xbd3591dc	-0.044328555
81	0x3ceb0048	0.028686658
82	0xbd286d3c	-0.0411198
83	0xbc40a610	-0.011758342
84	0xbda44d7a	-0.0802259
85	0x3ddc56ba	0.10758729
86	0x3d64fe68	0.055906683
87	0x3d5535f8	0.05205342
88	0x3b6fb600	0.0036576986
89	0x3d02dad0	0.031946957
90	0xbcdd24c8	-0.026995078
91	0xbdfbb226	-0.122898385
92	0xbd8853de	-0.066566214
93	0xbdef9c48	-0.1169973
94	0x3b698ec0	0.0035638064
95	0xbd80c1be	-0.062869534
96	0x3c574420	0.013138801
97	0xbd8d5356	-0.06900661
98	0xbcfc90a0	-0.030830681
99	0x3cf16c78	0.029470667
100	0x3de4dfd0	0.11175501
101	0xbcc46e80	-0.023978472
102	0xbca05600	-0.019572258
103	0xbd7f3b9c	-0.062312707
104	0xbd01c940	-0.031686068
105	0x3d3d6f6c	0.04624884
106	0x3c3f45a0	0.011674315
107	0x3d96e95c	0.073687285
108	0x3d89b6b2	0.067242995
109	0xbb9b2cc0	-0.004735559
110	0x3cac64e0	0.021044195
111	0x3caefbb0	0.021360248
112	0x3dd023c8	0.10163075
113	0x3d844d4e	0.06460057
114	0x3dd32736	0.10310213
115	0xbdec1e54	-0.11529222
116	0x3d8b1448	0.06790978
117	0xbb96dc40	-0.0046038926
118	0xbd3b0eec	-0.045668527
119	0xbdf9068a	-0.1215945
120	0xbbe52740	-0.0069932044
121	0xbdca10d0	-0.09866488
122	0x3d2c9664	0.04213561
123	0xbcc7f988	-0.024410978
124	0xbd93b878	-0.07212919
125	0xbde72b6e	-0.112875804
126	0x3db6ce10	0.08926022
127	0xbdc587f4	-0.096450716
128	0x3d3dfff4	0.046386674
129	0xbdfcd6a8	-0.1234563
130	0xbd55f914	-0.052239493
131	0xbd04bb3c	-0.032405123
132	0x3d6ec678	0.058294743
133	0xbd9a7734	-0.075422674
134	0x3cf12bf8	0.029439911
135	0x3d6bc404	0.057559982
136	0xbdc7d7a4	-0.09757927
137	0xbdb5f4a8	-0.08884555
138	0x3df66460	0.12030864
139	0xbd014e30	-0.031568706
140	0x3d1f6af0	0.038920343
141	0xbde70f4e	-0.11282216
142	0x3cdd2ee0	0.02699989
143	0x3d479c88	0.048733264
144	0x3de24660	0.11048579
145	0x3d3cbc1c	0.046077833
146	0xbd07fcb4	-0.03319998
147	0xbdcbb3e2	-0.09946419
148	0x3dda4eec	0.106595844
149	0xbdf6cdf8	-0.12051004
150	0xbc89a7a8	-0.016803578
151	0xbd84f716	-0.064924404
152	0xbbdd6f40	-0.006757647
153	0x3d4eba78	0.0504708
154	0x3df96b92	0.121787205
155	0xbdc8189c	-0.09770319
156	0x3dd71998	0.105029285
157	0xbd98f574	-0.074686915
158	0x3d6e4c50	0.058178246
159	0xbdc0ef90	-0.09420693
160	0x3d223d64	0.039609328
161	0xbd936fba	-0.071990445
162	0x3d21e020	0.039520383
163	0xbdf1e9e0	-0.11812186
164	0x3b48d180	0.003064245
165	0xbde5eb1c	-0.11226484
166	0x3b156e80	0.0022801459
167	0xbdf2a70a	-0.118482664
168	0xbdc605b4	-0.096690565
169	0xbc0cfc30	-0.008605048
170	0xbdd12b4a	-0.10213335
171	0x3d556980	0.052102566
172	0x3c524280	0.012833238
173	0x3d83897c	0.064227074
174	0x3df708fa	0.12062259
175	0x3dd5c022	0.10437037
176	0x3d730d1c	0.059338674
177	0xbde1b022	-0.11019923
178	0xbc8677c0	-0.016414523
179	0x3bbbca60	0.005730912
180	0x3daf93a4	0.08573082
181	0xbd92d9dc	-0.0717046
182	0xbc3ae340	-0.01140672
183	0x3d9bdc66	0.07610397
184	0xbd713d70	-0.058896482
185	0xbd9d2db0	-0.0767473
186	0xbdba9ac2	-0.09111549
187	0x3dabe500	0.08393288
188	0xbd04c170	-0.03241104
189	0x3debd7d2	0.11515774
190	0xbc34ce50	-0.011035517
191	0x3d85da48	0.065357745

gst_cls_model.touchscreen_data_network.main_gru.bias_hh_l0 f4 [192]
0	0xbdc613fa	-0.09671779
1	0x3d99417e	0.07483195
2	0x3d6eaa64	0.058267966
3	0xbd629b78	-0.055324048
4	0xbdbef3dc	-0.09323856
5	0xbda068b8	-0.078324735
6	0xbcc23610	-0.02370742
7	0xbd1b04ec	-0.03784649
8	0x3d20b80c	0.03923802
9	0x3d19230c	0.03738694
10	0x3d9aa3ec	0.07550797
11	0x3b8f4520	0.004372254
12	0xbce77768	-0.02825518
13	0x3df92472	0.121651545
14	0x3ddb2384	0.107001334
15	0x3d53ba88	0.051691562
16	0x3dc442a4	0.09583023
17	0x3d7dbe00	0.061948776
18	0x3dc5f548	0.09665924
19	0xbcc71708	-0.024302974
20	0x3de9f95e	0.11424516
21	0xbd022df8	-0.03178212
22	0xbd188860	-0.037239432
23	0xbdb1aff0	-0.086761355
24	0xbd0b4b84	-0.034007564
25	0xbd93a34c	-0.07208881
26	0xbdfc8c7e	-0.12331484
27	0x3de35ade	0.11101316
28	0xbd286c30	-0.0411188
29	0x3b51fc00	0.0032041073
30	0x3d517090	0.05113274
31	0xbd8c453c	-0.06849143
32	0x3ddab742	0.10679485
33	0x3cdf5c08	0.027265564
34	0x3de6e88e	0.11274825
35	0x3db03df8	0.086055696
36	0xbd8e16e0	-0.06937957
37	0x3c9944d8	0.018709585
38	0xbd23b574	-0.03996797
39	0x3d36ff08	0.04467681
40	0xbd6350fc	-0.055497155
41	0xbd5c4184	-0.053773418
42	0x3cd82e98	0.026389405
43	0x3da1ecb8	0.07906479
44	0xbd2997d0	-0.041404545
45	0xbd34fed0	-0.04418832
46	0xbdb84532	-0.08997573
47	0x3a0b9500	0.0005324632
48	0x3df98262	0.12183072
49	0xbd3b06fc	-0.045660958
50	0xbd2903e4	-0.041263476
51	0xbc856810	-0.016284972
52	0xbce1afe8	-0.027549699
53	0xbdb5ee5e	-0.088833556
54	0x3c9f5e48	0.019454136
55	0x3df7a084	0.12091163
56	0xbd8cca76	-0.06874554
57	0xbd8409f0	-0.06447208
58	0x3cdb8428	0.026796415
59	0x3debe7e0	0.11518836
60	0x3d1462d4	0.036227062
61	0xbd95a174	-0.07306185
62	0xbdc3985c	-0.095505446
63	0xbda6078a	-0.08106907
64	0x3d8616c2	0.065473095
65	0x3dbad3e2	0.09122445
66	0xbc20fd10	-0.00982596
67	0xbccb8790	-0.024844915
68	0x3dd4cd44	0.10390714
69	0xbdc8aa00	-0.0979805
70	0x3d423960	0.047418
71	0x3dbf2cee	0.093347415
72	0x3db0a69a	0.08625527
73	0xbd810f88	-0.063017905
74	0x3d8de752	0.069288865
75	0xbd1ae1d0	-0.037813008
76	0xbc0a1300	-0.0084273815
77	0xbd9049d8	-0.070453346
78	0x3cad28f0	0.021137685
79	0xbdf3c296	-0.11902349
80	0xbd8ad45c	-0.067787856
81	0x3dc1ef26	0.09469442
82	0xbcdfde70	-0.027327746
83	0x3d6bb9f4	0.057550386
84	0xbd335640	-0.043783426
85	0xbd6bc774	-0.05756326
86	0xbde92d8c	-0.113856405
87	0x3d78000c	0.06054692
88	0x3d3b0500	0.045659065
89	0x3db8e316	0.09027688
90	0xbde7351a	-0.11289425
91	0x3cf23c20	0.029569685
92	0x3d786ec8	0.060652524
93	0xbdab0fac	-0.083525985
94	0xbde4174e	-0.111372575
95	0xbc475290	-0.0121656805
96	0x3d93255c	0.0718486
97	0x3ccc7bc0	0.024961352
98	0xbd4d5bd0	-0.050136387
99	0x3dbd0a0e	0.092304334
100	0x3dde671a	0.10859509
101	0xbdb3a754	-0.0877215
102	0x3be58bc0	0.007005185
103	0x3deecf72	0.11660661
104	0xbd28d408	-0.041217834
105	0xbdfc8252	-0.12329544
106	0xbd3bfdbc	-0.045896277
107	0x3a94fb80	0.0011366457
108	0xbd701e68	-0.058622748
109	0xbd9ce766	-0.07661323
110	0x3d763bf8	0.060115784
111	0xbda787ae	-0.08180176
112	0x3cc143c0	0.023591876
113	0x3d910c80	0.07082462
114	0xbcdbcec8	-0.026832
115	0x3d9ce4fc	0.07660863
116	0xbdcf589e	-0.10124324
117	0x3da7357a	0.08164497
118	0xbd85665a	-0.06513663
119	0xbd4f98f0	-0.050682962
120	0xbdf5b968	-0.11998254
121	0x3bf971c0	0.007612437
122	0xbdcbc26a	-0.09949191
123	0x3b16cbc0	0.0023009628
124	0x398b2e00	0.0002654642
125	0x3d1e7720	0.038687825
126	0xbd40a09c	-0.04702817
127	0x3de18bb2	0.11012973
128	0xbdf13454	-0.11777559
129	0xbd42cf10	-0.04756075
130	0x3bf90900	0.00759995
131	0x3c7ae930	0.015314385
132	0x3c1e7740	0.009671986
133	0xbd9b9568	-0.07596856
134	0x3dd240aa	0.1026624
135	0x3dd23248	0.10263497
136	0xbdf70c16	-0.12062852
137	0x3d3bf7c4	0.045890585
138	0xbdd4e1fa	-0.10394664
139	0x3c9bf068	0.019035533
140	0xbc60a7f0	-0.013711914
141	0xbcd8dc38	-0.026472196
142	0x3dd96974	0.10615817
143	0x3da93be4	0.08263376
144	0x3ddf7538	0.109110296
145	0xbdb69730	-0.089155555
146	0xbc914ef0	-0.017737836
147	0x3d1e3770	0.038627088
148	0x3c975370	0.018472403
149	0xbd180ba0	-0.03712046
150	0xbcda7d70	-0.026671141
151	0xbb860b40	-0.0040906966
152	0xbbf82c20	-0.0075736195
153	0x3be80840	0.0070810616
154	0x3d18ea64	0.037332907
155	0x3d7afef8	0.061278313
156	0x3d5d533c	0.054034457
157	0x3dd2bc2a	0.10289796
158	0x3cc44a68	0.02396126
159	0x3b81d480	0.0039620996
160	0xbd961a38	-0.073292196
161	0xbd8a9262	-0.067662016
162	0xbd0a2edc	-0.033736095
163	0x3d1791c8	0.037004262
164	0xbd857c32	-0.06517829
165	0x3d14c1b8	0.036317557
166	0xbdb9dc7e	-0.09075259
167	0x3db5f0a0	0.08883786
168	0xbdfa6d68	-0.12227899
169	0x3ca8eca8	0.020620659
170	0xbd803182	-0.06259443
171	0x3db68888	0.0891276
172	0xbdf6018c	-0.12012014
173	0x3d514e3c	0.0511
174	0x3d950540	0.07276392
175	0x3d6c0da8	0.05763021
176	0xbdacc1be	-0.08435391
177	0xbdfb00ec	-0.12256035
178	0x3d913fd6	0.07092254
179	0x3cdf1650	0.02723232
180	0x3de5a2fa	0.11212726
181	0xbdb93476	-0.09043209
182	0xbdf2e2da	-0.11859675
183	0xbda00cc8	-0.07814938
184	0x3d0d9e68	0.034574896
185	0x3df45844	0.11930898
186	0xbccfc2c8	-0.025361434
187	0xbd881d4c	-0.06646213
188	0xbd4b8d58	-0.049695343
189	0xbd5360d0	-0.051606
190	0x3ce43e08	0.02786161
191	0x3dcff738	0.10154575

gst_cls_model.touchscreen_data_network.main_gru.weight_ih_l0_reverse f4 [192, 4]
0	0x3d2b3688	0.041800052
1	0xbde176f8	-0.110090196
2	0x3bd820a0	0.006595686
3	0xbdb931c8	-0.09042698
4	0xbc857d50	-0.016295105
5	0x3d24179c	0.04006158
6	0x3bc75a20	0.006083742
7	0x3d17d0f8	0.037064523
8	0x3d871b1c	0.065969676
9	0xbd33c6ac	-0.04389064
10	0x3cdb86b0	0.026797622
11	0x3d2c7670	0.04210514
12	0x3d739eec	0.05947773
13	0xbdf66134	-0.12030259
14	0xbdbe9c5a	-0.093071654
15	0xbb8fa400	-0.004383564
16	0x3da53238	0.08066219
17	0x3d90134a	0.07034929
18	0xbdd8e050	-0.10589659
19	0x3da47f12	0.08032049
20	0xbd8ae9ee	-0.067829
21	0xbd411bbc	-0.04714559
22	0xbd14182c	-0.036155865
23	0xbd1cf928	-0.03832355
24	0x3de909ae	0.113787994
25	0xbdb53612	-0.08848204
26	0x3df8c55c	0.12147018
27	0xbd7f3cec	-0.06231396
28	0x3d73bee4	0.05950822
29	0x3cb27258	0.021783039
30	0x3d1ee1d8	0.0387896
31	0x3c724180	0.014786124
32	0xbd93f00e	-0.07223521
33	0xbbc92220	-0.006138101
34	0x3d9e7926	0.07737951
35	0xbc830fd0	-0.01599875
36	0x3de4a0f0	0.11163509
37	0x3d1a2aa0	0.037638307
38	0x3dc9548e	0.09830581
39	0x3c04ff50	0.008117512
40	0x3dcf949a	0.101357654
41	0x3d98f1c6	0.074679896
42	0xbd97146e	-0.073769435
43	0x3dc4e652	0.096142426
44	0xbd9ebf0e	-0.077512845
45	0xba339b00	-0.0006851405
46	0xbce0c700	-0.02743864
47	0x3dd09c58	0.1018607
48	0x3d465ec8	0.048430234
49	0x3ddcc5c2	0.10779907
50	0xbd68917c	-0.05677937
51	0xbcb43fc0	-0.022003055
52	0xbdff1c46	-0.124565646
53	0x3d997016	0.07492082
54	0xbd2b3b00	-0.041804314
55	0xbcb1fae0	-0.021726072
56	0x3d0b8a0c	0.0340672
57	0xbdc9760a	-0.09836967
58	0xbca84aa8	-0.020543411
59	0x3ce97f00	0.028502941
60	0x3c92a9b8	0.017903194
61	0xbd29d654	-0.041464165
62	0x3bb6d0c0	0.005579084
63	0xbc44c630	-0.012010142
64	0xbdf0df82	-0.11761381
65	0x3d4eb058	0.050461143
66	0x3d67d7d0	0.0566023
67	0xbdd8b70c	-0.105817884
68	0x3d6b8de4	0.057508364
69	0xbdb127a4	-0.08650139
70	0x3db85ce4	0.090020925
71	0x3ce3cbe8	0.027807191
72	0x3d28886c	0.041145727
73	0xbdcfdf2a	-0.10149987
74	0x3de8067a	0.1132936
75	0x3df87212	0.12131132
76	0xbadb8500	-0.0016748011
77	0xbd193390	-0.03740269
78	0x3da602a2	0.08105971
79	0xbd8bda92	-0.06828798
80	0xbd2e994c	-0.042626664
81	0xbd034e10	-0.032056868
82	0xbd7e531c	-0.062090978
83	0x3de4186c	0.111374706
84	0xbd20d718	-0.03926763
85	0x3c151ef0	0.009101614
86	0x3d721844	0.059105173
87	0xbdd093f6	-0.10184471
88	0x3da1cd36	0.07900469
89	0x3d46b328	0.0485107
90	0x3d42cea0	0.047560334
91	0x3c58a700	0.01322341
92	0x3c878e60	0.016547382
93	0xbdd55664	-0.10416868
94	0xbd635280	-0.0554986
95	0x3d56402c	0.052307293
96	0x3da2d736	0.079512045
97	0xbc031910	-0.008001581
98	0x3cd26988	0.025685087
99	0xbda25c76	-0.07927792
100	0x3df577e0	0.11985755
101	0x3df5a65e	0.11994623
102	0xbc2dea50	-0.0106149465
103	0xbbcc12e0	-0.006227836
104	0xbdb62ff8	-0.08895868
105	0x3d7583c8	0.05994013
106	0xbd5ff094	-0.054672793
107	0x3db3bb7a	0.08775993
108	0x3d89a270	0.067204356
109	0xbc878cd8	-0.016546652
110	0x3dc206e6	0.09473972
111	0x3df2414c	0.11828861
112	0x3c89ced0	0.016822249
113	0x3dd96360	0.106146574
114	0x3dfc8790	0.12330544
115	0xbd11a544	-0.035558
116	0xbdfb979a	-0.12284775
117	0xbb0eb940	-0.0021777898
118	0xbdbd9de0	-0.09258628
119	0xbddc6d40	-0.10763025
120	0x3dd31e40	0.10308504
121	0x3d5eaa78	0.05436179
122	0x3dad0b70	0.08449447
123	0x3d853850	0.065048814
124	0xbd0d1090	-0.034439623
125	0xbbc47a40	-0.0059960186
126	0xbd395a50	-0.045252144
127	0xbda5af32	-0.080900565
128	0x3dd97b9e	0.10619281
129	0x3dc48be8	0.095969975
130	0xbd177cd0	-0.036984265
131	0xbd86a258	-0.06573933
132	0x3d138c7c	0.03602265
133	0x3d75bea4	0.059996262
134	0x3bfe9680	0.007769406
135	0xbd31b330	-0.043383777
136	0xbde49f30	-0.11163175
137	0x3db515de	0.088420615
138	0x3df153fc	0.11783597
139	0xbdfa9196	-0.122347996
140	0xbdb278e8	-0.08714467
141	0xbd89731e	-0.0671141
142	0x3dba6aa8	0.09102374
143	0xbce7bb30	-0.0282875
144	0xbd070a60	-0.03296888
145	0x3da57812	0.08079542
146	0xbc503980	-0.012709022
147	0x3da3cab4	0.07997647
148	0xbde9298c	-0.113848776
149	0x3de11bc0	0.10991621
150	0x3d870736	0.06593172
151	0xbdbb7a1a	-0.091541484
152	0x3d0fa6e0	0.035071254
153	0xbdd2aada	-0.102864936
154	0xbde7ea8a	-0.11324032
155	0x3d8d6c90	0.06905472
156	0x3dc73970	0.09727752
157	0xbd95b660	-0.07310176
158	0xbb8fc740	-0.004387766
159	0xbdb8a262	-0.09015347
160	0x3d8e1b3e	0.0693879
161	0x3df2ccae	0.11855446
162	0xbdb37b4c	-0.087637514
163	0x3d95e67a	0.073193505
164	0xbd84fbe4	-0.06493357
165	0x3c8b0258	0.016968891
166	0x3c40d140	0.011768639
167	0xbc06af40	-0.008220494
168	0x3cb465d8	0.02202122
169	0x3c24e8c0	0.010065258
170	0xbda018f4	-0.078172594
171	0xbd8dcac0	-0.06923437
172	0xbdccb640	-0.09995699
173	0xbc8b4b80	-0.017003775
174	0xb95c4400	-0.00021006167
175	0x3bde1c20	0.006778255
176	0x3ad73f00	0.0016421974
177	0xbbd84200	-0.0065996647
178	0xbdc3bd48	-0.09557587
179	0xbdd7a168	-0.10528833
180	0xbdb7f66c	-0.08982548
181	0xbde242ac	-0.11047873
182	0x3df64836	0.12025492
183	0x3d51aca4	0.051190034
184	0x3c745500	0.014912844
185	0xbda9ce68	-0.08291322
186	0xbde860cc	-0.113465875
187	0x3bacc7a0	0.0052728206
188	0xbd18a47c	-0.03726624
189	0x3a885480	0.001040116
190	0xbd606a44	-0.054788843
191	0xbd6fa440	-0.05850625
192	0x3df7a812	0.12092604
193	0x3dd1bf7e	0.10241602
194	0x3dc51a88	0.09624201
195	0x3d6fc6c4	0.058539167
196	0x3cf994f0	0.030466527
197	0x3d96e7e8	0.07368451
198	0x3dcd5e7a	0.100277856
199	0x3df24b6a	0.1183079
200	0xbd2fac10	-0.0428887
201	0x3dcb9fec	0.09942612
202	0xbdbddd86	-0.09270768
203	0x3c8fd6e0	0.017558515
204	0x3dc9e08c	0.09857282
205	0xbc6824e0	-0.014168948
206	0x3cd94088	0.026520029
207	0x3ce23638	0.027613744
208	0x3d409018	0.04701242
209	0xbda402f4	-0.08008376
210	0xbdeb381a	-0.1148531
211	0x3dedaf00	0.11605644
212	0xbda38a64	-0.0798538
213	0x3d97b8a6	0.07408266
214	0xbc256d60	-0.010096878
215	0x3d95bf48	0.07311875
216	0xbdcaac88	-0.09896189
217	0x3d85386e	0.06504904
218	0x3d3954d4	0.045246914
219	0xbd6ca26c	-0.057772085
220	0x3d22d2e8	0.039751917
221	0xbdfe925c	-0.124302596
222	0xbd9f940a	-0.07791908
223	0x3dee4c18	0.116356075
224	0x3a8ca180	0.0010729283
225	0xbd0390c4	-0.03212048
226	0x3c6c6bf0	0.014430031
227	0xbd2b67ac	-0.041846916
228	0x3da34e56	0.07973926
229	0xbd646fd8	-0.055770725
230	0x3d449590	0.047994196
231	0x3cc5c6a8	0.024142578
232	0xbd928bbc	-0.071555585
233	0x3d67a8b4	0.056557372
234	0xbb696300	-0.0035611987
235	0xbb2f5840	-0.0026755482
236	0x3d2164ac	0.03940265
237	0x3d75b850	0.059990227
238	0x3d8679e8	0.065662205
239	0x39d55200	0.0004068762
240	0x3dc11ade	0.09428953
241	0xbd1dfe8c	-0.038572833
242	0x3d7d6044	0.061859384
243	0xbdb26922	-0.08711459
244	0x3d1b682c	0.037941143
245	0xbdd12734	-0.102125555
246	0x3da66f28	0.0812667
247	0x3dea9cee	0.11455713
248	0x3ddb8a9c	0.10719797
249	0x3d83debc	0.064389676
250	0xbc8cdba8	-0.017194584
251	0xbd1f718c	-0.038926646
252	0xbd46a64c	-0.048498437
253	0x3d9f8e9e	0.07790874
254	0x3d4d65e4	0.050146
255	0x3d2ceaac	0.042215988

gst_cls_model.touchscreen_data_network.main_gru.weight_hh_l0_reverse f4 [192, 64]
0	0x3da19fe6	0.07891826
1	0x3de51d3c	0.11187217
2	0xbd183f70	-0.037169874
3	0xbd46c4e4	-0.048527613
4	0xbdbfb8b0	-0.09361398
5	0xbd0c4e54	-0.034254387
6	0x3d13dd4c	0.036099717
7	0xbce81a48	-0.028332844
8	0x3c1bc600	0.009507656
9	0x3d73614c	0.05941896
10	0xbdce9498	-0.10086936
11	0x3d141a68	0.036157995
12	0xbdbc0272	-0.09180154
13	0xbdc99814	-0.0984346
14	0xbd1f803c	-0.038940653
15	0xba8a0c00	-0.0010532141
16	0x3dbeefdc	0.09323093
17	0x3dfb0ade	0.12257932
18	0x3c6813d0	0.01416488
19	0x3d214ec0	0.039381742
20	0x3dd52118	0.10406703
21	0x3de5bd4c	0.11217746
22	0xbd8ca944	-0.06868222
23	0x3d863edc	0.06554958
24	0x3d56b404	0.05241777
25	0xbd560644	-0.05225207
26	0xbdd42a12	-0.10359587
27	0xbccaa960	-0.024738967
28	0xbb3edf00	-0.0029124618
29	0x3c327c70	0.010893926
30	0x3d8a37d4	0.067489296
31	0x3da50bcc	0.08058891
32	0x3d9e300e	0.077240095
33	0x3ddc9924	0.10771397
34	0xbdfb4d62	-0.12270619
35	0x3ddba1a4	0.1072419
36	0xbd18a844	-0.037269846
37	0x3d80516a	0.062655285
38	0xbdbbe786	-0.09175019
39	0xbc994de0	-0.018713892
40	0x3d36d908	0.04464057
41	0xbda27e28	-0.07934219
42	0x3ccc2368	0.024919227
43	0xbda2375a	-0.07920714
44	0xbca5b0b8	-0.020225868
45	0x3c9b9048	0.018989697
46	0x3da6d32a	0.08145745
47	0x3cda2b30	0.026631922
48	0xbd189f74	-0.03726144
49	0xbdf84b9a	-0.12123795
50	0xbdf326f4	-0.11872664
51	0xbdf2f6bc	-0.11863467
52	0xbd4ca974	-0.04996629
53	0x3de5f7ba	0.11228891
54	0xbdd17898	-0.102280796
55	0xbb871040	-0.00412181
56	0x3c090f90	0.008365527
57	0xbdb81f22	-0.08990313
58	0x3dfeca5a	0.12440939
59	0x3d8f14ce	0.0698639
60	0x3d1f727c	0.03892754
61	0xbddcbdba	-0.10778375
62	0x3df2b43a	0.11850782
63	0x3dbadb7e	0.09123896
64	0x3de2b9b2	0.11070575
65	0xbdc5a224	-0.096500665
66	0x3de89f9a	0.113585666
67	0x3dbe7ff8	0.09301752
68	0xbba28880	-0.0049601197
69	0xbdf6c27a	-0.12048812
70	0x3beacd00	0.007165551
71	0x3c3a54a0	0.011372715
72	0x3d87bef2	0.06628217
73	0xbd6046b0	-0.054754913
74	0x3dc5c720	0.09657121
75	0xbda5bad4	-0.08092275
76	0xbdf006a8	-0.117200196
77	0xbb26fd80	-0.0025480688
78	0x3dd89b40	0.105764866
79	0xbd756854	-0.05991395
80	0xbd7890f0	-0.0606851
81	0x3b4e9400	0.003152132
82	0x3d796f80	0.06089735
83	0xbd423ac4	-0.047419325
84	0xbd45e28c	-0.048311755
85	0x3d9027d4	0.070388466
86	0xbdcb3d76	-0.09923832
87	0x3db87fce	0.09008752
88	0xba5f5900	-0.0008520037
89	0x3df1bc1a	0.11803456
90	0x3df39cee	0.11895166
91	0x3de24006	0.11047368
92	0x3d1f26c4	0.03885533
93	0x3dbbd228	0.091709435
94	0x3d30f170	0.043199003
95	0x3da8a85c	0.08235237
96	0xbc925578	-0.01786302
97	0xbd27ddd8	-0.04098305
98	0xbd93e2fc	-0.07221028
99	0xbdec67f0	-0.11543262
100	0x3dfaaa92	0.12239565
101	0x3bfa9ca0	0.0076480657
102	0xbb921320	-0.0044578463
103	0x3d69a908	0.057045966
104	0xbdd3410a	-0.103151396
105	0xbc38d9f0	-0.011282429
106	0xbd424c00	-0.04743576
107	0x3dedac40	0.1160512
108	0xbd488f18	-0.04896459
109	0xbcc38268	-0.023865893
110	0x3d4f2ee8	0.050581843
111	0x3da6f7d8	0.08152741
112	0x3df89414	0.12137619
113	0xbd07baa8	-0.033136994
114	0xbc34b890	-0.011030331
115	0x3de7a2fa	0.11310382
116	0x3ddd539c	0.10806963
117	0xbcfc4598	-0.030794904
118	0xbddea71a	-0.10871716
119	0xbdcab538	-0.09897846
120	0xbc8144e0	-0.015779912
121	0xbd9adb38	-0.07561344
122	0xbdb31ec0	-0.087460995
123	0x3db47c86	0.088128135
124	0xbd1c208c	-0.038116977
125	0x3d3d62f0	0.046236932
126	0xbd8f5bb4	-0.06999913
127	0x3bcc1500	0.0062280893
128	0x3dcdd33e	0.10050057
129	0x3d2ad640	0.04170823
130	0xbb999ae0	-0.004687652
131	0x3cbd7fe8	0.02313228
132	0xbdf1b986	-0.11802964
133	0xbdef5d4a	-0.11687715
134	0x3dea9e56	0.114559814
135	0x3dbc2744	0.09187177
136	0x3d82384e	0.063583955
137	0x3da50294	0.08057132
138	0x3db70160	0.08935809
139	0x3b9c2680	0.0047653317
140	0x3da09408	0.07840735
141	0xbd5c16c8	-0.053732663
142	0xbcedae98	-0.029013917
143	0x3db91ac6	0.0903831
144	0x3cd45db0	0.02592358
145	0xbcd62f00	-0.026145458
146	0x3d815f40	0.063169956
147	0x3d95825e	0.07300256
148	0xbd2805fc	-0.041021332
149	0xbcce6e30	-0.025199026
150	0x3d7af150	0.06126529
151	0xbdddb4c8	-0.10825497
152	0x3decd8f8	0.11564821
153	0x3ddb6d18	0.10714167
154	0xbda9541e	-0.08267997
155	0x3ddbde3a	0.10735746
156	0xbda1f978	-0.079089105
157	0x3cd05bc8	0.02543439
158	0x3dc16e54	0.094448715
159	0xbd00b0a4	-0.031418458
160	0xbdfa46b2	-0.12220515
161	0x3d87f622	0.06638743
162	0xbcb11a20	-0.021618903
163	0x3dfdd2fe	0.12393759
164	0xbdd251da	-0.10269518
165	0x3b670f40	0.0035256892
166	0x39fc0000	0.00048065186
167	0xbd675b30	-0.056483448
168	0x3dc7f28e	0.097630605
169	0xbd967552	-0.07346596
170	0x3d852c32	0.0650257
171	0x3dd190ba	0.102326825
172	0x3de9381a	0.11387654
173	0xbd06b418	-0.032886595
174	0x3d895f36	0.06707613
175	0x3de4d0ce	0.11172639
176	0xbdcaf16c	-0.09909329
177	0xbcb61098	-0.02222471
178	0xbcf0da10	-0.029400855
179	0x3c10be70	0.008834466
180	0xbd8fc546	-0.07020049
181	0x3cfa1aa0	0.030530274
182	0x3c2eb500	0.010663271
183	0xbdb4f910	-0.088365674
184	0xbd2cc024	-0.042175427
185	0x3db98b4a	0.090597704
186	0x3d9d0684	0.076672584
187	0xbdb263a2	-0.0871041
188	0xbd1fc674	-0.03900762
189	0xbd6fc574	-0.058537915
190	0xbcae2eb0	-0.021262497
191	0x3d47afac	0.048751518
192	0x3dce10fe	0.10061835
193	0x3d74eec4	0.059798017
194	0xbdad7382	-0.08469297
195	0xbdc00ade	-0.09377073
196	0xbd1c1b20	-0.038111806
197	0x3d9858b0	0.07438791
198	0xbdd5b90a	-0.10435684
199	0xbc991b68	-0.018689826
200	0x3d772140	0.060334444
201	0xbd96218c	-0.07330617
202	0xbd32c444	-0.043644205
203	0xbde9359c	-0.11387178
204	0x3c0e9f30	0.008704945
205	0x3c7574a0	0.014981419
206	0xbd5265e0	-0.051366687
207	0xbd010898	-0.031502336
208	0xbdeffe28	-0.11718398
209	0x3c71f4b0	0.014767811
210	0x3d03f410	0.032215178
211	0xbd74c9e8	-0.059762865
212	0xbd344aa8	-0.04401651
213	0x3d4d0c98	0.05006084
214	0xbcfc4eb0	-0.03079924
215	0xbc941468	-0.018076137
216	0x3d20ff3c	0.03930591
217	0x3d11ad1c	0.03556548
218	0xbd2a53e8	-0.041583925
219	0x3dad1712	0.08451666
220	0xbd0aec04	-0.03391649
221	0xbcf95000	-0.030433655
222	0x3dd5f1a6	0.104464814
223	0xbdb71e16	-0.08941285
224	0x3c3df750	0.011594608
225	0x3d21b43c	0.039478526
226	0xbd0e1e98	-0.034697145
227	0x3de44b04	0.111471206
228	0xbd8d1140	-0.06888056
229	0xbde15ac6	-0.11003642
230	0x3dfae9d2	0.12251629
231	0xbcb7e2e0	-0.02244705
232	0x3d323a60	0.043512702
233	0x3d7d2f34	0.061812595
234	0xbc8e1860	-0.017345607
235	0x3d4cf8dc	0.05004202
236	0x3d98381a	0.074325755
237	0xbb070540	-0.0020602494
238	0xbd8154bc	-0.0631499
239	0x3d14d70c	0.036337897
240	0xbd67186c	-0.056419775
241	0x3d8c1e6e	0.068417415
242	0xbdf1f78a	-0.118147925
243	0xbde3077c	-0.11085412
244	0x3cf4e018	0.029892012
245	0xbdadd3f8	-0.084876955
246	0x3d84d5aa	0.06486066
247	0xbd085cd8	-0.033291668
248	0xbc494930	-0.012285516
249	0x3d2eec2c	0.0427057
250	0x3d5d0030	0.053955257
251	0x3da32c12	0.0796739
252	0x3c66fcb0	0.014098331
253	0xbd75b148	-0.05998352
254	0xbc70be60	-0.014693826
255	0x3dd2723e	0.10275696

gst_cls_model.touchscreen_data_network.main_gru.bias_ih_l0_reverse f4 [192]
0	0xbdbec38a	-0.0931464
1	0x3dfc7e0a	0.123287275
2	0x3df1f290	0.11813843
3	0xbd994efc	-0.07485768
4	0x3d8e8b82	0.06960203
5	0x3da11b3e	0.07866524
6	0x3d2efcc0	0.04272151
7	0xbda006d6	-0.07813804
8	0x3dcbbcc0	0.099481106
9	0x3cf34f08	0.029700771
10	0x3d8928de	0.06697248
11	0xbd2dc3f0	-0.04242319
12	0x3dd6cb72	0.10488023
13	0xbbd99cc0	-0.0066410005
14	0x3c97ada8	0.018515423
15	0x3dd09552	0.101847306
16	0x3dd5d2e4	0.10440615
17	0xbd0d147c	-0.034443364
18	0xbdf83570	-0.121195674
19	0xbda123c0	-0.07868147
20	0xbdf4d762	-0.119551435
21	0x3d4fecec	0.050763056
22	0x3dd890f4	0.105745226
23	0xbcbcfd60	-0.023070037
24	0x3cab05f0	0.020876855
25	0xbce20d38	-0.027594194
26	0x3d5a8380	0.053348064
27	0x3dc9df22	0.09857012
28	0x3d58be5c	0.052915916
29	0x3c015020	0.007892638
30	0xbc8c1a60	-0.01710242
31	0x3df40978	0.119158685
32	0x3d6cd868	0.05782357
33	0x3d87ba5c	0.06627342
34	0xbda04df6	-0.0782737
35	0xbdbeb698	-0.09312171
36	0x3d86b488	0.06577402
37	0xbad8cd80	-0.0016540736
38	0x3db44c66	0.08803634
39	0xbd4d4404	-0.050113693
40	0xbdd8d7b0	-0.10588014
41	0xbd2829b4	-0.041055396
42	0x3deab6c6	0.114606425
43	0xbd9b0a44	-0.075703174
44	0x3d864920	0.06556916
45	0x3dd2ade2	0.10287072
46	0xbdf7df0c	-0.1210309
47	0xbd8e1de8	-0.06939298
48	0xbd49cfdc	-0.049270496
49	0xbdf749ac	-0.12074599
50	0x3d56200c	0.052276656
51	0x3df3ebf6	0.1191024
52	0xbde78566	-0.113047406
53	0x3dd3998e	0.103320226
54	0xbda9fe94	-0.0830051
55	0xbd9113d8	-0.07083863
56	0x3d43e3d0	0.04782468
57	0x3ddc2290	0.1074878
58	0x3de428ee	0.11140619
59	0xbd1a6254	-0.03769143
60	0x3ad1c200	0.0016003251
61	0x3df60138	0.12011951
62	0xbd9aba28	-0.07555038
63	0xbd0c4de8	-0.034253985
64	0x3dbf54fa	0.0934238
65	0xbd25c5f0	-0.04047197
66	0xbdd46476	-0.10370724
67	0x3d0a90d0	0.03382951
68	0x3d457ba8	0.04821363
69	0x3d02bfa4	0.031921044
70	0xbdf0d3e6	-0.117591664
71	0xbd8c0166	-0.06836204
72	0xbdc7ac70	-0.09749687
73	0xbdee2632	-0.11628379
74	0xbd79ee0c	-0.061018035
75	0x3dd70eae	0.10500847
76	0x3d753eb4	0.05987425
77	0xbd1262a8	-0.035738617
78	0xbda62bce	-0.08113824
79	0x3df8749c	0.121316165
80	0xbdd01228	-0.10159713
81	0x3db5316e	0.088473186
82	0x3c73bc30	0.01487641
83	0xbd540c48	-0.051769525
84	0xbd3c2a74	-0.045938924
85	0x3d52a1c4	0.051423803
86	0x3dcf5db8	0.10125297
87	0x3dfb8b98	0.12282485
88	0xbdf70f94	-0.12063518
89	0x3d0b2748	0.03397301
90	0x3dc60fce	0.09670983
91	0xbcc09d18	-0.023512408
92	0xbdc32312	-0.095281735
93	0x3df6050a	0.1201268
94	0x3cacd998	0.02109985
95	0x3db82420	0.08991265
96	0xbd94d470	-0.07267082
97	0xbdc41564	-0.095743924
98	0xbddee780	-0.10883999
99	0x3d82e264	0.06390837
100	0x3db5c120	0.08874726
101	0xbd1ea538	-0.038731784
102	0x3daa07bc	0.083022565
103	0xbd9fe154	-0.0780665
104	0xbdbd5198	-0.092440784
105	0xbc537ec0	-0.0129086375
106	0xbd52cbb4	-0.051463798
107	0xbdbc8d6a	-0.0920666
108	0x3d829d3c	0.06377646
109	0xbdb9e2ec	-0.09076485
110	0x3bfae360	0.0076564997
111	0x3d1e1550	0.038594544
112	0x3d557734	0.052115634
113	0x3dedcb96	0.116110966
114	0xbdd09d22	-0.10186221
115	0x3dc566c6	0.09638743
116	0xbd265670	-0.040609777
117	0xbd2e8750	-0.042609513
118	0x3d53e664	0.05173339
119	0x3d190aa0	0.03736365
120	0x3de8413c	0.113405675
121	0xbceada78	-0.028668627
122	0x3d13ecec	0.03611462
123	0xbd948d8e	-0.07253562
124	0x3de6838a	0.11255558
125	0xbc9ce530	-0.019152254
126	0xbd89cfde	-0.06729101
127	0x3de2c108	0.11071974
128	0x3cd40868	0.025882915
129	0x3caa4c30	0.020788282
130	0xbdceb9ca	-0.1009403
131	0x3cfca5a8	0.03084071
132	0xbda0eeb6	-0.078580305
133	0x3dbee5e6	0.093211934
134	0xbdf59d9c	-0.11992952
135	0xbc9c7788	-0.019099966
136	0xbdd2a348	-0.1028505
137	0xbd8d297a	-0.06892677
138	0x3d0564ec	0.03256695
139	0xbcb90540	-0.022585511
140	0x3dfa82b2	0.122319594
141	0xbc030100	-0.007995844
142	0x3cb940a0	0.022613823
143	0xbcb71598	-0.022349164
144	0x3c5871c0	0.013210714
145	0xbd643df4	-0.055723146
146	0x3d52aa5c	0.051432
147	0xbd51d7d4	-0.05123122
148	0xbc1b1f10	-0.009467855
149	0xbd884cfc	-0.066553086
150	0x3d122ce4	0.035687342
151	0xbdbce112	-0.09222616
152	0x3c72b0f0	0.014812693
153	0xbcb9b1a8	-0.02266772
154	0xbd1461c0	-0.036226034
155	0x3d8551f2	0.065097705
156	0x3dd58618	0.10425967
157	0xbdfedba2	-0.124442354
158	0x3d4df35c	0.050280914
159	0xbda54ce4	-0.08071306
160	0x3dfb266c	0.12263188
161	0xbd5a4324	-0.053286687
162	0x3d722f04	0.05912687
163	0xbc497170	-0.012295112
164	0x3dbc19b4	0.0918459
165	0x3d9eba88	0.07750422
166	0x3d05f89c	0.032707796
167	0x3ccc5960	0.024944961
168	0x3ddec924	0.10878208
169	0xbcb7e628	-0.022448614
170	0x3dcc2bb4	0.09969273
171	0x3deccbb2	0.11562289
172	0x3dbe5426	0.09293394
173	0x3dbb0cac	0.09133276
174	0x3d9e761c	0.07737371
175	0xbd2b7644	-0.041860834
176	0x3d5d1318	0.053973287
177	0xbd9f0a70	-0.07765663
178	0xbda20f3c	-0.07913062
179	0xbdd56f0e	-0.104215726
180	0xbde7acc0	-0.11312246
181	0xbdd44364	-0.10364416
182	0x3d992674	0.074780375
183	0x3cba4ac0	0.022740722
184	0xbdc91d24	-0.09820011
185	0xbd153c10	-0.036434233
186	0x3d98159a	0.07425995
187	0x3de3e8aa	0.111283615
188	0x3d7115b8	0.058858603
189	0x3dcacede	0.09902738
190	0xbca058f8	-0.019573674
191	0xbba099e0	-0.004901156

gst_cls_model.touchscreen_data_network.main_gru.bias_hh_l0_reverse f4 [192]
0	0xbd025b2c	-0.03182523
1	0xbd471798	-0.048606485
2	0x3da107b2	0.07862796
3	0xbde7dfc8	-0.1132198
4	0x3bb48de0	0.005510077
5	0xbcf16960	-0.029469192
6	0xbd718e00	-0.058973312
7	0x3cabe618	0.02098374
8	0xbddcc380	-0.10779476
9	0xbd3e2608	-0.04642299
10	0x3d2e5e7c	0.042570576
11	0xbcc553b0	-0.024087757
12	0x3dee6010	0.11639416
13	0xbdb69bf4	-0.089164644
14	0xbd33ca98	-0.04389438
15	0x3dfe08b4	0.12404004
16	0x3dffbff2	0.124877825
17	0x3d227cc8	0.039669782
18	0xbca2b868	-0.019863322
19	0x3c04e100	0.008110285
20	0x3de5e65a	0.11225577
21	0xbc2c7360	-0.010525554
22	0xbd3cfca0	-0.04613936
23	0xbc8be2e8	-0.01707597
24	0x3de853e2	0.113441244
25	0x3cc82db0	0.024435848
26	0xbdda7cba	-0.10668321
27	0x3dee60f0	0.11639583
28	0xbd04491c	-0.032296285
29	0xbdda9dba	-0.10674615
30	0xbdf214e8	-0.11820394
31	0xbd9668e0	-0.07344222
32	0xbdfa434c	-0.12219867
33	0xbd8f7b1e	-0.070059046
34	0x3ccc77b8	0.02495943
35	0xbd202960	-0.03910196
36	0x3d51dc98	0.051235765
37	0x3c40e860	0.0117741525
38	0x3b2ef480	0.0026696026
39	0x3de0a35e	0.1096866
40	0x3df20b0c	0.11818513
41	0x3d16ec98	0.036846727
42	0xbd2623e0	-0.040561557
43	0x3dcba5ac	0.09943709
44	0x3dedd826	0.11613493
45	0x3df9d0f4	0.12198058
46	0x3dcc2ce8	0.09969503
47	0xbc830a60	-0.015996158
48	0x3d3fbab4	0.046808913
49	0x3d97eee8	0.074186146
50	0xbdb6f292	-0.08932985
51	0xbdfc4070	-0.12316978
52	0x3df7f75e	0.121077284
53	0xbdacd4a4	-0.084389955
54	0x3cb0d3d8	0.02158539
55	0x3d0e0b3c	0.034678683
56	0xbc1ce380	-0.009575725
57	0xbdd5f00c	-0.10446176
58	0x3d8de97c	0.06929299
59	0x3df86180	0.12127972
60	0xbdd4724e	-0.103733644
61	0x3db68b6e	0.08913313
62	0xbddfb206	-0.10922627
63	0xbd63bdc8	-0.05560091
64	0xbdb9712e	-0.090547904
65	0xbdacc70a	-0.08436401
66	0x3d93a10c	0.07208452
67	0x3d1e686c	0.038673803
68	0x3d5c5040	0.05378747
69	0x3d99669e	0.07490276
70	0x3d45578c	0.048179194
71	0x3dde8636	0.108654425
72	0xbdf30996	-0.11867063
73	0xbbb4d1e0	-0.005518183
74	0x3cdd71b8	0.027031764
75	0x3d959e82	0.073056236
76	0xbc96f938	-0.018429384
77	0x3d8a5f9c	0.06756517
78	0xbd3fb0d0	-0.04679948
79	0x3c5cc460	0.013474554
80	0xbd80e852	-0.062943116
81	0x3bedeca0	0.007260874
82	0x3cdb06e0	0.026736677
83	0x3d41e838	0.0473406
84	0x3db1729c	0.08664438
85	0xbd8cedf4	-0.068813235
86	0x3cfee190	0.031113416
87	0xbc176ab0	-0.009241745
88	0xbc9f2c48	-0.019430295
89	0x3dc77fec	0.09741196
90	0x3d920486	0.07129769
91	0xbd787760	-0.06066072
92	0xbdab2554	-0.08356729
93	0xbd6096dc	-0.05483137
94	0xbd445fc4	-0.04794289
95	0xbd89083e	-0.06691025
96	0xbd0df0d0	-0.034653485
97	0xbd8371c0	-0.064181805
98	0xbde7aaf6	-0.11311905
99	0x3d656658	0.056005806
100	0x3d38dfbc	0.045135245
101	0xbbc33e40	-0.0059583485
102	0x3d2fb60c	0.042898223
103	0x3dcf615e	0.10125993
104	0xbd5b5b40	-0.05355382
105	0x3cdaa680	0.026690722
106	0xbc89e650	-0.016833454
107	0xbdf96028	-0.121765435
108	0xbb0f4840	-0.0021863133
109	0x3cd5b3a8	0.026086643
110	0x3dcd3ee0	0.10021758
111	0x3cf71db0	0.030165523
112	0x3dd27b96	0.102774784
113	0x3b986740	0.0046509802
114	0xbd640698	-0.05567035
115	0x3dfd08f6	0.12355225
116	0x3dd7a3d2	0.10529293
117	0x3dbb4608	0.09144217
118	0x3dfb9ace	0.12285386
119	0x3dbf356c	0.09336361
120	0xbdbc729a	-0.09201546
121	0x3d6faf88	0.05851701
122	0xbdd68520	-0.1047461
123	0xbdfdee9a	-0.12399025
124	0x3dfaea4a	0.12251718
125	0xbd54aeb4	-0.051924422
126	0x3d2aed64	0.0417303
127	0x3ddd8404	0.108161956
128	0xbca5caf8	-0.020238385
129	0xbdb5d5ee	-0.088786945
130	0x3d6817d4	0.05666335
131	0x3df53bee	0.11974321
132	0x3cc4bc20	0.024015486
133	0x3d711490	0.0588575
134	0xbd82b628	-0.063824
135	0xbd1aca98	-0.037790865
136	0xbc4940c0	-0.012283504
137	0x3db2625c	0.08710167
138	0x3a8fc480	0.0010968596
139	0x3d3db820	0.046318173
140	0x3d11d68c	0.035605
141	0x3d2c2730	0.04202956
142	0xbdbb076c	-0.09132275
143	0xbdc46284	-0.09589103
144	0xbde39664	-0.11112669
145	0x3d886900	0.06660652
146	0x3c3e7820	0.01162532
147	0x3cb0fe10	0.021605521
148	0xbca36cf8	-0.019949421
149	0xbcc95068	-0.024574474
150	0xbdb708a2	-0.089371935
151	0x3da1715a	0.07882948
152	0xbd0cad40	-0.03434491
153	0xbdf92290	-0.121647954
154	0xbd98650c	-0.07441148
155	0x3d2b078c	0.041755244
156	0x3d74bf5c	0.059752807
157	0x3d3509e8	0.0441989
158	0x3d320344	0.043460146
159	0x3c973088	0.018455759
160	0xbd80e330	-0.062933326
161	0xbd123818	-0.035698026
162	0x3c2627d0	0.010141328
163	0x3ddad536	0.10685198
164	0xbd7e7968	-0.0621275
165	0x3d175e38	0.03695509
166	0xbdc52e84	-0.09628013
167	0x3df062d0	0.11737597
168	0x3d8ab590	0.067729115
169	0xbd5bff60	-0.05371034
170	0x3db2d95e	0.08732866
171	0x3df40c7a	0.11916442
172	0x3dd15826	0.10221891
173	0xbd1e704c	-0.038681313
174	0x3d972780	0.07380581
175	0x3d07f4bc	0.03319238
176	0x3d18e550	0.037328064
177	0xbd468e14	-0.04847534
178	0xbd3f9ff0	-0.046783388
179	0x3c75caf0	0.015001997
180	0x3db3165c	0.08744499
181	0xbddc3022	-0.10751368
182	0xbd8698f6	-0.06572144
183	0xbd214e88	-0.039381534
184	0x3cf99628	0.030467108
185	0xbd0dfb10	-0.03466326
186	0xbd416058	-0.04721102
187	0xbceb8718	-0.028750941
188	0x3df80244	0.12109807
189	0x3df8adb8	0.12142509
190	0xbdb325de	-0.08747457
191	0x3dfe44d0	0.12415469
