checkpoints/NoGestureNetwork_2023-08-11_13-43-24.pth (torch, 107363 bytes, 10 tensors)

touchscreen_data_network.rnn.weight_ih_l0 f4 [64, 4]
00000000: 2211 683d 0b5d c03c a565 d0bc 5115 983d
00000010: 3171 b23d 2469 95bd 5d9b 97bc 2bc5 313c
00000020: c5bb 59bd ca30 783c 093c 263c 1de1 803d
00000030: c302 f2bd f65b 153d 9891 b8bb f88d 9a3d
00000040: 9835 993c 2666 393d 3f13 c3bd d03c e3bc
00000050: c615 2ebc cb9f 053e 7c44 1d3c f70a b4bd
00000060: c8e9 b0bd 7fd9 20bc de10 1abd 2bf7 213c
00000070: fad7 ea3d 8c70 fcbc 9f8a cd3d 209d b8bd
00000080: a56b 003d 0899 6d3d 5c5a 5f3d 5629 683d
00000090: 549d b13d d068 e23c 009f a339 b776 a3bc
000000a0: 3635 1f3d 64e5 19bb 05bb 9cbc 25c5 893d
000000b0: c769 51bd f796 053e 6214 df3c 3cfa 7cbd
000000c0: 5cb6 e1bc d210 4a3d 123d 48bd c995 b63d
000000d0: d51a d63d daaf 60bd 3f97 8b3d c3d2 9e3d
000000e0: b3d8 c2bd 1aa3 3a3d 1c32 72bb e240 99bd
000000f0: 484c 863a 8d0d 823d 019f 86bd 490a 033e
00000100: 26cf 2a3c ee2c b9bb a589 cb3d 3975 033e
00000110: 6c02 bebd ae4a 813d d0a5 933d 0e09 b83b
00000120: b6f5 cc3d 73cb dbbd ad3a c03d 781f 8f3d
00000130: 769c 9a3c 68d8 67bc 0342 fa3c 05f3 d53d
00000140: e9e7 afbd 367e b8bd 472e f03d e045 983d
00000150: 4109 cbbd 8bdf 85bd 93e9 cf3d ac22 c5bd
00000160: ab15 e83d d0f2 9c3b 165d 94bd 7ff6 403d
00000170: 267f 7fbd d016 c9bd 1c72 a8bd 7060 cd3c
00000180: cbe2 383d bca4 41bd 6b03 31bd 58fd ae3d
00000190: 13e8 c63d 5c4a a8bd 963c 83bd 77d4 39bd
000001a0: fbab 5e3d 3658 bd3d 31ff 713c 9584 333d
000001b0: 0938 023e 8608 32bc 46b7 1f3d 327f bf3d
000001c0: d465 593d 2d9f c9bd 1cea a4bd 7819 eabd
000001d0: b7c9 373d b7ee 65bd 4914 aa3d 3213 cfbc
000001e0: e3e7 e9bd d686 323d 6231 55bd f570 553d
000001f0: 402f 5b3c 4b24 bbbd ccf3 a8bd 1dec afbd
00000200: df32 b13d ab39 a4bd 79a1 c23d edf1 993d
00000210: b5c0 b4bd 85a4 c5bd aee1 cf3b 0b28 fabc
00000220: 2c97 a1bc 0daf e8bd bf68 a13d a203 e93d
00000230: 7c97 3bbd 6296 3e3d 29e3 803d 921e 7d3d
00000240: 99e0 cc3d 8b71 d9bd 0109 5ebd 1f92 ad3d
00000250: 6a0a a3bd 14d4 86bb c4cf df3c d8f6 b2bd
00000260: 2550 843d eec1 abbb ddf2 c03d 14be fcbc
00000270: 2f11 843d 8075 df3c cbf8 a93d 6ab9 0c3d
00000280: 6a72 223c 1b2e d43d 8cfd 4d3d ca79 e53d
00000290: 6264 d83d bc96 90bc 9915 3e3d a796 cbbc
000002a0: 7ac4 fc3d 1ebe c13d 3a86 f2bd 6e48 023d
000002b0: b028 8d3b 4a10 1bbd 45fc db3d db36 51bc
000002c0: ce2e 323d 459e c8bd 970e 3d3d 7095 4bbd
000002d0: 11b0 933d 4a1a 14bd a15b f33d ebad aabd
000002e0: d306 c0bd 5a70 503d 5f42 afbd 5f38 0bbc
000002f0: 0c1c 543d 8ef8 46bd aa91 783d 12f1 26bc
00000300: b166 d3bd c9b5 b23d e0a7 b73d 9b54 993c
00000310: d776 bbbd 0606 8bbd cf6f 3dbd 18c0 de3d
00000320: b81a 243d e6cd 1abd c8b2 75bd 8aca cabb
00000330: 3479 f23d dbbb 80bd 4d39 35bd e86a 8c3c
00000340: d40b 5cbd 998a 513d 7e86 643d 0586 acbd
00000350: c1b4 ccbd 2643 08bd b767 e23d 1e8f 9b3c
00000360: 5510 c93d bbed d2bd 467e 8bbd e30b a63d
00000370: dd9e 8b3d 84a4 ffbc 9cc5 a63d 9886 3a3d
00000380: 120e c63d ce60 363d e3c0 8bbd 4623 843c
00000390: 2333 afbd b639 803b 33d6 ce3d e76d 3c3d
000003a0: 527c 663d 9e92 323d 2072 d3b9 8d78 80bd
000003b0: 95fc 9a3d 735b e13d 96c7 0cbd f83a aa3d
000003c0: e661 9a3c 6549 b23d eb8c dbbd ead3 b4bd
000003d0: a848 2fbc 9c04 f9bc 6a3b 463d 5156 a0bc
000003e0: 40f5 c6bd 68cf 98bd 3854 813d 1850 babd
000003f0: d9b0 433d ce20 02bd 1541 1c3d 4968 943d
0.056656964 0.023481866 -0.025439093 0.07425941 0.08712996 -0.072954446 -0.0185067 0.010850231
-0.053157587 0.015148351 0.010146149 0.06292937 -0.11816933 0.036464654 -0.0056325905 0.0754661
0.018702313 0.045263432 -0.09525155 -0.027738959 -0.010625308 0.13049237 0.0095988475 -0.08791154
-0.0863834 -0.00981748 -0.037613742 0.00988559 0.114669755 -0.030815385 0.100362055 -0.09014344
0.031352658 0.05800727 0.054529533 0.056680046 0.08672586 0.02763787 0.00031208247 -0.019954069
0.038869105 -0.0023482675 -0.019132147 0.067270555 -0.051126268 0.1304587 0.027231399 -0.06176208
-0.027552776 0.049332447 -0.048886366 0.08915288 0.104543366 -0.054855205 0.06815957 0.07755043
-0.09513988 0.045565702 -0.0036956137 -0.074830785 0.0010246122 0.06350241 -0.06573296 0.12796892
0.010425365 -0.005651108 0.09938363 0.12837686 -0.09277806 0.06313072 0.072093606 0.005616314
0.10007803 -0.10732164 0.093861915 0.06988424 0.018873435 -0.014150716 0.030549055 0.10446743
-0.08589155 -0.09008448 0.11727577 0.074352026 -0.099138744 -0.06536778 0.101519726 -0.09625754
0.11332258 0.0047896877 -0.07244317 0.047110077 -0.062377118 -0.09818804 -0.0822489 0.025070399
0.04513816 -0.047276244 -0.04321615 0.08544415 0.097122334 -0.08217308 -0.0640804 -0.045368638
0.054363232 0.092453405 0.014770315 0.043827612 0.12716688 -0.01086629 0.038993143 0.093504325
0.053075626 -0.098448135 -0.08052465 -0.11430639 0.044870105 -0.05613586 0.0830465 -0.025277708
-0.11421182 0.04358562 -0.05204905 0.052109677 0.0133779645 -0.09137782 -0.082496256 -0.08589957
0.08652281 -0.08018812 0.09503455 0.07516847 -0.088258184 -0.0965052 0.006344042 -0.030536672
-0.019725405 -0.11361513 0.07881307 0.11377646 -0.045798764 0.046530135 0.06293327 0.061796732
0.10003776 -0.1061736 -0.054207806 0.08475136 -0.07960971 -0.004114637 0.02732075 -0.08738488
0.06460599 -0.005241624 0.094213225 -0.030852355 0.0644859 0.027277708 0.082994066 0.034356512
0.009914974 0.103603564 0.05029063 0.1120487 0.105660215 -0.01765 0.046407316 -0.02485211
0.123421624 0.0946009 -0.11842008 0.031807356 0.004307829 -0.03785733 0.10741476 -0.012769426
0.043501668 -0.097958125 0.046156492 -0.04970306 0.072113164 -0.036157884 0.11882711 -0.083339535
-0.093763016 0.050888397 -0.08557581 -0.008497327 0.05178456 -0.048576884 0.06068579 -0.010189312
-0.10322321 0.08726079 0.089675665 0.0187171 -0.09153526 -0.06788258 -0.046249207 0.10876483
0.040064543 -0.037794016 -0.059984952 -0.0061886953 0.11839524 -0.062858306 -0.0442441 0.01714082
-0.053722218 0.051157568 0.055792324 -0.08424 -0.099954136 -0.033267163 0.11054938 0.018989142
0.09817568 -0.1029925 -0.06811194 0.08107736 0.0681741 -0.031206377 0.0814316 0.045538515
0.096706524 0.044525914 -0.068238996 0.016130101 -0.085546754 0.0039131297 0.10099449 0.04600325
0.056270905 0.043596856 -0.00040330086 -0.06272993 0.075677074 0.11003771 -0.034370027 0.08312029
0.01884551 0.08705405 -0.10720237 -0.08829482 -0.010698475 -0.030397706 0.048396505 -0.019572409
-0.097147465 -0.074614346 0.063148916 -0.09097308 0.047776077 -0.031769566 0.038148005 0.07246453

touchscreen_data_network.rnn.weight_hh_l0 f4 [64, 64]
00000000: b235 de3d 256d 8a3d 8c24 e3bd 2037 cfba
00000010: a605 b8bd 50b1 a63d 201d 8abb ff76 063c
00000020: 7834 ab3c dce7 0d3d bf72 21bd 9cd6 233d
00000030: b46d 07bd cc7f 103d 9c51 b53d 00e8 debb
00000040: 8440 d3bd 5afc 03be f2c9 e63d f89e 67bd
00000050: 54e7 febd 5825 b6bd 1466 fe3d 70d5 8e3c
00000060: 1eab a03d 0027 ed3d c4d6 923d 0c1d 503d
00000070: b059 8b3d c0a3 edbb b2d3 963d 2c10 30bd
00000080: 9622 eb3d f6f8 c4bd 7589 083d 50ce f43c
00000090: 4028 4039 fd0b 9dbd 0459 ca3d 0ce0 3f3d
000000a0: c050 efbc b01d 2abd e4b1 243d c054 ba3d
000000b0: 05f8 503d 72f1 9abd 8a54 dc3d 10aa a63c
000000c0: a02c 06bd 60bd 383d e095 5a3c 9a79 9ebd
000000d0: 7480 633d 9c5f bb3d f296 aa3d 76e4 9ebd
000000e0: 9c22 4f3d 8c55 96bd 9060 213d 319c 15bd
000000f0: e420 923d 781f d13c 420e 9b3b 0a7e a13d
00000100: b46f 66bd 98d6 e2bc 904b a6bd 7d01 dbbd
00000110: cacf 86bd 4eb9 a93d 70c0 cc3d 7ee8 a13d
00000120: 666c e5bd 0e43 d8bd 376c 43bd b8d6 6abd
00000130: 68e0 6d3d 0b8c cbbd 9008 153d c94c e2bd
00000140: a1cd a3bc 5805 3e3d c293 273d 7e3a bd3b
00000150: 50b2 4fbc e100 a43c ab6c 7cbd 70e7 c73d
00000160: ccee bc3d b416 e63d 04d7 f6bd 84bb eebd
00000170: a6ed 893d fc82 b13d fbd6 883d 8755 1abd
00000180: f9b1 f9bd 58bb b03c 1e1f e2bd c4d0 e7bb
00000190: e47f 73bd b9ff 8fbd 08d1 da3d 5868 b5bd
000001a0: 4ea2 9a3d a2b4 cabd d1c0 aa3d 2033 513d
000001b0: 37b7 adbc 9ed1 a4bd 20d4 e4bd 28fa dc3d
000001c0: b8bc 233d 60c7 b3bd 3cc2 103d d861 12bd
000001d0: 7861 423d 9036 eb3a e2e7 9abd a60b febd
000001e0: 140a 40bd 1287 bdbd ac10 4ebd cd61 1a3c
000001f0: cdee 59bd 0864 27bd 8869 883d d840 b43d
00000200: e8dc 50bd f187 f23c d53c c0bd ed3e ebbd
00000210: 9608 bbbd 4343 98bd c5b0 e33d a9b2 e63d
00000220: 3c0b 2fbd 1ae1 313d a51a a6bd f1d0 a1bd
00000230: d3ff 1dbc 39e8 323d 38c4 683d 70b9 1f3d
00000240: 5877 6a3b 52a1 09be 161d da3d d875 85bc
00000250: 8be4 fb3d 04cb 5f3b c4fb db3d 88b0 273b
00000260: cb20 86bd 46ce 043e d75e 983d 9c19 f2bd
00000270: cbf8 a5bd 864e 08bd 069c 66bd 6e42 63bd
00000280: 82c0 f83d 6733 953d 4446 8d3d f68a 6c3d
00000290: 800f e6bd 051c 373d 248c 963d 10fb d7bc
000002a0: 8da1 aebd f096 4abd 82e3 343d e211 d0bd
000002b0: 7549 003e 3059 623d 900c b9bc 7ea5 dbbd
000002c0: 8d01 b3bd d89b 933d ed24 68bc d02b 203c
000002d0: dea6 463d ba4e fe3d c388 cd3d 721d a93d
000002e0: 2524 f5bd 90bd f7bd 7e18 3e3d 8d18 453c
000002f0: cc76 91bd 3a56 bcbd 3f37 16bd cc8e 3b3d
00000300: 6ab3 abbd 4598 d9bd d85a 203d f539 2dbd
00000310: 4454 d7bd 8232 a73d d3b2 b7bd 84ee 2dbc
00000320: b7dd eabd fa84 ea3d aeac b0bd 28fe 093d
00000330: 3ce2 1ebd f242 a13d e22d 8ebd 2ae5 e4bd
00000340: 4f30 593d e44a 533d 5f1f e2bd 1b22 64bd
00000350: b3b3 93bc 26df a5bb 5dec 043e f08a df3d
00000360: 007b 6ebb 5a4a 903d 8031 f9bc 3937 d83d
00000370: 0a61 bd3d 1230 02be 63da 913d fc35 2abd
00000380: fe60 f2bb f184 473c 7808 bc3d db30 77bd
00000390: a691 893d 86c2 da3d 9575 b73d 4feb 5bbd
000003a0: 6caf bd3d 7218 90bd 568d d6bd 3720 083c
000003b0: 8f31 063e f91a f3bd e8b2 b33d 7613 d8bd
000003c0: 29b5 fdbd 6930 ea3d 9c49 6cbd d84c 65bd
000003d0: 1007 02bd b01d 9d3d 22c8 93bd 5ba9 6c3d
000003e0: b091 7fbd ebb8 6abc bf09 66bc 8720 c0bd
000003f0: 0c2e 90bd 2fd2 963d 7355 cb3d 2265 123d
0.10850085 0.06759099 -0.11090955 -0.0015809275 -0.08985452 0.081392884 -0.0042148978 0.008207082
0.020899042 0.034644946 -0.03941607 0.03999959 -0.033063605 0.035278127 0.088534564 -0.006802559
-0.1031504 -0.12889233 0.11268987 -0.05654809 -0.12446466 -0.088938415 0.124218136 0.01743576
0.07845138 0.11579704 0.071698695 0.05080895 0.06804216 -0.0072521865 0.073645964 -0.042984173
0.11481206 -0.09617798 0.033334214 0.029883534 0.00018325541 -0.07668302 0.0988026 0.046844527
-0.02921331 -0.04153222 0.040208712 0.09098196 0.05101778 -0.07565583 0.10758312 0.020344764
-0.0327574 0.045102477 0.013341397 -0.077380374 0.055542424 0.091490954 0.08329572 -0.07758419
0.050570115 -0.073405355 0.03939873 -0.03652591 0.0713518 0.0255277 0.0047319243 0.07885368
-0.056258872 -0.027690217 -0.08119881 -0.10693643 -0.06582601 0.08287297 0.09997642 0.079056725
-0.11202316 -0.10559665 -0.047710624 -0.057333678 0.05807534 -0.099388205 0.03638512 -0.11049802
-0.019995512 0.046391815 0.040912397 0.005774795 -0.01267679 0.02001995 -0.06162707 0.0976094
0.092252344 0.11234799 -0.1205273 -0.116568595 0.06734781 0.086675614 0.06681629 -0.03767922
-0.12192149 0.021573707 -0.110410914 -0.0070744473 -0.059448138 -0.07031197 0.10684401 -0.088577926
0.075504884 -0.09897734 0.08337558 0.051074147 -0.021205528 -0.08047794 -0.11173272 0.10789901
0.039974898 -0.08778262 0.035341486 -0.035737842 0.047456235 0.0017945338 -0.075637594 -0.124045655
-0.04688461 -0.09254278 -0.05030887 0.009422732 -0.053206254 -0.04086688 0.066607535 0.088014305
-0.050991923 0.029605838 -0.09386603 -0.114866115 -0.09132497 -0.07434704 0.111177005 0.112645455
-0.042735323 0.043427564 -0.08110551 -0.079011805 -0.009643513 0.043678496 0.056827754 0.038995206
0.00357767 -0.13440445 0.10650079 -0.016291544 0.122994505 0.0034148106 0.1074138 0.0025587399
-0.065492235 0.12969312 0.07439964 -0.11821291 -0.08104094 -0.03327801 -0.05630114 -0.055483274
0.12146093 0.07285195 0.06898168 0.05774971 -0.11233425 0.044704456 0.073509485 -0.026364833
-0.08526907 -0.04946035 0.04416228 -0.10159661 0.12528022 0.055260837 -0.022588998 -0.107249245
-0.0874053 0.07207459 -0.01416896 0.009776071 0.04849898 0.1241736 0.10035851 0.082575694
-0.11969785 -0.12096703 0.046410076 0.012029779 -0.07102737 -0.09196134 -0.03667378 0.04579048
-0.0838383 -0.10624746 0.039149135 -0.0422916 -0.10514119 0.081639305 -0.08969655 -0.010615949
-0.1146807 0.114511445 -0.08626686 0.033689648 -0.038789973 0.07874097 -0.06942345 -0.11176522
0.053024586 0.051585093 -0.1104114 -0.055696588 -0.018030023 -0.0050620018 0.1298079 0.10915172
-0.0036389232 0.070454314 -0.030419111 0.10557408 0.09247024 -0.1271365 0.07121732 -0.04155539
-0.0073968163 0.012177692 0.09181303 -0.060349327 0.06717233 0.10681634 0.08957974 -0.053691205
0.09261975 -0.070359126 -0.104761764 0.008308462 0.13104843 -0.11870379 0.08774358 -0.10550587
-0.12388069 0.11435015 -0.057687387 -0.055981487 -0.031745017 0.07671678 -0.07215907 0.057778697
-0.062394798 -0.014326314 -0.01404041 -0.09381204 -0.07040033 0.07364308 0.099284075 0.03574098

touchscreen_data_network.rnn.bias_ih_l0 f4 [64]
00000000: dc07 c83d 888f ce3d 2006 cbbc ba39 c2bd
00000010: b2c0 2abd d670 1f3d ead9 883d 06c5 9f3d
00000020: 88f4 033c 6544 9dbd 3857 f4bc 3915 55bc
00000030: 5157 4c3d 6653 eabb e86b c23b 65ae 91bd
00000040: 3a01 dcbb 28d6 543d 8868 cf3c 5799 843c
00000050: 3851 ddbd 8395 8dbd 677f 67bd 2a3a 833d
00000060: 6676 72bd 148a 023c ed7c aa3d 5375 fd3d
00000070: c502 fc3c a046 223c 5d3d 913d 9039 ae3c
00000080: 30f0 52bd be76 5cbd 2924 bb3d f389 65bd
00000090: ecca da3d 4ad5 8e3d 405f 143a 5afd 253d
000000a0: 0586 b93c 7c1a 92bd 0324 863d ead7 f13b
000000b0: de8f b5bc 7d5a 953d 7290 77bd 30df adbc
000000c0: d4be 253d 3736 d43d ec3a 873c 01a9 8fbd
000000d0: 159c c13d 9e95 c9bd 3c8a ce3d f3a1 babd
000000e0: e2e3 92bc 00bc b0bd e420 bd3d 449d db3d
000000f0: 0094 ffbb 260b 233d a823 86bd e80b 80bb
0.09767124 0.1008597 -0.024783194 -0.09483667 -0.041687675 0.038925968 0.06682189 0.07801251
0.008053906 -0.07679061 -0.029826745 -0.013005548 0.04988796 -0.007151055 0.0059332736 -0.07113341
-0.0067140134 0.051962048 0.0253184 0.0161864 -0.10806507 -0.06913283 -0.056517985 0.06407578
-0.059194945 0.007967491 0.08324609 0.123758934 0.03076304 0.009904534 0.07091782 0.021267682
-0.051498592 -0.05382418 0.091377564 -0.05603976 0.106832355 0.069742754 0.00056599453 0.040524818
0.022646913 -0.07133958 0.065498374 0.0073804753 -0.022163328 0.0729265 -0.06044049 -0.021224588
0.04046519 0.10361903 0.016507588 -0.07014657 0.094535984 -0.0984299 0.1008496 -0.091129206
-0.017930929 -0.08629608 0.09234789 0.107233554 -0.0077996254 0.039805554 -0.0654977 -0.0039076693

touchscreen_data_network.rnn.bias_hh_l0 f4 [64]
00000000: 0061 a1bb bf40 613d 7d15 ac3d 87fe d6bd
00000010: 1ee9 863d e86f e63b 0f7b 90bd 398b 07bd
00000020: a2d4 b43c 78db 4ebd 1c9a 8bbd 6fd3 ea3d
00000030: d257 ee3d 2e30 a4bd 6662 c23b a595 b4bd
00000040: fe2f b83d 3707 dd3d 1382 42bc ad2d 87bd
00000050: 3407 a73d 2eb9 493d f9e7 9cbd 3b16 a33d
00000060: 0a0b c7bd 1fd9 d93d b33c 14bd 196c d23d
00000070: e601 0abd c2fc e53d 8d21 0abe 0aa9 103d
00000080: 219a e53d 1bee e63d 1adc c2bd a2e3 f03b
00000090: 4f66 c63d 53df 9d3d 7055 083e bc9b abbd
000000a0: 7524 ad3d 2ddc a2bd ac3d 923d 2a51 f13d
000000b0: ab27 0bbd c62b cabd e7dd f3bd 088c 44bd
000000c0: f9ad 013c 4628 363d 048b 063d 0f80 99bd
000000d0: 4a68 babc b675 343d 079b c83d a2b1 e7bd
000000e0: d206 bbbb 3b77 003e b517 02bd 567a 92bd
000000f0: 2408 efbb e631 2cbd 3b2f b4bd 7861 b93d
-0.0049248934 0.054993387 0.08402536 -0.10497766 0.06587432 0.0070323832 -0.070547216 -0.033091757
0.022074047 -0.05050227 -0.068165034 0.11466109 0.11637844 -0.08017002 0.00593214 -0.08817605
0.08993529 0.10792392 -0.011871832 -0.06600509 0.08155671 0.049248867 -0.07661433 0.079632245
-0.097189024 0.10637116 -0.0361907 0.10274524 -0.033693217 0.1122985 -0.13489361 0.03531746
0.112110384 0.11275884 -0.09514637 0.0073513547 0.096874826 0.07708611 0.13313842 -0.08379313
0.08454219 -0.079521514 0.07140669 0.11783059 -0.033973377 -0.0987163 -0.11907559 -0.047985107
0.0079150135 0.044472 0.03284742 -0.07495128 -0.022754807 0.04405757 0.09795194 -0.11313178
-0.0057076 0.12545483 -0.03176089 -0.0715224 -0.0072946716 -0.042039774 -0.08798071 0.09051794

sensor_data_network.rnn.weight_ih_l0 f4 [64, 6]
00000000: f83b 6f3d 11d5 0d3c a25e bbbd e657 ad3d
00000010: d7e1 bebc 5f2c d6bd 9f1e 353d 8c86 ab3d
00000020: d515 aabd 7848 f73d acc4 c53d 1f0a fb3d
00000030: b3d3 ccbd 977c dc3d 876b 8d3c 926e 0bbd
00000040: b20b 7bbd 36f3 7a3d d6b3 3ebc dcef ae3d
00000050: 5153 373d 9483 883c dd73 523c f2fe c8bd
00000060: 7619 d9bb aaf2 33bd 985b e3bd c2c1 633d
00000070: 8954 a93d 5240 d2bd 206f ce3c 2ed0 bdbd
00000080: 8900 a2bd 32e0 b2bd 0fd7 f0bd a5dc ba3d
00000090: 1c0b bc3d 7edb fabd 7acd fdbb 39db 9d3c
000000a0: aab7 a93c e52b 06be 7b8d 26bd 5861 923d
000000b0: 6d35 18bc bbb9 07bd 1e8e a73d 0b9d 67bc
000000c0: 7091 c9bd 7a53 9c3d e23b 093d 6800 ce3c
000000d0: b5d5 d53d b323 d13d ea39 93bd 9269 f9bc
000000e0: 9735 a3bd 21ec 903d adc1 743c eb06 743d
000000f0: 66f3 cebd 27be e1bd ade3 9ebd 4f67 93bd
00000100: c674 773d 6c78 9cbd a279 d8bc 6ecd a93d
00000110: d329 c03c b286 073e 7a15 5b3d abf5 0b3d
00000120: 7e14 04be 7eb1 8e3b b0d5 f9bd 9c87 973d
00000130: 2c9d e53d 1700 9cbd 4ec6 0bbd a433 d0bd
00000140: 6d8d 06bd a0cb 9fbd 781e dfbd 3057 aa3d
00000150: 91d4 c2bd 8420 adbc b830 12bd a7c5 703d
00000160: 0644 d6bd 7267 7c3d 5d77 bcbc a644 c4bd
00000170: 080f 93bd f6b8 c93d 84ab ae3d de54 f4bc
00000180: af22 a93d 7c38 d7bd d111 a73d b053 1a3d
00000190: b95b 003c 5bdd d73d e0bd 21bd 8869 203d
000001a0: 7d78 64bd fcb2 69bd d123 bfbd bea8 433d
000001b0: 80fd 5bbd 2fed 8bbd 6500 933d 46de b33d
000001c0: cc1e 64bd 760f 1b3d 2816 d33c 5a8d babc
000001d0: 2061 d1bd 4a09 073e 74f5 cd3d 9fb8 673c
000001e0: 9dcf debd c1de c03d 2563 92bd 36d4 c43d
000001f0: 0b49 8d3d 35af c9bd 720b 96bd 5c7c b0bc
00000200: 4c57 5e3d 38a3 da3d 79ba d2bd fe5d 613d
00000210: b53b 823d 3a03 523c f21c cbbc 8909 7ebd
00000220: 1f6a 6b3d 80ed e5bc c82f bbbd 530f 07be
00000230: 990a 0f3d d0f8 f0bc e51a c1bd a17f d0bd
00000240: d44c 1e3d 5452 e8bc 6231 8dbd 2ad7 cdbc
00000250: 0662 a6bd e6eb 793d dad2 a43d be20 473d
00000260: 59b0 023e e014 a83c d4a2 6a3d 66fe d73d
00000270: 7ebd f6bd 87bb b33d f960 cfbd adb0 4d3d
00000280: 00d3 80bc 0e31 063e 6a12 0d3c fef8 6fbd
00000290: e7e6 83bc 0e75 0dbd 02b3 6d3d e07f 95bd
000002a0: 8ed5 c13d c016 653c 45b0 99bd d80a e6bd
000002b0: 572b f0bd e06d 223d 6e38 39bc ba87 043e
000002c0: 5e51 6a3d 2ab1 dabd 387f adbc 5d79 023d
000002d0: c6e0 64bd cd27 823d 429b a73c 9ccf a33d
000002e0: c557 4a3d bc5b ea3d 327d bebb cdf7 b8bd
000002f0: 176b 9a3d f7b0 0a3d b251 ae3d ff76 75bc
00000300: 1f4e c3bd b611 f5bd df1f 9ebd e954 9b3d
00000310: 2fbb 043d 01c5 e13d 3ab7 08be 9707 a8bd
00000320: e804 60bd 7e9f a53b 5775 bbbd 69a8 b03c
00000330: 2df4 c3bd 5cc2 f7bb 3685 95bd fc11 d63c
00000340: f133 053c 6841 bb3d d076 8bbb 0e28 89bd
00000350: 8f81 9b3d b64b 19bd 57ba a63c a6dd e5bd
00000360: fbb9 66bd 815b 9ebd 6ba7 0abd 0532 073e
00000370: 80e5 cbb9 2069 6bbb 0069 c1bd 902e d8bb
00000380: 84e3 df3d b7ac c8bd 3926 993d 886a 153c
00000390: 0c8c ecbd 5a02 75bd 55b3 35bd 74a4 ca3d
000003a0: e2fc c0bd e0c7 483d e332 d33d e943 933d
000003b0: 6c34 acbd 8328 e63d 845e 333d a377 3f3c
000003c0: ae5f 993d 3665 d3bd d22c 153c 3382 8c3d
000003d0: 7e70 88bd b645 bf3d 1a4b 29bd a5b1 e3bd
000003e0: eac2 4e3c 42a1 46bd e7ba d8bd d456 8cbd
000003f0: 02b7 a63d f03f 523d 58c6 e83d 30a7 43bd
0.0584068 0.008656756 -0.09148909 0.08464031 -0.023301048 -0.10457682 0.044218656 0.08375272
-0.083049454 0.12074369 0.09656653 0.1225779 -0.10001316 0.10765951 0.017263187 -0.034040995
-0.06129045 0.0612671 -0.011639556 0.08541843 0.04475719 0.016664304 0.012845007 -0.09814252
-0.0066253496 -0.043932594 -0.111014545 0.055604704 0.08268077 -0.102661744 0.025199473 -0.09268223
-0.07910258 -0.08734168 -0.11759769 0.09124116 0.091818064 -0.12248896 -0.007745442 0.019269573
0.02071746 -0.13102682 -0.04066227 0.07147473 -0.009290081 -0.03313611 0.081814036 -0.014136563
-0.09842193 0.076331094 0.033504374 0.025146678 0.10441152 0.10211887 -0.071887806 -0.030445848
-0.07969206 0.07076288 0.014938754 0.05957691 -0.10105018 -0.11022597 -0.077582695 -0.07197439
0.0604141 -0.07640156 -0.026425187 0.08291136 0.023457443 0.13234976 0.05348728 0.034169834
-0.12898442 0.004354655 -0.12198961 0.07398912 0.11211619 -0.07617205 -0.034124665 -0.101661
-0.032849718 -0.0780251 -0.10894483 0.08317411 -0.095132 -0.021133669 -0.035690993 0.058782246
-0.10462193 0.06162209 -0.023006136 -0.09583406 -0.07180601 0.098497316 0.08528808 -0.029825624
0.082585685 -0.105088204 0.08157695 0.037677467 0.007834368 0.10540267 -0.03948772 0.039163142
-0.05577897 -0.05705546 -0.09333003 0.047768347 -0.053708553 -0.068323486 0.071778096 0.0878263
-0.055693433 0.03785654 0.0257674 -0.02277248 -0.10223603 0.13187137 0.10056582 0.014143138
-0.10879443 0.09417487 -0.071478166 0.096107885 0.068986975 -0.09847871 -0.07326402 -0.021543674
0.05428247 0.10675663 -0.10289473 0.05502128 0.063590445 0.012818152 -0.024794076 -0.062020812
0.05747425 -0.02806735 -0.09139973 -0.1318944 0.034922216 -0.029415518 -0.09428958 -0.10180593
0.038647488 -0.02835957 -0.06894185 -0.025127012 -0.08124165 0.061015986 0.08048029 0.04861521
0.12762584 0.020517766 0.05728419 0.105465695 -0.120478615 0.087760024 -0.10125918 0.05021732
-0.015725613 0.1310465 0.008610347 -0.058587067 -0.016101314 -0.03453546 0.058032043 -0.07299781
0.094645604 0.013982475 -0.07504324 -0.11232537 -0.117270164 0.039655566 -0.011304958 0.129424
0.057206504 -0.106783226 -0.021178827 0.031854022 -0.055878423 0.06355248 0.020459775 0.07998583
0.04940011 0.11443278 -0.0058132643 -0.09031639 0.07539957 0.033860173 0.08511676 -0.014981984
-0.09536385 -0.11966269 -0.07720923 0.07584555 0.032405075 0.11023904 -0.13351145 -0.08204573
-0.05469218 0.0050544133 -0.0915324 0.02156468 -0.09568057 -0.0075610112 -0.073007986 0.026131622
0.00813006 0.091433346 -0.004256107 -0.06697093 0.07593071 -0.03742572 0.020352526 -0.11223917
-0.05632971 -0.07732297 -0.03385107 0.13202675 -0.00038890168 -0.0035920814 -0.09443855 -0.0065973476
0.10932067 -0.09798568 0.074779935 0.009119637 -0.11550149 -0.059816696 -0.044360477 0.09894648
-0.094232336 0.04901874 0.1031244 0.07190687 -0.08408436 0.11238196 0.04379131 0.011686238
0.074889526 -0.10322039 0.009104924 0.06860771 -0.06662081 0.09339468 -0.041331388 -0.111178674
0.012619713 -0.04849363 -0.10582524 -0.06852499 0.08140375 0.051330507 0.11365956 -0.047766864

sensor_data_network.rnn.weight_hh_l0 f4 [64, 64]
00000000: b686 21bd 2dc7 833c 688a 213d 34f6 f13c
00000010: 5430 b2bd 7a9c d8bd 88d7 55bb 7295 bfbd
00000020: e9fa 5cbd 60bc cab9 9496 5a3d 8cdb 96bd
00000030: 61e8 95bd b5db 3ebd 5621 de3d 28b8 ea3d
00000040: 46f3 0abd 8bcd eabc a835 323d 2e7d 94bd
00000050: 826d a33b 46fa 4ebd 2d35 a0bd 29da b33d
00000060: a4c4 79bd 62cf e4bd 2b82 efbd 2628 a6bd
00000070: baa1 c2bc f65d d2bc f924 08be bf20 9d3d
00000080: 0f1c b43d 7f7b dfbd 7aca b03d 0f6d 373d
00000090: ca7a 483d 2c5c 493b b738 d6bd e847 8bbd
000000a0: 2c02 bfbd befd 563d 1107 ebbd c192 db3d
000000b0: b78f b4bd 583a 213d e5d9 b8bd b039 423d
000000c0: 11b2 8abd 3188 173c c66f ac3c ddbf d2bd
000000d0: a713 ce3d 7cdf 88bb 7fd6 ed3d 6ca9 c8bd
000000e0: 9858 d53b f965 3fbd 7043 61bd d75a 363d
000000f0: fb25 8abd 8bbb 803d cb2b ae3d f4c0 d5bd
00000100: e1d8 c2bd 4fde 85bd da1e 083e 2956 69bc
00000110: b0b7 1a3d dda4 793d 5f39 793c bcae b93d
00000120: 24e5 38bd 22c3 d33d e8d4 85bb 8c30 76bd
00000130: b80e 4f3d 8da8 d5bc 1708 4ebd 2239 c13d
00000140: 7301 cdbd 1bc5 7cbd 863b 7f3d 8907 de3d
00000150: c061 dd3d 8a41 26bd bab8 83bd 28f1 e9bd
00000160: be30 a23d 5cb6 d43d 616b cc3d 4516 223c
00000170: 2a69 9cbc 9db4 a2bd b767 b6bd 3107 afbd
00000180: 4041 8f3d 7cdf 4e3c 74d8 053c 844f a2bd
00000190: c193 a4bd 67a1 12bc 353f 8cbd 5ad1 54bd
000001a0: d07b 823c a89e ba3c d672 cd3d 74f0 933d
000001b0: 2e35 b63d 12ab 063e 0251 83bd dd54 a6bd
000001c0: 3066 e03d 8205 14bd c024 b63d 4ac8 07be
000001d0: da55 9fbd 7ad9 18bd 4c94 e03d 3ccf aebb
000001e0: 006d 5aba 5843 db3b f8a0 f43d e569 c3bd
000001f0: b66b 03bd 1aae c13d fa6d 5d3d 339a 193c
00000200: 8839 cfbd 5693 7cbd e7de d8bd 6b1e 073e
00000210: 0981 b3bd 68ed 00be 2c11 bbbd 4852 08bd
00000220: b0d3 eb3d 9cbc dbbc 5079 3e3c 65e9 063e
00000230: a51e ec3d 8804 bebd 21a9 963d 1c37 9ebc
00000240: 502c b8bd ee56 9f3d acee 4f3d d24e 0a3d
00000250: aee1 7fbd b883 d13a 1753 873d d61b af3c
00000260: eccc 62bd 00e2 dcbd f368 03bd 7f59 c83d
00000270: 386c 2cbd ef39 96bd 8129 613d 0f92 53bc
00000280: 1832 1ebd 03e2 11bd 0560 18bc f4e8 cebd
00000290: c6e5 283d c4a9 c33d 2a9f c0bd 6206 0fbd
000002a0: 9b6e 53bd 0791 713d c919 e4bd 10fe 843d
000002b0: 8494 d73c c519 babd e2f0 bebd 500e a83d
000002c0: 1454 b23b 6650 493d cc94 60bd c5af 57bc
000002d0: 4c1a 16bd 745f e33d 9438 bdbd 592a 573d
000002e0: 7268 e43d 368c 573d f0c9 2b3a 90c0 8d3d
000002f0: be55 373d 0ff2 c83c c435 66bd 9eed 9f3d
00000300: 3af1 7f3d 2ac7 a33d 6821 90bc bdb0 bd3c
00000310: dc0d 60bd 6d42 e63d 0866 08bd 3e72 f6bd
00000320: 00fd b0bd 9f88 ecbc 4ff3 803d 2efb 2dbd
00000330: d792 a6bd 15a5 563c c33f 833d 64d4 b5bb
00000340: e966 4cbd b25d 893b f280 60bc b9ad bdbd
00000350: 2d8c 653d c853 f2bc 9a0e 8a3d 23b3 b6bd
00000360: 21e6 1ebd 943c fc3d 3717 82bd 9ab4 873d
00000370: 6e8e adbb b81b 69bd 91ab 833c 7af1 9dbd
00000380: 6417 aabb 7bb4 413d 5ed3 96bc a002 ea3d
00000390: b637 143d 5a47 debd ea74 94bd a48c 713c
000003a0: f0ed e73d ca34 d93c 5283 b13d 00c5 72bd
000003b0: ad60 4e3d 8fee 7bbd 6c7f d63d 2c36 a23d
000003c0: 6441 17bd 68c7 36bb fe4a 5abd 372b 58bd
000003d0: c847 293b 49b3 fbbd 5765 64bd 463c b7bd
000003e0: 2e4a 91bd 757b 7e3c b682 b0bd 17ee ffbd
000003f0: 8a46 973d 098f 8e3d 1e4c b3bd 2851 80ba
-0.03943511 0.016086185 0.039438635 0.029536344 -0.08700624 -0.105767205 -0.0032629687 -0.09354676
-0.053950224 -0.00038668793 0.05336626 -0.07366094 -0.073197134 -0.046596248 0.10846202 0.11460906
-0.03392341 -0.028662464 0.0435082 -0.07250439 0.0049874196 -0.050531648 -0.078226425 0.08781845
-0.060978547 -0.11172368 -0.116947494 -0.081131265 -0.023758758 -0.02567957 -0.13295354 0.076722614
0.08794414 -0.10912227 0.08632369 0.04478174 0.048945226 0.0030725105 -0.10460036 -0.068008244
-0.09326586 0.05248808 -0.11475957 0.107213505 -0.08816474 0.03936228 -0.09025935 0.047418296
-0.06772245 0.009248779 0.021049391 -0.10290501 0.10062342 -0.004177032 0.116131775 -0.0979794
0.0065108053 -0.046728108 -0.054995954 0.044520225 -0.067455254 0.06285771 0.085044466 -0.104371935
-0.095140226 -0.065365426 0.13293019 -0.014241734 0.037772834 0.06094824 0.015211432 0.09066531
-0.0451404 0.10339953 -0.0040842183 -0.06010489 0.050551146 -0.026081348 -0.050300684 0.09434725
-0.10010042 -0.061711412 0.062312625 0.10841281 0.1080966 -0.040589847 -0.06431718 -0.1142295
0.07919453 0.10386345 0.099814184 0.009893005 -0.019093115 -0.079446055 -0.08906501 -0.085462935
0.06994867 0.012626525 0.008169282 -0.07925323 -0.08035994 -0.008949614 -0.06847993 -0.051957466
0.015928179 0.022780731 0.10031669 0.07223597 0.08896862 0.13151196 -0.064119354 -0.08121655
0.10956991 -0.036138065 0.08893728 -0.13259998 -0.07780047 -0.037316777 0.109657854 -0.005334763
-0.00083322823 0.0066913776 0.11944765 -0.09541682 -0.032085143 0.09457035 0.05405996 0.009375143
-0.10118395 -0.061663948 -0.1058939 0.13195197 -0.08764846 -0.12590563 -0.09134135 -0.033281595
0.115149856 -0.026823334 0.011625603 0.1317497 0.115292825 -0.09278208 0.073564775 -0.019313388
-0.08992827 0.077802524 0.050764725 0.033766575 -0.062471084 0.001598469 0.06607645 0.021375578
-0.05537121 -0.107852936 -0.03208251 0.09782695 -0.042095393 -0.07335269 0.05497122 -0.012913241
-0.038621992 -0.035615932 -0.009300237 -0.10103026 0.041234754 0.095538646 -0.09405358 -0.034918196
-0.051619153 0.0589762 -0.11137731 0.06493771 0.026315935 -0.090869464 -0.093232885 0.08205855
0.005442152 0.04914894 -0.054829404 -0.013164465 -0.036646172 0.111021906 -0.09239307 0.05253062
0.11152734 0.05262395 0.00065532234 0.06921494 0.044759504 0.024529485 -0.05620362 0.07808994
0.06248591 0.07996972 -0.017594054 0.023155564 -0.054700717 0.112431385 -0.03330043 -0.12033509
-0.08642006 -0.02887374 0.062964074 -0.04247587 -0.08133476 0.013100882 0.06408646 -0.0055490006
-0.04990283 0.0041920776 -0.013702618 -0.092616506 0.056041885 -0.029580966 0.06741066 -0.08920886
-0.038793687 0.12316242 -0.06352084 0.06626244 -0.00529652 -0.0569112 0.01607302 -0.077120736
-0.0051907767 0.04729126 -0.018411335 0.11426282 0.036185943 -0.10853453 -0.07248862 0.014743004
0.1132468 0.02651443 0.086676255 -0.059269905 0.050385166 -0.061506804 0.104735225 0.07920489
-0.036927596 -0.0027889851 -0.053294174 -0.052775588 0.0025830138 -0.12290055 -0.055760708 -0.08947043
-0.07094227 0.015532364 -0.08618681 -0.12496584 0.07386501 0.069608755 -0.087547526 -0.0009789811

sensor_data_network.rnn.bias_ih_l0 f4 [64]
00000000: 9fe0 ae3d 8a60 e73d 49ad 30bd 783b 933c
00000010: e284 39bd 4362 9f3c 45fc a33c f2c9 8dbd
00000020: 4600 b0bd c970 d5bd eb38 87bd b5ca f3bc
00000030: c7b3 e7bd 60ca 4f3d 1e67 35bd c87c e1bd
00000040: bd6f 923d bf50 9bbd 2a79 dbbd 9942 5ebd
00000050: aba4 cf3d 7eb9 b0bd 68ee 67bd 3725 c83d
00000060: 1985 8dbd 8a3f 6ebd c7b3 7f3d 8997 8cbd
00000070: 0cbb ab3d 6398 843d b6e3 643d 96e8 313d
00000080: 9c04 c63d f865 d53d 9c6c 6bbc 3e43 cf3d
00000090: c6e6 9fbd be77 c9bd 803d efbc 223a f23c
000000a0: 1f3f a4bc 2c12 73bd 0771 ff3d 9085 19bb
000000b0: 0dfe 9a3d 501c 38bc 606c 87bc d691 cbbd
000000c0: 9ae4 1bbd aae7 aa3d 8981 f1bd d1b9 913c
000000d0: 6c90 92bc 73eb debd a22f b0bd b776 e63d
000000e0: 48e6 ef3c 256f b13d c5cc d93d a787 533d
000000f0: 4b3a 5dbd 9477 64bd 0014 2cbd 586e 02bd
0.08538937 0.1129771 -0.043134008 0.017972693 -0.045292743 0.019456035 0.020017752 -0.06923284
-0.08593802 -0.10421903 -0.06602653 -0.029759744 -0.11313587 0.05073011 -0.044287793 -0.11010128
0.07150219 -0.075837605 -0.107164696 -0.05426273 0.1013883 -0.0862913 -0.056623846 0.09772723
-0.06910152 -0.058166064 0.06242731 -0.068648405 0.08385286 0.06474378 0.055881225 0.0434347
0.09668848 0.104198396 -0.014369156 0.10120247 -0.078076884 -0.09837292 -0.02920413 0.029568736
-0.02004963 -0.059343502 0.1247273 -0.0023425557 0.075679876 -0.011237219 -0.01653117 -0.099399254
-0.03805981 0.08344968 -0.11792285 0.0177888 -0.017891131 -0.10884752 -0.08602835 0.11253112
0.029284611 0.08663777 0.1063476 0.05164304 -0.05401067 -0.0557781 -0.04201126 -0.031843513

sensor_data_network.rnn.bias_hh_l0 f4 [64]
00000000: d30a cebd 30d9 b5bd 7edf 693d cae4 57bd
00000010: 1a05 c83d fdbe fbbd 4725 0ebc 755d 9dbc
00000020: 9bf2 86bd 06dc ea3d 0b7c 56bc 1c22 183d
00000030: 49f7 db3d 10f8 36bd a326 33bd cee0 a83b
00000040: 3447 003e ab89 4ebd 8f16 d03d 20a3 c83d
00000050: b327 c13d 7de3 78bd 5813 e43d 609d 8339
00000060: be01 a53d 3841 a4bd 5a5c 82bc 35ae 1e3d
00000070: 1961 9dbd 5bcc d4bd f865 b8bc 423c 783d
00000080: daec ed3c 63cc 6abd cd34 25bd 9df4 49bc
00000090: 6224 fc3c d39e e3bd 5195 9cbd d2f7 dabc
000000a0: aa2b 8a3c 98d0 263d c8b8 823d 2b26 3e3c
000000b0: 9c00 c4bd 502f fb3c 046f 053c e29c 563d
000000c0: 601c a73a 1b7f 54bd 8d8c cb3d 81c0 20bd
000000d0: 855e d53d a356 6ebc a262 bc3d 245c ab3d
000000e0: 730c 30bd a147 9d3d 59b1 fe3d d36b b6bd
000000f0: 22a0 a7bd 992f 3a3d 0791 ecbd 33f7 cbbc
-0.10060658 -0.08879316 0.057097904 -0.052708425 0.09766598 -0.122922875 -0.00867588 -0.019209603
-0.06589242 0.114677474 -0.013091098 0.037141904 0.10740525 -0.044670165 -0.04373802 0.005153752
0.12527162 -0.05042426 0.10160553 0.097967386 0.094314 -0.060763825 0.11136502 0.0002510352
0.08056973 -0.08020252 -0.015913177 0.038740356 -0.076845355 -0.1039054 -0.02250956 0.06060434
0.029043604 -0.057323825 -0.040333558 -0.012326387 0.030779067 -0.11114278 -0.07645667 -0.026729498
0.016866524 0.040726274 0.063829005 0.01160578 -0.09570429 0.030662209 0.008144144 0.05239571
0.0012749545 -0.05187903 0.09938917 -0.039246086 0.10418419 -0.014547023 0.091985 0.08367184
-0.042980623 0.07679678 0.1243617 -0.089072846 -0.0818484 0.04545555 -0.11551099 -0.024898147

fc.weight f4 [128, 130]
00000000: f8fc 6e3d b136 093d 4048 53ba 9612 6d3d
00000010: b8f8 743d 8d0d 8bbd c892 eeba b7c2 afbd
00000020: 5e24 1dbd fbdb 76bd 882f b6bd e24a 35bd
00000030: bdb5 873d 9870 ff3a 6648 43bd 0a62 333d
00000040: de0f 9c3c 62b4 2bbb b7e5 953d aa51 fc3c
00000050: 7e47 e83c 9809 45bc 283c f83b 5bab 1bbd
00000060: 1bbc 97bd 49e4 9c3d f816 1cbd 179c 4e3d
00000070: 4d55 94bd 5203 70bd 3c39 73bd c251 06bc
00000080: b7d8 373d 80e2 1eb9 cfe3 69bd 6b2c 13bd
00000090: 9af7 45bd 6289 64bd a426 743d fa0e 7fbc
000000a0: 6cb3 623d f088 723d 0c8b 163d 473d b93d
000000b0: 688f 463d b94b 81bd 7975 88bd adba 7cbc
000000c0: 1441 41bb 2872 2c3b 36f9 693d 5fc9 86bd
000000d0: 040b e8bc 9129 42bd 7ff1 8abd 8905 053d
000000e0: b044 7d3d 90fc 02bb 00c3 d439 a37b 68bd
000000f0: 5c1d 8fbc 2b9c 72bd 0af7 7c3d dc76 5e3d
00000100: 14cb 81bd 7622 603c 3ccd 853d 5d3e 833d
00000110: 4253 43bd 7629 983d fd10 8e3d 5b4e 81bc
00000120: 6eb7 8b3d b24b 98bd f34e 2dbd e105 a3bd
00000130: 0716 7c3d d216 8bbd b99f 45bc 8cc2 c33d
00000140: 6255 f7bc 4de2 99bd 2a34 a63d 4b0e 8b3d
00000150: 1d30 923d 2ec6 803d fcf9 7dbd e8ef 873c
00000160: 62a6 9d3d 5311 ddbc 68ec caba 068a 2dbd
00000170: d13e 893d 219d 84bd ce7b 3c3d c63d 283d
00000180: 3272 e8bc 76e5 a93c 80df 643a aa91 3d3d
00000190: 36b8 6c3d 982e e53a 205c 0c3d 72b0 893c
000001a0: 52b1 743d c49f d1bc fe37 233d 38ae 02bc
000001b0: 48ac 273d 36aa 41bd 628d 92bd 85f5 b8bd
000001c0: 0bd4 bbbd 6a3f 093d 8c13 163d 7408 ca3c
000001d0: 2f9c d5bb 5b88 a6bd f9ab 833d 5024 f63c
000001e0: 4c78 02bd 0eb2 19bc c26b c4bd 9c8b c3bb
000001f0: 17ab bebd 4b73 5c3d 6f1e 23bd 56ae fb3c
00000200: c086 4e3a 3c16 013d f86a 4bbc b644 39bd
00000210: 7ac3 7d3d e0cb 6bbc c84a 6c3d 09f5 9a3d
00000220: e83f 0ebc e778 c1bd 8c1c 46bd 36e7 8dbc
00000230: c4f0 2abd 3862 0d3d 3af8 bb3c 82dc 6abc
00000240: dbfa 4dbd f4d9 50bd 1b03 9dbd 383f 9d3d
00000250: 3f60 833d fa86 44bd 58ae fdbc 8233 8d3d
00000260: d423 bbbb 574b af3c 9949 2d3d a42b 363d
00000270: 4ae4 dbbb 4d68 553d a16e b23c 02d6 73bd
00000280: b0ed a4bb 601f 97bd 4b46 07bd 3baf 9c3d
00000290: 160c c2bb d0fd 5eba cced 76bd a320 1a3d
000002a0: dbb6 873d 7880 ffbb 28da cabc f274 553d
000002b0: 624e 92bd e2f9 583d 03a2 21bd 32fc ad3d
000002c0: c720 943c 9b0a 87bd 3fa1 0cbd ba09 903d
000002d0: 8db0 0b3d c3ff 1b3c 8a9d 8bbd 1bd1 97bd
000002e0: a0b5 a4bc 28b8 aebc 711b b5bc 34a5 243c
000002f0: 7a0f 903d f61a 97bd d6ff 30bd 3a66 38bd
00000300: fa06 27bc d4ea b33d 397e b1bd 907d fbba
00000310: 8729 78bd 9776 633d 5e4f 87bc d08d 44bd
00000320: 674e 833d 5a6f f03b 560c 7c3d 35ab 26bc
00000330: 06cb c0bb 786f 1bbd a934 f3bc ce12 2abd
00000340: 74c4 95bd f54d 1a3c 345d de3c 22a8 743d
00000350: e739 643d 6026 15bd 6437 17bd 0183 92bd
00000360: 6f6d c8bc 6cae 6c3d 7228 d23c 7696 353d
00000370: 29c3 9a3d caa3 c03d 1b0c 4abd 7e4f c23b
00000380: 00b9 7dbd 6944 96bd ee02 863d 1cca f23c
00000390: 70bc 833d d637 bbbc cc0c 1fbd 4e56 41bc
000003a0: f3d0 79bd dc2e bfbd add4 40bd e814 3bbc
000003b0: e3e4 663d e87d 9ebc c626 573d 349c 5dbd
000003c0: 3a18 a3bd 9dd5 c1bd 0fd1 bcbd 98af 6abb
000003d0: d31d 063c b0e7 b33d 07cc 2abc b57f a1bd
000003e0: 22f2 a13d cc0b 22bc 6f8f b5bd f541 163d
000003f0: a0e2 3a3b c0a5 3fbd 0cb8 093d bece 68bd
0.05834672 0.033499423 -0.00080597773 0.057879053 0.05980751 -0.06789694 -0.0018201703 -0.08582061
-0.03836476 -0.060268383 -0.088957846 -0.044260867 0.06626461 0.0019488512 -0.047676466 0.04379467
0.019050535 -0.0026200046 0.07319205 0.03080066 0.028354403 -0.012026213 0.0075755306 -0.038005214
-0.07408925 0.076607294 -0.038107842 0.050441828 -0.07242832 -0.058596916 -0.059380755 -0.0081982035
0.04488441 -0.00015152432 -0.05710202 -0.035931032 -0.048331834 -0.05579508 0.059607163 -0.015567536
0.05534689 0.059212625 0.0367537 0.09044891 0.048476607 -0.06313271 -0.06663031 -0.015425366
-0.0029488252 0.002631316 0.05712243 -0.06581377 -0.028325565 -0.047402922 -0.06784343 0.03247598
0.061833084 -0.0019986965 0.00040581077 -0.056758534 -0.017470054 -0.059230965 0.061759032 0.054312572
-0.06337562 0.013680091 0.06533286 0.06408379 -0.047686823 0.07429783 0.06936834 -0.015784433
0.06822096 -0.07436313 -0.04231162 -0.07960106 0.061544444 -0.06791462 -0.012062007 0.09558591
-0.03019208 -0.075138666 0.08115418 0.067898355 0.07138083 0.062878 -0.06200598 0.016593888
0.07697751 -0.0269858 -0.0015481832 -0.042367958 0.067014344 -0.064752825 0.046016507 0.041074537
-0.028374765 0.020739298 0.0008730814 0.046281494 0.057792865 0.00174852 0.034267545 0.016807768
0.05973942 -0.025588877 0.03984832 -0.007976107 0.040935785 -0.047281466 -0.07155873 -0.09031204
-0.09171303 0.033507742 0.036639735 0.024662234 -0.0065188627 -0.081314765 0.064292856 0.030046612
-0.031853005 -0.00938083 -0.09590866 -0.0059675705 -0.093099765 0.05382089 -0.039823946 0.030722778
0.00078783557 0.031515345 -0.01241564 -0.045231543 0.061954 -0.014391869 0.057688504 0.07566268
-0.008682229 -0.094468884 -0.04836707 -0.017322164 -0.04173352 0.034517497 0.022945512 -0.0143348
-0.050288063 -0.050989106 -0.07666608 0.07678074 0.06414842 -0.047980286 -0.030966923 0.0689459
-0.005711058 0.02139823 0.042306516 0.044475213 -0.006710564 0.052101422 0.021781268 -0.059530266
-0.0050332174 -0.07379031 -0.03302602 0.0765061 -0.005921851 -0.0008506449 -0.060285375 0.03762878
0.06626674 -0.007797297 -0.024762228 0.05211348 -0.071438566 0.05297268 -0.039461147 0.08495368
0.018082036 -0.0659382 -0.034333464 0.07033105 0.03410392 0.009521428 -0.068171576 -0.074129306
-0.020106137 -0.021328047 -0.022107812 0.010049153 0.07034202 -0.07378189 -0.043212734 -0.045019366
-0.010194534 0.08785024 -0.08666653 -0.0019187201 -0.06058648 0.055533018 -0.016517337 -0.047986805
0.064114384 0.007337493 0.061535202 -0.010172655 -0.0058835773 -0.0379481 -0.029688196 -0.04152184
-0.07312861 0.0094180005 0.027144052 0.059730656 0.055719282 -0.03641355 -0.03691806 -0.07153893
-0.024466245 0.05778353 0.025654051 0.044332944 0.07556755 0.0940624 -0.04932795 0.0059298864
-0.061944008 -0.07337267 0.065435275 0.029637389 0.06432426 -0.022853773 -0.038830563 -0.011800362
-0.060990285 -0.093351096 -0.047077823 -0.011418559 0.056370627 -0.019347146 0.05252721 -0.054104045
-0.07963605 -0.094645716 -0.09219562 -0.0035810228 0.008185822 0.08784425 -0.0104246205 -0.07885686
0.07907511 -0.009890508 -0.088652484 0.036683995 0.0028516427 -0.04678893 0.033622786 -0.05683779

fc.bias f4 [128]
00000000: fedf d2bb 2648 283d 3790 873d f99a 203d
00000010: decf 68bd 8143 973c 5f5a 9bbd b669 223c
00000020: e62c a5bc b4f5 31bd 76de e13b c26e 48bd
00000030: 40fd c4bc e110 53bd bc30 303d 0466 6dbd
00000040: 649d bd3b 4812 40bd 7f2b 4f3d ded5 cabc
00000050: 5d19 47bd 4465 8abb 3ae0 05bc 94a8 8e3d
00000060: 56c5 3fbc 2a97 873b 7a8b 563d b58a 53bd
00000070: fca7 1b3d 0a58 643d ad4d b23c 5d89 e5bc
00000080: 4440 e2bc b0f1 9ebc d7e1 a53c 0ba0 47bc
00000090: 0fe1 e6bc 4f62 43bd 3e3d 18bd 7fc3 0c3d
000000a0: 42c9 b03c 3297 53bd 9060 87bd 5077 5f3d
000000b0: 0c6e 44bd e5c4 34bd f98b 9bbd 2184 62bd
000000c0: b244 07bd 969c 95bd db8a 663d fa8a 7e3d
000000d0: a4c1 76bd 0627 4fbd 7b8b 7e3d 391c 12bc
000000e0: 87b4 293d 73b1 87bd 5ab8 7ebd d6fd 8bbd
000000f0: aa5c c63c 203a a6bc a25a 85bd a99c 50bd
00000100: 7aad 1e3d b81c 943c 0f36 0fbd 655d 4abd
00000110: d93a 1d3c b593 953d a66a 7dbd b403 7e3c
00000120: 10e6 08bb 4087 56ba 9cbb 813d b295 8a3d
00000130: 77a3 e53c a2d7 623c 51b6 673d 8503 3c3d
00000140: 151c 7f3c dc91 553d 750b 583d f2e6 633d
00000150: aaf7 6bbd 2dcd d4bc 863f 78bb 9af7 e9bc
00000160: b0d1 40ba 3ce0 6c3d 0cf3 453d 00d9 a5bc
00000170: c580 203d 8504 6fbc c46c 07bc 884a 493d
00000180: 88e4 96bd 76ce e3bc d41f 993d 8128 943d
00000190: b2ab 33bd 96d6 063d 3705 383d cecf 10bc
000001a0: 861f 18bd c42e 7ebb 5f6c 32bd d0c6 83bd
000001b0: 50ec 1a3a 9a85 c93c f6b2 a3bc 9780 adbb
000001c0: 10a7 023d c832 993b 68b6 133b d71b 803d
000001d0: ae05 d7bc 7b82 353c 70e9 3dba 2444 6e3d
000001e0: 2054 dab9 006e 09bd 82f7 b93c a4c5 b03b
000001f0: 03dd 753d 2639 ffbb c4c1 6cbd cb48 77bd
-0.0064353934 0.04108443 0.06619304 0.039210293 -0.056838863 0.018464806 -0.07585596 0.009912899
-0.02016301 -0.04344721 0.0068929745 -0.048933752 -0.02404654 -0.05152977 0.043015227 -0.057958618
0.0057865847 -0.046892434 0.05057859 -0.024760183 -0.048608173 -0.0042234976 -0.008171136 0.069657475
-0.011704763 0.004137893 0.05237911 -0.051645953 0.038002 0.055748023 0.021765554 -0.028019601
-0.027618535 -0.019402355 0.02024929 -0.012184153 -0.028183488 -0.047701176 -0.03716778 0.034366127
0.021580342 -0.051657863 -0.06610215 0.054557145 -0.04795651 -0.044133086 -0.07595057 -0.05530179
-0.033024497 -0.07305257 0.056284767 0.062144257 -0.060243264 -0.050574325 0.062144738 -0.008917862
0.04143193 -0.06625643 -0.06218753 -0.06835525 0.024214108 -0.020291388 -0.065114275 -0.050930653
0.03873966 0.0180801 -0.034963664 -0.049405474 0.00959655 0.073035635 -0.061869286 0.015503813
-0.002088908 -0.0008183606 0.06334612 0.06766833 0.028032048 0.013845356 0.056570355 0.045901794
0.01557066 0.052141055 0.0527453 0.05564017 -0.057609238 -0.025976742 -0.003787966 -0.028560448
-0.00073554646 0.057831034 0.04832749 -0.020245075 0.039185304 -0.01458848 -0.008265678 0.049143344
-0.073678076 -0.02780841 0.07476774 0.07234288 -0.043864913 0.03291949 0.04492685 -0.008838607
-0.037139438 -0.0038785199 -0.043560382 -0.06434405 0.0005909847 0.024599839 -0.019982796 -0.00529487
0.031897604 0.004675243 0.0022539143 0.0625531 -0.026247825 0.011078472 -0.0007244563 0.058170453
-0.00041642878 -0.03355217 0.022701029 0.0053946543 0.060025226 -0.007788795 -0.057801977 -0.060372155
