checkpoints/NoGestureNetwork_RNN_RNN_2023-08-11_12-27-33.pth (torch, 48771 bytes, 10 tensors)

touchscreen_data_network.rnn.weight_ih_l0 f4 [64, 4]
0	0xbccb7e5b	-0.024840524
1	0xbd484de2	-0.0489024
2	0xbd7b643d	-0.06137489
3	0x3d880483	0.066414855
4	0x3c6a48da	0.014299596
5	0x3d915edf	0.07098173
6	0x3d924011	0.07141126
7	0xbb9a2e8c	-0.004705256
8	0x3d85fba3	0.065421365
9	0xbdd205c2	-0.102550045
10	0xbe0cc720	-0.13747835
11	0xbcea3507	-0.028589739
12	0x3e627b67	0.22117387
13	0x3e5bc437	0.21461569
14	0x3d29d373	0.04146142
15	0x3d4b6d81	0.049664978
16	0xbd8ff611	-0.07029355
17	0x3dde4384	0.10852721
18	0xbd4e4812	-0.0503617
19	0xbe07c1a4	-0.13257462
20	0x3dcbe0ce	0.099549875
21	0xbde85184	-0.11343673
22	0x3d93c3ec	0.072151035
23	0x3d6887ff	0.05677032
24	0x3e31730e	0.17329046
25	0x3e37663a	0.1791009
26	0x3cac3177	0.02101968
27	0xbcfc1e84	-0.03077627
28	0x3ded1e89	0.1157809
29	0xbded2e3b	-0.115810834
30	0x3dfeb433	0.12436714
31	0x3e3aef4f	0.18255351
32	0x3d3e8684	0.046515003
33	0x3d6883a4	0.056766167
34	0xbe13b653	-0.1442502
35	0xbd9e4003	-0.07727053
36	0xbbd0a04f	-0.0063667665
37	0x3d7cea06	0.06174662
38	0xbd5a230b	-0.053256076
39	0xbd64e53a	-0.05588267
40	0x3d399885	0.04531147
41	0x3d9e17ca	0.07719381
42	0x3d5811d5	0.05275138
43	0x3ccaf174	0.024773337
44	0xbd6ffbe2	-0.058589824
45	0xbdbe074e	-0.09278737
46	0x3d421ab7	0.04738876
47	0x3e3b136e	0.1826913
48	0xbdd58117	-0.104250126
49	0xbd0b9103	-0.03407384
50	0xbde1cb9d	-0.11025164
51	0xbdb6591e	-0.089037165
52	0xbc87586c	-0.016521655
53	0x3e1db28e	0.15400144
54	0x3d8e08dc	0.069352835
55	0x3d8ed1c4	0.06973603
56	0xbd806d1c	-0.06270811
57	0xbd3a464c	-0.045477197
58	0xbda5f636	-0.08103602
59	0x3b3c934d	0.0028774322
60	0xbd568253	-0.05237038
61	0xbda5da76	-0.08098309
62	0xbd621669	-0.055197153
63	0xbcf2a7ad	-0.02962097
64	0xbc57dc2d	-0.013175053
65	0xbdd0ac59	-0.10189123
66	0xbd9c1b7f	-0.07622432
67	0xbd947798	-0.07249373
68	0x3dc52500	0.09626198
69	0x3da521ba	0.080630735
70	0x3d43ffcf	0.04785138
71	0x3ddebc4b	0.10875758
72	0x3dd8cfc8	0.10586506
73	0x3ce1e5c9	0.02757539
74	0x3d680348	0.056643754
75	0xbe240715	-0.16018327
76	0xbdf3812e	-0.118898734
77	0xbe0b4214	-0.13599426
78	0x3d1cdcfd	0.03829669
79	0x3dcea4f4	0.10090056
80	0xbdf27461	-0.11838604
81	0xbdd1d565	-0.1024578
82	0xbd37e51c	-0.04489623
83	0xbd998e36	-0.07497828
84	0xbdbae56a	-0.091257885
85	0xbd13d05f	-0.03608739
86	0xbdff161e	-0.124553904
87	0xbda5dd42	-0.08098842
88	0x3e3e0ef4	0.18560392
89	0x3e48553c	0.19563764
90	0x3d32875e	0.043586127
91	0x3ded4a06	0.115863845
92	0x3e32124a	0.17389789
93	0xbd7d4e58	-0.061842293
94	0x3e0f7103	0.14007954
95	0x3e4c8057	0.19970833
96	0x3d65fc77	0.056148972
97	0x3e072d30	0.13200831
98	0x3d43431c	0.047671422
99	0x3d475de4	0.048673525
100	0x3d8267bf	0.06367444
101	0x3d95ac14	0.07308212
102	0xbd2b5e0d	-0.04183774
103	0xbe06ace7	-0.13151895
104	0xbd77fab1	-0.060541812
105	0xbcd9c4e6	-0.026583146
106	0x3d91320f	0.07089626
107	0x3d08da9b	0.033411603
108	0xbe0c5bcb	-0.13706891
109	0x3d91e9cf	0.071246736
110	0xbd03d0a8	-0.032181412
111	0xbe2f7736	-0.17135319
112	0x3e436c84	0.19084364
113	0x3e670bbf	0.22563075
114	0x3d4ea445	0.05044963
115	0x3d8dbc2e	0.06920658
116	0xbb73f58e	-0.003722522
117	0x3e0ad9df	0.13559674
118	0x3d76c757	0.0602487
119	0xbc6f3c05	-0.014601712
120	0x3d4d9ce9	0.05019847
121	0x3d42324c	0.047411248
122	0x3d593d0e	0.053036742
123	0xbd2de1e3	-0.04245175
124	0x3d52d160	0.051469207
125	0x3d4a28cd	0.049355317
126	0x3d9524fe	0.07282446
127	0xbbf48ab3	-0.0074628233
128	0x3d0184e4	0.031620875
129	0x3d4d1008	0.050064117
130	0x3d9d00a7	0.0766614
131	0x3c92c8d1	0.017918022
132	0x3df211ae	0.118197784
133	0x3d81c597	0.063365154
134	0x3d405cd4	0.046963528
135	0x3e026efc	0.1273765
136	0xbd5336cb	-0.051565927
137	0xbdd55ba9	-0.104178734
138	0xbd6420c5	-0.055695314
139	0xbd812d96	-0.06307523
140	0xbdaa6432	-0.08319892
141	0x3d8eff91	0.06982339
142	0xbda46bdc	-0.08028385
143	0xbd9882eb	-0.074468456
144	0xbd2cd013	-0.042190623
145	0xbd70d3fe	-0.05879592
146	0x3d593e37	0.05303785
147	0x3e28504b	0.1643688
148	0x3e50cfba	0.20391741
149	0x3e261c0b	0.16221635
150	0x3d4adb4e	0.04952555
151	0x3e34873c	0.17629713
152	0x3d682b88	0.05668214
153	0x3d3fba2c	0.046808407
154	0x3d666f65	0.056258578
155	0x3bc88b3f	0.006120115
156	0x3ddf0501	0.10889626
157	0x3e518c2a	0.20463625
158	0x3d5a41cc	0.053285405
159	0x3e0a19ca	0.134864
160	0xbd91ad41	-0.07113124
161	0xbdd31f04	-0.1030865
162	0x3dcb7f30	0.099363685
163	0xbd374d6f	-0.04475158
164	0xbdd98cec	-0.10622582
165	0xbdbeb2be	-0.09311436
166	0xbd645946	-0.0557492
167	0xbdb14572	-0.08655824
168	0x3e2f5dbd	0.17125602
169	0x3d2a418a	0.04156641
170	0x3dfce778	0.12348837
171	0xbc42a491	-0.011880056
172	0x3d7c0e12	0.061536856
173	0x3dd9cc02	0.106346145
174	0x3d55d20a	0.052202262
175	0x3c371530	0.011174485
176	0xbe2e0d5d	-0.16997285
177	0x3d5efa6d	0.054438043
178	0xbdc75ded	-0.09734712
179	0xbe41583f	-0.1888132
180	0xbcb54bff	-0.022130964
181	0x3daeb78d	0.08531103
182	0xbd648dac	-0.05579917
183	0xbdb3e893	-0.087845944
184	0xbd9dcb2a	-0.07704766
185	0x3d63ded2	0.05563242
186	0xbd3421d5	-0.043977577
187	0xbdb09345	-0.086218394
188	0xbe2fc334	-0.17164308
189	0xbe2f21a7	-0.17102681
190	0xbd613524	-0.05498232
191	0x3d2aab8c	0.041667506
192	0x3cd54674	0.026034571
193	0x3d7920e8	0.060822397
194	0xbd7baabb	-0.06144212
195	0xbd9d695d	-0.07686112
196	0x3ce125c3	0.027483827
197	0x3d9aaa4c	0.07552013
198	0x3d820104	0.0634785
199	0x3c6ba297	0.014382026
200	0x3e306295	0.17225106
201	0x3caeaccb	0.021322628
202	0xbd9ab78b	-0.07554539
203	0x3e35a889	0.17740072
204	0xbe0e17a1	-0.13876201
205	0xbe18ae33	-0.14910202
206	0xbd4b854e	-0.049687676
207	0xbd94f42f	-0.07273137
208	0x3dbc8d2c	0.09206614
209	0x3d97885a	0.07399054
210	0x3c1de3be	0.0096368175
211	0x3cfd3085	0.030906925
212	0x3d43d9be	0.047815077
213	0x3dbc7dbb	0.09203669
214	0xbd42dc78	-0.047573537
215	0xbcc40441	-0.02392781
216	0x3d796846	0.06089046
217	0xbe36e107	-0.17859279
218	0x3c16d380	0.009205699
219	0x3beb3658	0.007178109
220	0xbd8dfcc3	-0.06932976
221	0x3d897eb6	0.06713621
222	0x3e27d356	0.16389212
223	0x3c64255e	0.013924925
224	0x3d17a4d3	0.037022423
225	0x3d119388	0.035541087
226	0x3dce011b	0.100588046
227	0x3d5c6277	0.05380484
228	0xbd5b7033	-0.0535738
229	0xbdd44ef5	-0.10366622
230	0xbd14a106	-0.036286376
231	0xbe31d588	-0.17366612
232	0x3da2c1ed	0.07947145
233	0x3d8df9a2	0.06932379
234	0x3d82e0c0	0.06390524
235	0x3e265833	0.16244583
236	0x3c26a097	0.010170124
237	0x3c8f5a0b	0.01749899
238	0xbd065f49	-0.032805715
239	0xba0112a8	-0.00049237395
240	0x3e14169d	0.14461751
241	0x3cb3efe9	0.021964984
242	0x3d5cd92d	0.053918052
243	0x3d34df53	0.04415829
244	0xbde650f0	-0.11245906
245	0x3dbd3d67	0.09240227
246	0xbd64214c	-0.055695817
247	0x3d166b36	0.036723338
248	0x3e35d1d2	0.17755821
249	0x3e2d1051	0.16900755
250	0x3d47e70b	0.048804324
251	0x3e03c768	0.12869036
252	0x3d9eb221	0.07748819
253	0xbcec5746	-0.028850209
254	0x3e1f046e	0.15529034
255	0x3cdd4a0b	0.027012846

touchscreen_data_network.rnn.weight_hh_l0 f4 [64, 64]
0	0xbbbdd2b5	-0.0057929405
1	0xbd007233	-0.03135891
2	0xbbe623d9	-0.0070233163
3	0xbbb7de77	-0.0056112367
4	0x3b0c316a	0.0021391758
5	0x3c7619c7	0.015020794
6	0xbc87ce6d	-0.016577924
7	0x3cb17235	0.021660903
8	0xbbadf3a0	-0.0053085834
9	0xbaa9ad8c	-0.0012945398
10	0xbcd399c9	-0.025830166
11	0xbc836b6f	-0.01604244
12	0xbd29a191	-0.041413847
13	0xbcd9d12b	-0.026588997
14	0x3c720cd1	0.0147735635
15	0x3c0bc4fe	0.008530853
16	0x3c83d054	0.01609055
17	0x3bba205d	0.0056801275
18	0xbb84e1a8	-0.0040552206
19	0x3cbb4fc0	0.022865176
20	0xbb6a36de	-0.003573827
21	0xbbed3aa5	-0.007239657
22	0xbd037cc7	-0.03210142
23	0x3c8de22e	0.017319765
24	0xbac545c7	-0.0015050702
25	0x392a2c6c	0.00016229012
26	0x3d34c9de	0.044137828
27	0xbd4af8b5	-0.04955359
28	0x3bde1b5d	0.0067781643
29	0xbc8b482f	-0.017002193
30	0xbc8b7065	-0.017021367
31	0xbd0269ba	-0.03183911
32	0xbc8090c9	-0.015694039
33	0xbc544df0	-0.012958035
34	0xbbd4d1a0	-0.006494716
35	0x3c87c70e	0.016574409
36	0xbc5500ad	-0.013000649
37	0xbcf82485	-0.030290851
38	0xbcb5e489	-0.0222037
39	0xbcfdc7c8	-0.030979052
40	0x3c3f39c0	0.0116714835
41	0x3c8191bd	0.015816564
42	0xbc24cf81	-0.010059238
43	0xbccebad8	-0.025235578
44	0x3b88bdc9	0.004173015
45	0x3bb98065	0.005661058
46	0xbc05cf4a	-0.008167097
47	0x3a9f769f	0.0012166089
48	0x3bb30a97	0.005463909
49	0xbca73996	-0.020413201
50	0xb9fbd6de	-0.0004803454
51	0x3c68554e	0.0141804945
52	0x3c12b33f	0.008953868
53	0x3a22f2c5	0.0006215985
54	0x3b963ed2	0.0045851255
55	0xbcf0cbf9	-0.029394137
56	0xbcf8294c	-0.03029313
57	0x3cc9fbc1	0.024656178
58	0xbd017eac	-0.031614944
59	0x3c57c65d	0.013169852
60	0x3bddf0d8	0.0067730956
61	0xbb13b39c	-0.0022537475
62	0x3bcae148	0.0061914064
63	0xbca87e41	-0.020568015
64	0x3b2e2d14	0.0026577162
65	0x3b65eb8d	0.0035083026
66	0x3bd7e9a4	0.0065891314
67	0xbbffe424	-0.007809179
68	0x3c1343e4	0.008988354
69	0xbbb7dd56	-0.005611102
70	0x3b51341b	0.0031921926
71	0x3bd009aa	0.0063488083
72	0x3b0393f7	0.0020077208
73	0xbb26bece	-0.0025443318
74	0xb9846294	-0.00025250448
75	0xbc093a1c	-0.008375671
76	0x3b808a17	0.0039227116
77	0xbc00ae28	-0.007854022
78	0x3ac7b34d	0.0015235931
79	0x3a086abc	0.0005203893
80	0xbb7e3a8c	-0.003879222
81	0xbb785804	-0.0037894258
82	0x3b7ce388	0.0038587768
83	0xbb493b2a	-0.003070543
84	0xbc0dd9ad	-0.008657855
85	0xbb72f25b	-0.0037070725
86	0xbb2ad9b4	-0.0026069703
87	0xbb0de05a	-0.0021648617
88	0x3ab7140a	0.0013967764
89	0x3b2195b0	0.002465587
90	0xba9ff746	-0.001220443
91	0xbb13e06e	-0.002256419
92	0xbb710725	-0.003677794
93	0xbb1d4746	-0.002399878
94	0xbc08e10b	-0.008354436
95	0x3b5c79ac	0.0033641858
96	0x3b6b243a	0.0035879747
97	0xba1ac85c	-0.00059044897
98	0xbacf9b4f	-0.0015839132
99	0x3b2a9679	0.002602963
100	0xbb247df7	-0.0025099495
101	0x3b568573	0.003273335
102	0x3b796abb	0.0038058
103	0x3acaf61c	0.0015484723
104	0xbbecbd44	-0.0072247107
105	0xbbd4eacf	-0.006497718
106	0xbaf5ee8b	-0.0018763108
107	0xbbf975df	-0.0076129283
108	0xbc056bee	-0.008143408
109	0xbbbef318	-0.005827319
110	0x3a87a810	0.0010349769
111	0xbabb955c	-0.001431148
112	0x3afd7c08	0.0019339332
113	0xbb061d8b	-0.0020464386
114	0xbc0aab54	-0.008463699
115	0xbc0f747a	-0.0087557975
116	0xbc1b2952	-0.009470301
117	0xbb4679cb	-0.0030284997
118	0x3b34d8fc	0.0027595153
119	0xbc099532	-0.008397387
120	0xbb702d69	-0.003664816
121	0x3c16587a	0.009176368
122	0x3be76e75	0.007062728
123	0xbb9345df	-0.0044944133
124	0xbbd83c06	-0.006598952
125	0xbbae713a	-0.0053235563
126	0xbaabb59d	-0.001310039
127	0xbc1668f3	-0.009180295
128	0x3ca76d99	0.020438002
129	0xbd294ac3	-0.041331064
130	0x3d606eef	0.054793295
131	0x3caf4f7e	0.02140021
132	0x3cf16300	0.029466152
133	0x3b9f360d	0.0048587383
134	0xbcd1f531	-0.025629612
135	0x3cc953b8	0.024576053
136	0x3b8ebc3e	0.0043559363
137	0xbd2fbc88	-0.042904407
138	0xbd1a7f50	-0.03771907
139	0xbd570ce3	-0.052502524
140	0xbb9af85f	-0.004729315
141	0xbd871874	-0.06596461
142	0x3d944b6f	0.0724095
143	0x3d420762	0.047370322
144	0xbb87d58a	-0.004145329
145	0x3cdb7793	0.026790416
146	0x3c0ee354	0.008721191
147	0x3d0aae4f	0.03385764
148	0x3d3c7417	0.04600915
149	0x3c37c8c7	0.011217303
150	0xbcf1aba3	-0.029500788
151	0xbd6a2dc8	-0.057172567
152	0x3d74b74c	0.059745118
153	0xbce2cd00	-0.027685642
154	0xbcee3c58	-0.029081509
155	0x3d2bc68f	0.041937407
156	0x3b1e5706	0.0024160757
157	0xbc329b65	-0.010901307
158	0xbd7a82f6	-0.06116005
159	0x3c8d136a	0.017221171
160	0xbb7ffc3f	-0.0039060262
161	0xbd5127b1	-0.051063243
162	0xbd52b927	-0.051446106
163	0xbd31f7a4	-0.04344906
164	0x3cf68eea	0.030097444
165	0x3bba6604	0.0056884307
166	0xbbeb64ff	-0.0071836705
167	0xbd573ab2	-0.05254621
168	0x3d1811a8	0.037126213
169	0x3d8ae1f0	0.067813754
170	0xbc94941e	-0.018137034
171	0xbbcd88ef	-0.0062724273
172	0x3d5a3e53	0.053282093
173	0xbc125095	-0.008930345
174	0x3c81aeee	0.015830483
175	0x3d40628e	0.04696899
176	0xbb81a104	-0.003955962
177	0xbc56549d	-0.013081697
178	0xbbb0722d	-0.0053847046
179	0x3d79245e	0.060825698
180	0x3d83fce6	0.06444721
181	0xbabeeb74	-0.001456602
182	0xba055494	-0.00050861505
183	0x3b15d698	0.0022863504
184	0x3bd407c6	0.006470653
185	0x3cd2502f	0.025673
186	0xbcb9fa65	-0.022702405
187	0x3ae2b91d	0.00172976
188	0xbd2189a1	-0.039437894
189	0xbbff348b	-0.007788246
190	0xbbbb9a63	-0.0057251914
191	0x3bcf734c	0.006330883
192	0xbce50196	-0.027954858
193	0x3e3501cd	0.17676468
194	0x3c3c3c54	0.011488993
195	0x3e6732c8	0.22577965
196	0x3ddfc87b	0.109269105
197	0x3cb4f103	0.02208758
198	0x3d193a20	0.037408948
199	0xbd539362	-0.051654227
200	0x3dc3ffd4	0.0957028
201	0xbdc0dae0	-0.09416747
202	0x3d8540f6	0.06506531
203	0x3c83bd0a	0.016081352
204	0xbdebab35	-0.115072645
205	0x3e9cf36a	0.3065446
206	0xbd59abed	-0.053142477
207	0xbddd6fab	-0.108123146
208	0xbcce9db7	-0.025221689
209	0x3e3ee3c0	0.18641567
210	0x3d8b0264	0.06787565
211	0x3db78d6d	0.08962522
212	0xbe1a76f6	-0.15084442
213	0xbe327192	-0.17426136
214	0x3e469b96	0.19395289
215	0x3c3215f1	0.010869489
216	0x3c711b1c	0.014715936
217	0xbe049015	-0.12945588
218	0x3e3c7186	0.18402681
219	0x3d80b6c1	0.062848575
220	0x3e1d7327	0.15375958
221	0x3e3912b8	0.18073547
222	0x3e5d46e6	0.21609077
223	0x3e24c7b0	0.160918
224	0x3dba0764	0.09083441
225	0x3e608290	0.21924806
226	0xbe1125ec	-0.14174622
227	0x3de0e0d9	0.10980386
228	0xbdb77e42	-0.08959629
229	0x3c9f8963	0.01947469
230	0x3e0cb287	0.13739978
231	0x3e5ba31a	0.21448937
232	0xbcc4944e	-0.023996498
233	0xbe01f9d5	-0.1269296
234	0x3e1100e1	0.14160492
235	0xbdda78d0	-0.106675744
236	0x3d4d5089	0.050125632
237	0xbd49578f	-0.049155768
238	0x3d2a8103	0.04162694
239	0xbbd7bd66	-0.0065838574
240	0xbe13c539	-0.14430703
241	0x3e08c975	0.133581
242	0xbdb273c0	-0.08713484
243	0xbcf1ff96	-0.029540818
244	0xbd337770	-0.043815076
245	0xbe2280c0	-0.15869427
246	0xbda04287	-0.07825189
247	0xbc40a24e	-0.011757446
248	0x3e68767d	0.2270145
249	0xbc340f05	-0.010989909
250	0x3e2aeb80	0.16691399
251	0xbdd45056	-0.10366885
252	0x3d6d2f87	0.057906654
253	0x3d26a0e8	0.040680796
254	0x3e018279	0.12647428
255	0x3d044d17	0.03230008

touchscreen_data_network.rnn.bias_ih_l0 f4 [64]
0	0xbc9308eb	-0.017948588
1	0xbb229d1e	-0.0024812887
2	0xbceab99d	-0.02865296
3	0x3dda8c23	0.1067126
4	0xbe0da6b1	-0.13833119
5	0xbd0ff6b6	-0.03514739
6	0x3e597635	0.21236499
7	0x3e33eaeb	0.17570083
8	0xbd997cd8	-0.07494515
9	0xbd90f97a	-0.07078834
10	0x3cce2f48	0.02516903
11	0x3e0739a4	0.13205582
12	0xbe1579e8	-0.14597285
13	0x3e19fd80	0.15038109
14	0xbc990146	-0.018677365
15	0xbcd4a66e	-0.025958266
16	0xbc209115	-0.009800215
17	0x3d4ea62d	0.050451446
18	0x3e26d080	0.16290474
19	0x3c8efabb	0.017453542
20	0x3d7e093e	0.062020533
21	0x3d32b34c	0.043628022
22	0x3e4c74ce	0.19966432
23	0x3ce2cefa	0.027686585
24	0x3df3bade	0.119008765
25	0xbc93639a	-0.01799183
26	0xbc932b3c	-0.017964952
27	0xbdfba6bf	-0.12287664
28	0x3d85e9cc	0.06538734
29	0x3e12cadc	0.14335197
30	0x3d00536e	0.031329565
31	0xbb6d68e6	-0.0036225854
32	0xbc7aff9b	-0.01531973
33	0x3e250fb4	0.16119272
34	0xbdb90e67	-0.0903595
35	0xbd18b356	-0.037280403
36	0xbc0afcd5	-0.008483131
37	0x3e29a33f	0.1656618
38	0xbbd09454	-0.0063653383
39	0x3e085d26	0.13316783
40	0xbb3a0735	-0.0028385643
41	0xbbea59c2	-0.0071518132
42	0x3c9b2260	0.01893729
43	0x3db5e985	0.08882431
44	0xbd978e1d	-0.07400153
45	0xbd805cc2	-0.06267692
46	0x3d1b7ba8	0.037959725
47	0xbe000336	-0.12501225
48	0xbdf5f25d	-0.12009118
49	0x3cafb48c	0.021448396
50	0x3db20ccc	0.08693847
51	0x3c09e3d3	0.008416134
52	0x3daebcf3	0.08532133
53	0x3d73dd7f	0.059537407
54	0xbb3a44bc	-0.0028422317
55	0xbc9c980b	-0.019115468
56	0x3d7b00a6	0.061279915
57	0xbdd2d9a6	-0.102954194
58	0x3df4147a	0.11917968
59	0x3c926c23	0.01787383
60	0x3bb40b7e	0.005494534
61	0xbd4efda7	-0.05053487
62	0x3e314ca0	0.17314386
63	0x3e35597b	0.17709915

touchscreen_data_network.rnn.bias_hh_l0 f4 [64]
0	0x39debed4	0.00042485318
1	0xbb0327cb	-0.0020012732
2	0xba3f23f8	-0.00072914315
3	0x3dd42eb9	0.10360474
4	0xbe1b9e0b	-0.15197007
5	0xbd4e0d3f	-0.0503056
6	0x3dab9771	0.083784945
7	0x3d79e819	0.06101236
8	0xbdb4ac6e	-0.08821951
9	0xbd2b8e4e	-0.04188376
10	0x3ccc8ebd	0.024970407
11	0x3e008922	0.12552312
12	0xbdfe2ded	-0.124111034
13	0xbd7f7282	-0.062365063
14	0x3bf6376c	0.007513931
15	0xbcd25d29	-0.025679188
16	0xbc51e588	-0.012811072
17	0x3daa5fce	0.083190545
18	0x3dc0ace3	0.094079755
19	0xbcf02d8c	-0.029318593
20	0xbdff44e7	-0.12464314
21	0xbe21c9ed	-0.15799685
22	0x3e41fd74	0.18944341
23	0x3dbdc478	0.09265989
24	0x3dd8eb8b	0.10591801
25	0x3cb28513	0.02179197
26	0xbcfead28	-0.031088427
27	0xbe1a3aac	-0.15061444
28	0x3da6ff2e	0.081541404
29	0x3e185d8f	0.1487944
30	0x3d35a07a	0.044342496
31	0xbbf5cf3a	-0.00750151
32	0x3cff22a0	0.03114444
33	0x3c5b91eb	0.013401489
34	0xbdf7f7f6	-0.12107842
35	0x3d8b4d0c	0.06801805
36	0xbc6ac92c	-0.01433019
37	0x3cdc4419	0.02688794
38	0x3c18f6cb	0.009336184
39	0x3e5bd9d1	0.21469809
40	0x3d900b9d	0.07033465
41	0xbc1099bc	-0.008825716
42	0x3db5c3eb	0.08875259
43	0x3dbf6b93	0.0934669
44	0xbe3bafcf	-0.18328784
45	0xbd3e4b5c	-0.046458587
46	0x3c9a124a	0.018807549
47	0xbe2dcb03	-0.16971974
48	0xbdf01ce0	-0.117242575
49	0x3cd2ce20	0.025733054
50	0x3e0e528e	0.1389868
51	0xbbb7ff2f	-0.005615137
52	0x3d4692a3	0.048479687
53	0x3d99dd85	0.075129546
54	0xbde821f8	-0.11334604
55	0xbc4fe11a	-0.012687946
56	0x3824e570	3.9314327e-05
57	0xbe20efa8	-0.15716422
58	0x3d6001af	0.054689106
59	0x3c63a029	0.013893166
60	0x3d50146f	0.050800737
61	0x3ce51879	0.027965771
62	0x3dadc66e	0.08485113
63	0x3dd4db44	0.10393384

sensor_data_network.rnn.weight_ih_l0 f4 [64, 6]
0	0xbdf9faac	-0.12206015
1	0xbe32b885	-0.17453201
2	0xbe01639c	-0.12635654
3	0x3d9b7eb8	0.07592529
4	0x3e038939	0.12845315
5	0x3dc8ed7b	0.09810921
6	0xbe05dc2a	-0.13072267
7	0xbb4f96e5	-0.0031675634
8	0x3d265ff4	0.04061885
9	0x3c8ee3df	0.017442642
10	0x3dc54b59	0.09633512
11	0x3c647100	0.013942957
12	0xbdfdfcbc	-0.12401721
13	0xbe240e62	-0.16021112
14	0xbe036477	-0.12831293
15	0x3e390494	0.18068153
16	0x3b9dec96	0.004819463
17	0xbd1c22ff	-0.038119312
18	0x3d8da392	0.06915964
19	0x3dd9e5e0	0.10639548
20	0x3dc122b9	0.09430451
21	0x3d3ae4ad	0.04562824
22	0xbdd1581d	-0.102218844
23	0xbd823123	-0.06357028
24	0xbc6d01be	-0.014465747
25	0x3e1ab0d7	0.15106522
26	0x3b8d15f9	0.004305598
27	0xbe2765c1	-0.1634741
28	0xbd8e1175	-0.069369234
29	0x3b97a77a	0.004628119
30	0xbd999b0d	-0.07500277
31	0xbe181deb	-0.14855163
32	0x3c6aa5a4	0.014321718
33	0x3e0c7b2c	0.13718861
34	0x3e15a138	0.14612281
35	0xbbf59365	-0.0074943774
36	0xbe09a4a8	-0.13441718
37	0xbe170e27	-0.14751492
38	0x3d868219	0.06567783
39	0xbc93cfb4	-0.018043377
40	0x3def633f	0.116888516
41	0xbd8a023b	-0.06738707
42	0x3e350e1c	0.17681164
43	0x3d0bc408	0.034122497
44	0xbc2e9be9	-0.010657289
45	0xbe3425ef	-0.17592596
46	0xba49c238	-0.00076964824
47	0x3d4d81e5	0.050172705
48	0xbc2171cb	-0.0098537905
49	0xbc21e1e8	-0.00988052
50	0xbe0fbc5b	-0.14036696
51	0x3d773e06	0.060361885
52	0x3e716c83	0.2357655
53	0x3e2dc8dd	0.16971155
54	0x3da44535	0.08021013
55	0x3d225597	0.039632406
56	0xbdf7e8ef	-0.121049754
57	0x3e016f4b	0.12640111
58	0x3c8d60f0	0.017258137
59	0x3e023bce	0.12718126
60	0xbd3207d2	-0.04346449
61	0x3e399cea	0.18126264
62	0x3d66b079	0.05632064
63	0xbdf0aec3	-0.11752083
64	0x3d85eb76	0.06539051
65	0xbc91b91b	-0.01778846
66	0xbba165ee	-0.004925481
67	0xbe172d39	-0.14763345
68	0xbcfb0c83	-0.030645614
69	0x3da5600d	0.08074961
70	0x3e12d842	0.14340308
71	0x3e8ad9be	0.2711925
72	0x3bff7e56	0.007797043
73	0xbcd45f66	-0.025924396
74	0xbd234ae3	-0.03986634
75	0xbe2fa14c	-0.17151374
76	0xbe050778	-0.1299113
77	0x3daf78ef	0.08567988
78	0xbc982c60	-0.018575847
79	0xbdaf6e6f	-0.085659854
80	0x3d90515a	0.070467666
81	0xbd116d92	-0.035504885
82	0xbdb3d532	-0.08780898
83	0x3d874964	0.06605795
84	0x3d89f09f	0.06735348
85	0xbdee916c	-0.11648831
86	0xbe147a13	-0.14499693
87	0x3e140b29	0.14457382
88	0x3dbb89b1	0.09157122
89	0xbd398af6	-0.04529854
90	0x3de89b1e	0.11357711
91	0x3e4619c4	0.19345766
92	0x3d3843f2	0.044986673
93	0xbe0d4610	-0.13796258
94	0xbd0193af	-0.031634983
95	0xbdf9bbd2	-0.12194027
96	0x3df534e5	0.119729795
97	0x3b44bc91	0.003001962
98	0xbd7b3b8a	-0.061336078
99	0xbe216a03	-0.15763097
100	0xbe239283	-0.15973859
101	0xbdd763e0	-0.105170965
102	0x3c3db18c	0.011577975
103	0xbe40acbc	-0.18815893
104	0x3daef4d5	0.08542792
105	0x3de3c3c2	0.11121322
106	0x3dbb5958	0.091479
107	0x3d76fa3c	0.060297236
108	0xbe10fbf4	-0.14158612
109	0xbe46bc07	-0.19407664
110	0xbe020bdd	-0.12699838
111	0x3dfb3904	0.12266734
112	0xbcfd7b00	-0.03094244
113	0xbdce6ebe	-0.10079716
114	0xbe3f144e	-0.1866009
115	0xbd9d0da6	-0.07668619
116	0xbcab9d08	-0.020948902
117	0x3dc72bc7	0.09725147
118	0xbdfe7601	-0.12424851
119	0xbe1a9249	-0.15094866
120	0xbd11b69a	-0.035574533
121	0x3cef2d5f	0.02919644
122	0x3e05e233	0.1307457
123	0x3d31b33a	0.043383814
124	0x3dc2941f	0.09500908
125	0x3d094c6e	0.033520155
126	0xbe1b208c	-0.15149134
127	0xbd8cdb35	-0.06877748
128	0x3d1524ad	0.03641193
129	0x3e1a33bb	0.15058796
130	0x3c5f79e7	0.013639904
131	0x3de09cc1	0.109673984
132	0xbd1479f5	-0.03624912
133	0x3e0aa09b	0.13537829
134	0x3c9527a2	0.018207375
135	0xbe218b22	-0.15775731
136	0xbdc83c95	-0.0977718
137	0xbdc2cc0a	-0.095115736
138	0x3e0ce9e9	0.13761105
139	0xbccb9a1c	-0.024853759
140	0xbd4be6c5	-0.049780626
141	0x3d6a2339	0.057162497
142	0x3deb9fb8	0.11505073
143	0xbc0479c0	-0.008085668
144	0xbc86af3f	-0.016440986
145	0x3daa5e36	0.083187506
146	0x3ca889b5	0.020573476
147	0x3ce8b541	0.028406741
148	0xbcc92387	-0.024553074
149	0x3c3846e9	0.011247375
150	0xbda3b6ef	-0.07993876
151	0x3deab361	0.11459995
152	0xbd686ae1	-0.056742553
153	0xbd47e10e	-0.048798613
154	0xbd287afe	-0.04113292
155	0xbcb22cb8	-0.02174984
156	0x3e5b4680	0.21413612
157	0x3d517e14	0.051145628
158	0xbd4312ee	-0.047625475
159	0xbe5238cf	-0.20529483
160	0xbd1e91e4	-0.03871335
161	0xbde70d5b	-0.11281844
162	0xbe205ac9	-0.15659632
163	0xbe4e84ca	-0.20167843
164	0x3d97d3f6	0.07413475
165	0x3e332aa4	0.17496735
166	0x3e17322b	0.14765231
167	0x3d2500f0	0.040284097
168	0x3d7d5e6f	0.061857637
169	0x3e4f7c1e	0.2026219
170	0xbda518ed	-0.08061395
171	0xbe5b3b63	-0.21409373
172	0xbdf867ea	-0.12129195
173	0x3d359de3	0.044340026
174	0x3c956884	0.018238313
175	0xbe223c77	-0.15843378
176	0xbdb41863	-0.08793714
177	0x3e4efdf5	0.20214064
178	0x3d375fdd	0.044769157
179	0xbd2f23e8	-0.042758852
180	0x3dad37c9	0.08457906
181	0x3d42eced	0.04758923
182	0x3cb1abff	0.02168846
183	0xbd869dc7	-0.065730624
184	0x3d13030f	0.03589159
185	0xbde14454	-0.10999361
186	0xbdb5e736	-0.088819906
187	0xbe2d59ad	-0.1692874
188	0x3d073da3	0.033017766
189	0x3dbe77c3	0.093001865
190	0x3afdd4b3	0.0019365757
191	0xbd9076b6	-0.07053892
192	0xbe37b1a4	-0.17938858
193	0xbd5d2185	-0.053987045
194	0xbd16787a	-0.03673599
195	0x3dc1e068	0.0946663
196	0xbd5d13e2	-0.05397404
197	0xbd851f45	-0.06500105
198	0xbda7825c	-0.08179161
199	0x3cb938de	0.022610124
200	0x3ce27fa5	0.027648756
201	0x3cb2389e	0.021755513
202	0x3d80696e	0.06270109
203	0x3e3af21b	0.18256418
204	0x3c7f152a	0.015569011
205	0xbe3e7385	-0.18598755
206	0x3d651752	0.055930443
207	0x3e17823d	0.14795776
208	0x3d20c46d	0.039249826
209	0xbd643cf7	-0.055722203
210	0x3cc2dd52	0.023787174
211	0x3e44dfe6	0.19226035
212	0x3d2d0d91	0.042249266
213	0xbdb43135	-0.08798448
214	0x3d18abe1	0.03727329
215	0xbde93c9a	-0.11388512
216	0x3d698ec5	0.05702092
217	0xbe574e96	-0.21026072
218	0x3dc167e4	0.09443644
219	0x3dd36684	0.10322288
220	0x3b06bf6a	0.002056087
221	0xbd6254ac	-0.05525653
222	0xbe26eaef	-0.16300558
223	0xbe0a3737	-0.13497625
224	0xbd806e3a	-0.06271024
225	0x3dd33232	0.10312308
226	0xbca1e739	-0.019763576
227	0xbcbc5a6b	-0.022992333
228	0xbd7941ef	-0.060853895
229	0x3da452be	0.08023594
230	0x3e0e23ec	0.1388089
231	0xbe44e6fc	-0.19228739
232	0xbdd7bfc0	-0.1053462
233	0xbced8d7e	-0.028998133
234	0xbdd18665	-0.10230712
235	0xbd948530	-0.07251966
236	0xbc8b0672	-0.016970847
237	0x3cfb4e8f	0.030677108
238	0x3e0b0586	0.13576326
239	0x3d05ea2d	0.03269403
240	0x3e68d187	0.22736178
241	0x3d5243ea	0.0513343
242	0xbd7f1b96	-0.062282167
243	0xbd58cb4a	-0.052928247
244	0xbe2a82ee	-0.16651508
245	0xbdac8d94	-0.084254414
246	0xbde9ed10	-0.11422169
247	0xbe2fc87d	-0.17166324
248	0xbd4e489f	-0.050362226
249	0x3e513ac3	0.20432572
250	0x3e0d2e86	0.13787279
251	0x3df5b8bc	0.11998126
252	0x3e1a482e	0.15066597
253	0x3d72426c	0.059145376
254	0xbc84cdfb	-0.0162115
255	0xbd437e3f	-0.04772782

sensor_data_network.rnn.weight_hh_l0 f4 [64, 64]
0	0x3e47f735	0.19527896
1	0xbd0ec147	-0.034852292
2	0x3e61d475	0.22053702
3	0x3d3e4e08	0.046461135
4	0xbe790722	-0.24319127
5	0x3e0e6159	0.13904323
6	0x3c4d6c4d	0.012538028
7	0xbe183c0a	-0.14866653
8	0xbd44b617	-0.048025217
9	0x3ca18449	0.019716399
10	0x3df83efa	0.12121387
11	0xbdb0cae7	-0.086324506
12	0xbd8d9f75	-0.0691518
13	0x3ce5e1be	0.028061744
14	0xbdbba8cf	-0.09163057
15	0xbe44d036	-0.19220051
16	0x3e0347c0	0.12820339
17	0x3de1b3d5	0.11020628
18	0x3e6aac9d	0.22917409
19	0x3dbe137b	0.09281059
20	0x3e27bc7f	0.163805
21	0x3d355931	0.044274513
22	0x3e129900	0.14316177
23	0x3d699764	0.057029143
24	0x3c3131a5	0.010815059
25	0x3ddb7faf	0.10717713
26	0x3d091ec0	0.03347659
27	0x3dbacba0	0.0912087
28	0xbdf5656c	-0.11982235
29	0xbd12ab8b	-0.035808127
30	0x3cd26aee	0.025685754
31	0x3ce2f019	0.027702378
32	0xbda564d5	-0.08075873
33	0xbcb85c24	-0.022504874
34	0x3cd63f44	0.026153214
35	0xbe0c5156	-0.13702902
36	0x3c411019	0.011783623
37	0xba92837e	-0.0011178104
38	0xbdd7e362	-0.10541417
39	0x3e1e0e18	0.15435064
40	0xbc296fcc	-0.010341596
41	0x3dd8ca9b	0.10585519
42	0xbdbae6fd	-0.09126089
43	0x3dd4d980	0.10393047
44	0x3df4a681	0.119458206
45	0x3deafc6c	0.11473927
46	0x3e89b34c	0.26894605
47	0x3dc0d6bd	0.09415958
48	0xbdb2a352	-0.08722557
49	0x3dbdc69a	0.09266396
50	0x3e3e18b0	0.18564105
51	0xbd9025fc	-0.07038495
52	0x3da7d384	0.0819464
53	0xbd54a374	-0.051913694
54	0xbd969f87	-0.07354646
55	0x3dd0b4e2	0.10190751
56	0x3c9a0ce3	0.018804973
57	0xbd69b68c	-0.057058856
58	0x3d771d46	0.06033065
59	0x3d4a8853	0.049446415
60	0xbe0ffd0c	-0.14061373
61	0xbc242caa	-0.010020414
62	0x3dc2acd8	0.095056236
63	0xbe1654ce	-0.14680788
64	0x3cbba6f7	0.022906763
65	0xbc441c44	-0.01196963
66	0xb9b0d6c1	-0.0003372934
67	0x3dc36cdb	0.09542247
68	0xbd72cb56	-0.059275948
69	0xbcb57640	-0.022151113
70	0x3a9bb085	0.0011878168
71	0x3dcb5888	0.09928995
72	0xbdf5f51d	-0.12009642
73	0xbe28b9ab	-0.16477077
74	0x3ccfb500	0.025354862
75	0x3def45d1	0.11683238
76	0x3dcd57d7	0.1002652
77	0x3bf7d4c6	0.0075632064
78	0x3d05a582	0.032628544
79	0xbbd25a77	-0.0064194757
80	0xbda43678	-0.080182016
81	0xbde0772d	-0.10960231
82	0xbdcd113a	-0.10013051
83	0xbca9358f	-0.020655422
84	0xbd9961e5	-0.07489375
85	0xbc20569f	-0.009786277
86	0xbd8f35a4	-0.06992653
87	0x3d783cfd	0.060605038
88	0xbd6a4e24	-0.057203427
89	0xbc90600b	-0.017623922
90	0xbc887c48	-0.016660824
91	0xbd87861c	-0.06617376
92	0x3da09f05	0.078428306
93	0x3e14db82	0.1453686
94	0xbdf4929b	-0.11942025
95	0xbe609ce1	-0.21934845
96	0xbd575a51	-0.052576367
97	0x3df7f943	0.1210809
98	0xbdaa8d79	-0.08327765
99	0x3db49511	0.08817495
100	0x3dc9c385	0.098517455
101	0xbdacbff5	-0.084350504
102	0x3dde7cb6	0.108636305
103	0x3c8dd906	0.017315399
104	0xbcef5810	-0.029216796
105	0xbe328550	-0.17433667
106	0x3db6a7e8	0.08918744
107	0xbe5ab2ec	-0.21357316
108	0x3df711f5	0.12063972
109	0x3e1e346b	0.15449683
110	0xbc0b267c	-0.008493062
111	0x3d8f67f3	0.070022486
112	0x3dee8942	0.116472736
113	0xbdf1d7e1	-0.11808754
114	0x3d332d9f	0.04374468
115	0xbcab2dfc	-0.02089595
116	0x3df41650	0.11918318
117	0x3e30af12	0.17254284
118	0xbb1ac9fd	-0.002361893
119	0xbe44aad9	-0.19205798
120	0x3d13ba6d	0.03606646
121	0x3df82029	0.12115509
122	0x3dabe165	0.083926
123	0x3dd75814	0.105148464
124	0xbccc8868	-0.024967387
125	0xbcedc012	-0.02902225
126	0x39fa18ff	0.0004770234
127	0x3d6b05d7	0.057378616
128	0x3e1d12a5	0.15339144
129	0xbe18af4a	-0.14910617
130	0x3e44ade2	0.19206956
131	0x3c3b1847	0.011419362
132	0xbddf90b2	-0.1091627
133	0xbcf1b58e	-0.029505517
134	0xbd26fe52	-0.040769883
135	0xbddbb852	-0.10728516
136	0x3e19b629	0.15010895
137	0x3d21bf80	0.03948927
138	0x3e01aa66	0.12662658
139	0xbe4367b6	-0.19082531
140	0x3bd2ac36	0.0064292205
141	0x3dc635e1	0.09678245
142	0xbc06c7f7	-0.008226386
143	0xbe350a97	-0.17679821
144	0x3e328a8d	0.17435665
145	0x3e6632ee	0.22480366
146	0xbcb13437	-0.021631343
147	0x3d95f253	0.0732161
148	0x3df9d334	0.12198487
149	0xbe0df08c	-0.13861293
150	0xbc2de3f8	-0.010613434
151	0x3e3a25b3	0.18178444
152	0x3e07fc8d	0.13279934
153	0x3e287d7b	0.16454117
154	0xbdc5ae71	-0.09652413
155	0x3dccb2a5	0.09995011
156	0xbe6fcc0b	-0.2341768
157	0xbc2d33e2	-0.010571452
158	0x3deb9334	0.11502686
159	0xbd02acc1	-0.031903032
160	0x3de7b769	0.113142796
161	0x3c8613af	0.016366808
162	0x3d5891c2	0.05287338
163	0xbe47f1f6	-0.19525895
164	0x3dc90ac3	0.09816506
165	0x3d0e623c	0.034761652
166	0xbdd6bc36	-0.10485117
167	0x3d28b1d5	0.04118522
168	0x3d916a88	0.07100397
169	0x3dcf8cc3	0.1013427
170	0xbe0d124f	-0.13776515
171	0x3e155e9c	0.14586872
172	0xbc8d65dc	-0.017260484
173	0x3d404017	0.04693612
174	0x3e51aa3a	0.20475093
175	0xbdb225b1	-0.08698595
176	0x3de018ac	0.10942206
177	0x3d7ce0e8	0.061737925
178	0x3e36d7ee	0.17855808
179	0xbb05a172	-0.0020390418
180	0x3e0d7f65	0.13818128
181	0xbe514e27	-0.20439969
182	0x3e0cb4c7	0.13740836
183	0x3d192281	0.03738642
184	0x3db537d2	0.088485375
185	0xbe45941e	-0.19294783
186	0xbd25c408	-0.040470153
187	0xbd13ffb7	-0.03613254
188	0x3c9c723f	0.019097446
189	0xbd8f25a2	-0.069896
190	0x3db94c86	0.09047799
191	0xbd9ec2b4	-0.077519804
192	0xb9f59318	-0.00046839635
193	0x3d85ce40	0.0653348
194	0xbe1843fa	-0.14869681
195	0xbcc91269	-0.024544911
196	0x3e16a21d	0.14710279
197	0xbd6331f1	-0.05546755
198	0x3c2e9133	0.010654735
199	0x3dbdbbc8	0.09264332
200	0x3ab6404e	0.0013904662
201	0x3dd7029e	0.10498546
202	0xbdc97640	-0.098370075
203	0x3dd3a162	0.10333516
204	0x3cccf745	0.025020251
205	0xbce0ad62	-0.027426425
206	0x3cccd568	0.025004104
207	0xbdcc789d	-0.09983943
208	0xbd801b01	-0.062551506
209	0xbd32b83b	-0.043632727
210	0xbe2c259a	-0.16811219
211	0xbd5dc600	-0.054143906
212	0xbdcb2801	-0.099197395
213	0x3c3a9a33	0.011389303
214	0xbe00038f	-0.12501357
215	0xbd20c915	-0.039254267
216	0xbdc82e63	-0.097744726
217	0x3c28e02f	0.010307356
218	0x3d4ac672	0.04950566
219	0xbd60c002	-0.054870613
220	0x3e15307e	0.1456928
221	0xbe2674a6	-0.16255435
222	0xbda96692	-0.08271517
223	0xbd97d112	-0.07412924
224	0x3e20a13f	0.1568651
225	0xbd54d47d	-0.051960457
226	0x3da1019b	0.07861634
227	0x3dcf7b8c	0.101309866
228	0xbcb67538	-0.022272691
229	0x3d7b53f5	0.061359365
230	0x3d977847	0.07395988
231	0x3d730bce	0.05933743
232	0x3d818fdd	0.06326268
233	0xbe2322df	-0.15931271
234	0x3cfe25bd	0.031023854
235	0x3dcd84a0	0.10035062
236	0xbdc5f285	-0.096653976
237	0xbd2ac98e	-0.041696124
238	0x3c893510	0.016748935
239	0xbc13f2b5	-0.009030034
240	0x3d7c4178	0.061585873
241	0x3d27858d	0.04089885
242	0xbd0b98dd	-0.03408133
243	0xbd501cb2	-0.050808616
244	0x3d0ffd93	0.035153937
245	0xbe060787	-0.13088809
246	0xbe0851c0	-0.13312435
247	0x3de9fa51	0.11424697
248	0x3ca61ce7	0.020277454
249	0x3ce27fe2	0.02764887
250	0xbe01b830	-0.12667918
251	0xbe13975a	-0.14413205
252	0x3b04c588	0.002025934
253	0x3d0d7fe2	0.034545787
254	0xbdd34b57	-0.10317104
255	0xbd6e4f82	-0.058181293

sensor_data_network.rnn.bias_ih_l0 f4 [64]
0	0x3ded14d9	0.11576242
1	0xbd2f6d65	-0.042828936
2	0x3d93d75d	0.07218812
3	0x3d0ece76	0.034864865
4	0xbdd1b0c4	-0.102387935
5	0x3e042250	0.12903714
6	0xbb201d4a	-0.002443152
7	0xbe255be2	-0.16148332
8	0x3d7d89ba	0.061898924
9	0xbc6bb6c8	-0.01438684
10	0x3ca42184	0.020035513
11	0xbdc55fb0	-0.096373916
12	0xbcbd26a7	-0.02308972
13	0x3e1e03ce	0.15431139
14	0x3d0e0ab9	0.034678195
15	0xbb98c5fd	-0.004662274
16	0xbd195be3	-0.037441146
17	0xbd121738	-0.035666674
18	0x3e2e26f5	0.17007048
19	0xbd3bcb24	-0.045848027
20	0x3dab3099	0.08358879
21	0x3deda773	0.11604204
22	0x3d2a55e1	0.041585807
23	0xbda67128	-0.081270516
24	0x3cef517b	0.029213658
25	0xbd782d5e	-0.06059014
26	0x3bfcf36b	0.0077194474
27	0x3d0ec407	0.034854915
28	0xbe27b447	-0.16377364
29	0x3e026dd5	0.1273721
30	0x3d0f5b45	0.03499915
31	0x3dc48a6f	0.095967166
32	0x3d391fa1	0.04519618
33	0xbd4b6b82	-0.049663074
34	0x3e2ad954	0.16684467
35	0xbd41abf2	-0.04728312
36	0x3e16daa0	0.14731836
37	0x3da94ccd	0.08266602
38	0xbe293a2d	-0.16526099
39	0x3ce018e5	0.02735562
40	0xbaf7e8ab	-0.0018913945
41	0x3d902604	0.07038501
42	0x3c9a5df3	0.018843627
43	0x3d93d319	0.07217998
44	0x3d6678a7	0.056267407
45	0xbc9fe864	-0.019519992
46	0x3e155607	0.14583598
47	0xbdd932e5	-0.106054105
48	0xbcd6a845	-0.026203284
49	0xbd27946e	-0.040913038
50	0x3cd5475c	0.026035003
51	0xba04ab40	-0.00050609186
52	0xbd102f17	-0.03520116
53	0xbdbf56b0	-0.09342706
54	0xbca8d0c1	-0.020607354
55	0x3cf387ab	0.029727777
56	0x3da4f7fd	0.080551125
57	0xbda5b459	-0.08091039
58	0x3b48a2a6	0.0030614524
59	0xbe010634	-0.12600023
60	0xbe1920bd	-0.14953895
61	0x3dd9059d	0.10596774
62	0x3d0931b4	0.033494666
63	0xbd164f53	-0.036696743

sensor_data_network.rnn.bias_hh_l0 f4 [64]
0	0xbd320dde	-0.043470256
1	0x3e1fb7bb	0.15597431
2	0xbca954ad	-0.02067026
3	0xbd815474	-0.06314936
4	0xbe0dbebe	-0.13842294
5	0x3e0e8e6c	0.13921517
6	0x3d08ead0	0.03342706
7	0xbd3c6b80	-0.046000957
8	0x3dc9bbb4	0.09850255
9	0x3d1c2133	0.0381176
10	0x3d5406af	0.051764186
11	0x3ddf0474	0.10889521
12	0xbe41223e	-0.18860719
13	0x3e228d64	0.15874249
14	0x3b08115b	0.0020762298
15	0xbdaeb42d	-0.085304596
16	0x3d8a36dd	0.067487456
17	0x3e31ebfc	0.17375177
18	0x3d033c5a	0.032039978
19	0x3c86878a	0.016422052
20	0xbd20fd32	-0.039303966
21	0x3d3bc9fe	0.04584693
22	0x3dbad478	0.091225564
23	0xbded66b5	-0.115918554
24	0x3ccfa635	0.025347808
25	0xbd329379	-0.043597672
26	0xbdad262a	-0.08454545
27	0x3d86d38f	0.0658332
28	0xbd8171cd	-0.06320534
29	0x3e12aa48	0.1432277
30	0xbd958637	-0.0730099
31	0x3ba7d5a5	0.005121904
32	0x3d9a3b63	0.07530858
33	0xbd62f0d9	-0.05540547
34	0x3d97cdc1	0.07412291
35	0xbe1237fa	-0.14279166
36	0x3defcfa1	0.11709524
37	0x3dfc5534	0.12320939
38	0xbdd632f2	-0.10458936
39	0x3c70925b	0.014683331
40	0x3c2f83df	0.010712593
41	0xbc9f1139	-0.019417392
42	0xbd1ac82e	-0.037788562
43	0xbc0bfc1e	-0.008543996
44	0x3e230066	0.1591812
45	0x3be3304d	0.006933248
46	0xbc3546af	-0.011064216
47	0xbc97a0f8	-0.018509373
48	0x3d166681	0.03671885
49	0x3d825564	0.06363943
50	0x3daf6f76	0.08566181
51	0xbb764281	-0.003757626
52	0x3d63a82f	0.055580314
53	0xbd7e2f60	-0.0620569
54	0x3d0adb9a	0.033900835
55	0x3d848a54	0.064716965
56	0x3cb7ed56	0.022452038
57	0x3df8ba7b	0.12144943
58	0xbddf09b6	-0.10890524
59	0x3ccde92d	0.025135601
60	0x3d2cfca7	0.042233136
61	0x3e2024e1	0.15639068
62	0x3cc717c1	0.024303319
63	0x3c4f01fd	0.012634751

fc.weight f4 [16, 130]
0	0xbd656a7d	-0.05600976
1	0x3c2798cb	0.0102293
2	0xbd2e526a	-0.042559065
3	0xbdb35d0b	-0.08757981
4	0x3d0ae699	0.03391132
5	0x3deac2a0	0.11462903
6	0xbdb2dd3e	-0.08733605
7	0x3d53c9c9	0.05170611
8	0x3dbaf2bc	0.09128329
9	0x3d4a853f	0.04944348
10	0x3d2f8571	0.04285187
11	0x3d85eedb	0.06539699
12	0x3cd5241f	0.0260182
13	0x3d385dc3	0.045011293
14	0x3bb0e68a	0.005398576
15	0xbcc73aa9	-0.024319964
16	0xbc1b6b09	-0.009485968
17	0x3d388a21	0.045053605
18	0xbe1a7976	-0.15085396
19	0xbd84cc63	-0.06484296
20	0x3da32233	0.07965507
21	0xbc1c3a55	-0.009535392
22	0xbda8dd96	-0.08245389
23	0xbe02c152	-0.12769058
24	0x3b13b721	0.0022539573
25	0xbd2b2847	-0.04178646
26	0xbbd108c6	-0.0063792197
27	0x3e01fe1e	0.12694594
28	0xbd8bb073	-0.068207644
29	0xbdcfabe9	-0.10140211
30	0x3d83d7c5	0.06437639
31	0x3ba1a7e2	0.0049333433
32	0x3d31a8a2	0.04337371
33	0xbcb3c6fb	-0.021945467
34	0x3d456615	0.048193056
35	0x3dd1374d	0.10215626
36	0xbdc4181d	-0.09574912
37	0xbd6a38d6	-0.05718311
38	0x3baf29a4	0.00534554
39	0x3d27c8b9	0.04096291
40	0x3d0f65b2	0.035009094
41	0xba17382e	-0.00057685643
42	0xbdee6f7e	-0.11642359
43	0xbc082359	-0.008309209
44	0x3e0bf55b	0.13667814
45	0x3d84c7de	0.06483434
46	0x3d6c8062	0.057739623
47	0x3bd3db28	0.0064653344
48	0x3c8aa9fa	0.016926754
49	0x3d192223	0.03738607
50	0x3d6a9e45	0.057279844
51	0xbbfa65a6	-0.007641512
52	0xbcc863c5	-0.024461636
53	0xbd23870f	-0.039923724
54	0xbcf9d0f2	-0.03049514
55	0xbc100a18	-0.008791469
56	0x3cf27caa	0.02960046
57	0x3daad80c	0.08341989
58	0xbbcc5559	-0.00623576
59	0xbb835ed9	-0.0040091095
60	0xbd75ccb6	-0.06000968
61	0x3d544e36	0.0518324
62	0xbc55fb54	-0.01306041
63	0xbb485aac	-0.0030571623
64	0xbde011f5	-0.10940925
65	0x3d8c4c0f	0.068504445
66	0x3d47590a	0.0486689
67	0x3d5fd5e4	0.05464734
68	0x3d8cc30c	0.0687314
69	0xbd9cb795	-0.07652203
70	0xbd35d39b	-0.044391256
71	0xbd7b9f04	-0.061430946
72	0xbd9fa30b	-0.0779477
73	0x3c7133f2	0.014721857
74	0x3d6cff72	0.0578608
75	0x3d10cbda	0.035350658
76	0xbc976913	-0.01848272
77	0xbc29cc9f	-0.010363727
78	0x3c196129	0.009361544
79	0x3d904466	0.07044296
80	0x3c2a011e	0.010376243
81	0xbd1d787e	-0.03844499
82	0x3cae8f17	0.021308465
83	0xbd637cac	-0.05553882
84	0xbd82c2b3	-0.06384792
85	0x3d1793fe	0.03700637
86	0xbdadc792	-0.08485331
87	0x3d730858	0.05933413
88	0xbd463167	-0.048386957
89	0xbcfec26d	-0.031098569
90	0x3c6d8369	0.014496663
91	0xb9713282	-0.00023002367
92	0x3b908b72	0.0044111544
93	0xbd834357	-0.064093284
94	0x3d85df43	0.065367244
95	0x3d38bb82	0.045100696
96	0x3c32dac5	0.0109164165
97	0x3e0dee4c	0.13860434
98	0xbc7e22dc	-0.015511241
99	0x3b648475	0.003486899
100	0xbd8270f7	-0.063692026
101	0xbc1d9712	-0.0096185375
102	0xbcc8742b	-0.024469456
103	0xbdf22ac1	-0.11824561
104	0x3b5c04ea	0.0033572265
105	0x3d76af8f	0.06022602
106	0x3c1d052b	0.009583752
107	0x3d7518d2	0.059838124
108	0xbde6db6c	-0.1127232
109	0x3dde5238	0.10855526
110	0xbdd17880	-0.10228062
111	0xbd33a92d	-0.04386251
112	0x3d3c67ec	0.045997545
113	0xbdd8956d	-0.10575376
114	0xbbabb4c5	-0.0052400553
115	0x3d07350b	0.03300957
116	0xbc00b234	-0.007854987
117	0x3d94e50f	0.07270252
118	0x3d491031	0.049087707
119	0xbc905ef6	-0.017623406
120	0xbdb42945	-0.08796934
121	0xbd171fe7	-0.03689566
122	0x3da65362	0.08121373
123	0xbd3af981	-0.0456481
124	0x3e069555	0.13142903
125	0x3bfa591a	0.0076400163
126	0x3de734fd	0.112894036
127	0x3cb5165c	0.022105388
128	0x385f38d0	5.3220254e-05
129	0xbe98b2c8	-0.298239
130	0x3da4f4ea	0.08054526
131	0x3c12ec22	0.008967431
132	0x3b5d2f09	0.003374996
133	0xbce5c912	-0.02804998
134	0xbe2904b6	-0.16505703
135	0x3db9afea	0.09066756
136	0xbd7e492c	-0.0620815
137	0x3d3cc55d	0.046086658
138	0xbdf56cdc	-0.11983654
139	0xbce5c3eb	-0.028047523
140	0xbce2e47f	-0.027696846
141	0xbc3bbaa8	-0.011458077
142	0xbd5f1260	-0.054460883
143	0x3cc16541	0.023607852
144	0xb9db467c	-0.0004182345
145	0x3d0810a8	0.03321901
146	0xbb37ea00	-0.002806306
147	0xbd5c57ac	-0.053794548
148	0xbd786cc2	-0.060650595
149	0x3da2019a	0.07910462
150	0x3cfb64b5	0.03068767
151	0x3d99500a	0.07485969
152	0xbd150338	-0.036380023
153	0x3dd4dc77	0.10393613
154	0xbd609934	-0.054833606
155	0xbda11ca6	-0.078667924
156	0x3c87ccc5	0.016577134
157	0xbe1b89b1	-0.15189244
158	0x3d835cdb	0.06414195
159	0xbdf07b9c	-0.117423266
160	0xbd7341c6	-0.0593889
161	0xbc1eade0	-0.00968501
162	0x3c393bc7	0.011305756
163	0xbcb57e8e	-0.022155073
164	0xba853feb	-0.0010166144
165	0xbe125813	-0.1429141
166	0xbc846917	-0.016163392
167	0x3d41d3bb	0.047321063
168	0xbbd32416	-0.0064435108
169	0xbd0179a3	-0.031610142
170	0x3e114f49	0.14190401
171	0xbc31d69a	-0.010854388
172	0xbd9a2c21	-0.07527948
173	0x3b370a5b	0.0027929756
174	0xbd2d2d10	-0.042279303
175	0xbdaf331c	-0.0855467
176	0xbd94d5a5	-0.07267312
177	0x3d228f3d	0.039687384
178	0xbd1e86c6	-0.03870275
179	0xbd667134	-0.056260303
180	0xbd0833b8	-0.033252448
181	0xbb20c904	-0.0024533877
182	0x3cdf335e	0.027246173
183	0xbdb503e3	-0.08838632
184	0x3ccf1ed6	0.025283258
185	0x3bad385f	0.005286261
186	0x3c1d7a8b	0.009611736
187	0x3c8ea50a	0.017412681
188	0xbaf43333	-0.0018630981
189	0xbc558a09	-0.013033398
190	0x3cb1134b	0.021615645
191	0xbd8dec88	-0.069298804
192	0xbd78a283	-0.06070186
193	0x3d5c1172	0.053727575
194	0xbdbda501	-0.092599876
195	0x3ceb890f	0.028751878
196	0x3d201656	0.0390838
197	0x3d0b8203	0.034059536
198	0x3d34ba58	0.044123024
199	0x3bc4a613	0.006001243
200	0x3d34af93	0.044112753
201	0xbcb6644c	-0.022264622
202	0x3c771432	0.0150804985
203	0xbd1bcca8	-0.038036972
204	0xbba05b9a	-0.0048937323
205	0x3b56c5de	0.0032771747
206	0xbc889086	-0.016670477
207	0xbc0daf4e	-0.008647753
208	0x3db2f13e	0.087374195
209	0xbd596d53	-0.053082775
210	0x3cc5bb31	0.024137111
211	0xbcf18688	-0.029483095
212	0x3c8a30a8	0.016868904
213	0xbd56fa41	-0.052484754
214	0xbda54307	-0.08069425
215	0xbda652d2	-0.081212655
216	0xbd512372	-0.051059194
217	0xbc10c612	-0.008836286
218	0xbd33d6a4	-0.04390587
219	0x3ddf2609	0.108959265
220	0x3c485df9	0.012229436
221	0xbcd7705d	-0.026298696
222	0x3cba16c3	0.022715932
223	0x3c95b904	0.018276699
224	0x3c83626b	0.01603814
225	0x3d587b7a	0.05285213
226	0xbd8d5aa1	-0.06902052
227	0xbc5b1ec2	-0.013374032
228	0x3d4d47fd	0.05011748
229	0x3d63467a	0.055487134
230	0xbd6ac51b	-0.05731688
231	0xbd4a3b5f	-0.049373027
232	0x3c87a084	0.016556032
233	0xbc265e05	-0.010154252
234	0x3c02bb33	0.007979202
235	0x39c36d8b	0.00037274914
236	0x3dc7c3f5	0.09754173
237	0xbd8caf60	-0.068693876
238	0xbc9a0e14	-0.018805541
239	0x3dcaeb42	0.09908153
240	0xbd004a6e	-0.03132098
241	0x3d9692b3	0.073521994
242	0xbc1ce266	-0.009575462
243	0x3c11da0f	0.008902087
244	0xbd84f45a	-0.06491919
245	0x3dc29de1	0.09502769
246	0xbdadbc72	-0.08483209
247	0xbbf55c34	-0.007487798
248	0xbd49da57	-0.04928049
249	0xbda9cb57	-0.08290737
250	0xbe060dff	-0.13091277
251	0x3d4970aa	0.04917971
252	0xbd7410cf	-0.059586342
253	0xbcd27bec	-0.025693856
254	0xbd4e43d8	-0.05035767
255	0x3baf707f	0.0053539868

fc.bias f4 [16]
0	0xbc2d2a04	-0.010569099
1	0xbb0d6e1e	-0.0021580528
2	0xbac852e3	-0.0015283491
3	0x3c13fe29	0.0090327645
4	0x3ae5b1ee	0.0017524341
5	0xba87c672	-0.0010358824
6	0x3ae1fbd8	0.0017241193
7	0x3aebb0f0	0.0017981809
8	0xbb10e683	-0.0022110052
9	0xbb5647b9	-0.0032696559
10	0xba44e731	-0.0007511257
11	0xbad628b7	-0.0016339038
12	0xb88e0160	-6.771344e-05
13	0x3c2bcdbe	0.0104860645
14	0x38a16798	7.696374e-05
15	0x3c24d2c3	0.010060015
