checkpoints/NoGestureNetwork_2023-08-11_13-10-01.pth (torch, 48675 bytes, 10 tensors)

touchscreen_data_network.rnn.weight_ih_l0 f4 [64, 4]
00000000: f2ce 5dbd 6ae9 773d 7a5f 26bc a6c2 8d3d
00000010: 7c13 38bc a5e0 2c3d 9e0f a93d 20a6 263c
00000020: 3a70 d33b 8f49 313d db68 243d fab2 8fbd
00000030: 6c67 703d 7595 1d3d ae5c 9fbd 0ace a8bd
00000040: a2f7 bb3b 2166 bd3d e8f7 763d 50db b03d
00000050: f06e 83bc 0e0b f43c abd0 ffbd cc1f ff3b
00000060: 253e a03d 7d64 c2bd e059 53bd c3c0 323d
00000070: 035b 85bd 5903 d83d 1e34 1fbd aa53 d63d
00000080: dfdd 90bd d9fb a13d ca95 58bd 4ff7 e3bd
00000090: 8808 2c3d 58d8 773d a5d4 fb3c 6c5a 5f3b
000000a0: 8b54 ab3c 08b2 acbd bc3e 56bd 4763 a0bd
000000b0: 868e f5bc e406 7bbd 041e 62bb 8670 363d
000000c0: 3846 cb3d 51fb f03d 9f3e d1bd c551 a7bd
000000d0: 5cad c7bd 3fe5 14bd 4e01 55bc 1842 bfba
000000e0: c37d 8ebd fa2e 383d a444 8f3d ab1b 523c
000000f0: 0efb 4bbd 997b b43d 8231 42bd 64cd 183d
00000100: 6d08 f63d 1437 c8bd cb18 62bc 62ae ae3c
00000110: 92b3 023d 16e1 453d c32f 8fbc b5b2 a3bd
00000120: fe7c f63b bf70 d33d 77f0 8d3d 749f 70bc
00000130: b2f9 d0bc 6435 3d3b aede 4d3d 562e c2bb
00000140: 5c88 aabd e1c4 5abd daab c4bd 285f babd
00000150: e19f 98bd bcd7 55bd b472 443c 0c2b 87bb
00000160: eb8a fb3d a278 1abd e947 9e3d 6c26 df3d
00000170: 16b8 d6bd 3794 fb3d 6816 e7bd 5a76 8d3c
00000180: 6607 37bd 8759 9bbd 6bc3 a43d b807 9ebd
00000190: 0436 3f3d 33ff bdbd 4282 9dbc 50a0 ffbb
000001a0: bd9d db3d 5c8c 3d3b 2ec7 ecbc 4c65 efbd
000001b0: 53af 2bbd 9762 4c3d 46de 793d fc44 2ebd
000001c0: 05b5 863d 9063 b5bd 7aef cebd 7a29 c5bc
000001d0: bd97 bf3d f16c 89bd 2b5b d03d 44bd b3bd
000001e0: e4a8 693c 0a7a 3cbd 7a16 e03d 4f75 2dbd
000001f0: 5b3b c8bd f7f4 3a3c d513 9fbc 45ce d83d
00000200: 863f 6abd 21cc 0b3d c6d8 af3d 9225 503d
00000210: 7363 d4bd 0c1e 983d 32b9 443d 5e3f 263d
00000220: df28 31bd dc96 39bd 5939 81bd b40d 9a3d
00000230: 98fe 3c3d 0d1c d93d b43e e73d e34b 113d
00000240: 0fbe 3dbd f871 a53d 4b59 a13d a8f9 d7bd
00000250: 30aa 683d 0f8a 7ebd 40b7 40bd d7e4 90bd
00000260: fe41 d1bd 5d53 a93d 45c2 af3d 874b de3c
00000270: 4aab e5bc e490 96bd 140d 47bd da12 203d
00000280: 78e3 b13d 2494 c6bd 3c06 fcbc 329b 873b
00000290: 0d81 4abd 68bf 9f3c fe74 a53d d836 24bc
000002a0: 50c2 cc3d 788c af3c 421e 563d 56b3 953b
000002b0: 6ca8 863d d80d 44bd 02cf 0abd 4713 a33d
000002c0: 55f4 063e 99a7 8abd a235 a6bc 27ee 913d
000002d0: a118 36bd 6aae 50bd df09 00bc 2c45 62bd
000002e0: 4bcb b9bd 1550 8a3d 6c16 2c3b 36b7 f53c
000002f0: baa4 e23d b02c 973b e0bf bb3d 0ed9 fb3b
00000300: 384e 4c3c 4300 ebbd 013f db3d eb70 7d3d
00000310: 418f 973d 9e56 573d 67c1 1bbc 19ee a53d
00000320: 0cd9 0fbd 327c 2e3d 9acf 76bd d4ff 07be
00000330: 63e8 2abd b008 80bd 8df3 8ebd 86cb 93bd
00000340: 12ae a2bd 0930 96bd 094c 8f3d 9c4f 91bd
00000350: 28a7 273d 688f e83d 85ce 5fbd e118 b5bd
00000360: 340f 8cbc f63f 44bd 9c01 d23c 2ccd c33d
00000370: 2d7b 413d 86ba 9e3c c6d1 8e3d 523e 3e3d
00000380: b555 523d 5dee cf3d 0434 483c 3702 55bd
00000390: c60d 203d 8eb8 613d 16ee 33bd 49cc 003e
000003a0: d204 7cbd ad20 d2bd d814 5f3b a8de 8eba
000003b0: 1753 7dbd a0f2 713d 9bab 913d e47e 59bd
000003c0: 2cb0 853b 9b4f abbd ae44 8dbd 3452 1f3b
000003d0: 7fd6 a73d 46f7 683d 264b 01be 461b bc3c
000003e0: ab42 5c3d 063b 23bd 2db7 d63d 0fa6 00be
000003f0: e9f3 d8bd d54c 8ebd 1bd0 843c cc5b d4bd
-0.054152437 0.060525335 -0.010154599 0.06921892 -0.011235114 0.042206425 0.08254932 0.010171443
0.0064525874 0.04328304 0.04013906 -0.07016559 0.05869238 0.03847261 -0.07781349 -0.08242424
0.0057363072 0.09247995 0.060295016 0.086355805 -0.01604411 0.029790428 -0.12490972 0.007785773
0.07824353 -0.09491823 -0.051599383 0.043640863 -0.065115 0.105475135 -0.038868062 0.104651764
-0.070735686 0.07909364 -0.052877225 -0.11131155 0.042000324 0.060509056 0.030741045 0.0034080995
0.020914337 -0.08432394 -0.052305922 -0.07831436 -0.029975187 -0.06128587 -0.0034502754 0.044540904
0.099255025 0.11766685 -0.10217022 -0.08169893 -0.097498626 -0.03635144 -0.013000799 -0.0014591841
-0.06957581 0.044966675 0.06995514 0.012823979 -0.04979997 0.08812637 -0.047410496 0.03730525
0.12013326 -0.0977613 -0.013799856 0.021323387 0.031909533 0.04831036 -0.01747883 -0.0799307
0.0075222244 0.10324239 0.06930631 -0.014686454 -0.025509689 0.0028870935 0.050261192 -0.005925934
-0.0832679 -0.053410415 -0.096030906 -0.09100181 -0.074523695 -0.052207693 0.011990238 -0.0041250046
0.12282356 -0.0377127 0.077285595 0.10896 -0.1048433 0.12284129 -0.112835705 0.017268348
-0.04468479 -0.07585435 0.080450855 -0.07716316 0.046682373 -0.09277191 -0.01922715 -0.007801093
0.107234456 0.0028922772 -0.02890357 -0.11689243 -0.04191525 0.04989871 0.061002992 -0.042546257
0.065774955 -0.08856881 -0.1010427 -0.02406763 0.09355114 -0.06710232 0.10173639 -0.08776334
0.014261458 -0.046014823 0.10941787 -0.042348202 -0.09776946 0.011410943 -0.019418636 0.10586218
-0.057189487 0.03413022 0.08586268 0.05081708 -0.10370531 0.07427606 0.04802818 0.040587775
-0.04325187 -0.045309886 -0.06309766 0.07522145 0.046141237 0.106010534 0.112912565 0.03547276
-0.046323832 0.080783784 0.078783594 -0.10545665 0.05680293 -0.06214338 -0.04704976 -0.07074898
-0.10217665 0.082678534 0.08581976 0.027135624 -0.028035779 -0.073518544 -0.048596457 0.03908048
0.08685964 -0.09696224 -0.030764692 0.004138374 -0.04943948 0.01950045 0.08078955 -0.010022841
0.09998 0.021429285 0.05227495 0.0045684977 0.06575093 -0.047864765 -0.033888824 0.07962661
0.13179143 -0.06770248 -0.020289246 0.07125502 -0.04445708 -0.050947584 -0.007814853 -0.05524175
-0.09071978 0.06753556 0.0026258482 0.029994588 0.11066575 0.0046134815 0.091674566 0.007685787
0.012469821 -0.11474659 0.107053764 0.061875265 0.074003704 0.05257284 -0.00950656 0.08102054
-0.0351191 0.04259891 -0.060256578 -0.13281184 -0.041725527 -0.06251657 -0.069800474 -0.072165534
-0.079433575 -0.07333381 0.069969244 -0.070952624 0.040930897 0.113554776 -0.05464031 -0.08842636
-0.017097093 -0.04791256 0.025635533 0.09560618 0.04723661 0.01937605 0.06973605 0.046446152
0.051351268 0.10152886 0.012219433 -0.052004065 0.039075635 0.055107646 -0.04392823 0.12577929
-0.061528035 -0.10260139 0.0034039523 -0.0010900097 -0.06184682 0.059069276 0.07112809 -0.053099528
0.004079839 -0.08364793 -0.06897865 0.0024310471 0.08195209 0.056876443 -0.12626323 0.022962224
0.053774517 -0.03985121 0.10484157 -0.12563346 -0.10593397 -0.06948248 0.016212514 -0.10369071

touchscreen_data_network.rnn.weight_hh_l0 f4 [64, 64]
00000000: 887d f6bd 7142 e4bd 2919 473d 67a3 dc3d
00000010: 75b9 6a3c 78db 023e 558a 903d c46e 04bd
00000020: ede0 e5bd 661f 523c 0a5c 403d 9da9 21bd
00000030: 85f3 c73d 2ef6 343d 150a 99bc e8bc 613d
00000040: de2a cfbd ac33 903c 12f0 63bd 94e3 e83d
00000050: 144f 043e 4a6f 233d 22c5 85bc 3aa8 acbd
00000060: 11c6 f53c f71a f23d 3fa3 8e3d 967d 463c
00000070: ce7f 7a3d 1b34 05be 4221 e5bc 4c3c 8c3c
00000080: 5e23 a63d f0eb 84bc 6980 9cbd 5ad7 a53d
00000090: cbb7 9c3d 5438 1cbb 0daa 86bc d671 123d
000000a0: d17e ba3d d8d6 07be 0d4a 113d 3a18 92bc
000000b0: 28fb acbd bafb 173c 24ea 123d 90c4 cd3d
000000c0: a865 b43d bab2 01be 428b 4ebd 6346 c83d
000000d0: 5a9e 633d 570c ae3d 1d5b d0bd ecbb dfbc
000000e0: c6a3 323c fa5d c0bc ebc0 c43d 6d1f f7bd
000000f0: cfe3 fb3d 5946 5fbd a263 5cbc c64c 28bc
00000100: 2baf 313d 9820 983d f075 da3c f2f9 1e3c
00000110: b6c9 d8bd f811 05bd 6b05 123c e6a9 b0bb
00000120: a28e d23d 3ef6 90bd 48d1 563b d534 343d
00000130: 31c7 b23d b5f0 8ebd 4c24 58bd 70e7 283a
00000140: c192 31bc a5d6 07bd e2f0 5a3d 0408 733d
00000150: f8dc 95bb 2c98 d1bc c47b bebd 9ad2 b3bd
00000160: 8805 d6bd 707b 1a3b 265e 9ebd 44da f73c
00000170: 3b2b d83d 977a 123c 07f0 b7bc 8ee8 c23d
00000180: cad7 113d 6063 063b be98 473d 4e05 8c3d
00000190: c80f 3c3d eec4 cc3d 19d9 953d a5b0 7c3d
000001a0: 0e80 883b 3c00 a23d 871e a9bd f21a 57bd
000001b0: 6fcf 25bd 620f b23d 2495 84bd 984a df3b
000001c0: 1697 073d 48a0 a33d 9ba9 1c3c 7296 d83c
000001d0: 3499 bfbd aceb 8cbc da9d 02bd 5c49 85bb
000001e0: e887 40bd 1080 5e3b f00f e43d 0e13 953d
000001f0: 6506 02bc 593a da3d 8c20 e83d afbd 2f3d
00000200: 5403 a2bd bec8 c13d ed0f c2bd e982 a53d
00000210: 3654 cbbd 0088 ddbd 8066 763d 0ffa 2fbd
00000220: bf1b 673d d10b 4dbd dc62 8f3c 38d1 beba
00000230: 56be f03b 9a22 d0bd 2c3f b3bd 8d5c ac3d
00000240: 7b44 703d 6bc6 c63c 2c20 75bd 4749 043d
00000250: 669f 223d dfde 4cbc 63f7 d23d cd68 cabd
00000260: 7d3f ddbd 7f38 81bd 4071 d03d 4ce4 c03d
00000270: 538d bb3d 59b2 c73c ac27 bf3d ca42 adbd
00000280: 9a58 fabc 1a80 b9bd c959 dc3d 5c5c 5dbd
00000290: 103b e0bc 7433 c1bb c31d 653d 7483 cd3c
000002a0: 90fc 26bb f92b bd3d bcee c5bd c844 13bd
000002b0: c24d a9bd 2b18 7e3c c1e4 9b3d 6718 acbd
000002c0: 1f17 0e3d 46ea e0bd f45e 933c f7db ce3d
000002d0: 65c7 b2bd c670 8ebd b81f ba3d fe3a d1bd
000002e0: b5d2 a0bd 5bd8 e8bd 68b4 33bd 64d3 773d
000002f0: 7ce4 c3bd fffc 9abd 47d9 543d 9216 6fbd
00000300: 0e07 32bd 583a c3bd 6819 c3bc 9c44 d1bd
00000310: a940 5cbd aab0 a8bd 4019 c6bd be19 d1bd
00000320: 074c 5f3c 0376 8b3d d07a d23b 2cba 83bd
00000330: 94dc d93d 5044 75ba 2f4b af3c 2496 70bd
00000340: 50f5 d73c 8eaa c5bd 96fb cb3d 96cb ce3c
00000350: 8569 563c bacf 0fbd 31c5 33bd f46e 67bb
00000360: 8c40 b9bd 45d1 aa3d 0731 edbd 5e39 aa3c
00000370: c234 003e 9002 a23d a3f5 e5bc 6913 8b3d
00000380: 0dfa b2bd a387 5a3d 58f9 debd 5dd9 343d
00000390: 309d 503d bafc 013e 8764 b4bd 42a4 b63d
000003a0: 5b37 9f3d 9ccd e93b 8dbe f7bd c2b5 063e
000003b0: dbad fe3d 8ac9 13bd f0a8 b53d 1638 1f3d
000003c0: 68ab 903d 360a a43c 3016 293d 4049 913d
000003d0: b678 d9bd b156 99bd c692 033e c4ca df3d
000003e0: ea9a 06be 274c 07be 4022 55bc 4171 67bd
000003f0: 3ce9 743d 0081 8c38 469d f3bd f41c e5bd
-0.12035662 -0.11145485 0.04860798 0.10773354 0.014326443 0.12779033 0.07057635 -0.032332197
-0.11224542 0.012824869 0.046962775 -0.039468396 0.097632445 0.044180088 -0.018681565 0.055111796
-0.10115598 0.017602764 -0.05564887 0.11371532 0.12920791 0.039901055 -0.016329352 -0.08430524
0.030001672 0.118215494 0.069647305 0.012114903 0.06115704 -0.13008158 -0.02796996 0.017118596
0.081122145 -0.016225785 -0.0764168 0.08097716 0.07652243 -0.0023837285 -0.016438508 0.035753094
0.091062196 -0.1326555 0.03547101 -0.017833818 -0.08446342 0.009276325 0.035867825 0.10047257
0.08808452 -0.12665835 -0.050425775 0.0977905 0.055570938 0.084984474 -0.101736285 -0.027311288
0.010903304 -0.023482312 0.09607109 -0.12066541 0.122993104 -0.054510448 -0.013451489 -0.01027221
0.043379944 0.07428092 0.026667565 0.009703146 -0.10585348 -0.03248784 0.008912425 -0.005391347
0.10281111 -0.07078217 0.003277855 0.043995697 0.08729399 -0.06979505 -0.05276899 0.0006443178
-0.0108382115 -0.033163685 0.05345238 0.059333816 -0.0045734607 -0.025585257 -0.0930095 -0.087804034
-0.10450274 0.002357211 -0.07732801 0.030255444 0.105551206 0.0089403605 -0.022453321 0.095170125
0.035606183 0.002050601 0.04872965 0.06836949 0.045913488 0.09998499 0.07316799 0.0616919
0.004165656 0.07910201 -0.08257776 -0.05251593 -0.040481027 0.0869434 -0.06473759 0.006814312
0.03310307 0.079895556 0.0095619215 0.026438925 -0.09355393 -0.01720222 -0.03188882 -0.004067583
-0.04700461 0.0033950843 0.11135852 0.07279025 -0.007936095 0.1065566 0.11334333 0.042905506
-0.07910791 0.09462117 -0.09475694 0.0808161 -0.09928171 -0.108169556 0.060156345 -0.042963084
0.056422945 -0.050060097 0.017503195 -0.0014558202 0.0073469086 -0.1016285 -0.087522835 0.0841609
0.058659058 0.024264535 -0.059845135 0.032296445 0.039702795 -0.0125043085 0.103010915 -0.098832704
-0.10803125 -0.06309604 0.10177851 0.09418544 0.09157815 0.024377035 0.09333739 -0.08460005
-0.030559827 -0.090576366 0.10759313 -0.05404316 -0.027371913 -0.0058960263 0.055936586 0.025087096
-0.0025480129 0.09236903 -0.096646756 -0.035954267 -0.08266784 0.015508692 0.07611991 -0.08403092
0.03469002 -0.10982184 0.017989613 0.10100549 -0.08729438 -0.069551036 0.09088081 -0.1021633
-0.07852689 -0.113693915 -0.04387322 0.060504332 -0.09565064 -0.075677864 0.051965024 -0.058371134
-0.04346376 -0.095326126 -0.023815826 -0.10218164 -0.053772602 -0.08236821 -0.09672785 -0.10209988
0.013628966 0.06809618 0.006423332 -0.06431994 0.10637775 -0.00093561877 0.021398155 -0.058736935
0.026362091 -0.09651671 0.099600956 0.025243562 0.013086681 -0.035110213 -0.04388923 -0.0035313936
-0.090455145 0.08340696 -0.11581617 0.020779308 0.12520126 0.07910645 -0.02807123 0.067908116
-0.087391 0.05335201 -0.10887402 0.044152606 0.050931156 0.12694064 -0.088082366 0.089180484
0.0777423 0.0071351063 -0.120968916 0.13155273 0.12435504 -0.036080875 0.08870113 0.038871847
0.07063943 0.0200244 0.041280925 0.070940495 -0.10618727 -0.07487238 0.12848958 0.10927346
-0.13145033 -0.13212644 -0.013008654 -0.05650449 0.059792742 6.699748e-05 -0.11895232 -0.11187163

touchscreen_data_network.rnn.bias_ih_l0 f4 [64]
00000000: 65e4 593d dcf8 d63c 9771 9cbd e13a a2bd
00000010: 5fe5 a03d cc08 743d 52fe 9f3d 53c0 acbd
00000020: 1a03 493d e07e 0ebd 958a d4bd 1d4a 513c
00000030: cf93 f53c 4231 ae3b 40bb d0bd f807 e6bd
00000040: 64e8 40bd 4467 5cbd 4806 6b3d b4ef 823c
00000050: e8c2 86bd d3da 0dbd 895e 253d 1e95 22bd
00000060: 2351 e5bd 634d 803d 809d 5b39 ab46 e7bb
00000070: d0ec 8abd 0a05 bdbd 2ea2 c73c 76a5 2d3d
00000080: 91e8 92bc ac27 2e3d 5507 833d 0e0c 9c3d
00000090: 4bff 43bd 7095 f1bc 5106 b43c 022e 283d
000000a0: 3b53 813d 6080 b7bd 1bdb 91bc 8052 9bbd
000000b0: e028 70bd 3c95 7a3b b806 c93c b69c 67bd
000000c0: 22bd fd3c 7cdc ab3c 2a75 9f3d 6c1b 183c
000000d0: 9fbc 44bd 8ee4 a0bc ea26 d6bd 4ab8 07bd
000000e0: d137 253d 8517 c03d c907 6dbd 915b b33d
000000f0: dc0f 3fbc daee 103d d2d3 8d3d 76f7 88bc
0.05319633 0.026241712 -0.07638853 -0.079213865 0.07856249 0.0595787 0.078121796 -0.084351204
0.049075224 -0.034788966 -0.10377995 0.012774018 0.029977707 0.0053159306 -0.10191965 -0.11231989
-0.047096625 -0.05380942 0.057379037 0.01598344 -0.06580144 -0.034632515 0.04037336 -0.03969299
-0.11197116 0.0626476 0.00020944141 -0.007057985 -0.0678345 -0.09229477 0.024369325 0.042394124
-0.017933162 0.042518303 0.06397883 0.07619487 -0.04785089 -0.029490203 0.021975668 0.0410595
0.06314703 -0.089600325 -0.017804673 -0.07584095 -0.05863273 0.0038235923 0.024539337 -0.056545936
0.030973975 0.020979159 0.07786019 0.009283882 -0.048031446 -0.019640233 -0.10456641 -0.033134736
0.040336434 0.09379486 -0.057868753 0.08757699 -0.011661496 0.035384037 0.06925167 -0.016719561

touchscreen_data_network.rnn.bias_hh_l0 f4 [64]
00000000: 58ca a63d 906b 69bd 0767 5d3c 18a9 8abd
00000010: a1f1 163d 5f31 5f3d 1c1c 33bb b257 03be
00000020: 6d4e ea3d bc02 d4bd 2e95 fa3c 0141 123c
00000030: fbe4 e23d 33f8 94bd f0fd b63d 0601 9cbd
00000040: 9cea e23d bc4f 30bb f87a 943d a452 7a3d
00000050: 67eb 3cbc 180d 5ebd 13c4 1b3c 884e 3ebb
00000060: e15a c7bd 6837 f33b 7e5e 30bd 25a9 bd3d
00000070: 47cf 20bd 5f57 7c3d 36c8 d63d 5948 f9bd
00000080: a2e1 abbd 5a83 ff3d cfd8 113c 983a bebb
00000090: 5d99 57bd 466b 11bd 010e df3d 7752 a13d
000000a0: faf4 e73b 3f83 c1bd a34d 913d 8bff a93d
000000b0: 8869 d6bd 98a9 bb3d 2963 b4bd fd10 913d
000000c0: df56 d2bd 93c8 923d 92ad b23c b643 94bd
000000d0: 9c97 7e3d 3dde fc3c b4c2 babd 5827 43bd
000000e0: 3dc3 bc3d 6f26 bdbd 443d dcbd b4ed 483b
000000f0: a0df e43d e2fd 043d ace4 89bc a214 603c
0.08144063 -0.056987345 0.013513333 -0.06770533 0.03685153 0.054490443 -0.0027329987 -0.12826422
0.1144074 -0.10352084 0.030588713 0.008926631 0.11078831 -0.07273903 0.089351535 -0.07617383
0.110799044 -0.0026902994 0.07250017 0.06111397 -0.011530734 -0.054211706 0.009507197 -0.0029038507
-0.09734131 0.0074223764 -0.043058865 0.092607774 -0.039260175 0.06160676 0.10487406 -0.12172002
-0.083926454 0.12476225 0.008901789 -0.0058053248 -0.052636493 -0.035502695 0.10891343 0.07877057
0.007078764 -0.09448861 0.07094886 0.08300694 -0.10469347 0.09163207 -0.08807976 0.070833184
-0.102704756 0.07167163 0.02181128 -0.07239477 0.062156305 0.03086769 -0.09119168 -0.047644943
0.09216926 -0.09235846 -0.10753873 0.003065926 0.111754656 0.032468684 -0.016832672 0.013676794

sensor_data_network.rnn.weight_ih_l0 f4 [64, 6]
00000000: 5454 933d 222e ae3d d88b cfbd d185 9bbd
00000010: 4a7f 133d c272 b4bc d467 cc3d 686e 9f3c
00000020: 1fce cf3d 9c88 edbc 9895 203d 4ed5 f2bd
00000030: fa53 f0bc 8571 dcbc dbbf d63d dc90 e83d
00000040: 65f7 06be 64ef b8bd 08de e1bb ae9a b23d
00000050: de51 21bc 5d5b 803d 40e9 f0bd 67b1 12bd
00000060: 5b3f 54bd 7772 1abd 18b2 bd3d 3c1c 093e
00000070: b0f4 ffbc 6795 d73d 5a0d 95bd ac7e d33d
00000080: 9e08 af3d b073 2bbd e7ef 46bc 68ad 0fbb
00000090: 4636 be3d 617f da3d 1a86 b8bd f5b5 68bd
000000a0: 32f6 e2bd c59f 08bd 754e 213c f879 6f3d
000000b0: 00b1 1d3d 28f5 a1bb 48de c3ba aa89 d9bd
000000c0: 4dd2 03be 23ee 823d 5ba2 07be dfcc 573c
000000d0: 68bf e2bb 7eca e9bb 37a7 913d f033 c13d
000000e0: cd86 00be 6423 9f3d 7d83 1d3d 6047 edbd
000000f0: 6edd 923c 0b9a 32bd 18c7 ba3d 6918 00bd
00000100: daa5 de3d 6dcb 20bd 7471 7d3d 70de a5bc
00000110: d00b bb3d c48b 90bd 0f0b 64bd 1b16 e13d
00000120: b0bf fbbd 32fb 89bd 5982 30bd 9e23 0b3d
00000130: 9a2a e43d a6e3 3cbd 7274 e63d f513 1a3d
00000140: b628 1ebd 5900 a13d c591 cbbd e49c f5bd
00000150: ead4 e33c 826e 0ebd 7d3e 92bd 8d0d 663d
00000160: 00c8 bfb9 aee1 dfbc 1668 2abd 481a 7ebd
00000170: 2cc0 7f3d 6a3c 86bd ecf6 b53d 04ff cd3d
00000180: 72fe d83d a435 3b3d 28d0 92bd 7f68 023e
00000190: ef83 58bd d2e1 88bd b1a8 a0bd f82d 583d
000001a0: ee82 f23d 4cc8 063e 68a6 2fbd 762f a03d
000001b0: 1c4b fa3b b406 283d a4cb 8cbd 8e5f e6bd
000001c0: ef9c 203c 3678 85bc 9f1b d43d ce4c 8d3d
000001d0: c3bb ac3d 08c2 3e3c 77dd d9bc 0bb5 9b3d
000001e0: 8926 793d 92cd 62bc f563 d83d 72bd 023e
000001f0: 3851 6b3d 883c bebc d2e9 b83d 7f2a d23d
00000200: 039d abbd 20f8 703d 1222 f23c cd8a 01be
00000210: ce6d f3bd 164b a03d e8b9 843d 95ea 04be
00000220: aaeb 7abd 33eb d5bd d16a 08bc 8822 8d3d
00000230: bc68 b93c 7333 4c3d 1d03 eebc b883 5cbd
00000240: 30be a8bc 1cf9 9b3d 02d9 9fbd 4290 c9bd
00000250: d154 afbd eea2 6ebd 4e03 a73c e410 963d
00000260: 95c5 b63d 26cd 8cbd 04dc 933d 090f 3dbc
00000270: da60 023d e72d d03d 6160 333d dac6 bbbd
00000280: 15e5 b0bd 9264 133d cd9b a93d 3955 d83d
00000290: 6ea3 333d 725c 883c 3853 273b d955 033e
000002a0: 0635 7d3c a0f7 30bd 3983 afbd 918f 643d
000002b0: 7548 023e 3338 853d 02a9 433d e474 bbbd
000002c0: 089f c5bd b1af 99bd ba14 8cbd 8301 b13c
000002d0: 55dd 8b3d 1bbe 05be a6a5 bf3c aa49 a63c
000002e0: 840c d9bc 6ae7 393d 3c36 aebd 5d83 a5bd
000002f0: 121d de3b 47d4 f9bd ba13 593d bf0e 6f3d
00000300: 7fb2 c13d 4733 a5bc c6ac 15bc e7b0 ed3d
00000310: a36d a63d 571d 6dbd 68ad dcbc 6073 ac3b
00000320: 6ffb 683d 15ba b4bd b400 df3c ebb2 02bd
00000330: 87df f43d 423a c33d 831c 91bd f318 5dbd
00000340: e2d1 f93d 0d28 a2bd 7fb1 7abd 7f3b 47bd
00000350: efb6 04bd 4c11 42bd 5e99 02be 94d0 d4bd
00000360: 80f8 bfbd 88e4 b53d e146 f2bc 2d62 c1bd
00000370: 1f58 873d 0ae5 b03d ddb2 cbbd c0ad 873d
00000380: 94ef b83c 4b78 cfbd 06ff b23d a75c f4bd
00000390: 83c8 433d 95b3 083d 4226 cb3c 5af8 b13d
000003a0: a2b4 26bd 1291 393c c93d 06be 7e9d 0abd
000003b0: e0ef 85bd ec79 c3bc 0abe bc3d 53c4 c5bd
000003c0: 143f e43c b2bf fc3c 38bc 68bc ead1 453d
000003d0: c8a0 c73d 2ef9 9a3d 6adb 2b3d 65ca 1fbd
000003e0: e9cc 6e3d 5ee3 af3c b882 623d eecd d53d
000003f0: cff4 a5bd c6ba d8bd dda1 1fbd 3efc c13d
0.07193819 0.08504893 -0.10134095 -0.07593883 0.036010064 -0.022027377 0.09980741 0.019461825
0.10146736 -0.028995804 0.039205164 -0.11857091 -0.029336918 -0.0269096 0.10485812 0.11355755
-0.13180311 -0.09030035 -0.0068929233 0.08720909 -0.009846179 0.06267426 -0.11763239 -0.035813715
-0.051818233 -0.03770682 0.09262484 0.13389677 -0.031244606 0.10526543 -0.07277937 0.10326895
0.085465655 -0.041858375 -0.012142158 -0.0021923427 0.092876956 0.10668827 -0.09009953 -0.056814153
-0.11082114 -0.033355493 0.009845366 0.058465928 0.03849888 -0.004942555 -0.0014943564 -0.106219605
-0.12873192 0.06393077 -0.13245527 0.013171404 -0.00691979 -0.0071347347 0.07111972 0.094337344
-0.12551422 0.07770422 0.038455475 -0.11585879 0.017927852 -0.043603938 0.09120005 -0.03127328
0.108714774 -0.039256502 0.061875775 -0.020247668 0.091331124 -0.07057908 -0.05567461 0.109905444
-0.12292421 -0.06737365 -0.04309306 0.033969514 0.11140938 -0.04611554 0.11252679 0.03761669
-0.038613044 0.078613944 -0.09939913 -0.11992815 0.027811486 -0.034773357 -0.07140825 0.056165267
-0.0003657937 -0.027329292 -0.04160317 -0.062036783 0.06243913 -0.06554492 0.08884987 0.10058406
0.105954066 0.045705453 -0.07168609 0.12735175 -0.052860197 -0.06683697 -0.07844675 0.052778214
0.11841379 0.13162345 -0.042883307 0.078215525 0.0076383483 0.041022018 -0.06874779 -0.11248694
0.009803041 -0.016292673 0.10356831 0.06899415 0.0843425 0.01164294 -0.02659486 0.076028906
0.060827766 -0.013842957 0.1056594 0.1276758 0.057450503 -0.023222223 0.09028973 0.10262012
-0.08379557 0.05883038 0.029557262 -0.12650605 -0.11886178 0.078268215 0.06480771 -0.12980111
-0.061259903 -0.10445251 -0.008326248 0.06891352 0.022632949 0.049853753 -0.029054219 -0.053836554
-0.020598501 0.07615873 -0.07805063 -0.09841968 -0.08561099 -0.05826085 0.020387318 0.073274404
0.089244045 -0.068750665 0.07219699 -0.011539229 0.031830646 0.10165005 0.043793086 -0.09168787
-0.08637444 0.035984583 0.0828167 0.1056313 0.04385703 0.016645644 0.002553178 0.12825717
0.015454536 -0.043204904 -0.085699506 0.055800978 0.12722953 0.0650486 0.0477686 -0.091531545
-0.096494734 -0.075042136 -0.06839891 0.021607166 0.06829325 -0.130608 0.023394417 0.020298798
-0.026495226 0.04538671 -0.08506438 -0.08081696 0.006778368 -0.12198692 0.05299733 0.058363672
0.094578736 -0.020166053 -0.009135431 0.11606007 0.0812638 -0.05788931 -0.026938155 0.005262777
0.05688041 -0.08824555 0.027222015 -0.03190891 0.11956697 0.09532596 -0.07085516 -0.05397887
0.12198235 -0.07917795 -0.06120443 -0.048640724 -0.03240102 -0.047379777 -0.12753817 -0.103913456
-0.093735695 0.088814795 -0.029574813 -0.09442554 0.06608605 0.08637436 -0.09946225 0.06624937
0.022575177 -0.10130366 0.08740048 -0.119317345 0.047798645 0.033374388 0.024798516 0.086899474
-0.04069961 0.011326091 -0.13109507 -0.033841603 -0.06539893 -0.023861848 0.092159346 -0.096565865
0.02786211 0.030853126 -0.014205031 0.048295893 0.097474635 0.075670585 0.041957296 -0.039011378
0.058300886 0.021470722 0.055300444 0.104396686 -0.08103334 -0.10582499 -0.038972724 0.094719395

sensor_data_network.rnn.weight_hh_l0 f4 [64, 64]
00000000: 842d 80bd d81a afbd 5d5c fb3c 3074 8fbd
00000010: c499 5a3c 96fc e03d 4878 44bd afa0 d43d
00000020: bae2 ebbd 7ae8 b5bd 1a69 f8bc 4936 cbbd
00000030: b0ea 933a 18df e13d f234 eb3d e9ff a1bc
00000040: 02e8 833d 76a3 ea3d 8f0a 9c3d bb89 a83d
00000050: 66d5 e8bd 0f0b 5ebd 3c24 a6bd 071e ec3c
00000060: 2fc1 c23d 86dc cebd 635d 9dbc 795c 88bd
00000070: ec66 2f3d 47a2 a93d c036 dcbd e797 72bc
00000080: c37c 563d 0829 86bd 06c9 24bd 2202 9c3d
00000090: 1e74 1c3d 0191 d1bd ebf5 753d 251b 8bbd
000000a0: 51b7 9abd 5080 95bc de27 92bd 30fd d7bd
000000b0: ec2d 853c 7a7b 06bd f0ef 123c ab9e 6abd
000000c0: 0c29 d73d e087 183d ca31 92bc 90c5 2cba
000000d0: 7ff8 823d 9146 0bbc c198 b43d 48f4 a7ba
000000e0: 22f6 b33d 6818 04bc c229 fcbb 74dd d3bd
000000f0: 3f9c a33d 0419 f0bd f090 b9bc 680f 6fbd
00000100: 63fd cbbd b08d 1ebd 19f8 25bc 5259 dabc
00000110: 59ed 45bc 5a43 a3bc 5b1c 853c 0667 b43d
00000120: fc3c 1fbd b24d e8bd 0b86 d4bd 95ca b2bd
00000130: 3eed 9b3c 0748 ad3d dba7 c53d 02d8 30bc
00000140: b611 893d d602 27bd 356e 7c3d 1320 8abd
00000150: 3470 c1bd 26da cebd 69da a9bd b82d 6abd
00000160: dde7 b73d 5dd1 d83c 7487 10bd a002 48bb
00000170: 26c5 523c a73e 1abd ce72 f13d 3339 c9bc
00000180: aaef 8abd 9a09 a63d 9677 773d d8b1 8abd
00000190: b2f1 f03d 7c82 fe3c 8b06 40bd ce78 ac3c
000001a0: 5b09 9fbd d30b 4bbd 22bf 1fbd 2dd5 f2bd
000001b0: 2a06 55bd 6305 87bd 4ed0 f0bc bcf2 d63c
000001c0: a38e b73d 9942 bcbd 52c7 3cbd a672 86bd
000001d0: 4e70 c83b 76e2 a1bd c4fd 99bd 105a 343d
000001e0: 86a3 0fbd 2a81 4bbd 338c 6d3d bb5d 3cbd
000001f0: 7c5c fbbc a8c1 a7bc a2f0 a03c 8c65 ec3d
00000200: e778 1bbd fcd9 b2bd 7eb9 59bd 218f 133c
00000210: 48ff e33d e3bc e33d fde0 cd3c 84db 5dbb
00000220: 7840 813d 655c f03d 3f0e 9fbd a3f2 07be
00000230: e693 fdbd eff4 cdbd b36f 42bd 6b18 873d
00000240: 4103 a43d ceca b33c 4283 9bbc 8146 86bd
00000250: 10cb a3bd 48b9 7cbd ccf9 d73c 3c07 e3bd
00000260: 918c bbbc a45c f33d 5451 40bd f6b5 cbbd
00000270: 3f7f 93bd b05d a8bd c4be f23d 939b d63d
00000280: c845 aaba c0d2 cdbb a19e 47bd ecbe 3abd
00000290: 4374 903d f884 043d fafb dabd b70f a5bd
000002a0: 99e4 893d 2d83 3e3c 164d 403d fd94 53bd
000002b0: 26e7 d33d 408b 85bd d5bc a9bd 10a8 c1bd
000002c0: e90f 18bd b38a a9bd ff1d 84bd dfa9 d7bd
000002d0: 5798 c13d 362e b8bd 11e4 503d 2079 93bd
000002e0: 58ee 583d 7689 c3bc 9c05 8fbd f9ef cbbc
000002f0: b844 4fbc 2848 d73b 6a07 3a3d 301b d2bd
00000300: 5dc5 ad3d 26de 803d 3295 5e3d 71f1 52bd
00000310: 9d7d a7bd 6ecd 9b3d 0823 173c e8a4 223d
00000320: c359 e8bd 18c1 c5ba ed4a 9c3d e1ac ffbc
00000330: a3db 34bd eb7c ab3d 3263 7d3d 083a 0c3d
00000340: 8ae2 f5bd ff52 c73c 8677 a43d 9b41 763d
00000350: ecd1 66bd 3289 963c e483 ee3c d890 173d
00000360: a409 833d fd01 6abd 1fb4 223d fc06 c63d
00000370: 7f04 4dbd 9cf5 ee3d 5f70 2bbc 6e6e abbd
00000380: 279c 89bd 668d ab3d 7898 c1bd 18be 893d
00000390: bea1 273d a4d6 78bd e3d2 47bd 45a6 7a3d
000003a0: 0467 cebc 29bf 0b3d c242 b33d 3b7a e73d
000003b0: 5cb8 9b3d e904 60bc 390a d2bd a898 bbbd
000003c0: 4c35 b83d 22bc 1d3d be4e 37bd d1ac 8c3d
000003d0: 67e0 2fbd 5f0d cb3d d0b8 27bd 0c65 c0bd
000003e0: 44a8 e6bc f85a a5bd 2865 c4bd 38a2 613d
000003f0: d7ab 9fbc 0347 babc e8fd 733d 9491 e33d
-0.062586814 -0.08550042 0.03068369 -0.07004583 0.013342325 0.10985677 -0.04796627 0.103822105
-0.11517854 -0.08882232 -0.030323554 -0.099224634 0.0011285152 0.1102888 0.11484708 -0.019775348
0.06440736 0.11456959 0.076192014 0.08229395 -0.113688275 -0.054209765 -0.0811238 0.028822912
0.09509503 -0.10100655 -0.01920957 -0.06658263 0.042822763 0.08282905 -0.1075263 -0.014806724
0.052365076 -0.06550795 -0.040230773 0.07617594 0.038196675 -0.102327354 0.06004898 -0.06792287
-0.07554496 -0.01824966 -0.0713651 -0.105463386 0.016257249 -0.0328326 0.008968338 -0.057280224
0.10505876 0.037238955 -0.017846007 -0.00065907184 0.06395053 -0.008500711 0.08818198 -0.001281389
0.087871805 -0.0080624595 -0.0076954076 -0.10344973 0.07988786 -0.11723521 -0.02265212 -0.058364302
-0.09960439 -0.038709342 -0.010129952 -0.02665392 -0.012080514 -0.019929577 0.016248873 0.08808713
-0.03887652 -0.11342944 -0.10377129 -0.08730046 0.019034024 0.08461004 0.096511565 -0.010793688
0.06692831 -0.04077419 0.06162854 -0.06744399 -0.09445229 -0.10100202 -0.082936116 -0.057172507
0.08979771 0.02646702 -0.03528543 -0.0030519143 0.012864387 -0.037657406 0.117894754 -0.024563408
-0.067839935 0.081073 0.06041678 -0.06772202 0.1176485 0.03106808 -0.04688124 0.021053698
-0.07765456 -0.049571823 -0.039000638 -0.11857066 -0.05200783 -0.06592824 -0.029396202 0.026238792
0.08962753 -0.0919239 -0.046088524 -0.06564836 0.0061169034 -0.07904522 -0.07519105 0.044031203
-0.035068057 -0.049683727 0.057995033 -0.045987826 -0.030683748 -0.020478085 0.019645993 0.11542806
-0.0379571 -0.087329835 -0.053155415 0.009006293 0.111326754 0.11120012 0.025131697 -0.0033852765
0.063111246 0.11736373 -0.07766389 -0.13276152 -0.12381725 -0.10056483 -0.047469806 0.06596454
0.08008433 0.02194729 -0.018983487 -0.06556416 -0.079977155 -0.061700135 0.02636423 -0.11085364
-0.022894176 0.11882904 -0.04695256 -0.09946816 -0.07202005 -0.082209945 0.11852792 0.10478892
-0.0012990767 -0.006281227 -0.048735265 -0.045592234 0.07053425 0.03235337 -0.10692592 -0.08059638
0.06733055 0.011627954 0.046948515 -0.05165576 0.103468224 -0.065207005 -0.0828797 -0.094558835
-0.037124548 -0.08278408 -0.06451034 -0.10530447 0.09452885 -0.08993189 0.05099875 -0.07200837
0.052961677 -0.023869257 -0.06983492 -0.024894701 -0.012650661 0.006569881 0.045417227 -0.10259092
0.0848491 0.062923715 0.054341502 -0.051499788 -0.08178256 0.07607542 0.009224661 0.039708048
-0.11345246 -0.0015087454 0.076314785 -0.031210365 -0.044154774 0.083734356 0.06186218 0.03423503
-0.120060995 0.024331568 0.0803061 0.06012116 -0.05635254 0.018375967 0.029115625 0.03700337
0.06398323 -0.057130802 0.039722558 0.09669301 -0.050053116 0.1166794 -0.010463803 -0.08370672
-0.06719237 0.08376579 -0.09452909 0.06725711 0.040925734 -0.060751572 -0.0487851 0.061193723
-0.025195606 0.03411785 0.087529674 0.113026105 0.07603523 -0.013673046 -0.10255856 -0.09159976
0.089945406 0.038509496 -0.04475283 0.068688996 -0.042938616 0.0991466 -0.040947735 -0.09394273
-0.028156407 -0.080739915 -0.095896065 0.055086344 -0.01949112 -0.02273894 0.059568316 0.11111751

sensor_data_network.rnn.bias_ih_l0 f4 [64]
00000000: b75a f8bd fa48 d73d 69aa 963d 9a42 593d
00000010: 5e67 02be 7794 263c c2e8 363d 20f4 cf3a
00000020: e49f ba3d a1a1 e43d 60e3 383d 9d25 f9bc
00000030: 2c0b 88bc cda1 07bd 876a 56bd 44bf e5bb
00000040: a814 73bd 144a 2abd 2cfb cd3b 945e 91bd
00000050: b82a 6b3d d2a8 ca3d e348 80bc e066 113d
00000060: cae1 db3d c421 a33d 2ce2 963c 276e 753d
00000070: 7d4c eabd 423b eb3d 5490 8e3d 6fa6 3fbd
00000080: 7853 5bbd f22a 7f3d f6b9 9b3d 4554 f9bc
00000090: f236 f73c be84 e33d 1a44 bc3d 1a41 83bd
000000a0: 356a db3d 91b1 f53d fdd3 c0bd 3dd0 0fbc
000000b0: dad3 833d f322 8fbd a9ac fd3d 8d3b af3c
000000c0: 0eeb 1abd 309b 993d cc8e bc3d d852 5a3d
000000d0: 39b5 12bd 4bec 8f3d e02e ba3d da94 a03b
000000e0: 3025 ba3d eaac cfbd 9999 363c f38a d13d
000000f0: 220b a93d ea9c dabd fb9d 913d 3e07 86bd
-0.121266775 0.10511966 0.07356722 0.05304203 -0.12734744 0.010167233 0.04465557 0.0015865602
0.09112528 0.11163641 0.045138717 -0.030413443 -0.01660689 -0.03311329 -0.052347686 -0.007011326
-0.05934587 -0.041574553 0.0062860455 -0.070981175 0.057413787 0.09895481 -0.015659755 0.0354985
0.10736425 0.07965425 0.018418394 0.059919503 -0.1144037 0.11485912 0.06961122 -0.046789583
-0.0535464 0.062296815 0.076038286 -0.03043569 0.030177567 0.11109303 0.09192677 -0.064089015
0.10713617 0.11996759 -0.094154336 -0.008777675 0.06436892 -0.06989088 0.12386448 0.0213907
-0.037821822 0.07500303 0.09206924 0.053301662 -0.03581736 0.07027491 0.09090972 0.004900557
0.09089124 -0.101404026 0.011145019 0.102315806 0.082540765 -0.1067446 0.071102105 -0.0654435

sensor_data_network.rnn.bias_hh_l0 f4 [64]
00000000: 5e1f 86bc 0171 ffbd 5979 c1bc bde1 2ebd
00000010: 17d7 453c 6c59 96bd 2222 e7bd 1fa7 a13d
00000020: c897 f7bd 4a45 b4bd 931d 453c 582f c83d
00000030: 0beb cb3d 4638 eb3d 5404 82bd 3c88 353d
00000040: 2f3d 7cbd 80c0 17bd e881 573c 7cf3 80bc
00000050: 6e0e e53c f431 a53d ba01 2b3d 6391 143d
00000060: 32b9 803c 483f 46bb fb6b 6f3c 81ce b0bd
00000070: 84da 8fbc 6f27 89bd fb1e 87bd fab3 873d
00000080: 2c60 f93c 5258 68bc f86b 4d3d ca25 fe3c
00000090: cbde debd ec92 6fbd 8e7f 143d 709e d3bd
000000a0: dc7f 8e3d 951d 85bd 40f0 e3bc 5318 d13d
000000b0: af79 df3d 605a c83d b369 01bc 5037 273d
000000c0: 92a7 d43d 6acf bdbd 25f2 c43d 6d52 283d
000000d0: 54a1 82bc e573 cfbd 0dfe 04bc 0680 abbd
000000e0: 9830 943d ecae f2bd 95e4 553c 2e42 efbc
000000f0: 1cff 07bd cb4d eebc 0e6e b5bd 12d4 13bd
-0.016372379 -0.12472726 -0.023617433 -0.04269575 0.012075207 -0.073412746 -0.11285807 0.07893204
-0.12089497 -0.08802278 0.012030977 0.09774655 0.0995694 0.11485343 -0.06348482 0.044319376
-0.061581787 -0.037048817 0.013153531 -0.015741102 0.027960982 0.080661684 0.041749693 0.036271464
0.015713308 -0.003025012 0.014613147 -0.086331375 -0.017560251 -0.066969745 -0.06597706 0.06626125
0.030441366 -0.014181213 0.050151795 0.031023879 -0.10882338 -0.058489725 0.036254458 -0.10332954
0.06957981 -0.06499783 -0.027824521 0.102097176 0.10911881 0.09782863 -0.007898736 0.040824234
0.10383524 -0.09268077 0.09616498 0.041094232 -0.015946068 -0.10129527 -0.008117211 -0.08374028
0.07235831 -0.1184977 0.0130549865 -0.029206362 -0.033202276 -0.029089829 -0.08858882 -0.036090918

fc.weight f4 [16, 130]
00000000: 6393 373d 2c33 abbc c130 313c 3084 9d3d
00000010: be80 913b 9d6a b3bd a9ab 933c cbd7 933d
00000020: c60e 81bd c126 9d3d 03b2 203c 2182 a8bb
00000030: 5877 87bc 4451 e63b 5fbc a03b e423 f1bc
00000040: 5fdd 4f3c 0810 d33c 0c0d 803c 8649 8f3c
00000050: be6f 1fbd 16b0 1e3d 3b47 94bd 1a7f 9e3d
00000060: 8216 c43c d643 833b b94c 9b3d b597 523d
00000070: 98ee 84bc 5e45 353b 5910 ae3d c6fa 993d
00000080: 9f95 523c 4839 a93c a4f0 953d dae2 8d3d
00000090: de49 953d 06e7 32bd a44a 863d 499f 49bd
000000a0: e9b7 86bd c9f4 713d 0bdd 493d c866 9bba
000000b0: 0064 d539 0088 efba c783 98bd 1cda 313d
000000c0: 8ad2 5e3d 1e27 183d 0d08 963d 1c01 8c3c
000000d0: 92d2 9a3d 1426 6b3d 0959 7b3d 0b8a 9bbd
000000e0: 12cd e53b 8075 033b 14c6 b33d 98bd cfbc
000000f0: 9b8c 24bc ba41 873d 1ed5 f8bb dc60 ab3c
00000100: 6af3 e3bc 74b7 483d 1bfa 273c 49b9 9b3d
00000110: cd44 783d 8181 32bc 5222 8f3d 9ec4 803d
00000120: c004 393d bb19 83bd 1173 683d d124 e2bc
00000130: 587c 403b 4e3b 0bbd a991 d3bc e1c7 cfbc
00000140: 2655 f2bc 904e a0bc f83b 34bb fe1b 58bd
00000150: 3a4d b2bd 7972 963d 0a6e b9bd a4de a3bd
00000160: d905 a3bb a073 903b d405 5cbd c6a3 8dbd
00000170: bffe 423d f0bf 15bd 460c f5bc 8baa a8bc
00000180: 6a65 90bc e8ff 23bd 26fe 633c f6e5 0f3d
00000190: 9ee7 77bd ba8c 44bd 18aa 8fbd 781c 93bc
000001a0: 905d c7bc 7b9c c33d 5eef c53d 5b22 a13d
000001b0: 32a8 3fbd 6a1b 513c c41a 2fbd 1889 e7bc
000001c0: 1a36 e23c 475b 973d 67ca bb3c 4412 86bc
000001d0: e4c2 20bc 676d 3e3d 10b3 61bc 20f2 83bc
000001e0: 6a97 97bd 9089 983c 43f9 cabc b7e2 a13d
000001f0: 1970 c9bb 18d7 54bd 3519 a53d ff5e 0c3c
00000200: e467 073d 6c3e 593d d49a 5a3d 52a1 473d
00000210: bea7 8cbd 3dbd 8bbd 7329 95bd 45e6 943d
00000220: 974e 7abd 04a3 42bb 2aca 563c be35 93bd
00000230: f062 eb3c 812b b23c eda5 9a3d 74a5 4ebc
00000240: 5875 23bd e8d5 fcbc a0f6 ebb9 3d95 9f3d
00000250: 1f21 193d e8ca c1bd c493 e5bc 2e7a a6bd
00000260: a420 11bd a68e 46bd 7fd5 6bbd ca50 e53b
00000270: 2380 7f3d 182e b93a 9627 2ebb acb4 3fbc
00000280: 98c5 753d 5bf3 35bc 86cd 9ebd c015 1ebd
00000290: 88cc 9abc 92e1 d7bb e206 773d 6957 5f3d
000002a0: 6f36 e4bc b0e2 703d 4bcf 2a3d e54a 0ebc
000002b0: 88de 78bc 183d 8f3c 5d28 29bd 64eb ec3b
000002c0: c371 7dbc cba9 0abd 4482 623d 17fe 8a3d
000002d0: efd0 a03d f39d 03bd ab7a 4e3d f22c c83c
000002e0: e05a 2dbd d28a 26bc a82b 9c3c 7e3b 45bd
000002f0: 9be5 babd cf8c a9bc 12e9 8cbd 780a 3c3b
00000300: 04f2 a4bd 26d4 7fbd a6a0 323d 8d96 5d3c
00000310: abea 6e3d 9427 c73d b24d 68bd 5a89 c23d
00000320: 8a4d a23c e47c 733d 9247 c13c 9bf7 bb3d
00000330: 60c7 123c fb81 9b3d 89e8 8cbc 22f8 9b3d
00000340: c9ac 583c fda7 87bc e284 1abd 82bf 033d
00000350: 00eb 2d38 b70c be3c a94e c53d 1438 f13c
00000360: deca ab3d a8de 963d d663 e13c 0ee9 0abd
00000370: 80cb 0ebd 88d0 98bd d848 03bb 00c6 92bd
00000380: e6d0 f03c cd9a 4d3d f0e1 103a 4819 96bd
00000390: 2297 c6bc f054 dabc 7d4f 9bbd d6ba 56bd
000003a0: 2177 3bbd 5ce4 873c 34f5 41bd a4aa 8b3d
000003b0: 669c 653c 2aad 01bd f927 2dbd ecc0 923c
000003c0: c43e d73b 202a a1bd 3670 1e3d 714a 543d
000003d0: e9fb 833d 40d1 6cb9 c0ba c8bb d607 31bd
000003e0: 136a 50bd 30f5 40bb 11a9 5e3d 1c7d 123d
000003f0: eef7 273c 53a1 93bd 60c1 39bd 4ceb 84bc
0.044818293 -0.020898424 0.0108148465 0.076912284 0.004440396 -0.08760569 0.01802619 0.072188936
-0.06301646 0.07673407 0.009808066 -0.0051424657 -0.0165364 0.0070287306 0.004905268 -0.02943606
0.012687056 0.02576448 0.015631221 0.017491113 -0.038924925 0.038742147 -0.07240149 0.077390864
0.023936514 0.0040058894 0.07582993 0.05141421 -0.016227052 0.0027659754 0.08499212 0.07518534
0.012853055 0.020657197 0.07321289 0.06928034 0.0728948 -0.043677352 0.06557205 -0.04922417
-0.06578047 0.059071336 0.04928307 -0.0011856193 0.00040701032 -0.0018274784 -0.074470095 0.043420896
0.054400004 0.03714668 0.07325754 0.017090373 0.07559694 0.05740936 0.061364207 -0.07594689
0.0070129717 0.002005905 0.08778015 -0.02535896 -0.010043289 0.06604333 -0.007593765 0.02092021
-0.02782603 0.04900308 0.010252501 0.076037 0.06061249 -0.010895134 0.06988968 0.06287502
0.045170546 -0.06401392 0.05675036 -0.027605446 0.002937099 -0.033992104 -0.025826292 -0.025363864
-0.029581618 -0.019568712 -0.0027501564 -0.05276107 -0.08706136 0.07346053 -0.090541914 -0.0800145
-0.0049750623 0.004408315 -0.053716496 -0.06916003 0.047606226 -0.03656 -0.029913079 -0.020589134
-0.017626483 -0.040038973 0.013915574 0.035131417 -0.06052362 -0.04798577 -0.07014865 -0.01795791
-0.024336606 0.09551331 0.09664796 0.07867881 -0.046791263 0.012762884 -0.042750135 -0.028263614
0.027613688 0.07390457 0.022923661 -0.016366132 -0.009812091 0.046491053 -0.013775602 -0.016106665
-0.07401927 0.018620282 -0.02477706 0.079045705 -0.0061473963 -0.051962942 0.080614485 0.008567571
0.033058062 0.053038046 0.05337031 0.04873783 -0.06867932 -0.06823204 -0.072832964 0.07270483
-0.061110105 -0.0029699216 0.013109723 -0.07187985 0.0287337 0.02174926 0.07551179 -0.012612689
-0.03990683 -0.030863717 -0.00045006443 0.07792137 0.037385102 -0.094625294 -0.028024562 -0.08128773
-0.03543152 -0.048475884 -0.057576653 0.006998156 0.06237806 0.0014128117 -0.0026573888 -0.01170079
0.060002893 -0.011105384 -0.07754044 -0.03859496 -0.018896356 -0.0065881694 0.0603093 0.05452672
-0.027857987 0.058809936 0.041701596 -0.008684848 -0.015189774 0.017485186 -0.04129826 0.007230209
-0.015469017 -0.033853333 0.055300012 0.06786745 0.07852351 -0.032133054 0.050409954 0.024435494
-0.042322993 -0.010164933 0.019063786 -0.04815244 -0.09125825 -0.020697026 -0.06880392 0.0028692763
-0.08053973 -0.06245818 0.043610238 0.013524664 0.058329266 0.09724346 -0.05671472 0.09498854
0.019812364 0.059445277 0.023593698 0.09178086 0.0089586675 0.07593151 -0.017200725 0.07615687
0.013224789 -0.016559595 -0.037724383 0.032165058 4.1465275e-05 0.023199422 0.09634144 0.029445685
0.08388303 0.07366687 0.027513426 -0.033913665 -0.03486204 -0.07461649 -0.0020032432 -0.07166672
0.029396486 0.050196458 0.00055268314 -0.07329041 -0.024241988 -0.02665183 -0.075835206 -0.052424274
-0.045767907 0.016588382 -0.047352985 0.068196565 0.014014339 -0.031659283 -0.04227445 0.017914258
0.0065687615 -0.07869363 0.03868123 0.051828805 0.064445324 -0.00022584666 -0.006125778 -0.043220364
-0.05088241 -0.0029443018 0.054360453 0.035763845 0.010251982 -0.072085045 -0.045350432 -0.01622548

fc.bias f4 [16]
00000000: 82ad eebc 09fe 73bd f3bf 283d 6ceb 8bbd
00000010: 10df 0cbd 8386 c03b 6695 4abd c8fe 903c
00000020: fa1a 1bbd 7e6c aa3b 3701 10bd 62bb 3abd
00000030: c884 8f3d 8df8 e7bc 9006 85bd ac78 66bc
-0.02913547 -0.05956844 0.041198682 -0.068320125 -0.034392416 0.00587541 -0.049458884 0.017699614
-0.037867524 0.0052009216 -0.03515741 -0.04558886 0.07007748 -0.02831676 -0.06495392 -0.014066856
