checkpoints/NoGestureNetwork_2023-08-11_13-26-10.pth (torch, 57059 bytes, 10 tensors)

touchscreen_data_network.rnn.weight_ih_l0 f4 [64, 4]
00000000: e864 51bb 85f4 5a3d 2b9c 81bd b72f 6bbc
00000010: 3a3c 313d ac04 fabb 5a3d 0a3d 00c8 f73b
00000020: 2323 d33c e4c0 b33d 24e7 a5bc d788 01be
00000030: 4dc2 0abc fcc2 4d3d 4837 d23c 18ee a2bc
00000040: 9351 97bd ee07 ea3d e108 8b3d 7360 d0bc
00000050: a05d 7e3b d1d8 5cbc 1df6 be3d d8e2 ae3d
00000060: 41f2 943d 138d 88bd fbba 043c b6c4 22bd
00000070: e371 823d 6ef4 7dbd af1a bb3d 055c d3bd
00000080: 7847 593c 6eef 093e 3c3e 97bc c393 503d
00000090: 6391 db3d 434b e2bd cb53 21bd 3b28 ba3d
000000a0: 20b2 e2bd 36e1 4e3d e3b0 01bd 73df afbd
000000b0: 2ad1 bf3d 7a3e d23c 8552 ea3d 62de 393d
000000c0: 9881 78bb 6ef5 7a3d 1e32 40bd fe2a ca3d
000000d0: 3425 e63c 1739 d0bd bd2d e23d 688c 06be
000000e0: 1622 26bd 9498 c9bc 2bee 9ebd 7070 263a
000000f0: d77f e93d 601b 4f3a d333 cbbd 33a0 e5bd
00000100: 6a29 d63d 3bbb 8fbc c3df a13d 19e7 0fbd
00000110: fefd 4c3d 7df5 e8bd 4241 b9bd 7885 9fbd
00000120: a0ad 023e 14ef cbbc 34a3 843d 9479 5c3d
00000130: d719 87bd ea2f 243c ab20 a03d 95b0 7e3c
00000140: 84d2 b93d 59a6 563d cca8 943d a330 b43d
00000150: eae5 223d d419 7abd 09ec 1cbd d8c1 a33d
00000160: 5461 42bd 4a5f b5bd 2ee2 bebc 44c3 a63c
00000170: 4b25 27bd 3251 333d bd93 a4bd 6a44 823d
00000180: 47fb 4e3c 44f5 b43c 29f9 80bd 60e0 e3ba
00000190: 5d96 f2bd 2709 a23d 8293 6fbd 7904 b5bd
000001a0: 74ec 8dbc d5fc eabd e72e b5bc 1f2e 263d
000001b0: fc33 93bd df5a e8bd a08e 49bc ecdb 90bd
000001c0: c77f 3bbc 2d84 cbbd 0a58 573d d4dd 103d
000001d0: 8f60 02be 23ae a43d 390f 4ebc c5c2 5ebd
000001e0: d113 1abc 7241 e5bd 2023 c2b9 f629 edbb
000001f0: c116 c9bd 02d8 2a3d 6e1d 6dbd eb59 9dbd
00000200: d4aa 153b bc4b 6f3d 877d d93d 80e5 973d
00000210: 84dd 0ebd 63b5 e9bd 1cd0 f8bc 109a b93d
00000220: db46 af3d 9527 e93d 47e4 9cbd 42c7 f73d
00000230: 88f1 30bc 842b 9c3d 667e 97bc 3fa6 5ebd
00000240: 233d e6bd 0a03 cf3d 1cb6 c53d 401d de3b
00000250: b6ee 37bd 4a8a 40bd b808 693c 1a67 ddbd
00000260: 6044 bebd 7012 ac3d 6364 ab3d c933 eabd
00000270: db3b ba3d 626e cb3d b2bd 57bd a2ad 553d
00000280: 7a24 a4bd b873 25bd a484 64bd 4c52 613c
00000290: 93c3 e5bd 864e c23d a789 703d 5279 b43d
000002a0: 6de2 093e a31e eb3d b695 b3bd 3063 073e
000002b0: 3f46 ccbd 968e 09bd 069d 32bd 1808 7abd
000002c0: 63bf cf3d 6dc8 c3bd 3c7a 013e c163 a43d
000002d0: 1e0d 08bd 76d7 4abd de5b 2c3d ecaa ecbd
000002e0: 783f ecbc 940c 493b cd60 b7bd 308c e23b
000002f0: fd11 813d 11b0 823d 76ad ca3d b4a9 f4bc
00000300: c27e ce3c 0a0c d4bd 0821 e7bc 2f9d 75bd
00000310: 5bc4 8dbd 30b1 2dbd 98be 72bd c98e 02bc
00000320: 1f91 e33d 7d46 adbd b1ad abbd e77b 82bd
00000330: a834 c0bd 420c d8bd aabc 50bd c8fc a43d
00000340: 9650 1e3c f450 e03c 1411 d2bd 12c9 923d
00000350: 6d58 ddbd 0c86 97bc 1dff a33d a853 79bd
00000360: e4f2 a5bd 37c8 08be e2c2 e53d 128f b93c
00000370: af21 a4bd 30b9 70bd 9c81 d33c 9785 19bd
00000380: 5c0a fb3c 9ed2 0f3d 2415 cbbc 14e2 5a3c
00000390: 5caf 10bb 4942 713c 06dc 113d 6126 083e
000003a0: 7a63 bb3d ef1a a03d fffa 713d d2c4 2cbd
000003b0: f8ec 763c 0bfe 573c 1e4e b53d 4301 a53d
000003c0: a975 ebbd 4431 523d 545d aa3c 06dc d8bd
000003d0: 28f9 fe3b 558c b6bc b1d0 bebd 2b2e 9fbd
000003e0: ec25 893d 575e 04bc 3c57 c93d 486f 91bd
000003f0: 21cf a7bd 52f7 153d b299 e93b 7e1b d7bd
-0.0031951014 0.05345585 -0.06328615 -0.014354638 0.043270327 -0.0076299515 0.033749916 0.0075616837
0.02577359 0.08777025 -0.020251818 -0.12649857 -0.0084691765 0.05023478 0.025661126 -0.019888923
-0.07388606 0.11427294 0.06788803 -0.025436616 0.003881313 -0.013479427 0.09324286 0.08539361
0.07272769 -0.06667533 0.00810122 -0.03973838 0.063693784 -0.062000684 0.09135949 -0.10320286
0.013261668 0.13470241 -0.018462293 0.050922167 0.1072109 -0.11049511 -0.03938655 0.090897046
-0.11069131 0.050507747 -0.031662833 -0.085875414 0.09366067 0.025664557 0.114415206 0.045378096
-0.003791904 0.061269216 -0.046922795 0.09871481 0.028093912 -0.10167139 0.1104388 -0.13139498
-0.04055985 -0.024608888 -0.07760271 0.0006349152 0.11401337 0.00079005025 -0.09921994 -0.11212196
0.10457118 -0.017545333 0.07904007 -0.0351325 0.050046913 -0.11374948 -0.0904565 -0.07789129
0.12761545 -0.024894275 0.06476441 0.053826883 -0.065967254 0.010021189 0.07818731 0.01554503
0.09073356 0.052404735 0.07258758 0.08798339 0.039770044 -0.061059788 -0.03831104 0.07995957
-0.0474561 -0.088560656 -0.02330121 0.020356782 -0.04080705 0.043778606 -0.08035991 0.06360705
0.012633151 0.022089608 -0.062975235 -0.0017385595 -0.11845086 0.07911902 -0.058490284 -0.08838744
-0.017324664 -0.11474005 -0.022117091 0.04057133 -0.071876496 -0.11345457 -0.012302071 -0.07073197
-0.011444039 -0.0993732 0.052574195 0.0353678 -0.12732147 0.080410264 -0.012576872 -0.054384965
-0.009404139 -0.11194123 -0.00037028734 -0.007237668 -0.09818793 0.041709907 -0.057889394 -0.07683166
0.0022837417 0.058421835 0.106196456 0.074168205 -0.034879223 -0.1141155 -0.030372672 0.09062588
0.085584365 0.11384503 -0.07660728 0.12098552 -0.010799773 0.076254874 -0.018492889 -0.054357763
-0.1124213 0.101080015 0.09653875 0.006778389 -0.044905387 -0.047006883 0.01422327 -0.10810681
-0.09290385 0.08401954 0.083687566 -0.114356585 0.09093448 0.09933163 -0.052671142 0.052167542
-0.0801477 -0.04039356 -0.05579056 0.013752531 -0.112189434 0.094876334 0.058725026 0.088122025
0.13465281 0.11480453 -0.087687895 0.13221431 -0.09974336 -0.033583246 -0.04360678 -0.061042875
0.10143926 -0.095597126 0.12644285 0.08026839 -0.033215635 -0.049521886 0.0420798 -0.11556038
-0.028838858 0.0030677663 -0.0895401 0.0069136843 0.06302259 0.06381238 0.09896366 -0.029866077
0.025206927 -0.10353859 -0.028213993 -0.059964355 -0.069222175 -0.042405307 -0.059263796 -0.007968613
0.11111664 -0.0846071 -0.083827384 -0.06371289 -0.093850434 -0.10549213 -0.050961174 0.08056027
0.009662768 0.027382351 -0.10257164 0.07167257 -0.108078815 -0.018496536 0.08007643 -0.060870796
-0.08102968 -0.13357626 0.112188116 0.022651229 -0.08014237 -0.05877036 0.025818639 -0.037480917
0.030644588 0.03511297 -0.024790354 0.013359565 -0.0022077179 0.014725276 0.03561022 0.1329589
0.09149833 0.07817637 0.05907726 -0.04217989 0.015071146 0.013183127 0.0885279 0.08056881
-0.11497051 0.051316515 0.020796455 -0.10588841 0.0077811666 -0.022283712 -0.093171485 -0.07772478
0.06696686 -0.008079133 0.09831092 -0.07101303 -0.081938036 0.036612816 0.0071289176 -0.105032906

touchscreen_data_network.rnn.weight_hh_l0 f4 [64, 64]
00000000: 14ee 7fbd f4e3 f1bd d8f1 05bd 9f07 c53c
00000010: 4e1a 633c 42f9 c8bd 1ebe cabd 149b 1d3d
00000020: 404c d13c 5abd cabd daf8 db3d 3cf4 31bd
00000030: 6c9c 253c 529e 56bc e43f 5dbd 3b77 253d
00000040: 0ebe 87bd 4fb4 76bc 7863 2b3b cbf0 50bd
00000050: 20e7 41bd 58bd d1bd 5a52 8d3d c861 aabd
00000060: a1fb 25bd a6a5 61bd ba7a 87bd a267 993b
00000070: 58ff ac3d e01b 04bc bae6 aebd fcbc 253b
00000080: ae40 943d e1cb 4a3c 1822 fdbc a72a 06be
00000090: 4e69 b3bd 3054 a3bd ba2c eabd e0ec d7bb
000000a0: 8ca7 e1bd e855 efbd 8adf 8bbd c92e ce3c
000000b0: 2e0f 87bd 1cb3 7d3d f019 e53d 9c0d edbd
000000c0: 3481 5cbd 8821 c23c d636 95bd 6e19 eb3d
000000d0: 726c 94bd ef29 083d d8ed e33d 4007 87bd
000000e0: 6c3f 65bd 98ca 963c fe11 a83d 60d7 e1bd
000000f0: 50d8 103d e17a 013e 9a18 c33d cee8 4abc
00000100: ae70 c1bd 05ce d0bd dc4d 61bd f836 af3d
00000110: 6fe4 79bc deaa 88bd c83c c53d d0fb 83bd
00000120: 0048 003d 6037 f8bd 072a a43d 08b7 b2bc
00000130: c915 12bc 4246 c53c e0b7 9e3d 3080 ad3d
00000140: e04c c3bb b2cb b03d 4e51 2abc 7cec 4ebd
00000150: f2b5 8e3d 0258 09be 0679 e83d e945 20bd
00000160: a6a3 cabd 91c9 073e e8b8 44bd 8a53 c83d
00000170: 1eed b53b 2622 c13d defc f1bd b9fe cbbd
00000180: f036 023c ac48 39bd f295 8fbd d2bd 8bbd
00000190: 70be 18bd 3ee6 91bd cab8 9f3d b647 c63d
000001a0: 0c32 623d f88b 87bd 5850 28bd be94 85bd
000001b0: d926 4dbc 2b17 d43c 0008 eb39 42eb e2bd
000001c0: d814 af3d 9c71 bb3d b018 8b3c c005 e5bb
000001d0: d015 68bd 58ee afbd 4021 e63d e0d1 01bd
000001e0: 52ab b03c 6cd0 cebd 8e76 e63d 3095 32bc
000001f0: 84ac 143b b25f 913d 36b3 bdbd ead7 d63d
00000200: 0e1c c6bd 8d0f 61bc 9a8f 923b 09dc b63d
00000210: f7be 78bd 06cd d23c 6e00 fdbc 2016 7dbc
00000220: 04ec 813b ad3c 81bd 76c0 4dbd 0489 d33d
00000230: 232e 693d 917a bb3d ecbb dfbd 50cc 0e3c
00000240: feb1 303d 3ba1 993d 1da1 cc3d cde1 a8bd
00000250: e615 573d e1c1 7b3c a0ff e53c 2b3f 85bd
00000260: 5391 4b3d fb53 d5bd de39 13bd ac4b 213d
00000270: 25bf 0abd 4226 9abd 728e 6f3c af0f 413d
00000280: 83f4 44bd 987b e4bd 30ba 6d3d e67b 33bd
00000290: 08fd 95bc 6818 95ba aa94 153d 429f ddbd
000002a0: 257b eb3d b877 b7bc 1821 e7bb a7c3 fe3d
000002b0: 1d93 6d3c 23c4 3a3d 08b0 0d3d 1827 ecbc
000002c0: 75ac b2bd 2664 e9bd d7b1 babd bab6 32bd
000002d0: 06a7 b8bd fffa 52bd 90de b13d 3533 833d
000002e0: 61cd 00bc f068 d6bc 4e65 b33c fc16 dd3d
000002f0: 40a5 c0bd 4841 ebbd 965c 263d 7a10 3d3c
00000300: 9051 62bd c1ba ba3d 7b13 b93d 32d6 f63c
00000310: 1caa a43d 9d8f 9f3d f1b3 e53d 9811 873c
00000320: c520 e43d 3d7f 67bd bc23 533d b0f9 9a3d
00000330: ca60 a5bd 4bf2 96bd b28f b63d 443b 0ebb
00000340: bee4 3f3d 5e2b dbbd 94c2 9e3d 9d4d acbd
00000350: fe60 d83d e09a 95bd 8e39 fc3c 5f2d 98bd
00000360: b58a d93d b487 bbbc c4bd 1fbd ecbe 9bbb
00000370: c715 e33d 3897 3a3d 4c89 bfbd f574 9ebd
00000380: 7acd 23bc f3b1 a73d 86e1 e33d 31c1 21bd
00000390: afe8 07bd 248a 4ebd 74d6 aa3d 0866 a83a
000003a0: 19f6 f4bc 13a3 9dbc 81c6 a63d e494 c9bc
000003b0: 7eb1 c73d 4030 cdb9 5dc5 22bd 368d b8bd
000003c0: d170 a1bd 9d61 c8bd 4f65 4a3d e4c3 8c3d
000003d0: 245e ac3c f48b 72bd b49e 623d 3cf3 9e3d
000003e0: 00c2 893d 7233 5ebd 8297 ad3d 4c40 9d3d
000003f0: 195c 8f3d da32 363c c03e babc 276a 3b3d
-0.06248291 -0.11811057 -0.032701343 0.024051486 0.013861252 -0.09813167 -0.09899543 0.038477972
0.025549054 -0.09899397 0.10740824 -0.04344581 0.010108095 -0.01309927 -0.05401601 0.04039691
-0.06628047 -0.015057637 0.0026151817 -0.051010888 -0.04733956 -0.102411926 0.06900473 -0.083194315
-0.040523175 -0.055089615 -0.06615205 0.0046815434 0.084471405 -0.008063287 -0.08540101 0.0025289645
0.07238899 0.01237771 -0.030900046 -0.13102208 -0.0876032 -0.07975042 -0.11434312 -0.006589517
-0.11018285 -0.11686307 -0.06829746 0.025168793 -0.06594692 0.06193839 0.11186588 -0.115748614
-0.053834155 0.02369763 -0.0728585 0.1147946 -0.07247247 0.033243116 0.111293495 -0.0659318
-0.055968687 0.018407151 0.08206557 -0.11027408 0.03536254 0.12644531 0.09526177 -0.0123846065
-0.0944532 -0.10195545 -0.055005893 0.08555406 -0.015252217 -0.06673215 0.09630734 -0.06444514
0.031318665 -0.12119937 0.080158286 -0.021815792 -0.008916327 0.024081353 0.07749915 0.084717155
-0.005960092 0.08632602 -0.010395361 -0.050518498 0.06968297 -0.13412479 0.113512084 -0.03912917
-0.09894495 0.13260485 -0.048027903 0.09781559 0.005551948 0.094303414 -0.11815809 -0.09960694
0.007947668 -0.04523532 -0.07011022 -0.06823315 -0.03729099 -0.07123993 0.077989176 0.096816465
0.05522351 -0.06618494 -0.041092247 -0.06522511 -0.012521469 0.025889954 0.00044828653 -0.11080028
0.085488975 0.09152529 0.016979545 -0.006989211 -0.056661427 -0.08590382 0.11236811 -0.031694293
0.021566067 -0.10098347 0.11253081 -0.010899827 0.0022685835 0.070983306 -0.092626974 0.10490401
-0.0967332 -0.013736618 0.004472685 0.08928687 -0.060728993 0.025732528 -0.030883994 -0.01544717
0.003964903 -0.06310401 -0.050232373 0.10328868 0.056928765 0.09154237 -0.10924515 0.008715704
0.043138497 0.075014554 0.099916674 -0.08246193 0.05251112 0.015366049 0.028075993 -0.06506189
0.04969914 -0.10416409 -0.03594386 0.039378807 -0.033873696 -0.07526828 0.014621364 0.047134098
-0.048084747 -0.11156386 0.05803889 -0.04381933 -0.018309131 -0.0011375071 0.03651873 -0.10821392
0.11498097 -0.022395954 -0.0070535056 0.124396615 0.014500407 0.045597207 0.034591705 -0.028827235
-0.087243 -0.11396055 -0.091159515 -0.043631293 -0.09016232 -0.0515089 0.086850286 0.06406251
-0.007861466 -0.026173085 0.021898892 0.107953995 -0.09406519 -0.11487061 0.04061564 0.011539573
-0.055253565 0.09117652 0.09036919 0.030131433 0.08040258 0.07791064 0.11215962 0.016487882
0.11139063 -0.05651783 0.05154775 0.07567155 -0.08075102 -0.073704325 0.089141265 -0.0021702806
0.046849005 -0.10701631 0.077519566 -0.08413241 0.10565375 -0.07304931 0.030789163 -0.07430529
0.106221594 -0.022891857 -0.038999334 -0.0047529843 0.11088138 0.04555437 -0.09352359 -0.077371515
-0.00999772 0.08188238 0.111269996 -0.039490882 -0.03318089 -0.05042471 0.08341685 0.001284779
-0.029902505 -0.019242799 0.0814333 -0.02460713 0.09750651 -0.00039136596 -0.039739 -0.09011309
-0.07882846 -0.09784243 0.04941302 0.06873301 0.021040983 -0.0592155 0.055327132 0.07761237
0.06726456 -0.05424828 0.084761634 0.07678279 0.06999988 0.011120522 -0.022735 0.04575553

touchscreen_data_network.rnn.bias_ih_l0 f4 [64]
00000000: dcf8 adbd 8854 4c3d 8c49 273c 4421 9bbd
00000010: 5e68 e93b 830e 083c 7132 9dbc 3af9 55bc
00000020: aae7 463d 8bf8 e83d 6277 a6bd a2d4 663d
00000030: 1fc5 b4bd d7b4 093d 55b6 c93d 2d2d 89bd
00000040: ea04 a9bd f0f3 283c 142d 9e3d 0c94 273d
00000050: 26e1 adbc 42fd 3bbd a157 db3c daa0 e53d
00000060: 180b 1e3d 9b2f bd3d dae3 49bd 9bc4 293d
00000070: 7680 7b3d 044b 483d b66b 633d 56a5 b9bb
00000080: 6907 9e3d 01b8 b5bd 9585 3abc 4cb2 a03b
00000090: e029 8a3c 516a 0bbd 3c4f 41bd 6880 f13c
000000a0: a5b1 6abd 0313 d33d be58 a3bd 632f e5bd
000000b0: 14be 073e 705a ebba 8824 a2bd f35c e3bd
000000c0: d7c5 1abc b4bd 70bd 099c ce3c 8f9e c8bd
000000d0: a61c 4ebd 82e4 893c b252 6fbd 5804 83bd
000000e0: eeff c8bc 45c7 6ebd 12ea 83bc d8a7 3bbd
000000f0: f01e e03d 52c4 a0bd 1494 46bb 97fb 063c
-0.08494732 0.049885303 0.010210406 -0.07574704 0.0071230372 0.008304241 -0.019189091 -0.0130599085
0.048560776 0.11375531 -0.08128239 0.056355126 -0.0882666 0.033619728 0.0984923 -0.0669807
-0.082528904 0.0103120655 0.07723442 0.040912673 -0.021225523 -0.045895822 0.026775183 0.112123206
0.0385848 0.09237596 -0.04928956 0.041447263 0.061401807 0.048899665 0.055522643 -0.0056654615
0.07716257 -0.088729866 -0.0113843875 0.004904067 0.01686567 -0.034036938 -0.047194704 0.029480174
-0.05729832 0.103063606 -0.079759106 -0.11190679 0.13256103 -0.001795603 -0.07917124 -0.11101713
-0.009446583 -0.058774665 0.025220888 -0.09795868 -0.05032029 0.016832594 -0.058428474 -0.06397313
-0.0245361 -0.058295507 -0.016102824 -0.045814365 0.10943401 -0.07849945 -0.0030300664 0.008238695

touchscreen_data_network.rnn.bias_hh_l0 f4 [64]
00000000: a060 813d a057 983b ccca e43d fa76 ccbd
00000010: 5413 ba3c 0435 ddbd da01 9b3d 443c 543c
00000020: 374f 953d 8302 d4bd 92ec 083e 97ec afbc
00000030: 3a30 1f3d 57fa b03d 344e 69bb 825d 75bd
00000040: d256 46bd 98ae b83c c221 b3bd a483 aabb
00000050: 35e1 95bd 78aa a3bb 7864 cfbd c0eb f23d
00000060: e609 86bd 0614 5f3d 05e7 d2bd e960 9a3d
00000070: 9649 46bd 5859 8fbd 48e2 b93d 41a8 adbd
00000080: 64c4 ba3d 5ea3 fdbc 4e76 1a3d 641c e83b
00000090: 2795 94bd 122d f0bd 5a65 a4bd 351c 063e
000000a0: 9471 c93d 5898 913d 6f82 e63d fa82 b3bd
000000b0: b88b 19bd 921b c33d 65d7 833d 10cd 853b
000000c0: 8bc6 a03c ae60 033c f21f 563d d671 4bbd
000000d0: f662 c73d 8302 a3bd 8b60 de3d 3dcd 963d
000000e0: 47c8 753d ccea e3bd 5f0f d13d 02a7 b1bb
000000f0: 160b 52bd 3469 81bc 5460 243d c5af bebd
0.06317258 0.0046491176 0.11171493 -0.099836305 0.022714294 -0.108011276 0.075687125 0.012953822
0.072905 -0.103520416 0.13371494 -0.02147512 0.03886435 0.086414985 -0.0035599591 -0.05990363
-0.048422642 0.02254419 -0.08746673 -0.005203681 -0.073183455 -0.0049946867 -0.10126585 0.11861372
-0.06544857 0.054462455 -0.1029797 0.075380154 -0.04841002 -0.06999463 0.09076363 -0.084793575
0.0911949 -0.030961689 0.03771048 0.0070834626 -0.07255011 -0.117273465 -0.08027144 0.13096698
0.098361164 0.071091354 0.11255347 -0.08765216 -0.03748676 0.09526743 0.064375676 0.0040832832
0.019625923 0.008018656 0.05227656 -0.04966911 0.09735672 -0.079594634 0.10858258 0.07363365
0.060005452 -0.11128768 0.1020801 -0.00542152 -0.051280104 -0.015797235 0.04013093 -0.09310869

sensor_data_network.rnn.weight_ih_l0 f4 [64, 6]
00000000: 0efa b9bc 1894 a0bd 9668 173d 7c63 963c
00000010: 78ee b2ba 9aed 85bd 2f26 753d 485e 8fbd
00000020: 3d72 cabd 571b bfbd be61 d13c 6416 a53d
00000030: 7411 06be 00ff bebd 65af ab3d 9ef0 883c
00000040: c60c 4a3c ba23 ffbc c06d c2bd d20d a9bd
00000050: 90c4 c53d e793 983d d8c0 dc3c 173b ac3d
00000060: 1cd6 283d f414 c3bd a624 023e 7fb3 f83d
00000070: 4386 b93d a743 033d 3417 c6bb 42a3 b8bd
00000080: a3ec ca3d 2723 bb3d d761 24bd 8039 bfbd
00000090: 933d 333d 1489 73bd 3eb5 b63d 2af8 e43d
000000a0: a0a3 c53d dc14 ae3d 464d ff3d 8003 d93c
000000b0: 7a23 233d 37fa 33bd 9377 7e3d bb2e 16bc
000000c0: 24fa d4bc a69a e53b 8a9e 503d 664d 463d
000000d0: 3e3c 393d c20e b53b a026 43bd 0654 ecbc
000000e0: 226e 9ebb b683 473d f9aa a0bd 23a5 19bc
000000f0: 3cc6 d43b dcb8 4dbb f4fa 88bd b768 773d
00000100: 706f 1aba d4ed fd3c 0dc7 ac3d 66fb 92bd
00000110: 8574 753d 9a99 e5bd f8d5 ffbc 34f3 f43b
00000120: 0ec4 013d b57c 173d 1bba 753d 1695 d33d
00000130: 9312 fabc 59de c93d fe28 1cbd 0523 16bd
00000140: eacb dc3d f454 063e 3098 b83c 7c61 d6bc
00000150: 8e10 d8bd 2f98 de3d 4705 4c3d a181 c83d
00000160: a12a f33d 3fe3 90bd ac1d f6bd 623c cc3d
00000170: de94 47bd 1247 1abd 4d0c 0c3d 7788 acbd
00000180: 30f0 48bc 164d 15bd a28b debd 6f9f cf3d
00000190: 3b58 e5bc 10c5 0ebc 70c4 113d a5a8 0d3d
000001a0: b636 b9bd 6cfd cfbd ebf4 c63d ee62 da3d
000001b0: 6865 51bd 871d 8a3d cee7 ad3d f621 bebc
000001c0: c579 95bd e683 d53d 8b83 1cbc 3ef1 2fbd
000001d0: 362d b53d 5770 d5bd ba2c bfbd 4084 9d39
000001e0: a5ce 60bc 2c94 973c 587a 87ba bcb5 ec3d
000001f0: 5592 113d 6288 81bb ce03 673d 5028 e03d
00000200: 8bf9 c0bd 831e 72bd 5696 e8bd 4d90 8b3d
00000210: bcd2 6b3b 8ed3 d43d 129d e2bd 1204 92bd
00000220: 880d fc3d 79da ff3d b81f 933d 2a97 733c
00000230: fcb9 b3bd 00a3 413d d9ec 9c3d b44a 013d
00000240: b30f 5d3c 8005 96bd 69a9 533d 4616 3abd
00000250: 9a29 40bd aaba 93bd 1472 9cbd cb4f 91bd
00000260: 626e 66bd 7aef 30bd d13e b13d eeea af3d
00000270: b448 df3d 5017 9abd 91e5 933d b4a2 de3d
00000280: 8fa7 abbd 58ff 373d 2ce2 e73b d8c5 80bd
00000290: c0f0 523d f87b 953d b36e 3d3d b725 083c
000002a0: 9cc4 d9bc 4d64 f43d 290e 77bd deaa 27bd
000002b0: 9ba6 e4bc 3941 47bc 998f adbd 832c 653c
000002c0: 33a3 fc3d afed 0abd 6e58 9c3b 5a8b bc3d
000002d0: 8cd0 a1bc 12de cf3c 70c9 cdbd 34c4 01be
000002e0: 85a4 adbc dbc7 f83d fb13 153d 2070 a2bc
000002f0: 5091 6ebd 8115 5f3c b088 ec3c e7c6 ed3c
00000300: fabd d43c ea34 00be d0ad 87bb a04b c13c
00000310: a6f5 ebbc ac84 8b3c 8076 713d 3c4e 6cbd
00000320: c388 913d bac2 ac3d 7277 063e 68ca 73bd
00000330: a12a 833d fa48 4a3d 3385 cb3d 4b0f 0abe
00000340: f9e4 2c3d e6fa 873c d0e8 ea3c ba53 e93d
00000350: 6a62 b83c 1099 243d f35a e53d 2880 bc3d
00000360: bc85 a3bc a45f 3ebd 1295 f1bc f62d 603d
00000370: 125d d03b 27cc b8bd e2f6 9b3c 94ca 57bc
00000380: 8cb8 e03c e5f5 a7bd a078 8c3d a367 74bc
00000390: dc3a 283d c0c6 a8bc 7aef a8bc 3038 743b
000003a0: 9b12 403d 3186 b8bd acc7 8b3d 2840 063e
000003b0: 5f9f a9bd fcf5 04bd af15 a7bd 0daa 093e
000003c0: 8804 9dbc 30db 063a c341 ebbd 43a7 ec3d
000003d0: a034 91bd fb64 183d e534 e2bd 138a bbbd
000003e0: 0733 d83c 1ada 9f3d 2031 ae39 a86f b5bb
000003f0: 0287 12bd a0dc ad3d e6ab 983d ba1e babb
-0.022702243 -0.07840747 0.036964975 0.018357985 -0.0013651391 -0.065394595 0.059850868 -0.070004046
-0.098850705 -0.093313865 0.025559302 0.08060911 -0.13092595 -0.09325981 0.08383063 0.016716298
0.012332147 -0.031144965 -0.094935894 -0.08254589 0.09656632 0.07450085 0.026947424 0.08409708
0.041219816 -0.09525481 0.12709293 0.12143611 0.090588115 0.03204694 -0.0060452465 -0.09015514
0.09908416 0.09137564 -0.04013237 -0.09337139 0.043759894 -0.0594569 0.08921288 0.11180146
0.096503496 0.08500072 0.124659106 0.026490927 0.039828755 -0.043939795 0.062125754 -0.009166415
-0.025998183 0.007006961 0.050932445 0.048413657 0.045223467 0.005525441 -0.047644258 -0.02884866
-0.004834906 0.048709594 -0.078451104 -0.009377751 0.006493358 -0.0031390702 -0.066884905 0.0604026
-0.0005891239 0.030997194 0.084364034 -0.07176857 0.059925575 -0.11210938 -0.031229958 0.007475281
0.031681113 0.036984164 0.059991937 0.1033117 -0.030526435 0.098568626 -0.03812503 -0.03665449
0.10781081 0.13118345 0.022533506 -0.026169531 -0.105500326 0.108688705 0.04980972 0.0979035
0.11873365 -0.07074594 -0.12017378 0.099724546 -0.048725955 -0.037665434 0.03419142 -0.08424466
-0.012264296 -0.036450468 -0.108664766 0.101378314 -0.027996173 -0.008713976 0.035587728 0.03458466
-0.090436384 -0.10155758 0.09714683 0.106634006 -0.0511221 0.06743913 0.08491479 -0.023209553
-0.07298616 0.10425548 -0.009552847 -0.042954676 0.08846514 -0.10421818 -0.09334703 0.00030043907
-0.013721143 0.018503271 -0.0010336144 0.115581006 0.035539944 -0.0039530257 0.056400113 0.10945189
-0.094225965 -0.05911113 -0.11356799 0.068146326 0.0035983762 0.10391913 -0.11065115 -0.071296826
0.123072684 0.12492842 0.07183784 0.014867583 -0.08775708 0.04727459 0.076623626 0.031565383
0.0134925125 -0.07325268 0.051675234 -0.045431398 -0.046914674 -0.07213338 -0.07638946 -0.070952974
-0.056257613 -0.043197133 0.086545594 0.08589731 0.10902539 -0.07523978 0.07221521 0.10870877
-0.08381569 0.04492125 0.0070765223 -0.06287736 0.05149913 0.07299036 0.04624815 0.008309773
-0.026583008 0.11933193 -0.06031624 -0.040934436 -0.027911475 -0.012161546 -0.08474655 0.013987663
0.12335815 -0.03391808 0.004771284 0.09206267 -0.019752763 0.025374446 -0.10048187 -0.12672502
-0.021196613 0.121474944 0.036396008 -0.019828856 -0.05824405 0.013615967 0.028873771 0.029025508
0.025969494 -0.12520185 -0.004140593 0.023595631 -0.028803658 0.017031036 0.0589509 -0.057691798
0.07106163 0.08435579 0.13131502 -0.0595192 0.06404615 0.049386002 0.09937515 -0.13482396
0.042210553 0.01659913 0.028675467 0.11392923 0.022507865 0.040185034 0.11198988 0.09204131
-0.01996123 -0.04647793 -0.029490028 0.05473133 0.006358751 -0.09023314 0.019038621 -0.013170857
0.027431749 -0.082011975 0.06858945 -0.014917287 0.041071758 -0.020602584 -0.020622004 0.0037264936
0.046892744 -0.0900997 0.06825194 0.13110411 -0.08282351 -0.03246115 -0.08158433 0.13443775
-0.0191672 0.0005144356 -0.114871524 0.1155534 -0.070901155 0.037205677 -0.11045245 -0.09157195
0.02639152 0.078052714 0.00033224467 -0.005536992 -0.035773285 0.084893465 0.07454662 -0.0056799324

sensor_data_network.rnn.weight_hh_l0 f4 [64, 64]
00000000: 06e5 d73d 14f9 cb3d 3487 a53c ec56 ac3d
00000010: 388b 31bd 8cd2 a83d 4176 fdbd c4d1 d0bd
00000020: 5a29 2fbd fada e6bd 84f9 44bd 2cfd 363d
00000030: 200d cebc cc59 4a3d 955f 633d 15e3 c03d
00000040: ca76 64bc da99 e53d 0548 a53d 2475 7f3d
00000050: 55eb a23d 8c06 c2bc 2e9b d5bc a79e b33d
00000060: fc42 bd3c 9083 87bd 3115 8f3d 634c b0bd
00000070: b0ad 283c 0045 9dbd 2265 093e bb52 5abd
00000080: 609a 22bb 16d2 863d 4a55 2abd 66d1 2bbc
00000090: e888 80bc 7c28 c83d 2806 19bb 68c0 b43d
000000a0: bef9 873d f0de f93a 1f4b 493d eb5c c13d
000000b0: a44b 873c d95d 173d 31e5 89bd bbf6 b53d
000000c0: c8ba 90bc 4729 0f3d 10a8 503d fa44 96bd
000000d0: a053 cfbd 04e6 76bd 0cac 53bd 8bab 96bd
000000e0: 5221 d1bd 9168 b0bd 2427 03bd 9041 763b
000000f0: 12c3 d4bd 0842 d43c 3c26 283b 4d5a f73d
00000100: f21b 6a3c 305b 5cbd fb19 d73d 3bac a03d
00000110: 66ba 20bd 3173 97bd 063f 823d 52bf ab3d
00000120: dd6c 8d3d 1c74 58bb ca49 483d 7e56 bebd
00000130: 22bd 543d 1880 9abd ec05 183c b7af b93d
00000140: 193a 90bd a591 4c3c 0c56 59bc 9ea2 2b3c
00000150: 7d3f c3bd ce79 753d 652d d3bd 9605 e03d
00000160: 426e a03d 1c10 77bd a8fe 1c3b c8a3 613d
00000170: 66aa 8b3d 2a46 aebb 308f 98bc de0c 79bd
00000180: e398 c9bd 957e 2d3d b2c3 ddbd e354 a6bd
00000190: a01d ab3d 90a6 73bd 8ab0 d2bc 1efb 053d
000001a0: ccb2 dbbd 3003 adba ad9d 42bd 8d19 b43d
000001b0: 02da 0f3d 6d61 45bc ef40 fcbc 0a28 a13d
000001c0: 2191 6e3d 4177 b53d f9fd 903d 5e09 403d
000001d0: efa4 d0bd d62c a7bd 4724 aebd c736 59bc
000001e0: 9aea 603d f4f3 08be 0f05 ebbd 41e2 a4bd
000001f0: feb5 aa3c 2946 9a3d c4f7 febd 33e0 dc3d
00000200: 17b6 f0bd 5afb 2dbd 00ec a7bd 00f5 e3bd
00000210: 8c6c 07be 832c d9bd 7deb c43d 8c4f a5bd
00000220: 3bc8 ac3d 9ea6 6a3c 7817 7bbd de96 8b3d
00000230: ad24 8b3d 3286 553c 76a2 98bd c405 93bc
00000240: fa92 e83c d0b8 5dbd 06e0 a3bd 2abe 453d
00000250: 674c 13bd b636 893d bf7a f2bc f837 ce3c
00000260: f59e a53d b074 8d3d 912c 593d 5bec 883d
00000270: da8f 96bd ca17 7d3d 2c2e dd3d 2c93 f93d
00000280: 208a 8bbd 460f d6bd 06d1 29bd b0b0 863d
00000290: 909a 5f3d 4e0a febd 9c21 d0bb b859 64bc
000002a0: c213 5fbc d24b 153d 142e 70bd 0ee7 273d
000002b0: 75ad 51bd 1714 9e3c 412b 423d e159 023d
000002c0: 3b87 d8bd e26a 94bd 9aec f43d 78d2 b13c
000002d0: af17 e2bc 3863 df3c 5383 a1bd 271e f4bd
000002e0: 00e0 f2bc 2717 febd f8c7 81bc f086 693d
000002f0: 2b17 8abd c31d 06bd c479 693b fce5 e4bd
00000300: 3101 b33d 01cf b5bd 389f c7bc 6bfd 283c
00000310: 5b58 39bd 0072 7538 1279 b6bd 167c 4ebd
00000320: 3456 f73d 7c1b c4bb 5eba adbc f8d4 eebb
00000330: f316 83bd 8a16 c43c 27f6 823d 108d a93d
00000340: fbcb a5bc 948c 9a3d 2c16 dcbd 82fb 17bd
00000350: 04d2 3d3d d44c 413d cee2 623d 2d27 9f3d
00000360: 51c8 b63d 0dcd e9bc 358f 57bd fff8 c7bc
00000370: 6451 11bd 1031 87bc 7f8a 673c 09f9 06bd
00000380: f5cd f53d abb6 c9bd c29b 06bd 80be b83c
00000390: e161 f3bd f3c9 b43d 3a0a 06bc cc05 a9bd
000003a0: 8a11 cdbc a7af 96bd f0a9 093d 748c 9ebd
000003b0: 54c3 e1bd 3a55 d6bd 754d e33d 0b4e ccbd
000003c0: c586 c9bd 8891 68bd 38ef 443b 22eb c6bd
000003d0: 738c b1bd fb7a afbc 7a4d dfbd 1adb c23d
000003e0: 81e0 013e a005 c6bd 1add eebd 35ae b6bd
000003f0: ede7 9a3d bc1b f03c e6bc dfbc f188 b73d
0.1054173 0.09959617 0.020206071 0.084150165 -0.04334566 0.08243284 -0.12376071 -0.101962596
-0.042764045 -0.11272235 -0.04808952 0.044675037 -0.025152743 0.049402043 0.055511076 0.094183125
-0.013944337 0.112109855 0.08070377 0.062367573 0.07955042 -0.023684762 -0.026074972 0.08770495
0.02310323 -0.066168904 0.06986464 -0.086083196 0.010295317 -0.07679176 0.13417485 -0.053301554
-0.0024811253 0.065830395 -0.041585244 -0.010486936 -0.015690282 0.09773347 -0.0023349617 0.08825761
0.066394314 0.0019063633 0.049143907 0.09441551 0.01651556 0.036954734 -0.06733168 0.08884951
-0.01766719 0.034951475 0.050941527 -0.07337375 -0.10123372 -0.060277954 -0.05167775 -0.07356938
-0.102114335 -0.086136945 -0.03201975 0.00375757 -0.10388769 0.025910392 0.0025657555 0.120777704
0.014288889 -0.0537979 0.10503002 0.0784535 -0.039240263 -0.07395018 0.06359677 0.08386101
0.0690553 -0.003302819 0.048898496 -0.09293841 0.051938184 -0.07543963 0.009278756 0.09066718
-0.07042331 0.012485896 -0.013265144 0.010475783 -0.09533594 0.059930615 -0.10311393 0.109385654
0.0783353 -0.060318097 0.0023955498 0.055087835 0.0681961 -0.005318423 -0.018622965 -0.060803287
-0.09843614 0.042357046 -0.108283415 -0.081216596 0.0835526 -0.05948502 -0.025718946 0.032710187
-0.10727462 -0.0013199802 -0.047513653 0.08793936 0.035120018 -0.012047154 -0.030792682 0.07868965
0.058243874 0.088606365 0.070796914 0.046883933 -0.101877086 -0.08162849 -0.08503013 -0.013257689
0.054911233 -0.1337431 -0.11475574 -0.08050967 0.020838734 0.07532913 -0.12449601 0.1078495
-0.11753481 -0.042476036 -0.0819931 -0.111307144 -0.13225001 -0.10604193 0.09615228 -0.08071813
0.084366284 0.014321951 -0.06130168 0.06815885 0.06794105 0.013032483 -0.07452862 -0.017947085
0.028390396 -0.05413133 -0.080017135 0.048277058 -0.035961535 0.066998884 -0.029599546 0.025173172
0.08086959 0.06907022 0.053021017 0.06685706 -0.07351656 0.061790265 0.10799822 0.12186274
-0.06813455 -0.10452132 -0.041459106 0.06576669 0.05459076 -0.12404309 -0.006351663 -0.013937406
-0.0136155505 0.03644926 -0.058637694 0.040991835 -0.051190812 0.019296689 0.04740453 0.031823996
-0.10572668 -0.07246949 0.11959191 0.021706805 -0.027599184 0.02726899 -0.07886376 -0.119198136
-0.029647827 -0.1240676 -0.015842423 0.057013452 -0.067427 -0.032743227 0.0035625556 -0.111766785
0.087404616 -0.088773735 -0.024367914 0.010314326 -0.045250278 5.8518723e-05 -0.08909811 -0.050411306
0.12076989 -0.0059847217 -0.02120703 -0.0072885714 -0.064008616 0.023936529 0.06394606 0.08278859
-0.020238867 0.075463444 -0.107464164 -0.03710509 0.046342865 0.04719241 0.05539208 0.07771144
0.08924926 -0.028540159 -0.052626807 -0.024410723 -0.03547801 -0.016502887 0.014132141 -0.032952342
0.12002174 -0.09849294 -0.032863386 0.022551775 -0.11883903 0.08827581 -0.008181149 -0.08253059
-0.025032777 -0.07357722 0.03360933 -0.07741633 -0.11023584 -0.104654744 0.11098758 -0.09975823
-0.098401584 -0.056779414 0.0030049812 -0.09712817 -0.08669367 -0.021420946 -0.10903449 0.095144466
0.12683298 -0.09669042 -0.116632655 -0.08919946 0.075637676 0.0293101 -0.027311753 0.089616664

sensor_data_network.rnn.bias_ih_l0 f4 [64]
00000000: cee2 d0bc 7aea 463d 23ce 9cbd da16 7dbd
00000010: d011 653b ca50 2bbc b415 ddbc e615 283c
00000020: b7ea 1fbc 0acc 92bc f405 85bd 8802 80bd
00000030: 58ae f63c 1eb7 9f3c b46c cf3d e491 473d
00000040: 5e67 e73d 64c1 053d 3f15 cdbd 878e 8d3d
00000050: 2c9c a63d d2d7 d5bd 0a8e 73bd 5f07 2cbd
00000060: 9e25 873d 0266 02be ce03 3fbd 5869 d7bd
00000070: 806d 13bd a879 f6bb 72ed 853d 08da ae3d
00000080: 3e2d a43d a63e ddbd 90bb 173c 2c18 f7bc
00000090: 4f30 b1bd ea7e 963d b8dd e7bc f238 cabd
000000a0: 7813 a5ba 761b 17bd 4554 0c3d 4a59 443d
000000b0: d85a f6bd 2e82 263d 562d a9bd 69d5 c5bd
000000c0: 566d a53d 2633 d83d 6ba0 55bc bca5 8cbc
000000d0: 42a4 b73c ce3a e3bc 5f80 c53d 9a29 f8bc
000000e0: b6a6 bf3c 9056 693d 0e8c b93d 76c0 8b3c
000000f0: 6710 033e e239 d7bd 0184 e23d bff7 97bd
-0.025498774 0.048563458 -0.07656505 -0.06178937 0.0034953244 -0.010456273 -0.026987888 0.010259127
-0.00976055 -0.017919559 -0.06495276 -0.06250483 0.03011243 0.019496497 0.10128155 0.048723117
0.112990126 0.032655135 -0.10013818 0.069119506 0.08135256 -0.10441555 -0.05946163 -0.041999217
0.06598972 -0.12734225 -0.046634488 -0.105181396 -0.0359931 -0.007521827 0.0653943 0.0853768
0.08016442 -0.10802965 0.009261027 -0.030162893 -0.08651792 0.07348426 -0.028303966 -0.09874143
-0.0012594303 -0.036891423 0.034260053 0.047936715 -0.12029046 0.040651493 -0.082606 -0.096598454
0.08077495 0.10556631 -0.013038735 -0.017168872 0.022417191 -0.027738001 0.096436255 -0.030293275
0.023394924 0.056967318 0.090599164 0.017059546 0.12799226 -0.10509087 0.11060334 -0.07420301

sensor_data_network.rnn.bias_hh_l0 f4 [64]
00000000: b9d7 92bd 3ac2 b9bd 6b23 1cbc 90f9 a5bd
00000010: 95d1 91bd b4ca db3d 3ddd 71bd 408e c33a
00000020: ffe5 983d ae6a 603d 7077 d43b 0418 03bb
00000030: 1949 5abd c04b eabb ca85 47bd ac16 49bd
00000040: 0987 2dbd 669e d03b f395 fcbd 13e1 083e
00000050: fcdf 5cbd 16a8 f03d 08f3 06be 1116 973c
00000060: 8537 debd fb42 533c a19c e43d 98fb babd
00000070: 1bc5 ab3d 6f81 03bd e03c 4e3d eaab 82bd
00000080: 5008 6fba 9616 af3d febb 5b3c 5185 e13d
00000090: f300 d4bd 90be a6bd 9519 00be 0260 9abc
000000a0: f8cd 72bd da75 a23c bb4c 63bd e009 5b3d
000000b0: 1b32 1a3d 2412 943c 0421 acbd 3ad3 b33d
000000c0: 415f babc 3bf8 4fbc 3207 03be 60f5 b73d
000000d0: de45 32bc 0c2c 493d a9d2 913d eb85 dfbd
000000e0: 0858 e9bd 631e c2bd 32ac d93d e449 733d
000000f0: 80e2 45bd e697 d2bd 78b8 88bd 77be 03be
-0.07170052 -0.09070249 -0.009529929 -0.08104241 -0.07120053 0.10732022 -0.05904888 0.0014919713
0.07465743 0.054789238 0.0064839646 -0.0020003328 -0.053292368 -0.0071501434 -0.048711576 -0.049093887
-0.042365108 0.006366539 -0.12333288 0.13367109 -0.053924546 0.1175081 -0.13178647 0.01844314
-0.10850433 0.012894387 0.11162687 -0.09130019 0.08387204 -0.03210586 0.050351024 -0.06380446
-0.0009118365 0.0854923 0.01341152 0.11011756 -0.103517435 -0.08141816 -0.12509759 -0.018844608
-0.05927846 0.019831587 -0.055493098 0.053476214 0.03764544 0.018075056 -0.08404735 0.08780523
-0.022750499 -0.01269346 -0.12795714 0.089823484 -0.010880915 0.049114272 0.07120258 -0.10914215
-0.11393744 -0.09478452 0.10628547 0.05939664 -0.04831171 -0.102828786 -0.066758096 -0.12865625

fc.weight f4 [32, 130]
00000000: 46c2 8ebd 9a46 e7bc b53b 0cbd 42c0 ae3c
00000010: 4063 8cbc 4284 443d 5cf3 9b3d 38eb 8fbd
00000020: b696 603d ca25 42bc 7cbf 47bd 94f2 bcbb
00000030: feb2 26bd 30b4 7dbd 2bb2 ed3c 6439 f03c
00000040: 39fa 6f3d 66f6 d83c 665a 89bd 465e b1bc
00000050: c2fb 24bc 893a 79bd ccc5 71bb ecb2 04bd
00000060: ccef 27bd 1237 a3bd a6ee a13b 5474 733c
00000070: 0cb5 763d 9bfd 89bd 4b7a 3b3d 7a1d 7dbd
00000080: 00ed 09bd 2c95 283d ee6f b2bd 424d 993d
00000090: c508 87bc 6719 7bbc 7a5f 8e3d f57b 0ebd
000000a0: 5c23 90bc ea8a 13bc 7ee1 80bd 1c4e d7bb
000000b0: 5c3b 9d3b 4b8a 2f3d 1945 6f3c 3f74 77bd
000000c0: 2201 79bd 3082 72bd 6c93 713b 522d 5f3c
000000d0: d172 4bbd 2557 55bd d204 3dbd 3b58 2b3c
000000e0: 4988 bbbd fe90 97bd b4e7 8abd dead e53c
000000f0: 0def 013c 1254 b1bc 7c28 2cbb ed20 933d
00000100: 12b3 fa3b ac41 8cbd 45e8 0dbd 6230 6fbd
00000110: be9b b9bc 66d5 fd3c 86e6 693d d63d 383d
00000120: 5b86 0dbd f8fc 643b 91e0 493d c50b 46bd
00000130: 9c34 89bc 483d 3d3d b230 11bd 6ab6 6dbc
00000140: 4b74 8c3d 3856 3ebb b81a 95bd 925a ffbb
00000150: be3f 8c3c f182 f13c 404a 93b9 f8bb 993a
00000160: 9146 393d 9692 a33d cd35 a63d 2ec5 16bd
00000170: eac0 83bc ac62 84bc 9048 88ba a4f1 2cbd
00000180: d2e3 b4bc 4e79 ddbc c54d 5d3d 4db0 683d
00000190: 93b2 28bd 1680 89bd 91e6 993d a8cd 85ba
000001a0: 8a87 3ebb b319 863d 97f4 583d c2ae 4fbd
000001b0: b018 493a 44f1 40bd 9192 5cbc eceb 4c3d
000001c0: 360c ca3c d326 b23b f37c 183c 265b 843d
000001d0: cf31 a0bd e9bb 483c 3dc6 0f3d 3d99 ce3c
000001e0: 6dc9 9c3c 328c cbbc 99fe 52bd eeac 3a3c
000001f0: b4e6 24bd 7dfb 75bd 731e 6cbd 5146 7a3d
00000200: 5814 c63c d45b a23b bddf b63d 7a64 7c3d
00000210: 97e5 583d 84c0 4ebc 0a1c d03c 983c 99ba
00000220: 222f aa3c ece3 4e3d 345f 7e3c d1a7 af3c
00000230: ac75 0e3d 79d4 5d3d b825 9abd 810e 32bd
00000240: 1ccc 45bb 0139 853d 5109 883d c537 8a3d
00000250: 9b8e 133d 1db4 01bd b21b e73b 9bd7 433c
00000260: 402c 03b9 980e 0dbb 685a 3bbd f32b 3ebd
00000270: af0d 07bd 8081 45b9 c239 b0bd cc3e 60bd
00000280: 3948 83bd 1e2a c73b 3134 983d 8f36 15bc
00000290: 8fc4 663d 6aa8 e23c c766 37bc 8839 52bd
000002a0: 929e 1a3c 7255 aa3d bf54 06bc cda8 a43c
000002b0: 9d57 11bd ec18 ccbb e825 35bd 0679 0f3d
000002c0: f179 97bd 5707 93bb 8d56 38bd e0c0 9e3d
000002d0: ab06 873c 1b70 88bd b2a8 763d 9da7 bdbc
000002e0: 40d8 87bd c2ad 6a3d f8df eebb f6f5 903d
000002f0: f5ac c1bc de8e d03b efc8 a23d b51b 89bd
00000300: b255 033d 0f8b 24bc 861c 59bd 1a5c 103d
00000310: 130a 01bd 1375 973d 10b0 2d3b 3216 ba3c
00000320: fa5a 053d 9e4f 873d f08e cc3b 91d1 b8bd
00000330: c8e7 0abd 651d 283d 6731 393d 96a4 5ebc
00000340: 7d91 3b3d 91c6 3f3c cd24 82bb 607f 8cbd
00000350: 3752 30bd c648 8bbc 46cc a33d b56f 3f3c
00000360: 7240 7f3d d273 bbbd 4fd3 8a3d 7cbb edbc
00000370: 1a53 9abd 342e 9dbd e2e9 553d 12fb 903d
00000380: 4aa4 5d3c 7fea febc 04f6 163b 8465 1ebd
00000390: 5eb7 963d 47ed 1dbc 8a6d e43c 5881 9d3d
000003a0: c469 733b 82c9 a73d b36b a23d 9b66 043d
000003b0: e862 373d 50eb 713d 74fd bdbc 16d3 c23c
000003c0: 6c95 59bd 1fbe 9bbd 3939 c2bb faec 843c
000003d0: aa4b 00bd 1088 7c3d b555 883d 68f0 1b3c
000003e0: 09c7 273d 770c 89bd 1b12 48bd 10dd 69bc
000003f0: b24c 8b3c 718f da3c 5c1a 9c3d fa0b 0d3d
-0.069706485 -0.028231908 -0.03423663 0.02133191 -0.01713717 0.047977693 0.076147765 -0.07027286
0.05483123 -0.01184983 -0.048766598 -0.0057662223 -0.040698044 -0.06193942 0.029015621 0.029324241
0.05858824 0.02648468 -0.06706695 -0.021651398 -0.010069789 -0.06084684 -0.0036891578 -0.032397196
-0.041000172 -0.07969488 0.004941779 0.014859278 0.060231254 -0.067378245 0.045770925 -0.06179569
-0.033673286 0.041157886 -0.08712755 0.07485439 -0.016483674 -0.015325881 0.069518045 -0.034786183
-0.017594986 -0.009005288 -0.06293009 -0.0065705907 0.004798336 0.042856496 0.0146038765 -0.060413595
-0.060792096 -0.059206188 0.0036861552 0.013621645 -0.049670044 -0.05208506 -0.046147175 0.0104580475
-0.09156854 -0.07400702 -0.06782475 0.028037008 0.007930529 -0.021646533 -0.0026269248 0.071840145
0.0076507414 -0.068484634 -0.034645338 -0.05839575 -0.022657271 0.030985545 0.05710461 0.044980846
-0.03455196 0.003494082 0.04928643 -0.048351068 -0.016748719 0.04620102 -0.03544683 -0.014508823
0.068581186 -0.002904309 -0.07280487 -0.0077927792 0.017120238 0.029481383 -0.00028093345 0.0011728993
0.045233313 0.079869434 0.081157304 -0.03680914 -0.0160832 -0.016160332 -0.0010397602 -0.042222634
-0.02208129 -0.027035382 0.054029245 0.05680876 -0.041185927 -0.067138836 0.0751468 -0.0010208385
-0.0029072487 0.065478705 0.052967634 -0.05070377 0.000767122 -0.04710509 -0.0134626785 0.05002968
0.024664026 0.005436757 0.009307134 0.06462698 -0.07822 0.0122518325 0.035101164 0.025219554
0.019139016 -0.024847124 -0.051512334 0.011393769 -0.04025908 -0.06005429 -0.057646226 0.061102215
0.024179623 0.0049547944 0.089293934 0.06161926 0.05295333 -0.0126191415 0.025403995 -0.0011691032
0.020774428 0.050510332 0.015525628 0.021442326 0.03478019 0.054157708 -0.075267255 -0.043470863
-0.0030181473 0.06505013 0.06642402 0.067489184 0.03602467 -0.03166591 0.007052862 0.01195326
-0.00012509618 -0.002152359 -0.045740515 -0.046428632 -0.032972034 -0.00018835627 -0.086047664 -0.054747388
-0.0641026 0.006078019 0.0743183 -0.009107246 0.056339797 0.027668197 -0.011193938 -0.051324397
0.00943722 0.08317079 -0.008198916 0.020100022 -0.035483945 -0.006228557 -0.044225603 0.035027526
-0.07396305 -0.004486959 -0.045004416 0.07751632 0.016482672 -0.066620074 0.060219474 -0.023151213
-0.06633043 0.057294615 -0.0072898827 0.07078163 -0.023642043 0.0063646873 0.07948481 -0.06694738
0.032064147 -0.01004292 -0.053005718 0.035244085 -0.03150375 0.07395377 0.0026502647 0.022715662
0.032557465 0.06606983 0.0062426254 -0.090243466 -0.03391245 0.041043658 0.04521313 -0.013589045
0.045793045 0.011705057 -0.003971672 -0.06860232 -0.043047156 -0.017002475 0.079979464 0.011684348
0.06231732 -0.0915295 0.06778585 -0.029020064 -0.075353816 -0.07674828 0.052225 0.07079138
0.013527939 -0.031117676 0.002303482 -0.03867103 0.07359193 -0.009639091 0.027884264 0.07690686
0.0037141899 0.081927314 0.07930698 0.032324415 0.04477206 0.059062302 -0.023192145 0.023782294
-0.053121015 -0.07604622 -0.0059272316 0.01622628 -0.03132216 0.061653197 0.06656972 0.009517767
0.0409613 -0.066918306 -0.04884539 -0.014273897 0.017004345 0.026679726 0.07622215 0.03443525

fc.bias f4 [32]
00000000: b778 dcbb bc70 48bd d0ab aabc 95ce e5bb
00000010: 8a93 2e3c 6ad4 b9bc 05a6 543d e074 00bc
00000020: 4249 82bd f666 9e3d d0b9 273a dc19 68bb
00000030: 92f2 fabc d857 233d 12dd 503d e851 c0ba
00000040: 7cf0 edbc 667d 89bb bad3 b33c eb9a 94bd
00000050: e4bc e2bc 5e01 39bb 3f9a 4bbc 720a 96bd
00000060: 0267 9fbc 4333 883d bd30 023d 44d0 3f3d
00000070: a2be 073c af42 70bc d26a b23c 40d2 d5ba
-0.0067282575 -0.048935637 -0.02083388 -0.007013152 0.010655293 -0.022684295 0.05191614 -0.007840365
-0.06361629 0.07734482 0.00063982327 -0.0035415804 -0.030633245 0.039878696 0.05099208 -0.0014672847
-0.029045336 -0.004195857 0.021951545 -0.07256111 -0.02767796 -0.0028229575 -0.012426912 -0.07326211
-0.019458298 0.066504024 0.03178476 0.046829477 0.0082851965 -0.014664336 0.021779452 -0.001631327
