checkpoints/NoGestureNetwork_RNN_RNN_2023-08-11_12-34-20.pth (torch, 48771 bytes, 10 tensors)

touchscreen_data_network.rnn.weight_ih_l0 f4 [64, 4]
-0.033131853 -0.0582542 -0.067361385 0.0043814746 0.007607161 0.011869606 0.02954253 9.408759e-06
0.060567133 -0.10010759 -0.13227256 -5.3252148e-05 0.23966552 0.23245052 0.06106287 0.06804104
-0.10601581 0.1234983 -0.112511784 -0.2512585 0.10424416 -0.11593828 0.07759458 0.06350961
0.1934995 0.1952034 0.037986714 -0.016426211 0.24397503 0.013704137 0.24258076 0.2577788
0.051850174 0.0971879 -0.16120178 -0.09780519 0.009059123 0.08861255 -0.061544716 -0.06925891
0.049632285 0.081109606 0.057622194 0.027435932 -0.05271287 -0.105260774 0.054390877 0.21300043
-0.13873178 -0.06174929 -0.14136739 -0.10395746 -0.0051606414 0.16451895 0.08047859 0.079055786
-0.011927594 -0.04720015 -0.050143875 -1.1242066e-05 -0.041305568 -0.06551928 -0.057638917 -0.0068121194
-0.01207225 -0.07514684 -0.070301235 0.0008956004 0.10551891 0.087048925 0.05568977 0.11239427
0.10785915 0.02922687 0.05850136 -0.13910462 -0.17484002 -0.17754525 -0.015745174 0.0666236
-0.11854557 -0.103452004 -0.046707332 -0.07349612 -0.09306675 -0.03820269 -0.12648141 -0.024234576
0.19973841 0.20958629 0.057843782 0.12802915 0.23734988 0.020949317 0.21379416 0.2568808
0.08450974 0.16394667 0.07612953 0.07377775 0.06073681 0.081027776 -0.046252273 -0.15266265
-0.0836463 -0.046305157 0.12645505 0.07967038 -0.20053919 0.029296648 -0.12022703 -0.23037772
0.20930879 0.24337773 0.06809107 0.08566295 -0.0018372367 0.13726334 0.062113933 -0.012581366
0.056591075 0.054098476 0.059276346 -0.040501952 0.0044181403 0.013255955 0.030605456 -0.0001723346
0.034352712 0.053030808 0.07868521 -4.0581654e-07 0.11955854 0.0650744 0.048802085 0.12557988
-0.062211175 -0.11300458 -0.065023646 -0.07086391 -0.035790924 0.12120303 -0.05080059 -0.08086961
-0.114077844 -0.11247375 -0.002085224 0.13856141 0.21770653 0.17679092 0.06463792 0.1907069
0.023549581 0.049197216 0.025178488 -5.836924e-05 0.112559356 0.2080988 0.05743645 0.13605735
-0.066886246 -0.093914956 0.12144997 -0.025508057 -0.06810532 -0.07111589 -0.055460013 -0.02169368
0.16608994 0.04336416 0.123812355 5.080655e-06 0.08792183 0.13206643 0.08135706 0.037255652
-0.2238403 0.002836044 -0.15497826 -0.23194961 0.007160407 0.10405911 -0.071882606 -0.10214787
-0.022460923 0.13006367 0.048264567 -0.0037901117 -0.18624285 -0.18512367 -0.070128195 0.026862692
0.06447097 0.11326578 -0.05473986 -0.081663094 0.028989466 0.0687565 0.06513062 0.0010955108
0.24861257 0.078622 -0.0041358233 0.24289517 -0.041409362 -0.08146689 -0.047630277 -0.0010019509
0.15264125 0.1286946 0.07819158 0.0995167 0.14685786 0.15285641 0.062265575 0.09728661
-0.0006387552 -0.21839176 -0.08278569 -0.09118922 -0.05602853 0.056288466 0.13874185 -3.7761034e-05
0.040543362 0.038904876 0.10396037 0.027179714 -0.05555974 -0.105329454 -0.038378827 -0.17197046
0.07634461 0.06777529 0.06516479 0.11483724 0.19838685 0.049794145 0.0696336 0.22496802
0.14574605 0.023355672 0.055420257 0.0075658583 -0.10580018 0.110707946 -0.044578124 0.005359369
0.19251418 0.18394023 0.06524361 0.14478621 0.12618037 0.026398757 0.20778146 0.03908183
00000000: 44b5 07bd f59b 6ebd c4f4 89bd 7992 8f3b
00000010: 7e45 f93b bc78 423c 2d03 f23c 50da 1d37
00000020: 3e15 783d 3505 cdbd 7572 07be 0f5b 5fb8
00000030: e16a 753e 8207 6e3e 0f1d 7a3d 1a59 8b3d
00000040: d11e d9bd adec fc3d 946c e6bd f4a4 80be
00000050: f67d d53d 0d71 edbd e8e9 9e3d 5411 823d
00000060: bc24 463e 66e3 473e f597 1b3d 4390 86bc
00000070: 97d4 793e 5187 603c 1767 783e 95fb 833e
00000080: d960 543d 730a c73d 1412 25be 164e c8bd
00000090: b76c 143c 7f7a b53d 5016 7cbd 9ed7 8dbd
000000a0: 394b 4b3d cb1c a63d 4005 6c3d 52c1 e03c
000000b0: 73e9 57bd f692 d7bd f8c8 5e3d c91c 5a3e
000000c0: b40f 0ebe d3ec 7cbd 9dc2 10be a6e7 d4bd
000000d0: 991a a9bb a877 283e f6d1 a43d 00e8 a13d
000000e0: f56b 43bc f254 41bd aa63 4dbd 4e9c 3cb7
000000f0: 0730 29bd f92e 86bd c916 6cbd 3338 dfbb
00000100: b0ca 45bc 96e6 99bd 18fa 8fbd bac6 6a3a
00000110: 4c1a d83d b546 b23d f51a 643d f82e e63d
00000120: 42e5 dc3d 306d ef3c 1f9f 6f3d 7171 0ebe
00000130: 4309 33be 6cce 35be 06fc 80bc f471 883d
00000140: 05c8 f2bd a5de d3bd 3050 3fbd 2285 96bd
00000150: c899 bebd 6d7a 1cbd 5884 01be 9787 c6bc
00000160: 3a88 4c3e ca9d 563e 9aed 6c3d 131a 033e
00000170: d90b 733e e79d ab3c dbec 5a3e e185 833e
00000180: 7113 ad3d a3e1 273e cde9 9b3d ca18 973d
00000190: 29c7 783d e4f1 a53d 0673 3dbd 9953 1cbe
000001a0: c04e abbd 7aaa 3dbd 6f7d 013e 392a a33d
000001b0: 255a 4dbe 86ff ef3c 9739 f6bd 23e8 6bbe
000001c0: 0b55 563e 0338 793e 5573 8b3d 0f70 af3d
000001d0: 6fcf f0ba c38e 0c3e 2e6b 7e3d 1322 4ebc
000001e0: 0bcc 673d 5d96 5d3d c1cb 723d 60e5 25bd
000001f0: 0cc6 903b 812f 593c 4bb8 fa3c b8b4 34b9
00000200: 6eb5 0c3d d536 593d b625 a13d 00df d9b4
00000210: 1cdb f43d ba45 853d b2e4 473d 0398 003e
00000220: 25d1 7ebd f26e e7bd 1e2b 85bd 1921 91bd
00000230: 8199 12bd 4b39 f83d 4814 50bd f79e a5bd
00000240: a5a1 e9bd a358 e6bd 41a8 08bb 0be3 0d3e
00000250: 76ee 5e3e ae08 353e e360 843d ab48 433e
00000260: 0deb c03c 0583 493d 1e43 ce3c 7fd1 74b8
00000270: 8585 e63d da17 553e 7c42 6b3d 9e52 0b3e
00000280: a8fb 88bd 7c56 c0bd c3ba f83d 46f6 d0bc
00000290: cd7a 8bbd 35a5 91bd 0a2a 63bd f2b6 b1bc
000002a0: 7b13 2a3e 9e9e 313d 5591 fd3d 7e7a aa36
000002b0: 5c10 b43d 6c3c 073e 889e a63d 6299 183d
000002c0: 6436 65be ecdc 393b 9fb2 1ebe 3384 6dbe
000002d0: d9a1 ea3b f11c d53d 3037 93bd e732 d1bd
000002e0: f8ff b7bc 692f 053e 11b1 453d 8663 78bb
000002f0: 72b6 3ebe 0f91 3dbe 5f9f 8fbd 260f dc3c
00000300: 5b09 843d e4f7 e73d e736 60bd fb3e a7bd
00000310: 517b ed3c 35d0 8c3d 3463 853d 3e97 8f3a
00000320: 4b94 7e3e 9204 a13d cd85 87bb 83b9 783e
00000330: dd9c 29bd 1dd8 a6bd f717 43bd e553 83ba
00000340: fd4d 1c3e 84c8 033e e822 a03d 69cf cb3d
00000350: e861 163e 6486 1c3e 300a 7f3d 343e c73d
00000360: 2372 27ba 17a2 5fbe 8b8b a9bd 6ac1 babd
00000370: 2c7e 65bd bc8e 663d 5812 0e3e 9a61 1eb8
00000380: cc10 263d b85a 1f3d 2de9 d43d fea7 de3c
00000390: 9c92 63bd f8b6 d7bd 1e33 1dbd 0619 30be
000003a0: 905a 9c3d c5cd 8a3d 1e75 853d c92f eb3d
000003b0: ec25 4b3e f2f4 4b3d 109c 8e3d 045e 663e
000003c0: 743e 153e 6554 bf3c 5a00 633d 05eb f73b
000003d0: c4ad d8bd d9ba e23d 8d97 36bd a59d af3b
000003e0: 7022 453e d45a 3c3e 719e 853d d642 143e
000003f0: 6d35 013e 3542 d83c aac4 543e 4514 203d

touchscreen_data_network.rnn.weight_hh_l0 f4 [64, 64]
0.00011424258 0.00041576405 0.00013463899 4.8740363e-05 -0.00058352575 -0.0002883787 0.00021273644 0.0013804489
0.00012344745 -0.0010080317 0.00034805966 0.00020223248 -0.008345245 0.0003590114 -0.00018421543 -9.064432e-05
-0.00020629237 -0.00011202738 2.4288058e-05 -0.00043809888 8.0047765e-05 0.00013685424 0.0004312502 -0.0003086482
8.53352e-05 3.0553125e-05 0.04161716 -0.046669476 -0.00013057937 0.00021827819 0.0002188881 0.00042551913
0.00020044971 0.00015888944 0.00012750224 -0.0001340363 0.00016682662 0.0004106152 0.000295784 0.00041959027
-0.00014355825 -0.00020000711 0.000116421 0.00047572606 -0.00031880583 -5.439607e-05 9.917401e-05 9.126338e-06
-5.5856464e-05 0.00026970933 4.5298733e-05 -0.00017811461 -9.917376e-05 -0.0008019521 0.0010147763 0.00038081693
0.00039647202 -0.00033136012 0.00042680133 -0.00016214639 -0.00012875794 -0.00095972954 -0.00011935416 0.00031558
0.00033676732 -0.00024713675 0.00019215955 -0.00017975474 0.00010445996 3.1169933e-05 -0.00035465104 -0.0001972938
0.0001038975 -5.649042e-05 -0.00034661626 0.00022934208 0.00030881178 -0.00019328666 0.00023608354 0.0003463342
0.0003271292 -0.00030477496 -0.0002658831 0.00023165238 0.0002430099 0.00033973885 -0.00015930025 -0.0001644618
-0.00027302332 -0.00024256884 0.00035502535 0.00021260884 -8.102233e-05 -0.00034079258 -0.00022852581 -0.00023701481
-0.0002498657 -0.00024388894 0.00027952372 -0.0003687846 0.00023803441 -0.000235347 -0.0002614825 -0.00024264668
-7.834653e-06 0.00019875774 -0.0002320408 -0.0001644818 0.00023127132 -7.476385e-06 -0.00018671175 0.00035242146
-0.0003601485 -0.00034355506 -0.00018075421 0.0002413891 -0.00021459963 -0.00027631255 0.00033091282 -0.00022993589
-8.130686e-05 0.00025436614 -0.00021675802 -4.6895446e-05 -0.00019224385 4.707777e-05 -0.00034599853 -0.00025415618
-0.00031064014 0.00050042174 -0.00064683845 -0.0002372522 -0.00039117903 -0.00015483511 0.00035788398 2.1359201e-05
0.00012290491 0.00051583437 0.00046627404 0.00010475489 0.00014590066 0.0007405904 -0.0009096588 -0.0005618384
-3.187415e-05 -0.00036833205 -3.348583e-05 -0.00043116332 -0.0005474294 -0.00021898288 0.00045080436 0.00067612744
-0.0007124146 0.00037573665 0.00038869245 -0.00050372654 5.5472887e-05 0.0002156076 0.0007322061 -0.00016681995
0.00013604817 0.0005930787 0.0006072843 0.0003322642 -0.0003977106 1.0380996e-05 0.00017452113 0.000620147
-0.00046067312 -0.00083282875 0.0002888522 -1.974863e-06 -0.0006286444 0.00019414938 -0.00026632263 -0.000557549
0.00013665081 0.00023854224 -1.7017723e-05 -0.0007274815 -0.0007803179 -6.820219e-05 9.971319e-05 5.7501937e-05
-8.4188133e-07 -0.00035837368 0.0003301022 -0.00010925081 0.0004823303 -3.3022038e-06 0.00015767565 1.7299103e-06
-0.04662411 0.19311151 -0.0077967946 0.24136576 0.09429161 0.030236153 0.055752154 -0.036898803
0.086496376 -0.100786395 0.08315585 0.02831671 -0.12241301 0.321526 -0.071420826 -0.12554176
-0.043933664 0.20266114 0.08516959 0.10050207 -0.16759609 -0.19065247 0.21009848 0.018063562
0.007318142 -0.13724121 0.19785698 0.052547112 0.1704729 0.19701888 0.23169586 0.17751238
0.10852387 0.23493145 -0.15874633 0.09998583 -0.076410204 0.038279586 0.15434861 0.23024587
-0.015041646 -0.14405465 0.15851022 -0.1127076 0.041719373 -0.055517223 0.033192668 -0.025635112
-0.15239862 0.15060218 -0.098271295 -0.048185486 -0.06223709 -0.16901319 -0.06861 0.007531853
0.2425988 -0.029924622 0.18341465 -0.12115698 0.07577791 0.031782582 0.14360791 0.050299436
00000000: 8595 ef38 e8fa d939 e12d 0d39 916e 4c38
00000010: c0f7 18ba 8931 97b9 0112 5f39 2ef0 b43a
00000020: ac71 0139 ee1f 84ba c77b b639 5e0e 5439
00000030: 7fba 08bc b239 bc39 f429 41b9 4c18 beb8
00000040: 3050 58b9 3ef0 eab8 35be cb37 a3b0 e5b9
00000050: 51df a738 8880 0f39 6c19 e239 0fd2 a1b9
00000060: fdf5 b238 2b26 0038 c176 2a3d 7e28 3fbd
00000070: 22ec 08b9 9be1 6439 5485 6539 3618 df39
00000080: cf2f 5239 8f9b 2639 1fb2 0539 188c 0cb9
00000090: 2eee 2e39 d747 d739 7513 9b39 74fc db39
000000a0: 2088 16b9 00b9 51b9 0c27 f438 df6a f939
000000b0: 6525 a7b9 5627 64b8 a4fb cf38 531d 1937
000000c0: 6c47 6ab8 c667 8d39 25ff 3d38 47c4 3ab9
000000d0: 82fb cfb8 183a 52ba 3e02 853a 62a8 c739
000000e0: 93dd cf39 67ba adb9 4ec4 df39 d705 2ab9
000000f0: 3203 07b9 5c96 7bba c74d fab8 6e74 a539
00000100: 2590 b039 2292 81b9 707e 4939 8c7c 3cb9
00000110: 8411 db38 76bc 0238 75f0 b9b9 a7e0 4eb9
00000120: 8ce3 d938 20f0 6cb8 0cba b5b9 8c7b 7039
00000130: 04e8 a139 feac 4ab9 318d 7739 3094 b539
00000140: 8a82 ab39 34ca 9fb9 3a66 8bb9 b6e7 7239
00000150: 79d0 7e39 fa1e b239 d609 27b9 6173 2cb9
00000160: 9224 8fb9 145a 7eb9 b222 ba39 c0ef 5e39
00000170: 88ea a9b8 68ac b2b9 6ea0 6fb9 2e87 78b9
00000180: 6800 83b9 70bc 7fb9 0a8d 9239 6e59 c1b9
00000190: e098 7939 7bc7 76b9 9617 89b9 f96e 7eb9
000001a0: 9471 03b7 a069 5039 fa4f 73b9 bf78 2cb9
000001b0: 6c81 7239 a8dd fab6 0ec8 43b9 35c5 b839
000001c0: 50d2 bcb9 2e1f b4b9 d788 3db9 651d 7d39
000001d0: 2606 61b9 0bde 90b9 5e7e ad39 f21a 71b9
000001e0: 4a83 aab8 725c 8539 8a49 63b9 9ab1 44b8
000001f0: 1195 49b9 5f75 4538 2367 b5b9 4440 85b9
00000200: 6add a2b9 bc2e 033a 9890 29ba e7c6 78b9
00000210: 2917 cdb9 3c5b 22b9 60a2 bb39 892c b337
00000220: 09e0 0039 0f39 073a 3e76 f439 daaf db38
00000230: e9fc 1839 2e24 423a 2b76 6eba 5648 13ba
00000240: 9cb0 05b8 b11c c1b9 2373 0cb8 c30d e2b9
00000250: 5d81 0fba c59e 65b9 f059 ec39 253e 313a
00000260: 56c1 3aba 85fe c439 6bc9 cb39 840c 04ba
00000270: 8fab 6838 b914 6239 85f1 3f3a 64ec 2eb9
00000280: 27a8 0e39 d678 1b3a 2932 1f3a bf33 ae39
00000290: d083 d0b9 0a2a 2e37 a9ff 3639 5c91 223a
000002a0: 8086 f1b9 3152 5aba 1671 9739 e387 04b6
000002b0: 9dcb 24ba 9494 4b39 38a1 8bb9 7b28 12ba
000002c0: ec49 0f39 3221 7a39 48c1 8eb7 75b4 3eba
000002d0: 3f8e 4cba c607 8fb8 1c1d d138 3c2e 7138
000002e0: a5fd 61b5 1ae4 bbb9 9111 ad39 951d e5b8
000002f0: 47e1 fc39 6e9b 5db6 bc55 2539 442f e835
00000300: ecf8 3ebd 06bf 453e 417c ffbb 9628 773e
00000310: f61b c13d cfb1 f73c 5f5c 643d 3323 17bd
00000320: 0325 b13d 1969 cebd 9d4d aa3d 72f8 e73c
00000330: acb3 fabd 0e9f a43e 1545 92bd 058e 00be
00000340: c9f3 33bd 6786 4f3e 656d ae3d 07d4 cd3d
00000350: 4f9e 2bbe 673a 43be 0e24 573e 09fa 933c
00000360: 06cd ef3b f688 0cbe 059b 4a3e a43b 573d
00000370: 7390 2e3e 51bf 493e ae41 6d3e cec5 353e
00000380: c341 de3d df91 703e 668e 22be 5fc5 cc3d
00000390: f47c 9cbd 0ecb 1c3d 900d 1e3e 93c5 6b3e
000003a0: 3c71 76bc 1083 13be 8150 223e 3ed3 e6bd
000003b0: efe1 2a3d 0766 63bd 09f5 073d ba00 d2bc
000003c0: 620e 1cbe 7537 1a3e 7642 c9bd 255e 45bd
000003d0: 52ec 7ebd cb11 2dbe 6683 8cbd c3cd f63b
000003e0: d26b 783e 7b24 f5bc 0dd1 3b3e 2721 f8bd
000003f0: 7331 9b3d 742e 023d f40d 133e c806 4e3d

touchscreen_data_network.rnn.bias_ih_l0 f4 [64]
0.00023361915 -0.0003397181 0.00038491414 0.1241532 -0.19537742 -0.025293643 0.22496293 0.28176042
-0.057571195 -0.06871909 0.017741252 0.14668718 -0.17848517 0.15859023 -1.4785835e-05 -0.00012643744
2.6885196e-05 0.051606726 0.15576088 -0.028259952 0.04371843 0.032478686 0.20643725 0.09326655
0.14665036 -0.028941784 -0.048261985 -0.19952658 0.08170151 0.13589846 0.030965578 -0.00033992997
-0.0022870998 0.13948487 -0.09770928 -0.0053927824 -0.069809295 0.17736602 1.5115187e-05 0.12239585
0.010578302 6.1119936e-05 0.001426717 0.11740722 -0.121300004 -0.06648294 0.098314025 -0.13861258
-0.09925016 0.00015448694 0.15162486 3.7115657e-05 0.15425855 0.16038442 -0.076903984 1.33014655e-05
0.05492786 -0.091974124 0.010037204 0.19235754 0.004871184 -0.06379919 0.18788232 0.19716577
00000000: aaf7 7439 311c b2b9 4dce c939 0844 fe3d
00000010: 0511 48be 9d34 cfbc af5c 663e e742 903e
00000020: c6cf 6bbd 98bc 8cbd 1a56 913c 2a35 163e
00000030: d1c4 36be 7a65 223e ae10 78b7 4b94 04b9
00000040: 8587 e137 9361 533d c87f 1f3e 6a81 e7bc
00000050: 1912 333d 5f08 053d 4964 533e 8802 bf3d
00000060: 832b 163e 5217 edbc 5cae 45bd b250 4cbe
00000070: 1f53 a73d f728 0b3e 86ab fd3c a138 b2b9
00000080: 2be3 15bb 1fd5 0e3e ce1b c8bd f0b5 b0bb
00000090: 2df8 8ebd 709f 353e 3c97 7d37 adaa fa3d
000000a0: 9d50 2d3c 842d 8038 ae00 bb3a 3273 f03d
000000b0: 236c f8bd 3528 88bd dd58 c93d 75f0 0dbe
000000c0: ab43 cbbd c6fd 2139 8c43 1b3e a2ac 1b38
000000d0: f4f5 1d3e d03b 243e d67f 9dbd 5c29 5f37
000000e0: 09fc 603d ee5c bcbd 1673 243c 60f9 443e
000000f0: 749e 9f3b 26a9 82bd 3964 403e d3e5 493e

touchscreen_data_network.rnn.bias_hh_l0 f4 [64]
-3.3292727e-05 -0.0001663478 9.661837e-05 0.12109385 -0.20858188 -0.040022057 0.09896305 0.16918948
-0.07063869 -0.040674612 0.017638 0.14028142 -0.1571065 -0.051431727 4.4746663e-05 -0.00014116256
-1.911083e-05 0.07969197 0.09081077 -0.073723935 -0.092274055 -0.12575519 0.19656436 0.1574187
0.1337347 0.010103944 -0.061083492 -0.22672266 0.09755203 0.14098886 0.04145236 -0.00025158722
0.008705276 0.013158327 -0.1276729 0.098469146 -0.0755509 0.04151921 -9.2042625e-05 0.19487806
0.080636784 1.6122009e-05 0.005003474 0.121986814 -0.22766443 -0.05086375 0.079512686 -0.18271866
-0.09650103 0.0001791161 0.20257194 -3.50375e-05 0.11832902 0.17576587 -0.18492897 -4.481937e-05
0.0032821193 -0.13934974 0.0048129843 0.18880586 0.036922038 0.013300674 0.10063993 0.13268532
00000000: cba3 0bb8 a66d 2eb9 989f ca38 0d00 f83d
00000010: 7d96 55be 2bee 23bd 24ad ca3d 0240 2d3e
00000020: 04ab 90bd 6c9a 26bd 917d 903c efa5 0f3e
00000030: 87e0 20be 13aa 52bd 5dae 3b38 0905 14b9
00000040: 3250 a0b7 8b35 a33d fffa b93d 93fc 96bd
00000050: 2efa bcbd f8c5 00be 2b48 493e 5e32 213e
00000060: c0f1 083e 038b 253c af32 7abd fc29 68be
00000070: 5cc9 c73d 625f 103e f3c9 293d 77e7 83b9
00000080: 93a0 0e3c 0696 573c afbc 02be 31aa c93d
00000090: 6eba 9abd 0c10 2a3d 0207 c1b8 1d8e 473e
000000a0: e624 a53d c03d 8737 2ff4 a33b 39d4 f93d
000000b0: dd20 69be 8256 50bd 8cd7 a23d 9a1a 3bbe
000000c0: 55a2 c5bd 1dd1 3b39 056f 4f3e 3bf5 12b8
000000d0: 7c56 f23d f8fb 333e 055e 3dbe 6ffc 3bb8
000000e0: d318 573b b3b1 0ebe 3db6 9d3b 5356 413e
000000f0: 903b 173d 12eb 593c 4f1c ce3d a9de 073e

sensor_data_network.rnn.weight_ih_l0 f4 [64, 6]
-0.118489906 -0.1781892 -0.12894185 0.078644924 0.12368011 0.09365263 -0.13131724 -0.0061132605
0.039170556 0.019954715 0.09450031 0.017030463 -0.122012936 -0.16509734 -0.13017532 0.18390848
0.003834943 -0.040928543 0.06038813 0.09954371 0.097582795 0.045659028 -0.15562928 -0.031441998
-0.018181426 0.153352 0.007751193 -0.16531196 -0.06310123 0.009504299 -0.072076455 -0.15246364
0.011378856 0.13983008 0.14257348 -0.011085325 -0.12941281 -0.14982198 0.06359819 -0.015327752
0.11775688 -0.06935953 0.17253216 0.039176367 -0.008787215 -0.17877974 -0.0012378303 0.05238148
-0.005033452 -0.0024133194 -0.14180236 0.057058703 0.22921948 0.16636407 0.07329963 0.038708515
-0.12347134 0.12693265 0.019310165 0.11211106 -0.047683667 0.18267818 0.059123073 -0.118473426
0.072019204 -0.009688561 -0.00858222 -0.15006642 -0.03048414 0.08157556 0.12979639 0.26824915
-0.0060840417 -0.06717327 -0.029965205 -0.16217136 -0.33367616 0.19254678 -0.023107488 -0.082013965
0.067323625 -0.03888289 -0.082159095 0.014680118 0.06403226 -0.1141742 -0.14612827 0.14477134
0.093196206 -0.04348665 0.11056377 0.19714692 0.047444306 -0.14059682 -0.029494116 -0.11792759
0.11532845 0.004943376 -0.061671298 -0.15704034 -0.16080157 -0.10826893 0.013421406 -0.19303006
0.082241565 0.11412503 0.088666804 0.056458347 -0.13800076 -0.19746959 -0.12961276 0.12529497
-0.033740092 -0.10432852 -0.18926746 -0.060706783 -0.02636632 0.09644757 -0.030781498 -0.26155123
-0.03244756 0.026524955 0.130378 0.04238533 0.09271488 0.029784566 -0.14365649 -0.06861865
0.034850076 0.15132694 0.015074223 0.10706694 -0.03270456 0.13897976 0.018778471 -0.15864299
-0.066484794 -0.105379425 0.13415435 -0.020465085 -0.048332762 0.05391174 0.10907445 -0.011199799
-0.0123028485 0.08414571 0.02076148 0.025964808 -0.028219726 0.0066162483 -0.079079635 0.11037584
-0.0541671 -0.04677048 -0.0416779 0.06820091 0.20776726 0.05452634 -0.045750417 -0.20765759
-0.038932078 -0.10784583 -0.1509806 -0.20444287 0.071197145 0.17690866 0.1420483 0.035940494
0.059245005 0.2071529 -0.077518985 -0.21668564 -0.11835642 0.047961377 0.018367259 -0.16588563
-0.0894898 0.2054699 0.04465983 -0.043978717 0.077468365 0.054680042 0.021658856 -0.06997698
0.046376586 -0.12229431 -0.08087775 -0.1699007 0.0300389 0.09505101 0.004759608 -0.07225094
-0.17635731 -0.055037655 -0.038746685 0.09658714 -0.028809518 -0.08732346 -0.07254162 0.012789893
0.036639985 0.015502094 0.0030592124 0.2214303 0.016068911 -0.18636447 0.052850943 0.14897795
0.040695373 -0.0626181 0.021136044 0.19553795 0.045207426 -0.090521805 0.04041853 -0.10922251
0.054987457 -0.21497457 0.09286628 0.10697481 0.0036581873 -0.057110082 -0.15435092 -0.13667299
-0.06492781 0.10503054 -0.018084543 -0.026899597 -0.057403494 0.08403024 0.14019848 -0.19439547
-0.09963603 -0.024696192 -0.09790791 -0.07647426 -0.01978146 0.03352223 0.13215944 0.028910046
0.2193066 0.053933043 -0.06012723 -0.055261046 -0.16955245 -0.077476546 -0.11032206 -0.17673226
-0.053659037 0.20693648 0.13417134 0.11511455 0.13998932 0.060332723 -0.013859104 -0.049426097
00000000: d6aa f2bd 3b77 36be 5509 04be 9710 a13d
00000010: ff4b fd3d f3cc bf3d 0778 06be bf51 c8bb
00000020: 4e71 203d 1278 a33c 6189 c13d 7883 8b3c
00000030: ebe1 f9bd 470f 29be ae4c 05be 8152 3c3e
00000040: ab53 7b3b b0a4 27bd 8b59 773d 93dd cb3d
00000050: 7dd9 c73d f604 3b3d 485d 1fbe 53c9 00bd
00000060: 37f1 94bc 4f08 1d3e b8fd fd3b 8a47 29be
00000070: 383b 81bd ebb7 1b3c d29c 93bd 6e1f 1cbe
00000080: 626e 3a3c 9e2f 0f3e c8fe 113e 399f 35bc
00000090: cb84 04be ef6a 19be c53f 823d 4021 7bbc
000000a0: 852a f13d 5f0c 8ebd 45ac 303e 6677 203d
000000b0: 40f8 0fbc 0912 37be b13e a2ba f68d 563d
000000c0: a8ef a4bb c828 1ebb a334 11be 63b6 693d
000000d0: 83b8 6a3e 585b 2a3e 1e1e 963d d28c 1e3d
000000e0: 8bde fcbd a2fa 013e 5a30 9e3c 7c9a e53d
000000f0: f34f 43bd fd0f 3b3e 092b 723d 32a2 f2bd
00000100: ce7e 933d c5bc 1ebc 719c 0cbc 03ab 19be
00000110: e0b9 f9bc 1611 a73d 58e9 043e f457 893e
00000120: a45c c7bb 2492 89bd 9779 f5bc 4010 26be
00000130: 9ad7 aabe fc2a 453e ea4b bdbc f0f6 a7bd
00000140: f8e0 893d aa43 1fbd 0743 a8bd e184 703c
00000150: 5823 833d 2ad4 e9bd a6a2 15be f03e 143e
00000160: a7dd be3d 0f1f 32bd 426f e23d e2e0 493e
00000170: f654 423d 9df8 0fbe a59d f1bc 0584 f1bd
00000180: 5331 ec3d 0bfc a13b 0b9b 7cbd 2fcf 20be
00000190: 2ba9 24be 1abc ddbd 75e5 5b3c aca9 45be
000001a0: 446e a83d 62ba e93d f196 b53d de40 673d
000001b0: 1250 0dbe 7835 4abe 35b9 04be 534d 003e
000001c0: 0d33 0abd 31aa d5bd 54cf 41be ada7 78bd
000001d0: 2efe d7bc 4e86 c53d 7b29 fcbc 0bea 85be
000001e0: bce7 04bd dd4a d93c cf81 053e 3d9c 2d3d
000001f0: 4de1 bd3d c3fe f33c b01a 13be ef87 8cbd
00000200: f4be 0e3d 73f5 1a3e e0f9 763c e945 db3d
00000210: 37f5 05bd b650 0e3e 4fd5 993c 4f73 22be
00000220: 2e29 88bd 2bd1 d7bd c25f 093e 65a6 a7bc
00000230: 93f8 45bd 8fd2 5c3d 6d62 df3d 5d7f 37bc
00000240: e391 49bc 9654 ac3d fb13 aa3c 26b4 d43c
00000250: 0e2d e7bc 1dcd d83b 81f4 a1bd ba0c e23d
00000260: 52de 5dbd 6792 3fbd 72b6 2abd ebac 8b3d
00000270: f1c0 543e 0357 5f3d ca64 3bbd 31a4 54be
00000280: 3e77 1fbd 46de dcbd a99a 1abe 7959 51be
00000290: cfcf 913d 8b27 353e 1c75 113e 5736 133d
000002a0: e4aa 723d e41f 543e 46c2 9ebd d7e2 5dbe
000002b0: da64 f2bd 2673 443d ef76 963c ecdd 29be
000002c0: 6e46 b7bd b466 523e 3aed 363d 0723 34bd
000002d0: bca7 9e3d 2ef8 5f3d ea6d b13c 1750 8fbd
000002e0: 60f5 3d3d 7075 fabd 3ca3 a5bd 73fa 2dbe
000002f0: 2414 f63c 1baa c23d 7cf6 9b3b 4df8 93bd
00000300: 0397 34be 2a6f 61bd d8b4 1ebd 7acf c53d
00000310: f001 ecbc a4d6 b2bd b390 94bd b38c 513c
00000320: cf13 163d 7ffc 7d3c 117d 483b a0be 623e
00000330: f3a2 833c 54d6 3ebe 3b7a 583d ad8d 183e
00000340: 31b0 263d eb3d 80bd 7f25 ad3c 1a3b 483e
00000350: 6c2b 393d 7f63 b9bd e78d 253d 0db0 dfbd
00000360: 873a 613d 4b22 5cbe ad30 be3d 9c15 db3d
00000370: 33be 6f3b 43ec 69bd 2b0e 1ebe 01f4 0bbe
00000380: dff8 84bd 401a d73d 0926 94bc 8b5c dcbc
00000390: ed1f 6bbd 0c18 ac3d 3190 0f3e 9b0f 47be
000003a0: fa0d ccbd ab4f cabc f183 c8bd 899e 9cbd
000003b0: ba0c a2bc 9b4e 093d ce54 073e c3d4 ec3c
000003c0: e991 603e e5e8 5c3d f847 76bd 6859 62bd
000003d0: 289f 2dbe 06ac 9ebd 88f0 e1bd 4df9 34be
000003e0: 94c9 5bbd 28e7 533e 3664 093e 2dc1 eb3d
000003f0: 5c59 0f3e 721f 773d 4c11 63bc 0573 4abd

sensor_data_network.rnn.weight_hh_l0 f4 [64, 64]
0.20139882 -0.04223875 0.22675271 0.040099416 -0.2498546 0.14505592 0.015837414 -0.15487772
-0.040936407 0.02457616 0.12353876 -0.093354106 -0.07354227 0.028802179 -0.08913759 -0.19755481
0.134195 0.11862426 0.23537873 0.09711723 0.17120278 0.03784186 0.14959586 0.06220858
0.018463947 0.11045032 0.027094416 0.09468712 -0.12837644 -0.033586007 0.030453205 0.03423099
-0.07572533 -0.027294464 0.033196356 -0.14547323 0.019264445 0.0029312326 -0.111014724 0.16074085
-0.014909342 0.11338343 -0.09438416 0.11169736 0.12455273 0.114558235 0.27651823 0.09219902
-0.089834444 0.09265903 0.19101566 -0.07471661 0.08571237 -0.05912515 -0.0713256 0.10750863
0.021758936 -0.06423416 0.056584552 0.04305121 -0.1455185 -0.0042981156 0.09345105 -0.1520237
0.020610942 -0.01138366 -0.00096168736 0.10110765 -0.050170515 -0.02270763 -0.0028673422 0.10057809
-0.1250646 -0.16871499 0.025990013 0.12160053 0.10459874 0.00448075 0.028609756 -0.0010170805
-0.08072267 -0.112077445 -0.10219506 -0.024959715 -0.07686244 -0.0089121405 -0.071572736 0.061534908
-0.057681173 -0.016429378 -0.0108639095 -0.069487035 0.085968524 0.1466566 -0.122100666 -0.22461423
-0.058068056 0.12503159 -0.08922635 0.09024627 0.09530625 -0.08831571 0.108967826 0.008079801
-0.024649745 -0.17924929 0.09283087 -0.21908882 0.120983094 0.15661518 -0.017551102 0.0729913
0.11994215 -0.12021198 0.043981466 -0.016597893 0.120423615 0.17679559 -0.00023486456 -0.19726229
0.032375813 0.1257578 0.08775758 0.10964219 -0.019227147 -0.028718187 0.0031777201 0.063437015
0.158732 -0.15548982 0.19762959 0.0055297585 -0.116235115 -0.023628453 -0.037369102 -0.11277068
0.15577121 0.04412483 0.12827356 -0.19666655 0.0019941728 0.09724131 -0.005962018 -0.18187113
0.17919776 0.23178178 -0.015159356 0.07748741 0.12893777 -0.1428294 -0.004519226 0.18605582
0.13907352 0.16607016 -0.102127224 0.10353872 -0.24166068 -0.009277556 0.1193975 -0.02586368
0.11708899 0.0116421515 0.0595246 -0.20208684 0.10465419 0.038165677 -0.109542094 0.04777864
0.06623302 0.10826504 -0.1406132 0.15294152 -0.012287822 0.04641064 0.21200372 -0.08854533
0.10610112 0.06264546 0.18328144 -0.006755315 0.14132744 -0.20997524 0.13839915 0.042461183
0.09148232 -0.19862175 -0.04389991 -0.042223696 0.014154575 -0.06462653 0.0885773 -0.08233029
-0.0021822844 0.06626148 -0.14963624 -0.028328592 0.14036486 -0.056795184 0.013413724 0.09325612
0.0029349637 0.106931604 -0.100330725 0.10099338 0.023659548 -0.021704638 0.028985435 -0.100748554
-0.06316301 -0.044906013 -0.16735932 -0.050314073 -0.09929786 0.013679435 -0.12488701 -0.040894557
-0.09867107 0.0068153986 0.046233844 -0.051703475 0.14112239 -0.16431296 -0.07834785 -0.07048921
0.1588809 -0.054197628 0.08097765 0.099914044 -0.02306051 0.0636507 0.07495725 0.057602856
0.060216036 -0.15543376 0.028222349 0.100321576 -0.09824039 -0.044387735 0.015431569 -0.011547299
0.05874456 0.043965768 -0.03616558 -0.053504 0.03333318 -0.12932405 -0.13515386 0.11443831
0.0235288 0.026289895 -0.12976475 -0.14657502 -0.0024395094 0.032179832 -0.104860045 -0.060862675
00000000: 7e3b 4e3e 8a02 2dbd dd31 683e 493f 243d
00000010: e2d9 7fbe 8a89 143e 77bd 813c 4498 1ebe
00000020: efac 27bd f153 c93c e401 fd3d 7030 bfbd
00000030: 549d 96bd 8cf2 eb3c c58d b6bd cf4b 4abe
00000040: 6a6a 093e 47f1 f23d 1f07 713e 66e5 c63d
00000050: c84f 2f3e 1100 1b3d a82f 193e 6dce 7e3d
00000060: b441 973c c733 e23d 1cf5 dd3c 52eb c13d
00000070: 1d75 03be 7b91 09bd 0079 f93c cb35 0c3d
00000080: e215 9bbd a498 dfbc e7f8 073d eff6 14be
00000090: 78d0 9d3c ec19 403b b05b e3bd 4099 243e
000000a0: 5046 74bc 9235 e83d 7c4c c1bd 96c1 e43d
000000b0: 8015 ff3d 829d ea3d cc93 8d3e d7d2 bc3d
000000c0: 1ffb b7bd 04c4 bd3d 9c99 433e 0605 99bd
000000d0: f889 af3d 372d 72bd 2813 92bd 7c2d dc3d
000000e0: cc3f b23c 338d 83bd 34c5 673d 7756 303d
000000f0: cd02 15be 35d7 8cbb 4463 bf3d 1aac 1bbe
00000100: 47d8 a83c 8882 3abc bf19 7cba 8711 cf3d
00000110: 997f 4dbd 5a05 babc 05ea 3bbb e3fb cd3d
00000120: ef10 00be 9fc3 2cbe 02e9 d43c b309 f93d
00000130: dd37 d63d 41d3 923b 025f ea3c 8f4f 85ba
00000140: ed51 a5bd dc88 e5bd a54b d1bd 5178 ccbc
00000150: 0e6a 9dbd 3a04 12bc ba94 92bd 070c 7c3d
00000160: 1843 6cbd e796 86bc 8afe 31bc 384f 8ebd
00000170: 4410 b03d 262d 163e ea0f fabd 4601 66be
00000180: c5d8 6dbd 4808 003e 4ebc b6bd 09d3 b83d
00000190: ec2f c33d dede b4bd 862a df3d 2461 043c
000001a0: 43ee c9bc 208d 37be 1c1e be3d d258 60be
000001b0: fcc5 f73d bb5f 203e 54c7 8fbc 767c 953d
000001c0: 3ba4 f53d b331 f6bd e925 343d 4ef8 87bc
000001d0: a8a0 f63d e709 353e fa45 76b9 20ff 49be
000001e0: 809c 043d a7c6 003e 3fba b33d 168c e03d
000001f0: 4082 9dbc 6742 ebbc 4c41 503b 44eb 813d
00000200: a48a 223e b938 1fbe 695f 4a3e fa32 b53b
00000210: ad0c eebd 7590 c1bc 5810 19bd 50f4 e6bd
00000220: 7d82 1f3e 3dbc 343d 255a 033e f562 49be
00000230: abb0 023b 7426 c73d 085d c3bb 6d3c 3abe
00000240: 9e7f 373e 3458 6d3e f35e 78bc b8b1 9e3d
00000250: 4308 043e df41 12be 0416 94bb 6b85 3e3e
00000260: 4a69 0e3e 4c0e 2a3e 1428 d1bd 1c0c d43d
00000270: e675 77be e400 18bc ad86 f43d 11e0 d3bc
00000280: 5acc ef3d b9be 3e3c 11d0 733d daef 4ebe
00000290: f054 d63d 9d53 1c3d 9b57 e0bd 89b3 433d
000002a0: 2da5 873d 10ba dd3d e8fc 0fbe b49c 1c3e
000002b0: dc52 49bc 1519 3e3d 8117 593e 4157 b5bd
000002c0: 8b4b d93d 434c 803d 21ae 3b3e b05b ddbb
000002d0: 24b8 103e c003 57be 82b8 0d3e c7eb 2d3d
000002e0: 155b bb3d 8063 4bbe 64d0 33bd c1f2 2cbd
000002f0: 97e8 673c ea5a 84bd 0468 b53d c89c a8bd
00000300: a804 0fbb 19b4 873d 3e3a 19be 5d11 e8bc
00000310: cebb 0f3e 11a2 68bd 3cc5 5b3c 11fd be3d
00000320: 8558 403b f5fe da3d 327a cdbd 9ed5 ce3d
00000330: abd1 c13c edcd b1bc dd72 ed3c 4255 cebd
00000340: 9c5b 81bd 5eef 37bd 3e60 2bbe 2116 4ebd
00000350: ad5c cbbd b51f 603c c3c4 ffbd 0d81 27bd
00000360: 0f14 cabd b553 df3b b35f 3d3d 06c7 53bd
00000370: 6382 103e a841 28be d674 a0bd a65c 90bd
00000380: adb1 223e 55fe 5dbd 9cd7 a53d bc9f cc3d
00000390: 65e9 bcbc 4c5b 823d 3083 993d f9f0 6b3d
000003a0: 17a5 763d 072a 1fbe 8e32 e73c 6675 cd3d
000003b0: 4232 c9bd eacf 35bd b1d4 7c3c e230 3dbc
000003c0: 239e 703d 7315 343d 5c22 14bd 0327 5bbd
000003d0: 5f88 083d 866d 04be c665 0abe a25e ea3d
000003e0: 78bf c03c e85d d73c 0de1 04be c317 16be
000003f0: 2de0 1fbb 00cf 033d ddc0 d6bd 244b 79bd

sensor_data_network.rnn.bias_ih_l0 f4 [64]
0.11867874 -0.041195683 0.07465789 0.03278413 -0.105793804 0.1321975 -0.00034866252 -0.16349377
0.06227672 -0.011766858 0.01712825 -0.09534008 -0.023815278 0.15642148 0.03564843 -0.0073617934
-0.036642123 -0.0321014 0.17287615 -0.04383622 0.083838545 0.117178135 0.040214043 -0.0827786
0.02885906 -0.062419053 0.005690417 0.037845597 -0.16699491 0.12989432 0.033524055 0.09803828
0.04699953 -0.053258225 0.16926011 -0.050414428 0.14904211 0.08489182 -0.1669798 0.030381761
-0.0040401793 0.074109316 0.016563058 0.07524359 0.058859307 -0.022059537 0.14894754 -0.10853925
-0.028432146 -0.039603516 0.0296682 -0.00283485 -0.038055867 -0.09664556 -0.020140456 0.031984497
0.08291108 -0.080851205 0.0014595747 -0.12948558 -0.15128091 0.10891234 0.03077458 -0.038605608
00000000: d70d f33d cebc 28bd 3ce6 983d a748 063d
00000010: 6caa d8bd c85e 073e b1cc b6b9 e96a 27be
00000020: e015 7f3d c8c9 40bc 8b50 8c3c a941 c3bd
00000030: 4218 c3bc f42c 203e 1704 123d 333b f1bb
00000040: 0d16 16bd c27c 03bd 7206 313e 9c8d 33bd
00000050: 8bb3 ab3d 17fb ef3d 7bb7 243d d487 a9bd
00000060: d669 ec3c 1fab 7fbd ad76 ba3b fc03 1b3d
00000070: b700 2bbe 0403 053e 8550 093d 4bc8 c83d
00000080: 9482 403d 4c25 5abd 8652 2d3e 5c7f 4ebd
00000090: 7f9e 183e c3db ad3d c1fc 2abe 2ce3 f83c
000000a0: 7b63 84bb a0c6 973d 40af 873c 5019 9a3d
000000b0: 7516 713d 34b6 b4bc b485 183e d449 debd
000000c0: 88ea e8bc 4c37 22bd ba0a f33c e4c8 39bb
000000d0: 78e0 1bbd 1bee c5bd 99fd a4bc 2d02 033d
000000e0: 49cd a93d 5195 a5bd 334f bf3a de97 04be
000000f0: 62e9 1abe 6f0d df3d f91a fc3c ea20 1ebd

sensor_data_network.rnn.bias_hh_l0 f4 [64]
-0.040420935 0.15744896 -0.018113747 -0.06511195 -0.14180554 0.14236805 0.035495114 -0.0482836
0.098557085 0.04054965 0.048829466 0.10908019 -0.1890463 0.16084869 0.0030850305 -0.08796508
0.0676305 0.17721835 0.034921527 0.01838124 -0.038816925 0.04710538 0.089730635 -0.117372096
0.02499983 -0.04544539 -0.08647689 0.06880314 -0.06650894 0.14570977 -0.07424646 0.007599806
0.07709218 -0.05897883 0.076718494 -0.14586833 0.11891463 0.12539035 -0.10650565 0.017723912
0.008551498 -0.015546245 -0.039998166 -0.005396398 0.16161777 0.004372877 -0.007898327 -0.02105633
0.034453887 0.06480948 0.08923198 -0.006083005 0.052628655 -0.06552611 0.034239676 0.06694035
0.024868589 0.1211417 -0.11039266 0.021314679 0.040248886 0.15929133 0.021589067 0.010678894
00000000: 6c90 25bd 4d3a 213e 4863 94bc 6a59 85bd
00000010: 7935 11be eec8 113e 5363 113d 06c5 45bd
00000020: 4cd8 c93d 6417 263d 6801 483d 6f65 df3d
00000030: 5a95 41be 85b5 243e 392e 4a3b 0927 b4bd
00000040: dc81 8a3d ba78 353e e009 0f3d 4194 963c
00000050: 7ffe 1ebd 92f1 403d b2c4 b73d c860 f0bd
00000060: 72cc cc3c f224 3abd cc1a b1bd a9e8 8c3d
00000070: d735 88bd f134 153e 870e 98bd cb07 f93b
00000080: 81e2 9d3d c993 71bd 961e 9d3d 825e 15be
00000090: 8389 f33d 5466 003e a21f dabd bd31 913c
000000a0: 951b 0c3c adb5 7ebc 1ed5 23bd 44d4 b0bb
000000b0: 217f 253e 5a4a 8f3b fc67 01bc 537e acbc
000000c0: 851f 0d3d d5ba 843d 42bf b63d f253 c7bb
000000d0: 2591 573d 8e32 86bd e73e 0c3d 0618 893d
000000e0: 36b9 cb3c 2419 f83d 8c15 e2bd 1f9c ae3c
000000f0: 04dc 243d 441d 233e 8edb b03c 87f6 2e3c

fc.weight f4 [16, 130]
-0.0054977946 -0.005319555 0.00068907265 -0.086530395 0.031905804 0.12851807 -0.086731285 0.10249102
0.061493587 0.044594336 0.030345771 0.07773285 0.037175078 0.044072203 8.3588326e-05 0.00037335136
0.00014156144 0.04830818 -0.14724287 -0.07112173 0.07232697 -0.0055749463 -0.08401169 -0.13910472
0.008322129 -0.055268377 0.023964873 0.11622939 -0.06866815 -0.09490666 0.05484241 -0.004930605
0.028336305 -0.023074526 0.048734862 0.091402166 -0.08325624 -0.05834078 -0.00014057256 0.04012975
0.05158833 7.880469e-05 -0.08226599 -0.00126054 0.15134127 0.0610215 0.044061776 0.008196761
0.0087297615 0.010922948 0.05850891 0.000111084 -0.01976733 -0.038562164 -0.032000523 2.661378e-06
0.029757788 0.08391045 -1.7607463e-06 -0.051887415 -0.05358954 0.0490878 -0.013889747 -0.0088236425
-0.10618834 0.062383246 0.04322368 0.06628939 0.066121705 -0.073960476 -0.04352994 -0.05500269
-0.07733484 0.009484127 0.07002625 0.030157046 0.017124193 -0.0462757 0.003916534 0.07075791
0.0071926415 -0.04010632 0.01687874 0.02854647 -0.062221393 0.032855332 -0.0704326 0.050143275
-0.04858386 0.0035393727 0.01673309 -0.0030654215 0.007229325 -0.05490357 0.11166088 0.041382875
0.011563391 0.06394901 -0.017216185 0.006293866 -0.06295458 -0.012175143 -0.019830203 -0.11338943
0.006891489 0.054612216 0.014011286 0.054571234 -0.108392924 0.10165445 -0.10198782 -0.039401803
0.046918027 -0.084078155 -0.008071712 0.038801376 0.22421548 0.050970826 0.03694687 -0.01985409
0.00028925092 -0.040780615 0.09832043 -0.037237752 0.13146524 0.0038272783 0.10990372 0.034243125
0.0001342009 -0.006853707 0.020003801 0.0074104904 -2.0215117e-05 -0.030431582 -0.071940824 0.0017742494
-0.06333896 0.015152551 -0.056819167 0.055878706 -0.02475847 -0.07013503 -0.06537425 0.0230752
-2.5605588e-05 0.00010347979 3.274853e-05 -0.05772942 -0.059523705 0.07004834 0.026540542 0.05482662
-0.035912417 0.1161803 -0.06170848 -0.018728111 -0.07356579 -0.08086057 0.06258926 -0.1017664
-0.052838877 0.006863035 1.7033075e-05 -0.02275206 -0.000832773 -0.06740657 -0.0617151 0.04689588
0.00011173188 -0.030144576 0.03768551 9.693094e-05 -0.038511258 -0.0035535148 -0.057668995 -0.004027822
-0.03411878 0.039462693 0.024545426 -0.026134621 -0.019952588 6.382579e-05 0.02868387 -0.08464754
0.031805538 -3.0938343e-05 0.0010430003 0.0177562 -8.2683095e-05 0.060103398 0.016903697 0.007241838
-0.061555862 0.0670042 -0.08416903 0.031961694 0.033112727 -0.002157087 0.039288122 0.004085491
0.037584558 -0.01709281 0.019704655 -0.030984107 0.013893814 0.021158334 -0.14181957 -0.07507327
0.064337686 -0.04870027 0.011444183 -0.027988203 0.014215403 -0.25506175 -0.07354694 -0.04914023
-0.06339942 0.0021151225 -0.03942391 0.09522702 0.011603402 -0.024536623 0.022258908 0.016187157
-0.04482575 0.044256315 -0.083162926 0.12298355 0.043175884 0.05038901 -0.053555172 -0.04467134
0.015921135 -0.009316652 0.0050695287 -0.0013736907 0.08515106 -0.06450472 -0.017196542 0.107433505
-0.02973664 0.068078555 -0.008616996 -0.026229322 -0.05934195 0.0833583 -0.42848963 -0.002988711
-0.03770435 -0.0740845 -0.411248 0.059821382 -0.061435696 -0.010637426 0.023244817 0.004331494
00000000: d826 b4bb a94f aebb e2a2 343a d936 b1bd
00000010: a9af 023d 3e9a 033e 2ca0 b1bd d0e6 d13d
00000020: b3e0 7b3d 8da8 363d b297 f83c 6732 9f3d
00000030: e544 183d 0e85 343d 244c af38 5fbe c339
00000040: 1c70 1439 ccde 453d d6c6 16be 45a8 91bd
00000050: 2a20 943d 0aae b6bb 520e acbd 7871 0ebe
00000060: 8a59 083c 1861 62bd fb51 c43c ad09 ee3d
00000070: e3a1 8cbd 6c5e c2bd 6fa2 603d ea90 a1bb
00000080: 8a21 e83c ca06 bdbc 359e 473d 0f31 bb3d
00000090: 3f82 aabd bef6 6ebd a966 13b9 185f 243d
000000a0: 494e 533d f243 a538 127b a8bd b438 a5ba
000000b0: 35f9 1a3e aef1 793d 1f7a 343d b54b 063c
000000c0: 4607 0f3c 2af6 323c 0aa7 6f3d c5f5 e838
000000d0: 18ef a1bc 5cf3 1dbd fb12 03bd 209a 3236
000000e0: 9bc6 f33c 3ed9 ab3d c852 ecb5 e687 54bd
000000f0: b580 5bbd 4a10 493d d291 63bc 0a91 10bc
00000100: 4679 d9bd 9385 7f3d 500b 313d bbc2 873d
00000110: d16a 873d 9778 97bd 734c 32bd 804a 61bd
00000120: bb61 9ebd 5063 1b3c ec69 8f3d e90b f73c
00000130: 0948 8c3c 978b 3dbd 4556 803b 86e9 903d
00000140: 40b0 eb3b 8646 24bd 4945 8a3c 49da e93c
00000150: dcdb 7ebd 5093 063d f83e 90bd 0963 4d3d
00000160: dfff 46bd d2f4 673b d513 893c 3de5 48bb
00000170: f9e3 ec3b 91e2 60bd 76ae e43d 1781 293d
00000180: 6174 3d3c b3f7 823d f508 8dbc c63c ce3b
00000190: 55ee 80bd 407a 47bc f372 a2bc b838 e8bd
000001a0: 00d2 e13b 0fb1 5f3d 988f 653c 1686 5f3d
000001b0: 1cfd ddbd 3530 d03d fdde d0bd c963 21bd
000001c0: 1e2d 403d 2b31 acbd 373f 04bc 31ee 1e3d
000001d0: be98 653e c9c6 503d 9a55 173d 0ba5 a2bc
000001e0: 9aa6 9739 9309 27bd 395c c93d 9d86 18bd
000001f0: d39e 063e 13d3 7a3b 3415 e13d 8542 0c3d
00000200: 48b8 0c39 1095 e0bb 03df a33c b3d3 f23b
00000210: a293 a9b7 a74b f9bc b655 93bd ee8d e83a
00000220: dbb7 81bd 6842 783c 37bb 68bd 12e1 643d
00000230: 46d2 cabc f4a2 8fbd efe2 85bd 3408 bd3c
00000240: 95cb d6b7 4a03 d938 775b 0938 af75 6cbd
00000250: 21cf 73bd 8175 8f3d 8d6b d93c e191 603d
00000260: e618 13bd f0ef ed3d 08c2 7cbd b26b 99bc
00000270: a9a9 96bd 3a9a a5bd cc2e 803d e76a d0bd
00000280: 946d 58bd 4fe3 e03b 40e2 8e37 8762 babc
00000290: 734e 5aba 750c 8abd f9c8 7cbd e515 403d
000002a0: 9951 ea38 c2f1 f6bc 1f5c 1a3d 6747 cb38
000002b0: fbbd 1dbd 16e2 68bb 5336 6cbd d2fb 83bb
000002c0: 22c0 0bbd a2a3 213d 7d13 c93c 4618 d6bc
000002d0: 9c73 a3bc 36da 8538 6ffa ea3c b05b adbd
000002e0: 8646 023d cbc3 01b8 48b5 883a 7375 913c
000002f0: 2666 adb8 fb2e 763d 9f79 8a3c f14c ed3b
00000300: 0022 7cbd 7f39 893d d060 acbd 44ea 023d
00000310: 36a1 073d ea5d 0dbb 95ec 203d 95df 853b
00000320: 44f2 193d 3806 8cbc a86b a13c 62d2 fdbc
00000330: e1a2 633c 3e54 ad3c 2639 11be 04c0 99bd
00000340: 7ac3 833d ef79 47bd 6280 3b3c 8447 e5bc
00000350: b9e7 683c 7497 82be c79f 96bd 4447 49bd
00000360: 8ed7 81bd de9d 0a3b f77a 21bd 6206 c33d
00000370: 321c 3e3c 0701 c9bc 5058 b63c ee9a 843c
00000380: 359b 37bd 1c46 353d 5351 aabd cdde fb3d
00000390: 32d9 303d b564 4e3d ab5c 5bbd 4cf9 36bd
000003a0: 0a6d 823c dfa4 18bc 4a1e a63b 690d b4ba
000003b0: ae63 ae3d 0d1b 84bd c3df 8cbc 1906 dc3d
000003c0: 419a f3bc c56c 8b3d 4d2e 0dbc e0de d6bc
000003d0: 8b10 73bd c2b7 aa3d fe62 dbbe 40de 43bb
000003e0: e06f 1abd 9db9 97bd 198f d2be 4407 753d
000003f0: ffa3 7bbd 9948 2ebc ea6b be3c 35ef 8d3b

fc.bias f4 [16]
-0.00013101444 -5.2247287e-05 3.68013e-05 3.0375959e-05 -5.1804298e-05 0.00016684219 -0.00011326092 0.0001883281
-0.00020474689 -0.00032031914 3.1432162e-05 0.00040341116 4.740793e-05 3.5368907e-05 0.00012854382 0.00010279097
00000000: ec60 09b9 1924 5bb8 185b 1a38 e0cf fe37
00000010: 7148 59b8 5cf2 2e39 7e86 edb8 f079 4539
00000020: 53b1 56b9 82f0 a7b9 07d6 0338 ee80 d339
00000030: e1d7 4638 1359 1438 b8c9 0639 7b91 d738
