checkpoints/NoGestureNetwork_2023-08-11_13-43-11.pth (torch, 73827 bytes, 10 tensors)

touchscreen_data_network.rnn.weight_ih_l0 f4 [64, 4]
0	0x3dbc663c	0.09199187
1	0x3dd80684	0.10548118
2	0x3de70219	0.11279697
3	0xbd77f2a3	-0.06053413
4	0xbd643f32	-0.05572433
5	0xbd3a0d46	-0.045422815
6	0x3d16e46a	0.036838926
7	0xbdb2ec91	-0.08736528
8	0xbd17318a	-0.03691248
9	0xbddf3e6f	-0.1090058
10	0x3dab0df9	0.083522744
11	0xbdbe9d2c	-0.09307322
12	0xbd377808	-0.044792205
13	0xbd5049c7	-0.05085161
14	0x3d487bfa	0.04894636
15	0x3d54386c	0.05181162
16	0xbd4390a3	-0.04774536
17	0x3d46cdf1	0.048536245
18	0x3d658624	0.05603613
19	0xb93ae040	-0.00017821882
20	0xbd50a664	-0.050939932
21	0xbd3a3f02	-0.045470245
22	0xbdbbfc98	-0.09179038
23	0x3c2347a2	0.009965809
24	0xbdd1e6a3	-0.102490686
25	0xbcfccad4	-0.030858435
26	0x3d24a286	0.040194057
27	0xbd36cbdc	-0.04462801
28	0x3ccd35c4	0.025050052
29	0x3d438a10	0.04773909
30	0x3c704a1d	0.0146661075
31	0x3d33df13	0.043913912
32	0x3cb275b2	0.021784637
33	0x3d73d8d9	0.059532974
34	0x3db888b6	0.090104505
35	0x3dbaa6dd	0.09113858
36	0xbddd1d11	-0.107965596
37	0x3cc1a344	0.023637421
38	0xbc219689	-0.0098625505
39	0xbd715880	-0.05892229
40	0x3dbc35a9	0.09189922
41	0xbcc2abcc	-0.02376356
42	0x3c0f9158	0.00876268
43	0xbdf104da	-0.117685035
44	0x3db2bebd	0.08727787
45	0x3dda91da	0.1067235
46	0x3d9d4f39	0.07681126
47	0xbd6216a9	-0.05519739
48	0xbc007f37	-0.00784283
49	0xbbef4c30	-0.0073027834
50	0xbd003332	-0.031298824
51	0xbdca0d2f	-0.09865796
52	0x3df51b73	0.11968126
53	0x3da7e7cf	0.08198511
54	0xbd873d0d	-0.066034414
55	0x3c88c4b8	0.016695365
56	0xbbf8a17a	-0.007587609
57	0x3d63341c	0.055469617
58	0x3de5da0c	0.1122323
59	0xbcb6e000	-0.022323608
60	0xbd56bd40	-0.052426577
61	0x3cdd281e	0.026996668
62	0x3d7aff5a	0.06127868
63	0x3d38a2f6	0.045077287
64	0xbdbf1422	-0.09330012
65	0x3d1c0a42	0.03809572
66	0xbd8cf76e	-0.06883131
67	0xbc930d22	-0.017950598
68	0x3da6813f	0.081301205
69	0x3cc8f1bb	0.024529329
70	0xbd910ff3	-0.0708312
71	0x3da93739	0.08262486
72	0xbc2e649c	-0.010644104
73	0xbc570269	-0.013123133
74	0xbda2ba4f	-0.07945692
75	0x3d1c2493	0.038120817
76	0x3c98759c	0.018610768
77	0xbd9cecc9	-0.07662351
78	0x3daf94fd	0.08573339
79	0x3a4a6070	0.0007720059
80	0xbd4d0b9e	-0.050059907
81	0xbc76e287	-0.015068657
82	0x3dd77d8b	0.10521992
83	0xbd7cca88	-0.061716586
84	0x3d3951c4	0.045243993
85	0xbcd5c89d	-0.026096636
86	0x3bdde0d4	0.0067711864
87	0x3dcbd45c	0.09952614
88	0xbb89aad4	-0.0042012725
89	0x3ddb60ed	0.107118465
90	0xbd0fca9e	-0.03510534
91	0x3dfae131	0.12249983
92	0xbdd38ed7	-0.10329979
93	0x3d596c11	0.053081576
94	0xbdbee653	-0.093212746
95	0xbda4b6ed	-0.08042703
96	0x3dceb158	0.100924194
97	0x3d9a5398	0.075354755
98	0x3dcda2c4	0.10040811
99	0xbcf424b2	-0.029802654
100	0xbdbc9f0f	-0.092100255
101	0x3dc64837	0.09681743
102	0xbd1e5a7a	-0.038660504
103	0x3ba546ca	0.005043839
104	0x3db35bdf	0.087577574
105	0xbc7c8278	-0.015411966
106	0xbd3be166	-0.045869254
107	0xbd77675c	-0.060401306
108	0x3da8c130	0.082399726
109	0xbcc635de	-0.024195608
110	0xbda3822e	-0.07983814
111	0xbddb65f8	-0.10712808
112	0x3dbd9b12	0.09258093
113	0x3da58a13	0.08082976
114	0x3dd9d66f	0.10636603
115	0x3d3622de	0.044466846
116	0x3cf79b41	0.030225398
117	0xbd6d4b42	-0.0579331
118	0x3d0e4012	0.03472907
119	0x3dd17dac	0.10229048
120	0x3c10d85d	0.0088406475
121	0xbb7993c8	-0.003808247
122	0x3dbd3c6b	0.092400394
123	0xbd25b60a	-0.04045681
124	0xbde915c1	-0.11381102
125	0x3d5c40de	0.0537728
126	0xbd9eb1ab	-0.07748731
127	0xbd35b546	-0.04436233
128	0xbdbb3b9a	-0.091422275
129	0x3d718d7c	0.05897282
130	0x3d00093b	0.031258803
131	0xbd5f36e4	-0.054495707
132	0xbcafbe3c	-0.021453016
133	0xbd18b40b	-0.037281077
134	0x3de5b327	0.11215811
135	0x3cd2ce1b	0.025733044
136	0xbd1224ad	-0.035679508
137	0x3d4f1fee	0.05056756
138	0xbddea094	-0.108704716
139	0x3d8b8a0a	0.06813438
140	0xbc237904	-0.009977583
141	0xbda6e55f	-0.08149218
142	0xbb21b6a4	-0.0024675513
143	0xbc194e8b	-0.009357105
144	0x3d988331	0.07446898
145	0x3d02662e	0.031835727
146	0xbd4e487e	-0.050362103
147	0x3d160752	0.036628075
148	0x3d8af6cc	0.06785354
149	0xbdcefe17	-0.101070575
150	0xbc0f3ed8	-0.00874301
151	0xbde4e00b	-0.11175545
152	0xbd9facf9	-0.07796664
153	0xbd5ad3c3	-0.053424608
154	0x3c8b572a	0.017009337
155	0x3d069c7e	0.032864086
156	0xbd8ceab7	-0.06880706
157	0xbd3623ae	-0.04446762
158	0x3d44e14e	0.04806643
159	0x3d3434a2	0.043995507
160	0xbd1c390e	-0.03814035
161	0x3d8b7b17	0.06810587
162	0xbc5fbe26	-0.013656175
163	0x3d724a68	0.05915299
164	0x3bc27468	0.005934287
165	0xbdcac017	-0.098999195
166	0xbb901040	-0.0043964684
167	0xbda0b0b9	-0.07846207
168	0xbdbe70e4	-0.09298876
169	0x3d09fc80	0.03368807
170	0x3dd0a702	0.10188104
171	0x3dd4e133	0.10394516
172	0xbdc32db3	-0.09530201
173	0x3c6383a4	0.013886366
174	0xbda9f1de	-0.08298086
175	0xbd9fea9a	-0.078084186
176	0x3d065a24	0.03280081
177	0x3b9ee87a	0.0048494907
178	0xbd335335	-0.043780524
179	0xbda414ff	-0.08011817
180	0x3d975ec9	0.07391126
181	0xbda2fcb5	-0.07958356
182	0x3d5cb6c6	0.053885244
183	0x3d628573	0.05530305
184	0xbe001e65	-0.12511595
185	0x3dd81c61	0.10552288
186	0xbd5a38c6	-0.0532768
187	0x3d46c488	0.04852727
188	0x3c8196a5	0.015818903
189	0xbdbaac5a	-0.09114905
190	0x3d9ef3e6	0.07761364
191	0xbd691ac7	-0.056910302
192	0xbd08dca2	-0.033413537
193	0xbd4b1eea	-0.04959003
194	0x3df64761	0.12025333
195	0xbd26098c	-0.04053645
196	0xbc2ed21a	-0.010670209
197	0xbcaf0766	-0.021365833
198	0xbdd35f2b	-0.10320886
199	0xbc96a148	-0.018387452
200	0xbc7cdb5a	-0.015433157
201	0x3d78fb5a	0.060786583
202	0xbe0115df	-0.12606
203	0x3de9f030	0.11422765
204	0x3dae8cc1	0.085229404
205	0x3cb476a8	0.022029236
206	0x3d1eb967	0.038751032
207	0x3be8bada	0.0071023526
208	0xbdfddd02	-0.123956695
209	0xbded4d6e	-0.11587034
210	0x3d6cf9da	0.057855465
211	0x3ba1e2ca	0.0049403654
212	0xbde26531	-0.11054457
213	0x3d6a1fea	0.057159342
214	0xbd9d3857	-0.076767616
215	0x3dfc7bb9	0.12328286
216	0xbb6a6fd4	-0.003577222
217	0xbc40ce52	-0.011767941
218	0xbda5c3e9	-0.080940075
219	0xbd1459d2	-0.03621847
220	0x3d99159f	0.07474827
221	0xbd5c7a22	-0.053827412
222	0x3d214ffe	0.039382927
223	0x3e03651e	0.12831542
224	0x3d6834ba	0.05669091
225	0x3d97545b	0.073891364
226	0xbdfe318d	-0.12411795
227	0x3da8cb1a	0.082418635
228	0xbcac6ab6	-0.021046977
229	0xbd5877d2	-0.052848645
230	0x3d4c18ce	0.049828343
231	0x3deeed37	0.11666339
232	0xbbc3d860	-0.0059767216
233	0xbdc5d87d	-0.096604325
234	0xbda570f8	-0.08078188
235	0xbd29bf53	-0.041442227
236	0xbd5b31e6	-0.053514384
237	0x3ceff16e	0.029289927
238	0x3da31eef	0.079648845
239	0x3dad30f4	0.08456603
240	0xbcefc5b0	-0.02926907
241	0xbd93dec6	-0.07220225
242	0xbd90d3e2	-0.070716634
243	0x3cc775f9	0.024348246
244	0x3db58755	0.08863703
245	0xbdbe8d7b	-0.09304329
246	0x3d4c865a	0.049932815
247	0x3c98307a	0.018577803
248	0xbce59be4	-0.028028436
249	0xbce6e934	-0.028187372
250	0x3c500717	0.012697003
251	0xbd4f8144	-0.050660387
252	0x3cf32c80	0.029684305
253	0xbbcc3066	-0.0062313555
254	0x3c1b26fb	0.009469743
255	0xbd1749ba	-0.036935546

touchscreen_data_network.rnn.weight_hh_l0 f4 [64, 64]
0	0xbcad4510	-0.021151096
1	0x3cf76016	0.030197185
2	0x3ddf0783	0.108901046
3	0x3d59fbf2	0.05321879
4	0xbd850f7f	-0.06497096
5	0x3a3f24b0	0.00072915386
6	0x3ddbac54	0.10726228
7	0x3d128d3b	0.03577922
8	0xbdb643b3	-0.08899631
9	0xbd6b2073	-0.057403993
10	0x3dce1435	0.10062448
11	0xbd574b82	-0.052562244
12	0xb9dd25e0	-0.00042180624
13	0x3d860bcc	0.06545219
14	0x3d696988	0.056985408
15	0x3b89a8a2	0.004201011
16	0x3d94798a	0.07249744
17	0x3daa9ae8	0.08330327
18	0xbde5eb1a	-0.11226483
19	0xbc04945b	-0.008092011
20	0xbd6f3d38	-0.058407992
21	0x3c5c20be	0.013435541
22	0x3dded160	0.10879779
23	0xbdc00ef9	-0.09377856
24	0x3da3689e	0.079789385
25	0xbb37aad0	-0.0028025396
26	0x3d28b885	0.041191597
27	0xbdc21497	-0.094765835
28	0xbd13a65d	-0.03604733
29	0x3cec2864	0.028827854
30	0x3d32f126	0.04368701
31	0xbc2a2286	-0.010384208
32	0xbd2dbcdb	-0.042416435
33	0x3d89c540	0.067270756
34	0x3a595920	0.0008291174
35	0x3cc490b3	0.02399478
36	0xbd90d6f0	-0.07072246
37	0xbd1a6f28	-0.037703663
38	0xbd9bf177	-0.07614415
39	0x3de301df	0.11084341
40	0x3d174fa2	0.03694118
41	0xbd6c820c	-0.05774121
42	0xbc84a8f2	-0.01619384
43	0xbac34db0	-0.0014900472
44	0x3dc94789	0.098280974
45	0x3dac7a42	0.08421756
46	0xbd0ceec8	-0.034407407
47	0x3db8935c	0.090124816
48	0x3c04a985	0.008097057
49	0x3db5b139	0.08871693
50	0x3cd4d67e	0.025981184
51	0xbd2ca44d	-0.042148877
52	0x3daac2e5	0.083379544
53	0xbcd714fe	-0.026255127
54	0xbddc4578	-0.107554376
55	0x3db0cd11	0.08632863
56	0xbcbc1ab0	-0.022961944
57	0xbd98c0c0	-0.07458639
58	0xbdb8e084	-0.09027198
59	0xbd993c95	-0.07482258
60	0x3d98cf4a	0.07461412
61	0xbb31d6c8	-0.0027136076
62	0xbd6706e2	-0.05640305
63	0xbdd0598f	-0.10173332
64	0x3d8d3c21	0.06896234
65	0x3dc44914	0.09584251
66	0x3cd965bd	0.02653777
67	0xbdc74dab	-0.09731611
68	0xbc854f94	-0.016273297
69	0xbde59c7d	-0.112114884
70	0x3cce4dea	0.025183637
71	0xbca2642c	-0.019823156
72	0xbc79b5ea	-0.015241126
73	0x3c8cef8a	0.017204065
74	0x3d9fc773	0.07801714
75	0x3d8b696b	0.06807216
76	0xbdaa4850	-0.08314574
77	0xbdd6a3fb	-0.104804955
78	0x3b48ef18	0.003066009
79	0x3d17e119	0.037079904
80	0x3d808622	0.06275584
81	0xbdbead64	-0.093104154
82	0xbd92c297	-0.07166021
83	0xbd6d4402	-0.057926185
84	0xbdb03482	-0.08603765
85	0x3d05f7e8	0.032707125
86	0xbd5ed03e	-0.054397814
87	0x3de4719a	0.1115448
88	0x3db7b323	0.089697145
89	0xbd140520	-0.0361377
90	0xbda5f737	-0.08103793
91	0xbb8c30ac	-0.004278263
92	0x3d74c469	0.059757624
93	0xbc4b1920	-0.012396127
94	0x3d816c25	0.06319455
95	0x3cf3d65e	0.029765304
96	0x3d8ec41f	0.06971001
97	0xbd0d4922	-0.034493573
98	0xbcf38dd2	-0.029730711
99	0xbc60b2c6	-0.013714498
100	0xbdda9f05	-0.10674862
101	0xbdc2d6ed	-0.0951365
102	0x3ce94d55	0.028479258
103	0x3daedb9b	0.0853798
104	0xbde2e5bd	-0.11078975
105	0x3d1cbb6e	0.038264684
106	0x3d278cda	0.04090581
107	0xbd3dcfba	-0.04634068
108	0x3d0df276	0.034655057
109	0xbdb37e69	-0.08764345
110	0xb9562a80	-0.00020424463
111	0xbdb23446	-0.087013766
112	0x3db35cc4	0.08757928
113	0x3cdf551e	0.027262267
114	0xbd32d1d2	-0.04365713
115	0x3dbd979b	0.09257432
116	0xbc9e4c2b	-0.01932343
117	0x3dae5f1f	0.08514237
118	0x3c8ff845	0.017574439
119	0xbcdf782c	-0.027278982
120	0x3b934d1a	0.004495275
121	0x3deead91	0.11654199
122	0xbdeacd0f	-0.11464893
123	0x3c1e8bb7	0.009676865
124	0xbb4cfc98	-0.0031278487
125	0x3bb0b28e	0.005392379
126	0xbde233ef	-0.11045062
127	0xbdfa8641	-0.12232638
128	0xbbe4dea2	-0.0069845477
129	0x3cd14d2a	0.02554949
130	0x3bda120c	0.0066549834
131	0x39c2f680	0.0003718622
132	0x3e00a9d1	0.1256478
133	0xbd44fb47	-0.0480912
134	0x3cbec415	0.023286859
135	0xbdb2c42d	-0.08728824
136	0xbd8ced62	-0.06881215
137	0xbcdd895a	-0.027043033
138	0xbd19b2c6	-0.037524007
139	0x3d273ec3	0.04083134
140	0x3db917f0	0.09037769
141	0x3dc4a660	0.09602046
142	0xbd763168	-0.06010571
143	0xbd0e08d8	-0.034676403
144	0x3cc2dd0e	0.023787048
145	0xbded69b4	-0.11592427
146	0xbba6cebc	-0.0050905626
147	0x3decabad	0.11556182
148	0xbd92627f	-0.07147693
149	0x3d6eadb5	0.05827113
150	0x3dbff23b	0.09372374
151	0x3d816dd3	0.063197754
152	0xbcce5e27	-0.02519138
153	0xba837338	-0.0010028845
154	0x3d6b4a27	0.057443764
155	0x3d1527b8	0.036414832
156	0x3d83516d	0.06412015
157	0xbc8dc5bc	-0.017306201
158	0xbd344930	-0.04401511
159	0x3d7d874a	0.0618966
160	0x3bd3bb3c	0.006461529
161	0xbd803dd7	-0.06261795
162	0xbcf20e64	-0.029547878
163	0xbdba777d	-0.09104822
164	0x3dabe2ce	0.08392869
165	0x3cc12da0	0.023581326
166	0xbdc0fe6b	-0.094235264
167	0x3db8b864	0.09019545
168	0x3c1a0503	0.009400609
169	0x3da347ca	0.07972677
170	0xbdc22e49	-0.094814844
171	0xbd5ac66e	-0.053411894
172	0xbd256bef	-0.040386137
173	0x3db042cc	0.086064905
174	0xbdf1c41c	-0.11804983
175	0xbd0ce08d	-0.034393836
176	0x3c0f0de6	0.008731341
177	0x3db5727d	0.088597275
178	0xbd95d416	-0.07315843
179	0xbda7b873	-0.08189478
180	0xbdef955d	-0.11698411
181	0x3dc6dc77	0.09710019
182	0x3d606d4b	0.05479173
183	0x3be82964	0.0070850123
184	0x3da9f9b7	0.082995825
185	0x3de0aed2	0.10970844
186	0xbe034131	-0.12817837
187	0x3dbca935	0.09211961
188	0x3d24ea23	0.040262353
189	0xbd4cf40e	-0.050037436
190	0xbdc7c692	-0.09754671
191	0x3d87d205	0.06631855
192	0xbde0957b	-0.10966011
193	0x3ccb6092	0.024826322
194	0x3c615fdc	0.013755765
195	0x3d99e3cf	0.07514154
196	0x3da4422f	0.08020436
197	0x3d883643	0.066509746
198	0x3daf4620	0.08558297
199	0xbd114087	-0.03546193
200	0xbdd73a98	-0.10509223
201	0xbdbc90e6	-0.09207325
202	0x3db0d0bc	0.08633563
203	0xbd4cb682	-0.04997874
204	0xbd8ba913	-0.06819358
205	0x3dde5baa	0.10857327
206	0x3dc6f9ab	0.09715589
207	0x3dde0c14	0.108421475
208	0xbe06a573	-0.13149051
209	0xbcd6d25a	-0.02622335
210	0x3d8bcf78	0.06826681
211	0x3db8de0b	0.09026726
212	0xbb685c00	-0.0035455227
213	0xbd673b4c	-0.056453034
214	0x3da0b8e9	0.07847769
215	0xbc76a1cd	-0.015053225
216	0x3dea1004	0.11428836
217	0xbd451b06	-0.048121475
218	0xbc83d0ba	-0.01609074
219	0x3dd0e352	0.10199608
220	0xbdd56bd9	-0.10420961
221	0xbbfe682c	-0.007763883
222	0x3d210a25	0.039316315
223	0x3dd1d121	0.10244966
224	0xbd1c1cdb	-0.038113456
225	0xbdab64a2	-0.083688036
226	0x3c513b92	0.01277055
227	0x3d83942b	0.06424745
228	0x3d06e8ed	0.03293698
229	0x3ca01f5c	0.019546203
230	0x3d789291	0.06068665
231	0x3c368b7c	0.011141654
232	0xbcc2587f	-0.023723839
233	0xbe00e8e0	-0.12588835
234	0xbd4b5f92	-0.04965169
235	0xbd161d1d	-0.03664886
236	0xbd2b9c29	-0.041896973
237	0xbb38d518	-0.0028203186
238	0x3d1d1fee	0.03836053
239	0x3dc45dfe	0.0958824
240	0x3da1fd0f	0.07909595
241	0xbc72bacb	-0.014815043
242	0xbd99f8a7	-0.0751813
243	0x3d634670	0.055487096
244	0x3de5f3ab	0.112281166
245	0xbd86c8b7	-0.06581252
246	0xbd868cc6	-0.06569819
247	0x3d240ca6	0.040051125
248	0x3d13b197	0.036058035
249	0x3dd1997a	0.102343515
250	0x3dbf0b7e	0.09328364
251	0xbcd9b3a6	-0.02657492
252	0x3dd9571d	0.10612319
253	0xbdc893b6	-0.097937986
254	0x3da56b42	0.080770984
255	0xbcc2af28	-0.023765162

touchscreen_data_network.rnn.bias_ih_l0 f4 [64]
0	0xb886d800	-6.429851e-05
1	0xbca748d5	-0.020420471
2	0x3d273373	0.04082055
3	0xbc953a10	-0.018216163
4	0xbd4f96a4	-0.05068077
5	0x3ce7c14c	0.028290413
6	0x3de5d2ca	0.112218454
7	0xbb248344	-0.0025102654
8	0xbd802100	-0.06256294
9	0xbc5a6eaf	-0.013332053
10	0xb94ff640	-0.00019832794
11	0x3d2dab90	0.042399943
12	0xbdb926e7	-0.09040623
13	0xbc81a783	-0.015826946
14	0xbdb4b20e	-0.08823024
15	0xbdc426ed	-0.09577737
16	0x3cc15bf0	0.02360341
17	0xbde5c7fd	-0.11219785
18	0xbd04766a	-0.03233949
19	0xbd5f8fc0	-0.05458045
20	0xbe02ce40	-0.1277399
21	0xbd8602f2	-0.065435305
22	0x3da8ca95	0.082417645
23	0xbdef0378	-0.116705835
24	0x38ce1b00	9.8278746e-05
25	0xbd2ae808	-0.04172519
26	0x3cac781d	0.021053368
27	0x3c03df1a	0.008048797
28	0x3bcf24aa	0.0063215094
29	0x3ca64c89	0.020300167
30	0x3b22a414	0.0024817036
31	0xbc875dd1	-0.016524227
32	0xbd60edae	-0.05491417
33	0xbdc37413	-0.09543624
34	0xbccb0f56	-0.024787586
35	0xba83a880	-0.0010044724
36	0x3cef4ca2	0.029211346
37	0x3ddb7ded	0.10717378
38	0xbe03f08c	-0.1288473
39	0xbdc9129a	-0.09818001
40	0x3d7d7098	0.061874956
41	0xbde50017	-0.11181658
42	0x3bbed488	0.0058236755
43	0x3b6b6ad0	0.003592182
44	0x3d0af29c	0.033922777
45	0x3d157909	0.03649238
46	0xbc7a8320	-0.015290052
47	0xbc9ad2dc	-0.018899374
48	0x3decbf93	0.115599774
49	0xbd07aceb	-0.03312389
50	0x3d9dc836	0.07704203
51	0xbd8e6cc8	-0.06954342
52	0xbcb13fe2	-0.021636907
53	0x3cb3f8fc	0.021969311
54	0xbcdbcc0d	-0.026830697
55	0x3d3360f5	0.043793637
56	0xbd990343	-0.07471325
57	0x3d82d33c	0.06387946
58	0xbdbbf306	-0.091772124
59	0xbdc24323	-0.094854616
60	0x3d21cadc	0.039500102
61	0xbd99300e	-0.07479869
62	0xbde8c43f	-0.11365556
63	0xbdbf5236	-0.09341852

touchscreen_data_network.rnn.bias_hh_l0 f4 [64]
0	0xbc337e2d	-0.010955376
1	0xbe04c5a3	-0.12966017
2	0x3e045f24	0.12926918
3	0x3c4e26db	0.012582506
4	0xbcd2945e	-0.025705513
5	0x3d9ca5a5	0.07648782
6	0x3d0beeec	0.0341634
7	0x3a5e42c0	0.00084785745
8	0xbb099e30	-0.0020998828
9	0x3c9400a1	0.018066706
10	0x3d9cffd7	0.07665985
11	0x3ddc75c7	0.10764652
12	0xbd0c293a	-0.034219004
13	0x3de846db	0.113416396
14	0xbd8e3073	-0.06942835
15	0x3ddc2dcd	0.10750923
16	0xbcf89122	-0.030342642
17	0xbcb117c3	-0.021617776
18	0x3ca38078	0.01995872
19	0x3db930af	0.09042489
20	0xbdacb0f3	-0.08432188
21	0x3dc59f88	0.09649569
22	0x3d14e62a	0.036352314
23	0xbdff62da	-0.12470026
24	0x3de7b8d0	0.11314547
25	0x3c71f490	0.014767781
26	0x3d999551	0.07499183
27	0x38a8a980	8.042436e-05
28	0x3a73bd40	0.0009297915
29	0x3e0307a8	0.1279589
30	0x3deb6ab6	0.11494963
31	0xbdda307c	-0.10653779
32	0xbd662ea6	-0.05619683
33	0x3dad1341	0.08450938
34	0x3d95995f	0.07304644
35	0x3da49ac6	0.08037333
36	0xbcc40adc	-0.02393096
37	0xbd55b8ab	-0.052178066
38	0x3c89d058	0.016822979
39	0x3d720dcd	0.059095193
40	0x3e0758e5	0.13217504
41	0xbd08d44c	-0.033405587
42	0xbbd21368	-0.006411005
43	0x3c77efce	0.0151328575
44	0xbdd2e960	-0.10298419
45	0x3d5f981c	0.054588422
46	0xbcd5cea0	-0.026099503
47	0xbdf56633	-0.119823836
48	0x3d4cb66a	0.04997865
49	0x3cd1e44d	0.025621558
50	0xbd79a348	-0.060946733
51	0x3d60b008	0.054855376
52	0xbdd74454	-0.105110794
53	0x3c02e028	0.007988013
54	0xbde8a966	-0.11360435
55	0xbd7a6fcb	-0.06114177
56	0x3dcf1062	0.10110547
57	0xbd8f5d6d	-0.070002414
58	0x3db8e118	0.09027308
59	0x3dde7e53	0.10863938
60	0x3d89823a	0.06714292
61	0x3d46f854	0.048576668
62	0x3d835d33	0.06414261
63	0xbcdd2ace	-0.02699795

sensor_data_network.rnn.weight_ih_l0 f4 [64, 6]
0	0xbdac082e	-0.08399998
1	0x3d91e711	0.071241505
2	0xbb14e524	-0.0022719586
3	0x3d7e1c50	0.06203872
4	0x3dcec114	0.100954205
5	0x3d6021ee	0.054719858
6	0xbdf21aec	-0.11821541
7	0xbde498af	-0.111619346
8	0xbda8abc2	-0.08235885
9	0x3d585184	0.052812114
10	0xbb8aa020	-0.004230514
11	0xbd7ca51d	-0.0616809
12	0xbd82dd42	-0.06389858
13	0x3e022900	0.12710953
14	0x3da0e19a	0.0785553
15	0xbc92ac04	-0.017904289
16	0xbd37c87f	-0.044868942
17	0x3de54674	0.111950785
18	0xbdde16e8	-0.10844213
19	0x3da368cc	0.07978973
20	0xbd5f9805	-0.054588336
21	0x3dde9b96	0.108695194
22	0x3c96dd3d	0.018416042
23	0xb9e9a400	-0.00044563413
24	0xbdc3aecc	-0.09554824
25	0xbd63bd22	-0.055600293
26	0xbdbab7ba	-0.09117074
27	0x3dee412c	0.11633524
28	0x3d64b547	0.055836942
29	0x3d934386	0.071906134
30	0x3d070ecc	0.032973096
31	0xbdb28ff7	-0.08718865
32	0xbd12a3d4	-0.03580077
33	0x3dc2b6d0	0.09507525
34	0x3cde9e72	0.027175162
35	0xbe044206	-0.12915811
36	0x3c697646	0.01424939
37	0x3c6dd06f	0.0145150265
38	0xbdd86fe7	-0.10568219
39	0x3d43d874	0.047813848
40	0xbc9b2521	-0.018938603
41	0xbca4542a	-0.020059664
42	0x3da5884a	0.08082636
43	0x3a575490	0.00082142
44	0xbdd266d5	-0.1027352
45	0x39737d40	0.00023220945
46	0x3e0535e0	0.13008833
47	0xbdc47a71	-0.09593666
48	0x3d950e5e	0.07278131
49	0x3d2c2ec5	0.04203679
50	0xbd2e106e	-0.042496137
51	0x3da29b81	0.07939816
52	0x3cdb234f	0.026750235
53	0x3dd1d3e3	0.10245492
54	0x3de5dc77	0.11223691
55	0xbce47ba4	-0.027890988
56	0xbda510f6	-0.08059876
57	0x3d543d60	0.051816344
58	0xbded260a	-0.11579521
59	0x3d2bb2d3	0.041918587
60	0x3c066b6f	0.008204325
61	0xbc74f940	-0.014952004
62	0x3e049e29	0.12950958
63	0xbd86d6ac	-0.06583914
64	0x3d02f117	0.031968202
65	0x3bb9ff7e	0.005676209
66	0xbde979ee	-0.11400209
67	0xbd092798	-0.033485025
68	0x3dd88634	0.10572472
69	0xbd808177	-0.062746935
70	0x3c0ee8e8	0.008722521
71	0x3c01e78f	0.007928743
72	0xbd68bf66	-0.056823157
73	0xbd808d9c	-0.0627701
74	0x3cbc46da	0.022983003
75	0x3dcf69dd	0.10127614
76	0xbd1f5a62	-0.038904555
77	0xbde308bf	-0.110856526
78	0x3c4ef398	0.012631319
79	0xbda352ab	-0.07974752
80	0xbdea8f0e	-0.11453067
81	0xbcaa64fe	-0.02080011
82	0x3d160008	0.036621124
83	0x3da5f14c	0.08102664
84	0xbde814d0	-0.11332095
85	0x3deb865b	0.11500236
86	0x3dd0c8f6	0.1019458
87	0x3d1865c2	0.03720642
88	0x3d03b8b7	0.03215858
89	0x3d3859a4	0.045007363
90	0xbcc6ddc3	-0.024275666
91	0x3ca6cd0a	0.020361442
92	0xbde03968	-0.109484494
93	0xbc77916f	-0.015110358
94	0x3dd2fc69	0.1030205
95	0x3d362d59	0.04447684
96	0xbddb7f34	-0.107176214
97	0x3de3bd45	0.11120085
98	0xbe07dd83	-0.13268094
99	0x3b97bafc	0.0046304446
100	0x3c35c002	0.0110931415
101	0x3cb9f505	0.022699842
102	0x3c9eeea9	0.019400911
103	0xbdf20d86	-0.11818986
104	0xbdc2fe5d	-0.09521172
105	0x3caaaea8	0.020835236
106	0xbd39b76d	-0.045340944
107	0x3ceb766e	0.028742995
108	0xbdb86fa8	-0.09005672
109	0xbd41f773	-0.047355127
110	0xbdcd7139	-0.10031361
111	0xbdc892f0	-0.09793651
112	0xbd119e02	-0.03555108
113	0x3dddab83	0.10823729
114	0x3e002fb8	0.12518203
115	0xbd866b34	-0.06563416
116	0x3df35e62	0.118832365
117	0x3db045fd	0.08607099
118	0x3c1f83ff	0.00973606
119	0xbd504ca4	-0.05085434
120	0x3d1d28d4	0.038369015
121	0x3c24b48e	0.010052813
122	0x3daf50d4	0.085603386
123	0xbdf1a205	-0.11798481
124	0xbbd6a618	-0.0065505616
125	0x3db55b76	0.088553354
126	0xbdd89d44	-0.10576871
127	0xbd4b9cdc	-0.04971014
128	0x3d7bed5e	0.061505668
129	0x3e075f8f	0.13220046
130	0x3dc929e4	0.09822443
131	0xbd645cbf	-0.055752512
132	0xbdcebe71	-0.100949176
133	0x3d1277ff	0.03575897
134	0xbd63ba5c	-0.055597648
135	0xbd711028	-0.0588533
136	0xbc9e6e0a	-0.01933958
137	0x3d3bd366	0.045855902
138	0xbe000bfa	-0.12504569
139	0xbd959758	-0.07304257
140	0xbd468acb	-0.048472207
141	0x3db69d0a	0.089166716
142	0x3c965057	0.018348856
143	0x3cdc9ca7	0.026930166
144	0x3d842c96	0.064538166
145	0x3d899a7b	0.06718918
146	0xbddb784d	-0.10716305
147	0x3d076f3c	0.033065066
148	0xbd598d4e	-0.053113274
149	0xbd76ac3a	-0.06022284
150	0xbde301ed	-0.11084352
151	0xbdbf9e96	-0.0935642
152	0xbdddf241	-0.10837222
153	0xbda47d4e	-0.080317125
154	0x3d7e2afa	0.062052704
155	0x3d42dabc	0.047571883
156	0xbd2d93fa	-0.04237745
157	0xbde1981d	-0.110153414
158	0x3da1b6e6	0.07896213
159	0xbd2226d3	-0.039587807
160	0xbbe2a93e	-0.006917148
161	0xbd7842fa	-0.06061075
162	0x3d1ea96d	0.038735796
163	0xbd763810	-0.06011206
164	0x3d591640	0.052999735
165	0xbd610f14	-0.05494602
166	0xbddb464d	-0.10706768
167	0xbd4fd7f8	-0.050743073
168	0x3ddcc693	0.107800625
169	0x3d8e7446	0.06955771
170	0x3ddc1964	0.107470304
171	0xbdc41c50	-0.09575713
172	0x3cd6a3eb	0.026201209
173	0xbd35a1d9	-0.044343803
174	0x3b8d6fe0	0.004316315
175	0xbd76a6d7	-0.060217705
176	0xbdb9a018	-0.090637386
177	0xbd9fafb3	-0.07797184
178	0xbd984699	-0.074353404
179	0xbdb7ee80	-0.08981037
180	0xbdc96999	-0.09834594
181	0x3d92fca6	0.07177095
182	0xbdb4e1c6	-0.08832125
183	0xbd87f05d	-0.066376425
184	0xbdb6fedb	-0.089353286
185	0xbbb035d0	-0.0053775087
186	0xbd9e583a	-0.07731672
187	0x3b9645dc	0.0045859646
188	0x3dd23c1a	0.1026537
189	0xbd38da1e	-0.045129888
190	0x3dc0de74	0.094174296
191	0x3c1a4882	0.009416701
192	0x3dc2b450	0.09507048
193	0xbdca2268	-0.09869844
194	0xbd1c32d3	-0.038134407
195	0x3d8815c1	0.06644774
196	0x3d539d75	0.051663835
197	0x3dcefed9	0.10107202
198	0xbd83d5b4	-0.06437245
199	0xbb9deade	-0.004819258
200	0xbd767092	-0.06016595
201	0x3d2e8658	0.04260859
202	0xbd21eff4	-0.039535478
203	0xbd8a2597	-0.06745451
204	0xbca53c92	-0.020170484
205	0xbd7a62f0	-0.06112951
206	0x3d443405	0.047901172
207	0xbdbef555	-0.09324137
208	0x3d9e2999	0.07722778
209	0xbdf8d8aa	-0.121507004
210	0x3d863172	0.065524
211	0x3dba137c	0.090857476
212	0x3de84b52	0.11342491
213	0xbe04901f	-0.12945603
214	0xbdf873b6	-0.12131445
215	0xbda4eea8	-0.080533326
216	0x3cf306f4	0.029666401
217	0x3d81030f	0.062994115
218	0x3d984d08	0.074365675
219	0x3d04358b	0.032277625
220	0x3d59f7ab	0.05321471
221	0x3d5352f2	0.051592775
222	0xbdcc2b08	-0.09969145
223	0x3d2a74a0	0.04161513
224	0xbb3fb704	-0.0029253373
225	0xbd9063ed	-0.07050309
226	0x3d9b642b	0.07587465
227	0x3d60575a	0.054770805
228	0x3da4845d	0.08033059
229	0xbd03b23c	-0.0321524
230	0x3de01b22	0.10942675
231	0x3dad950c	0.08475694
232	0x3cb3604e	0.021896508
233	0xbdce6e02	-0.10079576
234	0x3d21508a	0.03938345
235	0x3d99e1b8	0.075137556
236	0xbd246d18	-0.040143102
237	0xbd151160	-0.036393523
238	0x3bf17062	0.0073681334
239	0xbd8130b2	-0.06308116
240	0xbc20fc9b	-0.009825851
241	0x3da37475	0.07981197
242	0x3cfce42c	0.03087052
243	0x3da5d356	0.0809695
244	0xbda05026	-0.07827787
245	0x3d0e00b1	0.034668628
246	0x3dfe06e7	0.1240366
247	0x3d1653bf	0.03670096
248	0x3bce302a	0.0062923627
249	0xbd94b2f9	-0.07260699
250	0xbd6757d2	-0.056480236
251	0xbc025cb6	-0.007956674
252	0x3e013980	0.12619591
253	0xbde3c73e	-0.11121987
254	0xbcd83316	-0.026391547
255	0xbddeab6e	-0.10872541

sensor_data_network.rnn.weight_hh_l0 f4 [64, 64]
0	0x3d2f1b4d	0.042750645
1	0xbdc8fc5e	-0.0981376
2	0xbcdcd1e2	-0.026955549
3	0xbdc9b1d6	-0.09848373
4	0x3cd7ed86	0.026358377
5	0x3ce3f7d2	0.02782813
6	0x3d03b0ad	0.032150913
7	0x3d99c772	0.07508744
8	0xbd9c9bff	-0.076469414
9	0xbc775ddd	-0.015098062
10	0x3d246ac0	0.040140867
11	0x3d2e38cc	0.042534634
12	0xbd2c50a0	-0.042069077
13	0x3d148665	0.03626098
14	0xbd97c103	-0.07409861
15	0xbda14179	-0.07873816
16	0x3da390c5	0.07986597
17	0x3c887428	0.01665695
18	0xbda493cc	-0.080360025
19	0xbc6e559d	-0.014546779
20	0x3cb0087b	0.021488419
21	0xbd2c8ecd	-0.042128373
22	0x3bcca0f0	0.006244771
23	0x3d0f2ff6	0.03495785
24	0xbd146e3d	-0.036237944
25	0xbd2ef9a9	-0.042718563
26	0x3cfc549d	0.030802066
27	0xbe080d9e	-0.13286445
28	0xbcaa25e8	-0.020770028
29	0xbd2fa241	-0.042879347
30	0xbd92d8ec	-0.07170281
31	0x3d3b8e7a	0.045790173
32	0x3d620f51	0.055190388
33	0x3dd97b92	0.10619272
34	0xbd95667a	-0.072949365
35	0xbdcc17d3	-0.099654816
36	0xbc1a66d3	-0.009423929
37	0x3cac0a1e	0.021000918
38	0x3a32ba90	0.0006817961
39	0x3dfff161	0.12497211
40	0xbcb27ed8	-0.021789
41	0x3d3d3975	0.046197373
42	0x3dacdcca	0.0844055
43	0x3bb3c4d2	0.0054861093
44	0x3aaa4a88	0.0012992183
45	0xbd28b9ad	-0.0411927
46	0xbd80e975	-0.062945284
47	0xbb1956bc	-0.0023397645
48	0xbdb93f0a	-0.09045227
49	0xbca5f254	-0.020257153
50	0x3dd843c4	0.105598
51	0xbda7ebab	-0.08199247
52	0x3d7a5f53	0.061126065
53	0x3d886373	0.066595934
54	0x3c8f0b24	0.017461367
55	0x3e009dc3	0.12560181
56	0xba365870	-0.0006955927
57	0xbdc774a2	-0.09739043
58	0x3d4297ad	0.04750793
59	0xbdb8f829	-0.09031708
60	0xbd9f0cf0	-0.077661395
61	0xbdadf550	-0.08494055
62	0x3dc155b6	0.09440176
63	0x3dac9404	0.08426669
64	0xbd8a6c59	-0.06758947
65	0xbde5926f	-0.112095706
66	0x3d82ae02	0.063808456
67	0xbde57977	-0.11204808
68	0x3d31ba60	0.04339063
69	0xbda50a26	-0.08058576
70	0xbcdf75e0	-0.027277887
71	0xbd560fd8	-0.052261204
72	0xbddd90f3	-0.108186625
73	0xbc9ad809	-0.018901842
74	0xbcae16df	-0.02125114
75	0xbd44233e	-0.047885172
76	0xbdbee5bb	-0.09321161
77	0xbd9f10db	-0.07766887
78	0xbe0662cc	-0.13123626
79	0x3ddc630c	0.10761079
80	0x3d9f500c	0.077789396
81	0xbd4d5325	-0.05012812
82	0xbdb449b7	-0.088031225
83	0xbe00cdb7	-0.12578474
84	0x3d186e98	0.037214845
85	0x3df6953f	0.12040185
86	0xbd146706	-0.036231063
87	0x3b4b9514	0.00310642
88	0x3d149428	0.036274105
89	0x3d057706	0.032584213
90	0xbd5406b2	-0.051764198
91	0xbd8ea44a	-0.069649294
92	0xbc8ca337	-0.01716767
93	0xbc77d44a	-0.015126297
94	0x3dacdefc	0.084409684
95	0xbc7f5604	-0.015584473
96	0xbdb1e838	-0.0868687
97	0xbd11dbdb	-0.03561006
98	0xbd924a84	-0.07143119
99	0xbdd10e36	-0.10207789
100	0xbd6ae318	-0.05734548
101	0xbe02db2e	-0.12778923
102	0xbe0408c5	-0.1289397
103	0x3dc068b8	0.093949735
104	0x3d4afce7	0.049557593
105	0xbd1f4276	-0.03888174
106	0x3d876f52	0.066130295
107	0xba956338	-0.0011397367
108	0xbda293b1	-0.07938326
109	0xbd7e9a5e	-0.062158935
110	0x3cf4f28e	0.029900815
111	0x3dd4921e	0.10379432
112	0x3ce311e4	0.027718492
113	0xbdc88c32	-0.09792365
114	0x3c284116	0.010269424
115	0x3daea0c7	0.085267596
116	0xbdd71f16	-0.10503976
117	0x3d8308f2	0.063981906
118	0x3d6e6450	0.058201134
119	0xbde44a22	-0.11146952
120	0xbd51aa18	-0.051187605
121	0xbbf83f68	-0.007575918
122	0x3db9b959	0.090685554
123	0xbda5fa6e	-0.08104406
124	0xbdad30e2	-0.08456589
125	0xbca1a10c	-0.019730113
126	0x3dca2ab3	0.098714255
127	0xbdf38a9d	-0.11891673
128	0x3c05e16b	0.00817142
129	0x3d18ebd8	0.037334293
130	0xbd7cfbc7	-0.06176355
131	0x3dade50d	0.084909536
132	0xbdd65912	-0.104662076
133	0xbcc84ff7	-0.024452193
134	0x3aac9ee0	0.0013169907
135	0xbd1a57b9	-0.037681315
136	0x3c2e4131	0.01063566
137	0xbb9a4e42	-0.004709036
138	0xbdda3e08	-0.10656363
139	0x3dbd413a	0.092409566
140	0x3da577c7	0.08079486
141	0xbacc2d70	-0.0015577506
142	0xbda6737f	-0.08127498
143	0x3d8ec7c3	0.06971695
144	0x3de8cf55	0.113676704
145	0xbdd7c540	-0.10535669
146	0x3daf2a91	0.08553041
147	0x3d8a57dd	0.0675504
148	0xbd8b9e30	-0.06817281
149	0x3c28f6e6	0.010312771
150	0xbd2e3558	-0.04253134
151	0xbde7526a	-0.11295016
152	0xbdc62f5e	-0.09677003
153	0x3cc77d14	0.024351634
154	0xbb6bd6d4	-0.0035986202
155	0x3ca172b3	0.019708013
156	0xbdde07bf	-0.10841321
157	0x3d902653	0.0703856
158	0x3d34323f	0.04399323
159	0x3db4e6e9	0.08833105
160	0xbde3c462	-0.111214414
161	0xbdd79b00	-0.10527611
162	0x3cf0000e	0.029296901
163	0x3b989654	0.0046565924
164	0x3baa493e	0.0051967194
165	0xbd919121	-0.07107759
166	0xbc6bbf9a	-0.014388943
167	0x3e079a1d	0.13242383
168	0xbdcaa7e7	-0.09895306
169	0x3d2d7ac3	0.042353403
170	0xbd28eec1	-0.04124332
171	0x3c8e2d68	0.017355636
172	0xbdde9125	-0.10867528
173	0xbd74f8ef	-0.059807714
174	0x3ce61684	0.028086908
175	0xbda2253a	-0.07917257
176	0x3d733c1c	0.059383497
177	0xbda7aefe	-0.08187674
178	0xbd35b276	-0.044359647
179	0x3e008ca6	0.12553653
180	0xbd06c1be	-0.03289961
181	0xbc8dad5a	-0.017294575
182	0x3d54420f	0.05182081
183	0xbd6a1eea	-0.05715839
184	0xbdbe4425	-0.09290341
185	0xbd25861a	-0.040411092
186	0x3db36f52	0.08761467
187	0x3d8c1ec4	0.068418056
188	0x3b9922aa	0.0046733217
189	0xbdd8af08	-0.105802596
190	0x3d5626f2	0.052283235
191	0x3d2ed388	0.0426822
192	0x3daeab88	0.08528811
193	0xbd50421c	-0.050844297
194	0xbd0ce404	-0.03439714
195	0xbd8e6374	-0.06952563
196	0xbdb87e14	-0.090084225
197	0x3cd89b0c	0.02644112
198	0x3cf7b0ca	0.030235667
199	0xbdd769d2	-0.105182305
200	0x3dbd025c	0.09228966
201	0x3c042b84	0.008067016
202	0xbd1ab80e	-0.037773184
203	0xbcccc91b	-0.024998238
204	0x3dc4862c	0.09595904
205	0xbde7d2b0	-0.11319482
206	0x3c2d253e	0.010567961
207	0xbdae1efc	-0.085020036
208	0x3d20fb5c	0.039302215
209	0x3d7c0726	0.061530255
210	0xbd352e0e	-0.044233374
211	0xbc6f818b	-0.014618288
212	0xbd86fb35	-0.06590883
213	0x3dcd715a	0.10031386
214	0x3c5f9fbe	0.013648925
215	0xbca4a82a	-0.020099718
216	0xbd5e0e71	-0.05421299
217	0xbbafa30e	-0.005360014
218	0x3da6f4d4	0.08152166
219	0xbd8dcc24	-0.06923702
220	0x3e076156	0.13220724
221	0xbc0e9842	-0.008703293
222	0x3d815f67	0.06317025
223	0x3e056252	0.13025787
224	0xbd67e00e	-0.05661016
225	0x3d3a74d1	0.04552156
226	0x3aa04a48	0.0012229169
227	0xbdc2ada8	-0.095057786
228	0x3da4e0a6	0.08050661
229	0xbcdc7bc4	-0.026914485
230	0x3dad601e	0.084655985
231	0xbc0c5307	-0.008564717
232	0xbdf2b8ee	-0.11851679
233	0x3e087166	0.13324508
234	0xbd8a1fa9	-0.0674432
235	0x3cb4ff3e	0.022094365
236	0x3d9d21a0	0.07672429
237	0xbdeeba38	-0.11656612
238	0x3c2d8983	0.010591867
239	0x3ce505d0	0.027956873
240	0x3d2bc88a	0.041939296
241	0xbdbedc0f	-0.093193166
242	0xbde8e0ed	-0.11371026
243	0x3da8e946	0.082476184
244	0x3d399425	0.045307297
245	0x3d58d154	0.052934006
246	0xbd4570a3	-0.048203122
247	0x3d510263	0.051027667
248	0x3dab4171	0.08362091
249	0x3c31287b	0.010812874
250	0x3b1251bc	0.002232655
251	0xbd65fc2a	-0.056148686
252	0xbda4ad18	-0.080408275
253	0xbdae2a1f	-0.08504128
254	0x3c98940a	0.018625278
255	0x3db42706	0.08796506

sensor_data_network.rnn.bias_ih_l0 f4 [64]
0	0x3cfdcef2	0.030982468
1	0x3dee9989	0.11650378
2	0x3dfd233d	0.12360237
3	0xbb5f97f8	-0.003411768
4	0xbdb6b333	-0.08920898
5	0xbdb3cefe	-0.08779715
6	0x3dbdaf9e	0.09262012
7	0xbdc1fd20	-0.09472108
8	0x3dd28ab9	0.102803655
9	0xbd164a83	-0.036692154
10	0x3dc21545	0.09476713
11	0xbd1a05d4	-0.037603214
12	0xbd01cbca	-0.03168849
13	0x3ddc043a	0.10742994
14	0x3bde84c4	0.0067907292
15	0xbdb85b30	-0.09001768
16	0xbd9ee4ea	-0.07758506
17	0xbda6208d	-0.08111677
18	0xbd15de3c	-0.036588892
19	0xbb9c248e	-0.0047651
20	0xbda0b74c	-0.07847461
21	0x3de32f73	0.110930346
22	0xbce1b45c	-0.027551822
23	0xbe001e59	-0.12511577
24	0x3cbf4f38	0.023353204
25	0xbdcae7ea	-0.09907515
26	0x3be5f8fa	0.0070182057
27	0xbd757de6	-0.05993452
28	0x3dda75ee	0.106670246
29	0xbd8afd38	-0.06786579
30	0x3dbca1d6	0.09210555
31	0x3d497bde	0.049190395
32	0xbddb3d40	-0.10705042
33	0xbd66837d	-0.05627774
34	0x3c30483e	0.010759411
35	0x3da090ec	0.07840142
36	0x3df6b60e	0.12046443
37	0x3dd6dfbe	0.10491894
38	0x3da91a8c	0.082570165
39	0x3d1abcb2	0.03777761
40	0x3deefcce	0.116693124
41	0xbd44e7c4	-0.04807259
42	0xbb9364f2	-0.0044981176
43	0x3dee64e3	0.11640336
44	0xbca96474	-0.020677783
45	0x3e06fe92	0.13183048
46	0xbcffaa28	-0.031209067
47	0x3cc0aa52	0.023518715
48	0xbcb1c716	-0.021701377
49	0x3d0db36c	0.03459494
50	0xbde5f3c4	-0.11228135
51	0xbd99d5af	-0.0751146
52	0x3d8151e4	0.063144475
53	0xbda7fefa	-0.0820293
54	0xbdec3fde	-0.11535619
55	0x3d9819ff	0.07426833
56	0xbdfcc348	-0.123419344
57	0xbd8ed191	-0.06973565
58	0x3c574180	0.013138175
59	0xbcc97aee	-0.02459475
60	0x3d822cc2	0.06356193
61	0xbdeb09ea	-0.114765
62	0x3d92820a	0.07153709
63	0x3c2c479d	0.010515121

sensor_data_network.rnn.bias_hh_l0 f4 [64]
0	0xbdd5d33e	-0.10440682
1	0x3dbf2cd6	0.09334724
2	0xbddf43ff	-0.10901641
3	0x3d609a1c	0.05483447
4	0x3df4a729	0.11945946
5	0xbb3e7bc4	-0.002906547
6	0x3d240325	0.04004206
7	0xbc54b416	-0.012982389
8	0xbd1f12ea	-0.038836397
9	0x3d7f003a	0.062256075
10	0xbda324c7	-0.07965999
11	0xbdca96be	-0.09892033
12	0x3dc0ebcc	0.09419975
13	0x3db8294c	0.08992252
14	0x3d3857e4	0.045005694
15	0xbdc84a35	-0.09779779
16	0x3d48c6ea	0.049017824
17	0xbd925896	-0.07145803
18	0xbd77f6d8	-0.060538143
19	0x3d806d14	0.06270805
20	0xbcd757a0	-0.0262869
21	0x3d100a11	0.03516585
22	0xbdd8cd94	-0.10586086
23	0xbd3e9273	-0.046526384
24	0x3dbd4a12	0.092426434
25	0xbccd5792	-0.02506617
26	0xbd24cb59	-0.04023299
27	0xbcd3fcd1	-0.025877388
28	0x3d3ed000	0.046585083
29	0x3de334f0	0.110940814
30	0xbcb2d468	-0.021829799
31	0x3c546490	0.012963429
32	0xbe0087c4	-0.1255179
33	0x3cfb9384	0.03070999
34	0x3dbfe1b4	0.09369221
35	0x3dce472c	0.10072169
36	0xbc3eb148	-0.011638947
37	0xbb2fdf98	-0.0026836153
38	0x3c1842cf	0.009293272
39	0x3c015770	0.007894382
40	0xbdc06ae8	-0.09395391
41	0x3d4b701c	0.049667463
42	0x3d1d3968	0.038384825
43	0xbd49cb51	-0.049266163
44	0xbdacc4aa	-0.08435948
45	0xbd34b1db	-0.04411493
46	0x3d302a98	0.04300937
47	0xbc2960d2	-0.010338025
48	0x3dcf6366	0.101263806
49	0xbdcece09	-0.10097892
50	0x3c487ccb	0.012236784
51	0x3c1941bf	0.009354054
52	0x3c9a9a09	0.018872278
53	0xbd4b8f0c	-0.049696967
54	0x3bf0512a	0.0073338943
55	0xbddcd646	-0.10783057
56	0x3d5f4a70	0.05451435
57	0xbd96a29c	-0.07355234
58	0x3cdbdd2e	0.026838865
59	0xbdadb0e8	-0.08481008
60	0xbdb0e4f1	-0.08637417
61	0x3d71fde6	0.059080027
62	0x3dc70c3c	0.097191304
63	0x3d3d6c1e	0.046245687

fc.weight f4 [64, 130]
0	0xbd96fde5	-0.07372645
1	0x3d644206	0.055727027
2	0x3c1a4c15	0.009417553
3	0xbcbb77f2	-0.022884343
4	0xbd8241d8	-0.06360215
5	0x3cf78b46	0.030217778
6	0x3d4f16b2	0.050558753
7	0x3d11c295	0.03558596
8	0x3d042c7f	0.032268997
9	0x3d51940c	0.05116658
10	0x3d892809	0.06697089
11	0x3b066f50	0.0020513125
12	0x3c366780	0.011133075
13	0x3d197ae1	0.037470702
14	0x3caf0cf2	0.021368477
15	0xbcf3ac1d	-0.029745156
16	0xbc045604	-0.008077148
17	0xbdbe0f7d	-0.09280298
18	0x3abd2378	0.0014430126
19	0x3da79c63	0.08184125
20	0x3d259e3c	0.040434107
21	0xbd67eced	-0.056622434
22	0xbc30a5df	-0.010781734
23	0xbd612628	-0.05496803
24	0x3d5aa2c8	0.053377897
25	0xbd72afc1	-0.059249643
26	0xbc8a7188	-0.016899839
27	0xbd74541d	-0.05965053
28	0x3cd69474	0.026193835
29	0xbcbf82be	-0.023377772
30	0x3d74cc70	0.05976528
31	0x3c2673ae	0.010159416
32	0xbcfc493f	-0.030796645
33	0x3daad78d	0.08341894
34	0xbd5958e6	-0.053063296
35	0xbd658896	-0.05603846
36	0xbc755500	-0.014973879
37	0xbcfd6d26	-0.030935835
38	0xbd0426f6	-0.03226372
39	0x3dc71a86	0.09721856
40	0x3d39f3e3	0.045398604
41	0x3c0d6f29	0.00863246
42	0x3d9b149f	0.075722925
43	0xbc97f78c	-0.018550657
44	0xbd622cf9	-0.05521867
45	0x3d93718c	0.07199392
46	0x3c979b2b	0.018506607
47	0x3c9b9492	0.018991742
48	0x3d1e255f	0.03860986
49	0x3d91876e	0.07105909
50	0x3d4b5038	0.04963705
51	0x3c87128e	0.01648834
52	0xbca00484	-0.019533403
53	0xbdb703fc	-0.08936307
54	0xbd594e7c	-0.053053364
55	0x3dbd9e19	0.0925867
56	0x3d905194	0.0704681
57	0xbd1c55e0	-0.038167834
58	0x3c76fc80	0.015074849
59	0x3d47692b	0.04868428
60	0xbd94a70c	-0.07258424
61	0x3d9dfbc7	0.07714038
62	0x3da8e35a	0.08246489
63	0x3ca0bca2	0.019621197
64	0x3d17b5f0	0.037038743
65	0x3dc11417	0.0942766
66	0xbd003d54	-0.031308487
67	0x3c5efb8b	0.013609777
68	0xbd8adfa0	-0.06780934
69	0x3d8ced12	0.06881155
70	0x3d7ddf17	0.061980333
71	0xbd683d55	-0.056699116
72	0x3d5e5605	0.054281253
73	0x3c49e146	0.012321776
74	0xbd012adf	-0.031535026
75	0x3d354dfc	0.044263825
76	0xbd4147fa	-0.047187783
77	0xbd99ccc0	-0.07509756
78	0xbd8d24e6	-0.068918034
79	0xbcfeaf52	-0.031089459
80	0x3caf96a0	0.021434128
81	0x3dc20dac	0.09475264
82	0x3ae7eeb8	0.0017695045
83	0x3c6d4552	0.014481859
84	0x3dc52532	0.09626235
85	0xbd88cc82	-0.06679632
86	0xbce4891c	-0.02789741
87	0xbcf7e412	-0.03026012
88	0xbd04c7de	-0.03241717
89	0x3d84931d	0.06473372
90	0x3dacb2d6	0.08432548
91	0x3dbc7fae	0.092040405
92	0xbc8f7e7a	-0.017516363
93	0x3d01806a	0.031616606
94	0xbd38c140	-0.045106173
95	0xbd5e5922	-0.054284222
96	0xbd81e738	-0.063429296
97	0xbd78faa0	-0.06078589
98	0xbd32ba44	-0.043634668
99	0x3ced1a17	0.028943105
100	0x3c830440	0.015993237
101	0xbc2bec0a	-0.010493288
102	0xbcec5f40	-0.028854012
103	0x3d8f12f3	0.06986036
104	0x3bfc717c	0.007703958
105	0x3d3918f0	0.045189798
106	0xbd9bf224	-0.07614544
107	0x3c85e767	0.016345693
108	0xbc65a746	-0.014016932
109	0xbc6c95c1	-0.014440001
110	0xba744090	-0.0009317482
111	0xbd2b58c8	-0.041832715
112	0xbd4c7333	-0.04991455
113	0x3c3f7639	0.011685901
114	0xbd3a48bf	-0.045479532
115	0xbd97c44c	-0.074104875
116	0x3cab4cae	0.020910587
117	0x3cc1ed3a	0.023672689
118	0xbce882ec	-0.02838274
119	0x3d083ac0	0.033259153
120	0x3d1be864	0.03806342
121	0xbd062f01	-0.03275967
122	0x3d37e87c	0.04489945
123	0x3d154bf4	0.036449388
124	0xbbeb0356	-0.0071720285
125	0xbd43729f	-0.047716733
126	0xbcefbe50	-0.029265553
127	0xbd0fc392	-0.03509862
128	0x3cd67096	0.026176732
129	0x3a4da450	0.0007844614
130	0xbd8fdf1a	-0.07024975
131	0x3ca3158d	0.019907737
132	0xbc293ccb	-0.010329436
133	0xbd915a2f	-0.07097279
134	0xba0074e0	-0.0004900228
135	0xbd432f6f	-0.047652658
136	0xbd714238	-0.05890104
137	0x3d5c9829	0.05385605
138	0x3d787e53	0.060667347
139	0x3dc7c960	0.09755206
140	0x3d99161a	0.07474919
141	0xbc0f24fa	-0.008736843
142	0x3d00ad86	0.031415485
143	0x3d4581f0	0.04821962
144	0x3c7dcaaf	0.015490218
145	0x3b7769a4	0.0037752176
146	0x3dc44ec3	0.09585335
147	0x3dbc77e6	0.09202556
148	0xbd31f64c	-0.043447778
149	0xbd8843b2	-0.06653537
150	0xbda569f9	-0.08076853
151	0xbbbf6a20	-0.0058415085
152	0xbd511eea	-0.051054873
153	0xbd953e00	-0.07287216
154	0x3d0109f9	0.03150365
155	0xbd83cdae	-0.06435715
156	0xbd051697	-0.032492246
157	0xbd93999e	-0.072070345
158	0xbd31595c	-0.04329811
159	0x3d3c1e4f	0.045927342
160	0x3d811be2	0.06304146
161	0xbce8c4f0	-0.02841422
162	0xbd37b260	-0.044847846
163	0xbd2852bc	-0.041094527
164	0x3d0497a9	0.032371197
165	0x3baa92ec	0.0052055027
166	0x3d3df57c	0.04637669
167	0x3d58848a	0.052860774
168	0xbd7e7cf7	-0.062130895
169	0xbd144bab	-0.036204975
170	0x3c482ae0	0.012217253
171	0xbd148775	-0.036261994
172	0xbbe03130	-0.006841801
173	0x3cabeade	0.020986017
174	0x3c81fd53	0.015867865
175	0xbda0ca4e	-0.078510866
176	0x3dc76eb4	0.09737912
177	0xbc899954	-0.016796745
178	0xbc891b25	-0.016736576
179	0xbcfce215	-0.030869523
180	0xbbeae978	-0.007168945
181	0x3cf29b60	0.029615104
182	0x3d82ffe2	0.06396462
183	0x3d8aa9cc	0.067706674
184	0xbcb9e36a	-0.022691447
185	0x3d961541	0.073282726
186	0xbd3ec3e1	-0.046573523
187	0xbd0e08d2	-0.03467638
188	0xbba491c0	-0.0050222576
189	0x3d4b95d8	0.04970345
190	0x3c911fe0	0.017715394
191	0xbb8e3b00	-0.0043405294
192	0x3bd393ea	0.0064568417
193	0x3d37bfc4	0.044860616
194	0x3d133679	0.03594062
195	0x3c564ad5	0.013079365
196	0x3d8ce93e	0.06880425
197	0x3d9643a2	0.07337119
198	0xbd035f44	-0.032073274
199	0x3d4d290c	0.050087973
200	0xbd560666	-0.052252196
201	0xbd5b7798	-0.05358085
202	0x3d8da58e	0.06916343
203	0xbd94da50	-0.07268202
204	0xbd076858	-0.033058494
205	0xbda82044	-0.08209279
206	0xbb0acf20	-0.0021180585
207	0x3ca0e574	0.019640662
208	0x3b8eddc4	0.0043599326
209	0x3c4d3b23	0.012526306
210	0x3d7ac0ce	0.06121903
211	0xbdb609d5	-0.08888594
212	0xbd00b05d	-0.031418193
213	0xbd779b62	-0.06045092
214	0xbbed49a6	-0.0072414456
215	0x3d168769	0.03675023
216	0x3c919faa	0.01777633
217	0xbd8fa355	-0.07013575
218	0xbd89e50a	-0.06733139
219	0xbdaf9858	-0.08573979
220	0x3cbf0046	0.02331556
221	0x3d3fa17e	0.04678487
222	0x3d6e7f8d	0.05822711
223	0x3d68aa0c	0.056802794
224	0xbafd2700	-0.0019313991
225	0x3cc9077e	0.024539705
226	0xbd990438	-0.07471508
227	0xbc38b89b	-0.011274482
228	0x3d1e3d32	0.03863258
229	0x3ca5d356	0.020242374
230	0x3d096415	0.03354271
231	0x3d4ce6d1	0.05002481
232	0x3d3cdbd0	0.046108067
233	0x3c911355	0.017709414
234	0xbd763e08	-0.06011775
235	0xbda8c7dd	-0.08241246
236	0xba776530	-0.00094373804
237	0xbd6e3a79	-0.058161233
238	0xbceac832	-0.028659914
239	0x3c37a2de	0.011208264
240	0x3cee8b54	0.029119171
241	0x3d1e86fd	0.038702954
242	0x3c553480	0.013013005
243	0xbd3c567e	-0.045980923
244	0xbd63847d	-0.055546273
245	0xbbe60898	-0.0070200674
246	0x3cbc32da	0.022973467
247	0xbc9be3d8	-0.019029543
248	0x3d0ca8ec	0.034340784
249	0x3c3234bf	0.010876833
250	0x3d9ba129	0.07599098
251	0x3d8c57e5	0.06852702
252	0xbd55cb46	-0.05219581
253	0x3d65a50f	0.056065615
254	0xbcd1b729	-0.025600033
255	0x3d80a19a	0.06280823

fc.bias f4 [64]
0	0x3bf257e8	0.007395733
1	0xbb8899d3	-0.004168728
2	0xbd099cd8	-0.033596843
3	0xbc617101	-0.013759852
4	0xbcb3912e	-0.021919813
5	0x3d823931	0.06358565
6	0xbd7099f1	-0.05874056
7	0x3b8cbe88	0.004295174
8	0x3cbce416	0.023057979
9	0xbd839be4	-0.06426218
10	0xbcb9be14	-0.022673644
11	0x3d97c1c4	0.07410005
12	0x3cf5076c	0.029910766
13	0x3d69f7fa	0.057121255
14	0x3a2e4b20	0.0006648768
15	0xbb1cb0f2	-0.0023909179
16	0xbd7d53b9	-0.061847422
17	0xba982958	-0.0011609001
18	0x3d0e7c06	0.034786247
19	0x3ceb872d	0.02875098
20	0xbbde92a8	-0.006792385
21	0x3d5a80da	0.05334554
22	0x3d83de39	0.0643887
23	0xbab1e3c0	-0.0013571903
24	0x3d634a84	0.055490986
25	0xbd25a73c	-0.04044269
26	0xbd0bb8d3	-0.03411181
27	0xbd5d1303	-0.05397321
28	0x3d61b946	0.05510833
29	0xbd4df814	-0.050285414
30	0xbd22c3e8	-0.039737612
31	0xbd967e51	-0.07348312
32	0x3d2b2ba9	0.041789684
33	0xbd7158b8	-0.0589225
34	0x3d931ddd	0.0718343
35	0x3c450574	0.012025226
36	0x3bc89aca	0.006121968
37	0xbb681550	-0.0035413094
38	0x3ce26eb4	0.027640678
39	0x3d79e6f1	0.06101126
40	0xbb14ebf0	-0.0022723638
41	0x3cf96332	0.030442808
42	0x3be69b1e	0.0070375344
43	0xbd968c70	-0.07351005
44	0x3d2c93d0	0.042133152
45	0x3cd4dcaa	0.025984127
46	0x3bcf4a20	0.006325975
47	0x3d9977d2	0.07493557
48	0xba0d0770	-0.00053798314
49	0x3d94a0eb	0.07257255
50	0x3d99ed30	0.07515943
51	0xbd5ba0cc	-0.053620145
52	0xbd737632	-0.05943889
53	0x3d5748d3	0.052559685
54	0xbd32430c	-0.043520972
55	0x3d995f15	0.074888386
56	0xbcb80c46	-0.02246679
57	0x3ce1f205	0.027581224
58	0x3d9e3de2	0.07726647
59	0xbc928b30	-0.017888635
60	0xbc03b39a	-0.008038426
61	0x3d83e65e	0.064404234
62	0x3d8a6a1c	0.0675852
63	0x3befae0c	0.007314449
