checkpoints/NoGestureNetwork_2023-08-11_13-42-44.pth (torch, 48675 bytes, 10 tensors)

touchscreen_data_network.rnn.weight_ih_l0 f4 [64, 4]
00000000: 8792 163c 626c 34bd 7f77 863d 3497 3bbd
00000010: 601d f53d 98b7 cbbd deff 28bd def7 de3d
00000020: 3b80 a9bd 2c95 aebc 4a2c 0cbc 8b52 d73d
00000030: aa83 303d 31fd 913d 8e36 c73c 84c1 e9bd
00000040: 9d9c bdbd d14f 50bc 2d2d e53d a8b0 983c
00000050: cf5e e63d 6ad6 27bd a4ea d73c d6fa 92bd
00000060: 3a49 623d fb1d 733d f97b 983c e259 983d
00000070: 9416 96bc 354a 16bc 6fd6 773d c0df 3d39
00000080: e666 7a3d 5979 33bd fb23 df3d 9831 fb3d
00000090: f007 1ebc dd1d a2bd 1799 1bbd 7ee0 6c3d
000000a0: aacd c93c 8382 a2bd 7a95 a9bd 44bf 203d
000000b0: 088a a7bd 0ddc 0fbc c2cf bfbc be85 3c3d
000000c0: 4a98 6dbd b709 a83d f980 ac3d 4e4e 063c
000000d0: cb14 733d 0649 253d 5ae2 50bd 2616 cabc
000000e0: 70bc 0ebd 5e2d f7bd c246 293d 83ba 00be
000000f0: 6a5b 553d 52b4 383d d0db d73a aec8 d6bb
00000100: 9728 833d aa4f 37bd 5f9c 813d 3289 0b3d
00000110: 262d 0fbd 87cc c4bd 8f1d b73d 5a51 d53c
00000120: a1d8 08be ce5b ef3b ff54 81bd 507e efbd
00000130: 9ef1 71bd e6e9 2d3c e9ff 793c eddc a3bd
00000140: c84a 893a eb16 a9bc ddc4 b03d 7282 9abd
00000150: eac3 82bc c22e 493d 301d b03c 4f24 d6bc
00000160: 0753 83bd d458 ee3b 2fb2 973d 6ca6 223d
00000170: 1054 963c 22b4 dcbd 545e 61bd 50ca 36bd
00000180: 7e6f ccbd d6a2 82bc 923c a7bd 1b5b 0abc
00000190: aef2 323d 5c7f 093d 9710 7a3d c120 3d3d
000001a0: 1996 b3bd 31ce 083d 0d34 d53d 7237 b6bc
000001b0: 86a3 25bd 069a 363d cbb2 df3d e7b5 87bd
000001c0: 4846 8bbc 0154 a5bd 4415 b4bd 2850 c53d
000001d0: 565c e8bb fdc1 90bd c886 bcba 3a19 32bd
000001e0: 2c08 bb3d 6554 3c3d d61a 2abd 044d b83d
000001f0: 6ed7 e33c f6f1 983d 312b dd3d 7acc 803d
00000200: 8c57 4d3c 16e1 a4bd 63bd 01bd 8542 83bc
00000210: 137c e2bd 9c61 ffbc 463c 373c f22b d6bc
00000220: 81c5 95bd cde4 dd3d 12e8 68bd f819 cf3d
00000230: 00e6 f4bb 6ad9 623d bd4e 04be 0f06 83bd
00000240: d4de 243d fe0b 4b3c 3155 d23d 0f4f 1f3d
00000250: b632 97bc 16cc 5c3c 0813 df3d e870 d73d
00000260: 02e5 e9bc 1283 df3d d9b3 7cbc a280 03be
00000270: 1539 bc3d b55c d3bd 16e7 723d b1a3 b1bd
00000280: 91eb 8abd 2aa3 73bc 3072 e53a f4f1 e7bc
00000290: d72a 87bd df67 933d 2e30 8c3d b387 d23d
000002a0: a4a9 6c3d d4ac 87bd 91c0 7f3d 41ef d9bd
000002b0: da51 9a3d 8e5e a53d f8ba ab3c eeca b3bd
000002c0: 2d0e 5e3c 58e8 1abd a404 3ebd 0094 2bbd
000002d0: 9dfd febd 76e4 203d de65 24bd 05eb 81bd
000002e0: 1416 d83d de71 aa3b 16f4 943d aa8d c13d
000002f0: bc00 e93c 2b89 89bd bdc7 c83d 2222 84bd
00000300: b341 ce3d 85f4 b63d b5ae fabc a50b 933d
00000310: 268a 833d 9f26 a2bd 5529 76bd f420 3b3d
00000320: 35bf 633d 18d8 ca3d b7c9 193c 7a70 a6bd
00000330: 72e9 533d 7f60 a9bd 13a3 f73d 279a 6f3d
00000340: 6fc5 e8bd a9da 99bd a66a 7d3d ec22 cc3b
00000350: 6022 583d a8c4 df3b 157a 3c3d b4e0 94bd
00000360: 3c49 5bbd 8e93 9a3d 9e36 0abe 9c2b 41bd
00000370: eb76 683d fca8 d4bc 7ddb b43c 1886 e13d
00000380: af5a 943d 5834 583b ca08 7a3d 4e32 a53d
00000390: e44e c43c 4a4c c13b ede1 8fbd f4f3 d5bd
000003a0: 0661 6abd 1ed4 6b3d b494 08be da43 963d
000003b0: f5be ce3d 62b6 37bd 465b 4c3d 46c2 04be
000003c0: c619 ecbd 5f35 d33d 3f65 1e3d 5083 dabd
000003d0: f357 af3d 607b d43d b72a 793d 3497 df3d
000003e0: b8e3 953c 7f7e 903d 067f 993c bafe 093e
000003f0: db67 e5bc c56c a8bd edec e33d 4673 1c3d
0.009190208 -0.044048674 0.06565761 -0.045798495 0.119684935 -0.09947127 -0.04125964 0.10887121
-0.08276411 -0.021311365 -0.008555481 0.10513791 0.043094315 0.071283706 0.024318006 -0.11413863
-0.09258387 -0.012714342 0.11190257 0.018638924 0.11248552 -0.040975966 0.026357003 -0.071767494
0.055245616 0.059354763 0.018613802 0.07439019 -0.018321313 -0.009172966 0.060507234 0.00018107798
0.061133288 -0.043816898 0.108955346 0.12265319 -0.009645447 -0.07915852 -0.037987795 0.05783128
0.024634201 -0.079350494 -0.082804635 0.039244905 -0.08180624 -0.008780492 -0.023414496 0.046025984
-0.058006562 0.08204978 0.08423037 0.00819738 0.059346 0.040352844 -0.050997116 -0.024668764
-0.034847677 -0.120692 0.041327246 -0.12571149 0.052089132 0.04509384 0.0016468707 -0.0065546846
0.06404226 -0.044753708 0.063286535 0.034066387 -0.034955166 -0.09609323 0.08941185 0.026039768
-0.13363887 0.007304645 -0.0631504 -0.11694014 -0.059068315 0.010614848 0.015258768 -0.080011226
0.0010474557 -0.020640811 0.08631299 -0.07544412 -0.01596256 0.049116857 0.021498293 -0.02614036
-0.064123206 0.0072737727 0.07407033 0.039709494 0.018350631 -0.10776545 -0.0550216 -0.044626534
-0.09982203 -0.015946787 -0.0816585 -0.008444573 0.04368847 0.033568725 0.061050978 0.046173815
-0.08768863 0.033399764 0.104103185 -0.022243235 -0.04043915 0.044580482 0.10922774 -0.06626492
-0.017001286 -0.08072663 -0.087931186 0.09634429 -0.0070910854 -0.0706825 -0.001438343 -0.04348109
0.09132418 0.045978922 -0.0415295 0.089990646 0.027812686 0.074680254 0.10799254 0.06289001
0.01253308 -0.08050744 -0.031674754 -0.01602293 -0.110588215 -0.031174473 0.011183804 -0.026144002
-0.073130615 0.10834656 -0.056861944 0.10112375 -0.007473707 0.055383123 -0.12920661 -0.0639764
0.040251568 0.012392996 0.10270155 0.038893756 -0.018456798 0.013476392 0.10892302 0.10519582
-0.028551582 0.109136716 -0.015423738 -0.12842038 0.09190575 -0.10320417 0.059302412 -0.086738
-0.06783212 -0.014870444 0.0017505344 -0.028313614 -0.06599968 0.07197546 0.06845127 0.10279789
0.05777897 -0.06624761 0.062439505 -0.10641337 0.07535143 0.080746755 0.020963177 -0.0877894
0.013553184 -0.037819237 -0.046391144 -0.04188919 -0.12450717 0.039280377 -0.04013621 -0.063436545
0.10551086 0.0052015623 0.07273118 0.094508484 0.028442733 -0.06715616 0.09803722 -0.06451823
0.10071125 0.08933357 -0.030600885 0.071799554 0.06422834 -0.07917523 -0.06009801 0.045685723
0.05560227 0.09904498 0.0093864715 -0.08126922 0.051736303 -0.08270358 0.12091651 0.05849662
-0.113657825 -0.07512409 0.061869286 0.006229749 0.052767158 0.006828863 0.046014864 -0.07269421
-0.05353664 0.07547675 -0.13497397 -0.04716073 0.056754034 -0.025959484 0.022077316 0.110119045
0.07243859 0.0032990184 0.06104354 0.080662355 0.0239634 0.005898987 -0.07025514 -0.10446921
-0.057221435 0.057575338 -0.13337976 0.073371604 0.10095016 -0.04485167 0.049891733 -0.12964734
-0.115283534 0.10312914 0.038670775 -0.10669577 0.08561697 0.103750944 0.06083175 0.109175116
0.018297061 0.07055377 0.018737327 0.13476077 -0.028003624 -0.08223871 0.111291744 0.03819587

touchscreen_data_network.rnn.weight_hh_l0 f4 [64, 64]
00000000: e82c dc3d b3bf 823d f2dd 16bd dab0 5bbd
00000010: b63b 43bd aea7 01bd 37c1 cfbd 0da9 b93d
00000020: 8650 1b3c d837 113b abd2 d83d 9415 ddbb
00000030: eac0 693d 1d68 913d da44 183d 19f9 c43d
00000040: 2f19 493d 1bdc c43c 43e5 a1bc fbb4 a6bd
00000050: ff06 e6bc 7b8a d23d 4711 cfbd 8152 c13d
00000060: 4ac7 45bc a87c 2c3b cbf7 eabd 0a03 263c
00000070: e506 493d 77b9 bfbd 9795 813d d303 bf3d
00000080: 93d5 d53d 7ad8 1f3d c23b 71bd 1259 ad3d
00000090: 91fc e33d 3608 4cbd 133d d3bd 5da6 d6bd
000000a0: ab93 e6bd 91a5 e3bd 3d95 97bc b519 cd3d
000000b0: 5f2d 063e 1224 b93c 5a90 233c ce78 b33d
000000c0: d656 07bd 013b ccbd 1db0 efbd 6230 e03d
000000d0: 1fbc ba3d 0891 05be 1f59 7cbd 7f5c 70bd
000000e0: 4947 c13d a103 a53d f079 acba 0035 be3d
000000f0: 2371 80bd 5a0d 7a3d fd5f eabd d924 96bd
00000100: 99b7 bebd 1813 cabd 483b a7bd 32ac a73d
00000110: 86f5 97bc 2939 a0bc 0404 9fbd d761 1b3c
00000120: ee81 423d 718e a9bd 6cad b1bd 01db ddbd
00000130: 028d d0bd 12a8 bbbd f9bb 313d bf8c 923d
00000140: 2497 4abb f721 a9bd a54e b43d 1c54 3b3b
00000150: bf34 af3d ea9e 5ebd 2099 ab3c 53b7 11bd
00000160: f4bc 04bb 1831 cc3c 91cf c2bd cd68 a5bd
00000170: 4524 8c3d a68c a63d a374 09bc 8cbe 983d
00000180: 4035 b33d 3ccc 4cbd 6c34 a4bc ec09 1bbd
00000190: 7871 773c d958 e9bd 329d 85bd 7293 c93c
000001a0: 1076 1e3c 255d 4b3c 5ad9 5e3c ad80 1a3d
000001b0: b2b3 cb3d a36f cebd 419c 993d 975b a53d
000001c0: e0cd a4bd ac15 e8bc 9b0f 8c3d 20c5 41bb
000001d0: 3432 46bd e758 a43c 55b5 c2bc 1139 b9bd
000001e0: 3ad6 523d 3487 d0bd 3e01 cebc 9a3d 3fbd
000001f0: 5ead be3d b575 e4bd d05f d6bd ea51 a2bd
00000200: b1b4 65bd 09af cebd 1a96 d03d d430 4fbb
00000210: 459c a93d 6079 933d 5955 0cbd 92ac 8b3d
00000220: 7ff9 703d ddaa 373d 160e 553d 126f 8ebd
00000230: dafc a13d 820b 8c3c e4dd 203d 44ad dabd
00000240: b7df 533d ef38 053d bd7c 883d dd2a 09bd
00000250: a7fe 06be 9dbc db3d d323 153d cc63 6fbc
00000260: b210 603d 1d5e 69bd c44f 9c3d c40f 44bc
00000270: 998b 013e 4e61 c5bc 4a24 903d 3907 dbbd
00000280: da40 5cbd b838 3fbd 9d2a 3a3d fe4a b0bc
00000290: 19fc a93d 7d55 3ebd cfab 593d 9a3b a5bd
000002a0: 644b 6f3d dd3e 1abd 6622 e0bd 19ab d93d
000002b0: 1ff5 a33d 7d71 63bc 5269 babc 79d5 30bd
000002c0: b532 2ebd 66cd e13d db57 723d ef11 c1bd
000002d0: a88d 01be 0144 b9bd bda1 483d 7ffc 753d
000002e0: 4796 5a3d 5aaa 5c3d 1639 b4bc 4b11 283c
000002f0: 279d 9c3d f65c 993c 3fb8 303d 4e41 de3d
00000300: 6d4d 5b3d d8b9 4bbd a9e5 903d 7593 2e3d
00000310: 187f 1bbd 830c 063d 5490 8fbd e8bf ed3b
00000320: 60c7 1fbc 457e 43bd 1bbc e1bd 7814 b63b
00000330: b0e4 e93d 24a9 c43b d253 733d b3ba db3d
00000340: ccf3 b3bd 0090 883d 3eb0 5bbd da38 88bd
00000350: 1c7e b9bb 07cb e03d 2029 d2bc 0b71 be3d
00000360: 3b7b 98bc f42f af3d d879 b23d 5014 da3b
00000370: d35e d8bd 4cdb 4c3d 9ea2 e8bc 0c70 9bbd
00000380: 78d5 0e3d aca1 c3bd 5a25 adbb 9be8 a7bd
00000390: 8e95 bb3d 566c bb3d d09e 0b3b ca59 8e3d
000003a0: a1b8 883d bc55 e2bd d1c3 243c c1fc 5ebd
000003b0: 8372 5bbd 2fd2 063d 1153 b5bd 7eca b7bd
000003c0: d8ee e53d f4aa 38bd 990c e2bd 7624 103d
000003d0: de60 ee3c 83da 8dbd f624 9cbd 2289 d5bc
000003e0: 7473 253d 339c 97bd 312f cdbd fc5e 753d
000003f0: 18d0 b93d 4ce3 583d 52b0 6cbd e515 30bc
0.10750753 0.0638422 -0.036832757 -0.053635456 -0.047664367 -0.031654052 -0.10144275 0.09065447
0.0094796475 0.002215853 0.10587057 -0.006746957 0.057068743 0.07099936 0.037175037 0.09617824
0.049096283 0.024030736 -0.01976264 -0.08139988 -0.028079508 0.10280319 -0.10110717 0.094395645
-0.01207144 0.0026319418 -0.11473044 0.0101325605 0.04907884 -0.093615465 0.0632736 0.09326901
0.10441127 0.039024808 -0.05889488 0.084642544 0.111321576 -0.049812518 -0.10314383 -0.1048095
-0.11258634 -0.11115564 -0.01850378 0.10014669 0.13103245 0.022600207 0.009983147 0.08763276
-0.033041798 -0.099721916 -0.11703513 0.10946728 0.091179125 -0.13043606 -0.06160843 -0.05868196
0.09437425 0.08057333 -0.0013158899 0.09287453 -0.06271579 0.06104789 -0.114440896 -0.07331247
-0.09312362 -0.09866923 -0.08165604 0.081871405 -0.018549692 -0.019558506 -0.07764438 0.009483776
0.04748719 -0.08279122 -0.08675656 -0.10832787 -0.10183145 -0.09162916 0.043392155 0.071557514
-0.003091284 -0.082584314 0.08804063 0.0028584069 0.085549824 -0.05435077 0.02094704 -0.035575222
-0.0020254226 0.024925753 -0.095122464 -0.0807663 0.06842855 0.08132295 -0.008389625 0.07458219
0.08750391 -0.04999946 -0.020044528 -0.03785126 0.015102737 -0.113938995 -0.06524123 0.02460644
0.009671703 0.012412344 0.013601625 0.03772037 0.099463835 -0.10079887 0.07500506 0.0807411
-0.0804708 -0.028330646 0.06838914 -0.0029566959 -0.04838772 0.020061923 -0.023768106 -0.09044088
0.051473834 -0.10182038 -0.025147077 -0.046689607 0.09310411 -0.11155263 -0.104674935 -0.0792578
-0.056080524 -0.10091979 0.101848796 -0.0031614797 0.08281759 0.07200885 -0.03426108 0.068200245
0.058831688 0.044840682 0.052015387 -0.06954779 0.07909556 0.017095331 0.03927411 -0.10677579
0.051727023 0.032525 0.06664417 -0.033488143 -0.1318308 0.107293345 0.036411118 -0.014611196
0.054703422 -0.05697452 0.076324016 -0.011966649 0.12650909 -0.02409425 0.070381716 -0.10694737
-0.053772785 -0.04668495 0.045450795 -0.021520134 0.08300037 -0.046468247 0.053142365 -0.08068009
0.058421507 -0.037657607 -0.10944061 0.106283374 0.080057375 -0.013882038 -0.022755299 -0.043172333
-0.042528827 0.11025505 0.059165817 -0.09427249 -0.12651694 -0.09046174 0.04898237 0.060055252
0.053365972 0.053873397 -0.021999877 0.010258029 0.07647162 0.018721085 0.04314446 0.108523
0.053540636 -0.04973778 0.07075054 0.042621095 -0.037963003 0.032726776 -0.0700995 0.007255543
-0.009752125 -0.047727842 -0.110222064 0.0055566393 0.11420572 0.0060016084 0.05940611 0.107289694
-0.08786735 0.06668091 -0.053634875 -0.066514686 -0.0056607854 0.109762244 -0.025654376 0.09298905
-0.018613448 0.08554068 0.08714646 0.0066552535 -0.10564961 0.050013825 -0.028397854 -0.075897306
0.03487155 -0.09552321 -0.0052839937 -0.08198663 0.09159385 0.09151523 0.0021304376 0.0695072
0.0667584 -0.11051509 0.010056452 -0.054440264 -0.053576004 0.03291529 -0.08853734 -0.08974169
0.112271965 -0.04508491 -0.11037559 0.03519102 0.029098924 -0.069264434 -0.07624237 -0.026066367
0.040393308 -0.074028395 -0.10018767 0.059905037 0.09072894 0.052951142 -0.05778534 -0.010747408

touchscreen_data_network.rnn.bias_ih_l0 f4 [64]
00000000: 6602 79bd 476b c73d 2832 ecbd 50cb 593d
00000010: 5d22 853d 0dd9 64bd 44d9 2cbd bfea aabd
00000020: 6396 013e c6ce b13d e184 c13c 7c5f 063b
00000030: 9618 acbb 5ab7 3c3d 310c 183d c8da c03d
00000040: 80db 2bbd 42a7 c2bd 336e c13d 98d6 05bd
00000050: 5d70 3f3d 7e7a b03d 380d 4c3b fa53 8e3c
00000060: bc5d 9ebd 768c e0bc 8ee2 ac3d 8af0 9e3d
00000070: 9b19 c5bd 50e0 693c c56d 783d 27cd c53d
00000080: c200 8d3d a785 03be 1add bc3d eec8 a23d
00000090: efea 813d 38ad 6e3b 50e6 613d b2c0 b33d
000000a0: e0a2 03be 1778 853d 9862 5c3d 90e5 073a
000000b0: 84cd 553d 98b9 49bb 9a14 c1bd 9393 1e3c
000000c0: 79c2 da3d e222 e8bd fa07 2bbc 158f 6a3d
000000d0: b568 d5bd c466 01bd 20a7 7dbd 460e cd3c
000000e0: d834 bf3c 30d7 7a3a 0b4f e7bd 405f 95b9
000000f0: 2844 873d b5e2 49bc dbe4 9c3d aa07 9d3d
-0.060793303 0.097372584 -0.11533004 0.05317241 0.06500695 -0.05587106 -0.04219939 -0.083455555
0.12655024 0.08682017 0.023622932 0.002050369 -0.0052519543 0.046073295 0.037121 0.09416729
-0.04195738 -0.09504558 0.09444847 -0.032675356 0.046738017 0.086171135 0.0031135809 0.017374028
-0.07732722 -0.027410727 0.084416494 0.07760723 -0.096240245 0.014274672 0.06065156 0.0965827
0.0688491 -0.12843953 0.09221859 0.079484805 0.06343638 0.0036419164 0.055151284 0.08776988
-0.128551 0.06517046 0.053804964 0.0005184049 0.052197948 -0.0030780789 -0.094277576 0.009678739
0.10681624 -0.11334778 -0.0104389135 0.05726536 -0.10420362 -0.031592146 -0.06192696 0.02503122
0.023340628 0.00095688086 -0.11294373 -0.0002849046 0.06604797 -0.012322118 0.07660838 0.076674774

touchscreen_data_network.rnn.bias_hh_l0 f4 [64]
00000000: 1d77 f63c ece9 c83d ee98 89bd 84f3 babc
00000010: 9485 723c 8508 d43d 845b f8bb 7108 8e3d
00000020: f723 d93d 28ca d63d 82aa a23b cc91 453b
00000030: 0ed8 ad3c 2c27 d63d e1b3 b23d 0e96 83bd
00000040: 8255 813d 76b6 c83c 2980 d2bd 9270 973d
00000050: 3699 90bd c257 e5bd 80c8 9fb9 80c3 653b
00000060: 69c6 68bd 2ca9 ce3d 3410 a5bd 0430 3abd
00000070: 3cdc db3d ce6d a3bd bcc1 6dbd da41 efbb
00000080: d6de cb3d 00a0 fdb9 44e4 a53c 28cc c9bd
00000090: e06a ca3d 5a8b 84bd 5660 26bc 1ca3 64bd
000000a0: f93a b1bc 2f38 cb3d 3a14 9b3c 8f5a b63d
000000b0: 0939 ad3d 0fc8 a73d c506 aebd bad9 da3d
000000c0: d656 d33d a022 793d 33f5 e73d 5d81 2c3d
000000d0: 05ec 95bd ac64 a23d 0cb8 863c 089a 1cbd
000000e0: 8c60 593b 3e95 fb3d be01 08be 31be a23c
000000f0: f186 6c3d bf7f 383c 6cf2 773b 40b5 bbbd
0.030086095 0.09810242 -0.06718622 -0.022821195 0.014802355 0.103531875 -0.007579269 0.06935204
0.10602563 0.10487777 0.004964174 0.0030146716 0.021221187 0.1045669 0.087257154 -0.06425105
0.063151374 0.024501067 -0.10278351 0.07394518 -0.07060473 -0.11198379 -0.00030476227 0.0035059154
-0.056829844 0.10090861 -0.08059731 -0.045455948 0.10735366 -0.07979928 -0.058046088 -0.0073015513
0.09954612 -0.0004837513 0.020250447 -0.09853393 0.09883666 -0.06471892 -0.010154804 -0.055819616
-0.021634566 0.099228255 0.018930543 0.089039914 0.08458144 0.08192455 -0.08497385 0.10686059
0.10319297 0.060824037 0.11326065 0.042115558 -0.07320408 0.07929358 0.016445182 -0.038232833
0.0033169119 0.12284325 -0.13281915 0.019866081 0.057745878 0.011260926 0.0037833704 -0.0916543

sensor_data_network.rnn.weight_ih_l0 f4 [64, 6]
00000000: fec8 893d 1c32 30bb 8a05 cdbc 5af9 65bd
00000010: dd39 c03d f08f 34bd 9173 02bd d447 3bbc
00000020: 9610 a1bb d86c 683b 9af4 1f3d 62c2 ab3d
00000030: 90fd 483d d3d0 14bd 17cb afbd 125c b4bd
00000040: d71a 22bd 3465 b7bd bb6e 983d 7e16 033e
00000050: 92b6 763d 0a95 fd3d 8e57 d53d b4a1 d63b
00000060: ea2c c23d e388 afbd 82db e53d 6e1f efbb
00000070: 4a3a c53d 1669 f23b 3d19 bcbd 2b7b 8dbc
00000080: af2a e83d f753 08bd 1606 b2bc 3f31 9e3d
00000090: 22a6 e1bd 670e fd3d f45b 5cbb c3f3 ab3d
000000a0: 744c 68bd 1231 b43d b06b d93b d00a 54bd
000000b0: d2e8 693d 8015 8a3b 7837 ea3d d96c 22bd
000000c0: 5080 2c3c 91ea 4bbd 091c c53d b770 123c
000000d0: 3cf3 bdbc ac94 943d 8c6a 1b3d 8e45 fd3b
000000e0: a2e2 d03d 2d93 843d 18ce 4dbd 3f4a 59bd
000000f0: 1b49 e1bd 924c f73d 3607 d63d 0292 debc
00000100: 160b 92bd 0c5e f6bd e116 53bc 40e4 07be
00000110: 5ee5 a8bc c537 523d 66e1 ac3c e996 b1bd
00000120: 197e ea3d c4dd 713d 5271 193d 3814 5f3d
00000130: b8a0 eabd 7a37 193c edaf 9d3d 248e e33d
00000140: ce61 23bc f67a 983b a42d 733c e20c c73d
00000150: 2ab8 1dbd b5c4 603d 2192 c3bd c7a1 a33d
00000160: f70d aabd 533c a43d dc99 773d fa08 c73d
00000170: 9d64 5e3d 01a9 9e3c 0f67 813d 9c48 2e3b
00000180: 00c1 a7bb df99 53bc bc63 f63d 8256 493c
00000190: 7b4b 4a3c a7e8 803d d393 ffbd 0864 dbbc
000001a0: 192f f4bd 90a5 ba3d a6b8 ea3d 3461 a23d
000001b0: f556 5a3c 4c30 873d 632e 393d 2cda 8dbd
000001c0: 9c62 9a3d 2e1e 873d a962 a43d d54a 86bd
000001d0: 6b76 9abd 6ab4 993c 66cd f13b f0d0 323b
000001e0: 0f9c 61bc 4c12 d9bd 4c70 043d 839e 05be
000001f0: c445 ecbd d6cc d3bd 3316 6b3d b6f5 fdbc
00000200: a2ac 79bd 302a 97bd ec1a 88bd 72d4 c93d
00000210: 8cd8 c93d e204 65bd 462d bcbd 8ead a23c
00000220: a60a 2f3d c7bc 353c 5bbf a73d 3150 463d
00000230: 04cc 023e 427c 39bd bc8c 613d 9c3e 1e3d
00000240: f6ad 98bd e532 593d 320a d13d d903 b93d
00000250: 5ca4 84bd ca19 acbc 2687 343d 599e 11bd
00000260: 8c47 703b 97a0 86bd cf2b c73d 8fcb 193d
00000270: c008 6739 5a8c fc3d 09b9 06bd 90e0 063e
00000280: be12 9b3c fe8b febd 9ec3 9e3d 1a8d 973d
00000290: 0b25 1e3d dcd9 023e 9498 09be 6879 2dbd
000002a0: d10e 973d 32b7 c73d 6e7f febc 0478 153d
000002b0: 7e17 46bd 976b 56bc 5b02 55bd b0a7 84bc
000002c0: dbad 073e eedc 7d3d 554d 05be 4a76 86bb
000002d0: 56e9 db3c 88dd a93d aa56 02be 6e69 623d
000002e0: 182f 0e3c a451 b0bc e2da 2b3d dc4d 07be
000002f0: d06c a7bd d63f 3b3d ad4f b13d 3b00 033c
00000300: d80f c6bc 3b96 9c3d a24a 32bd 706f 9d3d
00000310: f1a1 b23d d3aa 94bc a66a 403d dbc7 51bd
00000320: ad95 aabd 8d8e fbbc ffe2 aabd 26d1 3f3c
00000330: 6dd0 a5bc 90df 643d 81ef a23d 7e23 053e
00000340: d945 89bd a479 9abd 55c6 8bbd 8122 debd
00000350: 0125 97bd 4c02 073e e283 603d b390 93bd
00000360: 76a6 a13c 0f1e ab3d aa53 ba3d e36b 333c
00000370: 19e4 f93c 2f77 bcbd e00a b8bd 0028 ecbc
00000380: f7f1 503d 7b8a 823d cbc5 a73d 4e99 68bd
00000390: 949c e2bd f32a 45bd d24c 1cbd af63 a93d
000003a0: 8d37 bd3d 4e26 efbc 7b00 c0bd 223f 903d
000003b0: 0bc3 793c 4771 523d 6a38 a2bc 68d1 03bb
000003c0: 9c20 b0bc 3aa0 b7bd e957 8fbd 285e d63a
000003d0: af79 f3bd f034 fe3d 72e1 d4bc eb69 423d
000003e0: d865 d83a 08e6 00bd 68a1 f03c f69d cb3c
000003f0: 0335 dcbd 4646 d0bd a372 d63d ef38 893d
0.06727789 -0.0026885336 -0.025027055 -0.056146003 0.093860365 -0.044082582 -0.031848494 -0.011430699
-0.0049153073 0.0035465267 0.03905163 0.08386685 0.04906994 -0.036331963 -0.08583658 -0.088066235
-0.039576378 -0.0895485 0.07442995 0.12801549 0.060232706 0.123819426 0.1041709 0.0065500382
0.09481223 -0.08571031 0.112235084 -0.007297448 0.096302584 0.007397781 -0.09184501 -0.017270645
0.11336266 -0.0332832 -0.021731418 0.07724237 -0.110180154 0.12356263 -0.0033624144 0.08396103
-0.056713536 0.08798422 0.006635152 -0.051768124 0.0571068 0.004213989 0.11436361 -0.039654586
0.010528639 -0.049784247 0.09624488 0.008938006 -0.023187272 0.072549194 0.037943408 0.007729239
0.10199477 0.06473384 -0.050245374 -0.053049322 -0.11000272 0.120751515 0.10450594 -0.027169231
-0.07131021 -0.12029657 -0.012883873 -0.13270664 -0.020617183 0.051322717 0.021103572 -0.08671362
0.114498325 0.059049383 0.037461586 0.05446264 -0.11456436 0.009351606 0.07699571 0.111110955
-0.009972049 0.00465333 0.014842425 0.09719254 -0.03850571 0.054875094 -0.09549356 0.07989841
-0.08303445 0.080193184 0.060449466 0.09718509 0.05429517 0.019367697 0.06318485 0.0026593572
-0.005119443 -0.012915104 0.120307416 0.0122886915 0.0123470975 0.06294375 -0.12479367 -0.026781097
-0.11923046 0.0911361 0.11461 0.07928696 0.013326396 0.06601009 0.045210253 -0.069263786
0.075383395 0.06597553 0.080266304 -0.06557242 -0.07542118 0.018762786 0.0073792217 0.002728518
-0.013770117 -0.10599193 0.032333657 -0.13048749 -0.11536744 -0.10341804 0.057394218 -0.031000953
-0.06095565 -0.073810935 -0.0664576 0.09854974 0.09855756 -0.05591286 -0.09188323 0.019858148
0.042734765 0.011092371 0.08190795 0.04841632 0.12773138 -0.045284517 0.055065855 0.038633928
-0.074550554 0.053027052 0.10207023 0.09033937 -0.064766616 -0.021008391 0.0440742 -0.035551403
0.003666374 -0.06573599 0.09725153 0.037547644 0.00022033136 0.123314574 -0.032891307 0.13171601
0.018929835 -0.12429045 0.07752155 0.0739996 0.038609546 0.1277842 -0.1343711 -0.04235211
0.07375873 0.097517386 -0.031066623 0.03649141 -0.048362248 -0.013087175 -0.0520042 -0.01619324
0.13249914 0.061978273 -0.13017781 -0.0041034566 0.026844662 0.08294207 -0.12728372 0.055276327
0.00867822 -0.021523304 0.04195679 -0.13213295 -0.08175051 0.045715176 0.08657775 0.00799566
-0.024177477 0.07645842 -0.043528207 0.07687271 0.08722294 -0.018147862 0.046976708 -0.051215988
-0.0832933 -0.030707622 -0.08344077 0.01170758 -0.020240987 0.05587727 0.07955838 0.1300182
-0.067027755 -0.07542732 -0.06824938 -0.10846425 -0.07380105 0.1318447 0.054813273 -0.072053336
0.019732695 0.083553426 0.09097989 0.010951015 0.030504273 -0.0920242 -0.08986449 -0.028827667
0.051012006 0.06374069 0.08192023 -0.056786828 -0.11065021 -0.048136663 -0.0381592 0.08270966
0.09239111 -0.02919307 -0.09375092 0.07043292 0.015244256 0.05137756 -0.019802291 -0.002011383
-0.021499924 -0.08966108 -0.069991894 0.0016354965 -0.11888444 0.12412441 -0.025986407 0.047464292
0.0016509844 -0.031469375 0.02937384 0.024855595 -0.10752299 -0.101696536 0.10471084 0.06700312

sensor_data_network.rnn.weight_hh_l0 f4 [64, 64]
00000000: 1ad5 74bd 9e8e bc3c 24ca da3c e269 babc
00000010: bb63 e13d e827 09be c24d d23d 2ab2 963c
00000020: 1b76 a33d 9d87 00be d8ef f7bd dfd7 26bd
00000030: 5423 a6bd ac2b b0bc 3bcd b53d 8847 b93d
00000040: 607d 813b 948f cc3d aad7 21bc 9667 18bd
00000050: 9f1c aebd becc 35bd 1271 d2bd 6f24 b7bc
00000060: c14d 8fbc 089d bc3b fbef 3fbd 1fdc f9bd
00000070: 8048 243b 261c 4c3d de77 ee3c ed87 febd
00000080: 48ef 9aba 70b5 84bb 93fd 18bd cc5c 25bc
00000090: 8f27 c43d 13b8 083c 13cf ba3d 88f4 653c
000000a0: 255f 9dbd 4c18 1b3c c33c e3bc 2a0c f6bd
000000b0: 9872 083d 2148 82bd 5ca7 783b a6b0 ff3b
000000c0: f4f5 37bb f214 bb3d a0c0 0fbd 8c49 ba3c
000000d0: 0122 a8bd eff8 d0bd fb39 7bbd 0471 803d
000000e0: 4c3e 9f3c 9a10 adbd 2acd 773d 1199 96bc
000000f0: eed2 0dbd 7a2a 82bd 3819 233d e83d e0bd
00000100: 85e7 623d a056 aa3d c016 0b3a c2df 953d
00000110: cb9c e6bd 20b4 e43d b440 b73d 3abe 25bc
00000120: 004a e93d ca03 d13c 3a0b 21bd c031 d8bd
00000130: c0ab db3d 08db d2bc 5c40 403b 66b4 82bc
00000140: e2a2 cf3d d390 823d a863 6fbb dd51 393d
00000150: 714e bebd 20cb b13a 5c27 46bd 7cc7 c5bb
00000160: 9ebb 9c3d 4f29 b33d 168a 493d bac5 a0bc
00000170: 9463 973c 2aa2 61bd 1831 d1bd 7837 003e
00000180: 3538 8dbd 42a0 16bd 422f d8bc 6e35 00be
00000190: f014 f5bb b4b8 a63d 3a54 88bc 1a0b 99bd
000001a0: e452 c1bd c33a 9d3d 56f8 a3bd a02c eebd
000001b0: 2f4e 2d3d 982f 9bbd 00ef 8a3d 1487 5a3d
000001c0: 6afd 7d3d 6fcb bf3d f428 ad3c d46f b53d
000001d0: 1f70 09be d08d b93d 4944 4abd d9ca c3bd
000001e0: d72c 923d 4461 ce3d d4ec 313d 109f e3bd
000001f0: 1ec6 f2bd 5574 cbbc 8ad4 9ebc 02ea d83c
00000200: 69c7 b23d e894 a9bd 6481 013e 6fda e53d
00000210: 579d 2abc 1454 73bd ef10 ac3c b06b b83d
00000220: 5bf7 cfbd 31dc 073d f990 a53d 0405 e8bd
00000230: 83b8 903d 4bc1 043e 0673 d8bc 8a56 a2bd
00000240: 0450 f13c fb10 96bd 3fb6 823d 41fe 47bd
00000250: b724 75bd ca47 a5bd 5504 09be 5ae3 69bc
00000260: f0c0 d03d f3c9 08bd a567 d9bd 08cc 443d
00000270: cb6d 15bd 0241 f8bd 087d 5abd 8522 41bd
00000280: 0038 3939 6dfe 933d f0ed 983d 6626 473d
00000290: 8941 1cbc f88d d8bd 1e63 2fbd d02b 70bb
000002a0: 620f edbc fc53 2e3c e738 f7bd b4b6 00bd
000002b0: 1006 00be a937 6ebd ee1f b73d 6f9b 47bc
000002c0: 784f 343d 5d97 973d a24a aebd cbd1 4e3c
000002d0: 2a65 073e cdc4 5fbc 52e4 3c3d 16a7 b03c
000002e0: 5ee6 a7bd c3f4 5f3c 6b34 7abd 86e0 0fbc
000002f0: cebb ef3d c4ab 3b3c 6eed f93d 8caa 69bd
00000300: c0c5 bcbc 0245 b93d fcc6 23bc e4df 47bc
00000310: d131 b2bd e4d1 b03d 50fc df3d 581a 933c
00000320: 501f 35bd e9ce 92bd e8d3 84bd 886a cdbd
00000330: 7459 733d 1c50 a2bd 2e7e a83b 622c 76bd
00000340: 8967 013e 3a91 aabc d4a7 293d 9ed7 76bd
00000350: c84c d03c a871 efbd 6d70 edbd 4c99 2abb
00000360: fe7e 8a3c 46d7 86bd bc34 e0bd 682c f53c
00000370: 891c f83d 26db dabd d16a 4abd 8bb9 cfbd
00000380: 0eb4 afbd 44bd 33bd 646f 2a3d 90bb 853d
00000390: 7363 623d accc d23d 1cd5 e33d 560a 053e
000003a0: 59ec 64bd 56d2 ae3d 0797 fbbd 6460 42bb
000003b0: ae21 e2bc 19aa 77bd 7c36 043e a7c2 313d
000003c0: 1e02 1cbd 518e e7bd 45e3 e4bc beab 6fbd
000003d0: 638e 873d 2400 a43c c917 cc3d 3e52 a83c
000003e0: de2e 093e 2e7f c4bd 7698 663d 78d8 d2bd
000003f0: 6644 03bd 1fcc b63d bc77 83bd 5aa3 81bd
-0.059773542 0.023017224 0.026707716 -0.022755567 0.1100535 -0.1339413 0.102687374 0.018395502
0.07981511 -0.12551732 -0.121062934 -0.040733214 -0.08112207 -0.0215052 0.08877035 0.09046847
0.0039517134 0.09988323 -0.0098780785 -0.037208162 -0.08501553 -0.04438471 -0.10275473 -0.02235624
-0.01749313 0.0057560243 -0.046859723 -0.12200188 0.0025067627 0.049831532 0.029109892 -0.124282695
-0.0011820579 -0.0040499493 -0.037351202 -0.010092925 0.09577858 0.008344668 0.091215275 0.014035352
-0.07684163 0.009466242 -0.027738934 -0.12014039 0.03331241 -0.06361414 0.003794155 0.0078030406
-0.0028070183 0.091348544 -0.03509581 0.022740148 -0.08209611 -0.1020373 -0.06133459 0.06271556
0.019438885 -0.08450432 0.060498394 -0.018383535 -0.034624986 -0.06355758 0.039818972 -0.10949308
0.055396575 0.08317304 0.0005305819 0.07318069 -0.11260375 0.111671686 0.08947888 -0.010116154
0.113910675 0.025514502 -0.039317347 -0.10556364 0.10726118 -0.025739208 0.0029335236 -0.015955161
0.10138489 0.06375279 -0.0036527906 0.045244087 -0.09292305 0.0013564564 -0.04837738 -0.0060357433
0.07652973 0.08748113 0.049203955 -0.019625533 0.0184801 -0.055086292 -0.10214442 0.1252116
-0.06895486 -0.036773928 -0.026389722 -0.12520382 -0.0074793026 0.08140698 -0.016641725 -0.074728206
-0.09439638 0.076772235 -0.08006351 -0.11629605 0.04231089 -0.07577437 0.06783867 0.053351477
0.062009253 0.09364974 0.021137692 0.0885922 -0.13421677 0.09060252 -0.049381528 -0.095601745
0.07137459 0.10077146 0.043438748 -0.11114323 -0.11854194 -0.024835745 -0.019388456 0.026478771
0.08729441 -0.08280355 0.12647015 0.112233035 -0.010413489 -0.059406355 0.021004168 0.09004915
-0.10154601 0.033168975 0.08084292 -0.11329082 0.07066443 0.1296436 -0.026422035 -0.07926662
0.0294571 -0.073274575 0.06382417 -0.04882646 -0.059849467 -0.08070333 -0.13380559 -0.014275396
0.1019305 -0.03339572 -0.10615472 0.048046142 -0.03648166 -0.12121774 -0.053341895 -0.04715206
0.00017663836 0.07226262 0.07467258 0.048620604 -0.009537109 -0.105739534 -0.042819135 -0.0036647208
-0.028938 0.010640141 -0.120714 -0.03142424 -0.12502313 -0.05815855 0.08941637 -0.012183054
0.0440211 0.07401917 -0.08510329 0.012623261 0.13222185 -0.013657761 0.04611618 0.021564048
-0.08198236 0.013669196 -0.061085146 -0.008781558 0.11705743 0.011454526 0.12203489 -0.05704741
-0.023043513 0.09046365 -0.009996172 -0.012199376 -0.08700908 0.086337835 0.10936797 0.017956898
-0.044219315 -0.07168371 -0.064857304 -0.10030085 0.05941148 -0.07925436 0.005141995 -0.06010092
0.12637152 -0.020821203 0.04141982 -0.060264222 0.025427237 -0.116916 -0.11593709 -0.0026031313
0.016906258 -0.06584029 -0.10947558 0.029928401 0.12114818 -0.106863305 -0.049418274 -0.101428114
-0.085792646 -0.04388167 0.041610137 0.06529915 0.055270623 0.10292944 0.11124632 0.12992224
-0.05588946 0.08536212 -0.122846656 -0.0029659504 -0.02760395 -0.060464952 0.12911409 0.043398526
-0.038087957 -0.113064416 -0.027940402 -0.058513395 0.06618955 0.020019598 0.09965474 0.020547029
0.13396785 -0.0959457 0.05629774 -0.102951944 -0.03204765 0.08925652 -0.06419322 -0.06329985

sensor_data_network.rnn.bias_ih_l0 f4 [64]
00000000: f0ba dd3c e011 213d 6e77 80bc 5df8 fe3d
00000010: 325d d1bd c944 93bd 5760 d8bd cdd7 c83d
00000020: 2740 07be e17a 7c3d d019 c53d 9fd5 833d
00000030: ce94 ae3d 64c0 5a3d 5e19 62bd c473 e5bd
00000040: 4084 703d 8c57 07bd 7224 613d d8af 2d3d
00000050: d9fe 393d a6eb 6bbd 49cc e03d 6d38 f33d
00000060: e07a b83d 0695 9e3d f690 e23d 409b 0e39
00000070: 6dff 6cbd 5818 813d 2e65 f0bc 3f9e cc3c
00000080: 0661 e8bd 1314 8d3d ea7f f73b 40e9 cfbc
00000090: 3e45 82bb d264 00bd 44cb b93c 9a7d 99bd
000000a0: 83cd d8bd 98ad 43bd 96a4 c73d 1cb2 903d
000000b0: 6778 033d e025 03be c8bd 95bd 44c0 20bd
000000c0: 51cc 0f3d 08ce 16bd 5d17 023d 11e3 e13c
000000d0: 337e c5bd e65b 9abc c26e 4c3d e202 52bd
000000e0: 4f4c d8bd 1620 fe3d a2f2 703d 0252 6b3d
000000f0: 7d99 36bd 488f 063e d000 bfbd 26ca d1bd
0.027066678 0.039323688 -0.015681949 0.12449715 -0.10222854 -0.07190854 -0.1056525 0.09806786
-0.13208066 0.061640624 0.09624064 0.06437229 0.08524476 0.053406134 -0.055199973 -0.11203721
0.058719873 -0.033042476 0.054966398 0.042404026 0.045409057 -0.05759778 0.10976464 0.11875997
0.090078115 0.07743268 0.11062805 0.0001360001 -0.05786078 0.06303471 -0.029345121 0.024977801
-0.11346631 0.068885945 0.0075530903 -0.025379777 -0.0039755395 -0.03134615 0.022679932 -0.0749466
-0.10586073 -0.047772974 0.09748189 0.07065222 0.032097246 -0.12807417 -0.073115885 -0.03924586
0.03510696 -0.03681758 0.031760562 0.027574094 -0.09643211 -0.018842649 0.049910314 -0.05127228
-0.1056143 0.12408464 0.058825143 0.057451256 -0.04457997 0.13140595 -0.09326327 -0.10243635

sensor_data_network.rnn.bias_hh_l0 f4 [64]
00000000: cd6d eb3d 3c4f 99bd e1a2 c0bd 1e27 ebbd
00000010: 9794 be3d 2394 5b3d ab59 8b3d 3721 b53d
00000020: 18bf b6bd 0128 3ebd 4219 c0bd e7d8 afbd
00000030: d643 523d 4b2a b43d 757e e43d e751 47bd
00000040: 6d40 56bc 8731 043e d6da a8bd 20a7 e33d
00000050: 44aa cf3c 291b 98bd 8bba 07be af2f 033e
00000060: 0bad dcbd a1f7 d7bd 90e1 bfbd 709f 9cbd
00000070: 66b0 933d a597 da3d 3a34 873d 17b0 293d
00000080: 8a89 e83d c97f 4bbd 5efc 09bd e105 a83c
00000090: be7f 59bd 54b4 f43d 4188 94bd 6c47 6d3d
000000a0: 1e72 963d d361 a9bc 6237 033e ba6d a43d
000000b0: a3c1 ca3c 8dfd 703c f196 74bc 9a96 3cbd
000000c0: 5ebe c0bc 2122 96bd ab12 063e 2042 2fbd
000000d0: 8be1 83bd 96d6 8bbc 6192 d0bd 6ab4 9c3c
000000e0: c885 fb3c a21d cd3b 4629 a43d ced9 4abd
000000f0: 62f6 c5bc 5094 4b3d b294 eabc 2d59 3c3d
0.11495552 -0.07485816 -0.09406067 -0.114820704 0.09305685 0.05360807 0.06804212 0.08844226
-0.08923167 -0.04642487 -0.093798175 -0.08586293 0.051334225 0.08797129 0.11156932 -0.048662093
-0.013076884 0.12909518 -0.08244865 0.11115861 0.025349744 -0.074270554 -0.13254754 0.12811159
-0.10775193 -0.10545278 -0.093691945 -0.07647598 0.0721138 0.10673455 0.06601758 0.041427698
0.113543585 -0.049682412 -0.03368794 0.020510616 -0.05310034 0.11948457 -0.07252551 0.05792944
0.07345985 -0.020676529 0.12814096 0.08028741 0.024750536 0.014708889 -0.014928565 -0.046042062
-0.023528274 -0.07330728 0.13093059 -0.04278767 -0.06439503 -0.017070096 -0.101841696 0.019128997
0.03070344 0.006259636 0.08015685 -0.04952412 -0.024165336 0.04970199 -0.028635357 0.045983482

fc.weight f4 [16, 130]
00000000: 6e7d 91bc 45d1 0ebd 1668 9d3d daa6 39bc
00000010: 9200 643c 63a5 80bd 6b53 8d3d 4033 aa3d
00000020: f58b c0bd 72f7 d53b b7c3 5bbd 7cea e6bc
00000030: 689c abbc 1bf6 86bd 8d39 5abc ffeb fabc
00000040: 31b4 153d be47 09bd e9b1 aa3d 1bda 8e3c
00000050: d21a 31bd 58e7 c4bc 6238 403d 72fd 9b3b
00000060: ac03 f1bb 787b 803d e05d 6ebd aae7 0bbc
00000070: 2efc 0abd 35b4 b73d cf7f 913d 0fb8 593d
00000080: 3c62 3c3d 8aa9 aa3d 5380 6cbd a085 d73c
00000090: 9029 e7bc 6093 4cbc ef43 94bd f803 913d
000000a0: e294 95bd 2c7f 993d c4c8 1ebb a949 66bd
000000b0: da7b 8c3d 78ce c7bd 90ac f33c b3c0 2cbc
000000c0: 3cb4 053d 92a3 a7bc fe81 68bd ad78 88bd
000000d0: 0f77 943d e020 113a 4ee3 b2bd d9a7 0a3d
000000e0: 2fc3 89bc d6bf b1bc 3cc6 1c3d 1e8b ae3c
000000f0: ce7b b03c ec9e 35bc b379 6c3d 2a03 e83c
00000100: 420d 8d3d f67c 2fbd 98d7 113c 3305 47bd
00000110: 801d e13c 963f ab3c 123a a93c c73c 22bd
00000120: ac58 283d 30d5 023d e0e0 33bc c094 46bc
00000130: ff55 dd3c aec9 aebd 66cd 90bc 369f 97bd
00000140: 9dce f1bc 75ea 483d d16e c7bd 8f69 39bd
00000150: 64ce 95bd 3420 e33b a42a 1fbd 208e 33ba
00000160: 3cd7 5b3c ee3f a1bc b894 283c a427 6dbd
00000170: 11c8 28bd 25ec 3d3d 446a 913d 5335 80bc
00000180: bcd8 d4bc 9774 513d c59d dbbc 30f2 8d3d
00000190: 0a7f bcbc 029b 09bc 7b40 bbbc 1739 d23c
000001a0: 0820 0a3d ba9e 53bd 86b8 fb3c d43f 733d
000001b0: 52e3 38bd 133d 08bc b1ca b7bd e751 693d
000001c0: 59a5 46bc 04ee 5c3d 4d74 9ebd f5f0 84bd
000001d0: 83d4 92bd 4c5a 86bd 1651 6bbd 7450 863d
000001e0: 3ecb ae3c 2ea5 533d 41df 913d 8848 da3c
000001f0: 9e30 6ebd aaf1 3c3d c882 cb3b 1ed2 8fbc
00000200: 5430 383d 37ea d0bc ce60 b7bd 7ab8 d73c
00000210: 2995 c8bc e751 503c 6a0f 5abd 3af3 853c
00000220: 3249 df3c 538f 223d ff5d bdbd 1c1c 97bb
00000230: dcdf b93b 5bb7 023c e084 92bd a2d5 ad3d
00000240: 0def 823d 20ad c33a 0422 6fbb 6050 9b39
00000250: 0953 ad3c b214 953d 713b a13c 1dbe b63d
00000260: 8ebc 383d 967a 433d d53a 4c3d 0f3d 6cbd
00000270: 91fa 78bd 73c6 2b3d a786 9cbd 2896 6d3d
00000280: b1ec 783d 8ce6 913c 9ba6 9a3d 84ab 03bb
00000290: 16df 32bd cdca 28bd 0d57 533c fa07 7bbd
000002a0: 5bae 99bd 2a22 96bd 7d1b 9ebd 3d77 04bd
000002b0: 51fd 433d 5e00 903b cc0c 243c d633 22bd
000002c0: e207 8cbd 8cde 5dbd 26c6 5bbd a86b 583d
000002d0: 22d8 1dbc 935b 043d 438d 9bbd fcfe a03b
000002e0: 4ced e53c bb06 8d3d b648 943d de51 a53d
000002f0: 8ef1 07bd 0e72 8bbd 9391 913d 550a 423d
00000300: ee12 8e3c 7828 24bd 9ae9 98bc 6042 e3bc
00000310: 897a c63d 4275 653d f09b fcbc 74bd afbd
00000320: fe0d 453d 2cbb 23bb a459 80bd 2424 003d
00000330: c0c0 5ebd 1db3 a2bd 7bd7 08bd 9ed7 3cbd
00000340: 36d0 253d 67e3 8c3d 8ef7 273d c162 b33c
00000350: a87a 80bd 80f5 723d 10f0 223d 95fe 61bd
00000360: c9f5 bbbd efce 8bbd 6a24 1ebd 333f a0bd
00000370: 8473 f3bb da19 57bd 2ee8 873d 4e65 ce3b
00000380: 3b21 283d 40b5 b239 c69f b5bc 5d8d 713d
00000390: eaf5 f73b e0da cf39 9469 0ebc 33a9 26bc
000003a0: b4d1 783d 3a99 453d aa90 693c 261c 38bd
000003b0: ed25 1dbc cb8b bb3c 645f 4dbd e668 4d3c
000003c0: 3c04 bf3d 5674 af3b d3c0 aabd 0f68 7b3d
000003d0: 9e05 3c3c 0f56 dc3b 67fd 53bc 0356 01bd
000003e0: e528 64bd 319c 07bd a5de bcbd b848 b33d
000003f0: e15d 473d 2cc6 123d 5746 91bd 004e e93c
-0.017760005 -0.034867544 0.076858684 -0.011331284 0.013916152 -0.06281545 0.06900676 0.083105564
-0.09401695 0.006529742 -0.053653445 -0.028187983 -0.020948604 -0.0658991 -0.013319385 -0.03063011
0.036548797 -0.033515684 0.08334715 0.017437985 -0.04323847 -0.024036095 0.04692877 0.0047604376
-0.007355174 0.0627355 -0.058194995 -0.00853912 -0.033931904 0.08969919 0.07104456 0.053154048
0.04599212 0.08333118 -0.057739567 0.026308835 -0.02821806 -0.012486309 -0.0723952 0.07080835
-0.07303788 0.07494959 -0.0024228552 -0.05622259 0.0685956 -0.09756178 0.02974537 -0.01054399
0.032642588 -0.020463739 -0.056764595 -0.06663642 0.07249271 0.000553621 -0.08734761 0.03385148
-0.016816704 -0.02169792 0.03827499 0.02130657 0.02154341 -0.011085253 0.05773325 0.028321821
0.06887294 -0.04284378 0.008901499 -0.048588943 0.027479887 0.020904344 0.020657573 -0.039608743
0.04110019 0.031941593 -0.010978907 -0.012120426 0.027018545 -0.08534561 -0.017676067 -0.07403414
-0.029517466 0.04905172 -0.097379334 -0.045266684 -0.073147565 0.006931329 -0.038859025 -0.00068494864
0.013418015 -0.019683804 0.010289364 -0.057899132 -0.041206423 0.046367783 0.07100347 -0.015650427
-0.025982253 0.05113658 -0.026808629 0.06930959 -0.023009796 -0.008398773 -0.022857895 0.025661988
0.033721954 -0.051665045 0.030727636 0.059387043 -0.045138665 -0.0083153425 -0.08974207 0.056962874
-0.012124383 0.053937927 -0.07737026 -0.064912714 -0.0716944 -0.065601915 -0.057450376 0.06558314
0.021337148 0.0516712 0.071226604 0.026645914 -0.058151834 0.046128906 0.0062106587 -0.017556246
0.044967964 -0.025502307 -0.08954011 0.026333082 -0.024485188 0.01271484 -0.053237356 0.016351331
0.027256582 0.039687466 -0.09246444 -0.004611505 0.005672438 0.007978286 -0.0715425 0.08488013
0.063932516 0.0014928915 -0.003648878 0.00029623788 0.021157758 0.07279338 0.019681664 0.0892298
0.045101695 0.04772433 0.049860794 -0.057675418 -0.060785834 0.041937303 -0.076428704 0.05800453
0.0607726 0.017810129 0.07551309 -0.0020091245 -0.043669783 -0.04120903 0.0128991725 -0.061286904
-0.07503959 -0.07330735 -0.07720087 -0.032340277 0.047849003 0.004394575 0.010012817 -0.039600216
-0.06837441 -0.054167315 -0.053655766 0.052837044 -0.00963405 0.032313894 -0.07595303 0.004913209
0.028067254 0.06886049 0.07240431 0.080722556 -0.03318935 -0.068088636 0.07107844 0.047373135
0.01734301 -0.040077657 -0.018666077 -0.027741611 0.096913405 0.05602003 -0.030836076 -0.08581057
0.048109047 -0.002498339 -0.062670976 0.031284466 -0.05438304 -0.079443194 -0.033408623 -0.046104066
0.04048177 0.06879311 0.04100757 0.021897675 -0.06273395 0.05931616 0.039779723 -0.05517443
-0.09177739 -0.06826579 -0.038608946 -0.07824554 -0.007429542 -0.05251489 0.06636082 0.0062986976
0.041047316 0.00034085847 -0.022170912 0.058972705 0.007567157 0.0003964519 -0.008692164 -0.010172176
0.060746863 0.04824183 0.014255682 -0.04494872 -0.009591562 0.022893807 -0.0501398 0.012537217
0.093269795 0.0053544445 -0.083375596 0.061378535 0.011475949 0.006724126 -0.012938834 -0.031576168
-0.055703063 -0.03310794 -0.092221536 0.087541044 0.048673514 0.035833523 -0.070934944 0.028479576

fc.bias f4 [16]
00000000: adff 173d e47f 4fbd f236 50bd c6c4 4f3d
00000010: a741 b33c 9ce6 1cbd 804a 9dbd 448e 933d
00000020: a71c 943d e0be 833d 5d51 903c 00c4 7c3d
00000030: a80a db3c 6e1e 893c 9f81 7d3c 4047 233b
0.037109066 -0.050659075 -0.05083365 0.050724767 0.021881891 -0.038305864 -0.07680225 0.072048694
0.072320275 0.06432891 0.017616922 0.061710358 0.02673848 0.016738143 0.015472799 0.0024914294
