checkpoints/NoGestureNetwork_2023-08-11_13-40-03.pth (torch, 73827 bytes, 10 tensors)

touchscreen_data_network.rnn.weight_ih_l0 f4 [64, 4]
000000 94 33 e6 bd 9e 8d 9f bc 7b 07 94 bc 67 92 7b 3d
       -0.112403065 -0.019476708 -0.018069973 0.061418917
000010 31 97 e4 bd ac af ca 3d 65 23 c4 3d 84 1f f4 3c
       -0.1116165 0.09896788 0.095770635 0.029800184
000020 b9 5e 3a bc 66 27 33 bd eb f1 a7 3d 9f 27 48 3c
       -0.011375123 -0.043738745 0.08200439 0.012216478
000030 bc 87 87 3c 76 56 37 bd ee e2 49 3d f0 57 c4 bc
       0.016544215 -0.04476019 0.049288683 -0.023967713
000040 0a a8 8c 3b f9 73 96 bd bc 91 c5 bc 7a 03 e1 3d
       0.0042924928 -0.07346339 -0.024117343 0.10986991
000050 ad 91 01 3d b2 07 ab bb 84 74 f3 3d 78 82 c6 3d
       0.031633068 -0.005219423 0.11887458 0.09692854
000060 82 ce 05 3e d7 f7 0f bc 95 56 e2 bd a2 34 20 bd
       0.13067058 -0.008787117 -0.110516705 -0.039112695
000070 ec d2 eb 3c a5 0a ce 3d a8 fd 44 3c d9 25 58 3d
       0.028787099 0.10060624 0.012023367 0.05277047
000080 98 92 b8 bd 14 81 bb 3d 80 3f 91 3d d4 e8 14 3b
       -0.090123355 0.09155479 0.0709219 0.0022721784
000090 3a 94 46 bd c6 54 7a bd 4f 7b 94 3d 82 cb e7 bd
       -0.048481204 -0.061116003 0.07250082 -0.11318113
0000a0 4f ad 96 3d 51 27 a5 3d bb 59 1c bd d2 30 ae bd
       0.07357275 0.0806414 -0.03817151 -0.085054055
0000b0 35 26 ad bd e7 21 eb bd 4e a9 3b 3d b6 31 eb bd
       -0.08454553 -0.11481076 0.04581576 -0.11484091
0000c0 0e 57 fd bc dc 32 f2 bb e9 e1 36 bd 5c 62 03 3d
       -0.0309253 -0.007391317 -0.04464904 0.032076225
0000d0 a2 c9 1c 3d 51 61 c9 bd 20 08 01 3e 68 d2 46 3c
       0.03827823 -0.09833015 0.12600756 0.012135126
0000e0 f0 38 9a bc aa f2 11 3d f7 ec 01 be e5 c3 25 bd
       -0.018825978 0.035631813 -0.12688051 -0.040470023
0000f0 67 18 b0 3d d9 7a 97 3d 34 df ef bc e0 a4 58 ba
       0.085984044 0.07396478 -0.029281236 -0.00082643144
000100 6e 52 cd 3b 78 b4 06 3b 5e 56 cf 3d ba 9b b7 3d
       0.00626593 0.0020554345 0.10123895 0.08965249
000110 f9 29 b4 bd c5 ea 06 bd 94 b7 b1 bc fe bd ac bd
       -0.08797068 -0.032938737 -0.021693982 -0.08434676
000120 54 e7 2f bd 95 a4 a0 bd 1e 68 ba bc e1 96 c8 3d
       -0.04294522 -0.078438915 -0.022754725 0.09794403
000130 ae c6 ab bd 49 86 70 3d ff 14 84 bd 71 82 8e bd
       -0.083875045 0.058721814 -0.06449317 -0.069584735
000140 16 1c a5 3d 22 56 37 bd 72 93 01 3e f5 cc 8c bc
       0.080619976 -0.044759877 0.12653902 -0.017187575
000150 e7 21 60 3d af 67 82 bd 17 94 c9 3d b3 79 21 bc
       0.05471983 -0.06367432 0.09842699 -0.0098556755
000160 4e 49 80 3c cd 89 6d 3d 7f bd c3 3c 87 4e 27 bc
       0.015659954 0.057992745 0.02389407 -0.0102115935
000170 ba 9a d3 3b cf 78 f4 3c 9e d7 5e 3d 7e f9 53 3d
       0.006457654 0.029842762 0.054404847 0.051751606
000180 ac 7b f2 3b ec c7 d8 bd bb 6e e4 3d 11 71 9f 3d
       0.0073999967 -0.10585007 0.11153933 0.077852376
000190 ec 70 06 be 76 f8 62 3c fe 2b 03 be 6b 10 3a 3d
       -0.13129014 0.013853183 -0.1280975 0.045425814
0001a0 ac 72 f2 3c ba 89 29 3d e2 fc 4d bd 52 c8 92 3d
       0.029595695 0.041391112 -0.050289996 0.07167114
0001b0 94 d8 af 3c f2 44 49 3d a3 ef c4 bd c6 c3 94 bc
       0.021465577 0.049138017 -0.096160196 -0.018159758
0001c0 7a d1 f4 3c 3e 98 63 bd ef c7 27 bd 6c a1 39 3d
       0.029885042 -0.05556511 -0.040962156 0.04531996
0001d0 72 a1 35 3d dc 95 cf bc b8 99 67 3c 4d ab d0 bd
       0.04434342 -0.025340013 0.0141357705 -0.10188923
0001e0 73 07 f5 bd 08 af 57 3c 9c 4a af 3c 76 a2 ff bc
       -0.119643115 0.013164289 0.021397881 -0.031205397
0001f0 56 5c 60 3c 86 62 bd bc 36 f0 2c 3c 60 12 5c 3d
       0.01369389 -0.023118269 0.010555318 0.05372846
000200 f9 24 b1 bd ee ca c0 3d cf 26 64 3d 96 18 8e bd
       -0.0864963 0.09413706 0.055701073 -0.06938283
000210 98 bd 88 3c 16 d4 9a bc a2 64 5f bd ba 3e 6a bd
       0.016691968 -0.018899959 -0.05453933 -0.057188727
000220 4b a2 e0 3d 5a 22 1b 3c 21 4e 32 3d 12 36 db bd
       0.10968455 0.009468639 0.04353154 -0.107036725
000230 70 e5 e5 bd 0c 22 cb 3c 4e 7c f2 bc e7 6d 27 3d
       -0.11225402 0.024796508 -0.029600289 0.040876295
000240 04 94 db bd 8a 6a af 3d 0d c9 92 3d 61 51 ca bd
       -0.10721591 0.085652426 0.07167254 -0.09878803
000250 bc ca bf 3d 65 df f4 3d da 31 61 bd 04 3d 19 bc
       0.093648404 0.119566716 -0.054979183 -0.009352926
000260 90 88 e2 3c ca 87 83 3b 89 32 f9 3d 73 11 b9 3c
       0.027653009 0.00401399 0.12167842 0.022591328
000270 c4 ac 8b 3d 97 1f 66 bd 8c 2e 04 bd aa 68 23 bd
       0.06820062 -0.05618247 -0.032270953 -0.039894737
000280 b6 61 2c bc 65 ab f9 3d 54 57 92 3b 3d 0e e0 bd
       -0.010521343 0.12190894 0.0044659767 -0.10940216
000290 4b 8b b3 bd d2 06 91 3d 8a b7 9c 3c d6 0f 6a 3d
       -0.087668024 0.07081379 0.019130487 0.05714401
0002a0 bf e9 cc 3d b0 b3 e1 3d 36 f9 96 3d 13 ca 9b bd
       0.10005521 0.11020601 0.07371752 -0.07606902
0002b0 98 f2 98 3d c4 ee 45 3d b4 ba 9f bd bf 40 1d 3d
       0.07468146 0.048323408 -0.07799283 0.038391825
0002c0 c9 18 f9 bd 96 50 81 3d 50 27 8e 3d 98 83 3f bb
       -0.121629305 0.06314199 0.06941092 -0.0029222723
0002d0 39 a4 3c bc 0c 9c 85 3c 6a fa 49 bc 05 6c 5f bd
       -0.011513763 0.01630976 -0.01232777 -0.054546375
0002e0 68 66 c0 bd f2 b9 cc bd 8c 9c e4 3c 6c f8 96 bd
       -0.093945324 -0.09996404 0.027906679 -0.073716015
0002f0 4f 63 ca 3d 1d dc c0 bd 54 aa dc bc c8 36 ad 3d
       0.09882223 -0.09416983 -0.026936688 0.08457714
000300 39 50 e8 3d 90 dd a1 3d 09 28 f4 bd d2 69 32 bd
       0.11343426 0.07903588 -0.119216986 -0.04355795
000310 d5 35 c7 bd 92 93 38 3d 94 17 55 3b 9a 73 7b bc
       -0.097270645 0.04506261 0.0032515274 -0.015347386
000320 5c 88 e9 bb 42 4a be 3d ac 3d ad 3c 22 a9 82 bd
       -0.007126851 0.09291507 0.021147572 -0.06379916
000330 a6 a8 d9 bd 9a 79 96 bb 62 17 13 bd 3f b3 d8 3d
       -0.1062787 -0.0045921328 -0.03591097 0.105810635
000340 85 7b b6 3d 01 3b 98 3d 3f a0 c4 bd 9e 81 d6 3d
       0.08910278 0.07433129 -0.09600877 0.10473941
000350 66 75 ae bc c6 b5 98 bd 45 50 5b 3d 23 2b d7 3d
       -0.021296214 -0.074565455 0.053543348 0.105062746
000360 09 42 da 3d 54 3f a8 bb d3 ed cf bd 2c 45 95 3d
       0.106571265 -0.0051345024 -0.10152783 0.07288584
000370 23 0e d1 3d 53 ea c0 3d 05 7f 82 bd d5 97 06 bc
       0.102077745 0.09419694 -0.06371883 -0.0082149105
000380 fa 17 58 bd c5 e7 a4 3c 46 4b 1c 3d 80 87 c8 b8
       -0.05275724 0.020130048 0.038157724 -9.561982e-05
000390 6a 59 74 3d 5b 2e e8 bd 4f b7 9c 3d 1e 75 b6 bb
       0.059655584 -0.113369666 0.07652151 -0.0055681607
0003a0 fa 1a ae 3d be e7 e0 3d 42 76 ed 3c c2 cc b1 3d
       0.08501239 0.10981701 0.028987054 0.086816326
0003b0 b3 53 b3 bd f1 f8 e1 3d fa f1 70 bd cb 24 1d bd
       -0.08756199 0.1103381 -0.058824517 -0.038365167
0003c0 5c 9d e3 bc b2 6e 48 bd a2 48 61 3d 85 b6 79 bc
       -0.027784996 -0.048933692 0.05500091 -0.01524127
0003d0 44 e8 96 3d 04 4f 65 3c 7a ca 02 3d 98 83 dd bd
       0.0736852 0.01399589 0.031931378 -0.10816115
0003e0 e7 70 da bd 93 65 7c 3d 82 7c 4e bd 53 63 47 3c
       -0.10666066 0.061620306 -0.05041171 0.012169677
0003f0 1c 4c c2 3c 33 3e 35 bd 1e c4 40 3d 4a 7c 7a bd
       0.023717932 -0.04424877 0.047062032 -0.061153688

touchscreen_data_network.rnn.weight_hh_l0 f4 [64, 64]
000000 a8 ad 68 bd 3f 23 bc bc 8b 32 a6 3d 70 73 03 bc
       -0.056806237 -0.022966025 0.08115109 -0.008023128
000010 ed 95 75 3c 36 1e f5 bb dc f1 ca 3b d5 82 0f 3d
       0.014989358 -0.007480408 0.0061933827 0.03503688
000020 70 93 e0 bb 0f 3f c1 3d 0d be 4b 3d de 2e f2 3b
       -0.0068535134 0.094358556 0.049741793 0.007390841
000030 c7 05 6e bd 94 39 cc 3c dd 11 8e 3d fa 70 0a bd
       -0.05811098 0.0249298 0.06937001 -0.03379915
000040 48 c8 f5 bc 58 3e ce bd 20 55 ca 3b 2d 3e 94 3d
       -0.030002728 -0.10070485 0.0061746985 0.072384216
000050 95 ff 98 bd 2f cc 76 3d 54 fb d8 bc 80 84 f9 3c
       -0.074706234 0.06025332 -0.02648703 0.030458689
000060 f8 a0 ff bb 4d 2a 85 3d 34 9b ce bd 1d 21 8c 3d
       -0.0078011714 0.06502209 -0.100881964 0.06842253
000070 31 7a 14 bd 2e 29 9d 3c 08 7e 90 bd c5 02 6e 3c
       -0.036249343 0.019184675 -0.070552886 0.0145270275
000080 9f e8 75 3c 46 6a af bb c6 50 e6 3d 1e 0b 7f bc
       0.0150090745 -0.005353245 0.11245875 -0.015566615
000090 83 a4 30 bd a0 9c da b9 7a 34 2d 3d 74 7a d2 bd
       -0.04312564 -0.00041696895 0.042286374 -0.10277262
0000a0 e9 ac b2 3d aa b2 c7 bb 2a 01 96 3d 66 ab 96 3d
       0.08724386 -0.0060942965 0.07324441 0.073569104
0000b0 82 b2 f4 3b 1c 6f 57 bb 41 a3 dc bd 10 a6 c2 3a
       0.007467569 -0.0032872623 -0.10773326 0.0014850516
0000c0 4b 63 cf 3d 3f 26 cb 3d ea 57 db 3b 26 3c 14 3d
       0.101263605 0.09919404 0.00669383 0.036190175
0000d0 08 e1 de ba 11 a3 ca 3d d2 d8 57 bd 80 17 99 bc
       -0.001700432 0.09894384 -0.05269701 -0.018687963
0000e0 20 f2 a4 3a a7 a3 c0 3d 76 52 69 3d 44 6d 56 3d
       0.0012584366 0.09406214 0.056963407 0.052350298
0000f0 b4 13 d3 3c 39 da 3a bd 92 d2 95 3d 19 71 c9 bd
       0.025766231 -0.04561827 0.07315554 -0.09836025
000100 81 8f 2d 3c ca 87 50 3d 00 66 d8 bb fa 54 42 3d
       0.010593296 0.05091075 -0.006603956 0.04744432
000110 38 51 90 3d 1c a4 ad bb 0c 5a b4 bd ae b8 b4 3c
       0.07046741 -0.0052991044 -0.088062376 0.022060718
000120 97 df 3f bc be c5 9c 3d 55 a1 99 bc 20 8b 8f bb
       -0.011711023 0.07654904 -0.018753687 -0.0043805987
000130 ce 39 ad 3c 24 94 5d 3d 5a 16 12 3d 4e c4 83 3d
       0.021145727 0.054096356 0.035665847 0.064339265
000140 f7 98 a8 3d 8f c0 68 bd 55 72 c4 3d 70 a8 77 3b
       0.08232301 -0.056824263 0.095921196 0.0037789606
000150 4d b0 25 bd de c5 85 3d d6 c9 85 3d a2 75 8e bd
       -0.040451337 0.06531881 0.06532638 -0.069560304
000160 86 e7 9a bd a8 ff b6 bd 7e e6 b9 3b 41 f5 af 3d
       -0.07563691 -0.08935481 0.0056732288 0.085917
000170 61 d1 af 3d ff 1c 5c 3d d8 c0 51 3d 94 c7 90 bd
       0.08584858 0.05373859 0.0512093 -0.070693165
000180 19 69 bf 3c 2f 35 23 3d 29 ce ec bc cf fc 22 bc
       0.023365544 0.03984564 -0.028906899 -0.00994797
000190 34 96 8a 3d bc 97 7b 3d 82 30 e9 bd ba 66 e9 bc
       0.0676693 0.061424002 -0.11386205 -0.028491367
0001a0 c0 f5 36 3d db c0 ba 3c 2d 46 8b 3d 44 7e 7d 3c
       0.04466796 0.022797039 0.06800494 0.015471999
0001b0 80 f3 d0 3a ed a8 27 3c d5 2c b9 bd a4 83 aa 3d
       0.0015941709 0.010233146 -0.09041754 0.0832589
0001c0 78 c9 36 bd 67 b7 a6 3d 96 cd f6 bc 1c ec d2 bd
       -0.04462573 0.0814045 -0.030127328 -0.102989405
0001d0 9c 15 6b bb ae 90 e0 3b 38 07 a5 bd f1 3f cf 3d
       -0.0035871034 0.0068531847 -0.080580175 0.10119618
0001e0 1f 02 89 3d 68 6e c3 bd 74 45 9a bd 9e 23 82 bd
       0.06689858 -0.09542543 -0.075327784 -0.0635445
0001f0 65 0a 3e 3d c3 25 68 bd 7c a7 6c bd 0d 67 86 3d
       0.04639663 -0.056676637 -0.057776913 0.06562624
000200 e9 42 dd 3d 18 e7 47 3d 1f 01 e2 bc e7 13 66 3d
       0.10803778 0.048804373 -0.027588425 0.056171324
000210 73 cd 3f 3d 06 d3 fe 3b ce a3 d1 3c 62 a6 8e 3c
       0.04682679 0.007776621 0.025590803 0.017413322
000220 6c 2e e4 3d 68 aa 49 3d a7 53 65 bd 66 9e 81 bd
       0.11141667 0.049234778 -0.05598798 -0.0632904
000230 90 76 85 3d e3 bf d4 bd d1 d5 09 bd ae 18 f5 bc
       0.065167546 -0.10388162 -0.033651177 -0.029918995
000240 d8 a0 d2 3d 9e 80 d5 3c 8d bc 15 3c ab 98 fd bd
       0.10284585 0.026062306 0.009139192 -0.12382635
000250 70 ed 60 3d 40 55 5c bd 0a 2a ee 3c a2 b9 a4 3d
       0.054913938 -0.05379224 0.02907278 0.08043219
000260 0d 88 78 bd a8 9d 84 3d f4 8d 09 3c 40 6f c1 bc
       -0.060676623 0.06475383 0.008395661 -0.023612618
000270 97 67 2a 3d 4b b0 ed 3c f9 76 79 3d 40 ae df bc
       0.041602697 0.029014727 0.060904477 -0.027304769
000280 e4 e5 02 be 5a f6 c9 3b 28 0c f8 3b 36 78 02 3e
       -0.12783009 0.0061634006 0.0075698085 0.1274117
000290 22 54 8a 3d 5e 99 c6 bc f0 00 9e 3d e2 ca 91 bc
       0.06754328 -0.024243053 0.077150226 -0.017796937
0002a0 37 3a 99 bd 8c c7 84 3d 82 2c a1 bd 4e 0b 5b bd
       -0.07481807 0.06483373 -0.07869817 -0.053477578
0002b0 83 31 1e bd 73 de 45 bd 3a 8e 9b bd 2c f7 17 3c
       -0.038621437 -0.048307847 -0.07595487 0.009275239
0002c0 6f 7d e6 bd 93 ec 07 be b2 67 ac 3c e8 46 db bb
       -0.11254393 -0.1327384 0.02104554 -0.0066918023
0002d0 88 d4 64 3d 47 ef c1 3d e8 bd c5 bd 30 f8 18 bb
       0.055866748 0.09469467 -0.09655362 -0.002334129
0002e0 a7 63 07 be c8 05 bd bd c3 4f 4f 3c 1a ab 9b bd
       -0.13221608 -0.09229618 0.012653294 -0.076009944
0002f0 98 9b b2 ba 86 59 ff bc 7d af dc bd 70 e4 a6 3d
       -0.0013626693 -0.031170618 -0.10775659 0.0814904
000300 7d 19 10 3d 15 95 16 bd d5 ae 52 bd d5 44 bc bd
       0.035180558 -0.03676327 -0.051436264 -0.09192816
000310 a3 e1 9e bd 72 50 bf 3d e1 22 b0 3d a7 86 e6 3d
       -0.077578805 0.093415156 0.086004026 0.11256152
000320 bb ac ca 3d b4 93 bd 3d 43 97 19 3d cf 7b d5 bd
       0.09896227 0.09256688 0.03749777 -0.10424005
000330 a0 00 ae 39 1c 92 e9 bd 14 bc c6 3d bb 9c 96 bd
       0.00033188332 -0.11404821 0.09703842 -0.07354113
000340 33 4d c6 3d be 22 c2 bc 45 ce 4b 3d 92 99 a9 3d
       0.09682693 -0.023698207 0.04975726 0.08281244
000350 be 10 b9 bd 9d 67 25 3c 05 f3 8e 3d 01 e2 4a bd
       -0.090363964 0.010095504 0.06979946 -0.04953194
000360 d1 c3 a5 bd 74 99 c7 bd aa 5d e7 bb 2c b6 e8 3d
       -0.0809399 -0.09746066 -0.007060726 0.113628715
000370 e3 9e 99 3c 6c 28 38 3c 93 73 d3 bd 62 72 d6 bc
       0.01875252 0.011240106 -0.103247784 -0.026177589
000380 57 10 36 3d 42 9a 91 3d 52 c9 cc bc b9 5e 14 3d
       0.044449177 0.071095005 -0.02499834 0.036223147
000390 e5 83 10 bc 4f 86 1c 3d 56 a9 57 bc a5 9d f7 bd
       -0.008820509 0.038214024 -0.013162931 -0.12090615
0003a0 69 69 d0 3d 67 5a 0b 3d 16 6f 4d 3d f4 f9 e3 bc
       0.101763554 0.03402176 0.050154768 -0.027829148
0003b0 be 08 9a 3c 56 9c 62 bd 0d 1e c1 bd f9 9d aa 3d
       0.018802997 -0.055324875 -0.0942956 0.08330912
0003c0 f3 a3 3f 3d 30 a8 2b ba 57 1d a7 3d 9b b8 89 bd
       0.046787214 -0.0006548194 0.08159893 -0.06724664
0003d0 5b 7b 81 bd 37 8e 75 3c dc 3d 68 3d 63 99 b2 bd
       -0.06322356 0.01498752 0.05669962 -0.087206624
0003e0 c0 f5 fa 3a e3 8c bd bd 7f 52 83 3d ff ef d5 bd
       0.0019146726 -0.09255388 0.06412219 -0.10446166
0003f0 9e ea 80 3d 3e 58 54 3d c8 50 74 3d 48 20 b4 bb
       0.0629475 0.051841967 0.05964735 -0.0054970123

touchscreen_data_network.rnn.bias_ih_l0 f4 [64]
000000 27 64 87 3d 1a 97 c1 3c 03 dc 20 bd e3 72 92 bd
       0.066108994 0.023631621 -0.03927232 -0.07150819
000010 ea 67 20 3d ea a1 27 bd 12 1d 0b 3d c0 0f ba 39
       0.0391616 -0.040925898 0.03396327 0.0003548842
000020 8d fa 77 3d ff b3 d2 bd 03 93 54 bd 37 47 00 be
       0.06054168 -0.10288238 -0.051898014 -0.12527166
000030 5e 54 66 bd b2 01 ad bc 89 0b 85 3c d7 6c 08 3e
       -0.056232803 -0.021118972 0.016240852 0.13322769
000040 b0 b7 f1 bb d7 a3 39 bc 24 de fb 3b 7e 0b ab 3d
       -0.0073766336 -0.011330566 0.0076863933 0.08351801
000050 5e 67 f0 3c d5 6d 8d bc 44 d0 e0 bd fd bf 61 bc
       0.029346164 -0.017264286 -0.109772235 -0.013778684
000060 52 85 57 bd 4b 9f a0 bd fe 41 27 3d 4e dd 58 3d
       -0.05261738 -0.07842883 0.04083442 0.052945428
000070 dc dc 73 bd 27 96 d6 3d 5f ca a8 3c 83 b8 59 3d
       -0.0595368 0.10477858 0.02060431 0.05315448
000080 52 6c e9 3c 88 78 af bd f0 d0 11 bd 09 8c cb bd
       0.028494034 -0.085679114 -0.03559965 -0.09938819
000090 d6 cf 96 bd 12 27 ac 3c f2 c9 ef 3c e6 2f 93 bd
       -0.0736386 0.021014724 0.0292711 -0.0718687
0000a0 d2 d4 01 3e 68 42 e6 bd 8d f3 6f bc 46 aa e6 bb
       0.12678841 -0.11243135 -0.014645469 -0.007039341
0000b0 a2 be ad bd dd 24 03 3d 99 49 82 3d bf 91 91 3d
       -0.08483626 0.032017577 0.06361694 0.07107877
0000c0 08 6e 9b bd 2e 46 c0 3b da 91 36 3c 0a d7 85 bb
       -0.07589346 0.005867741 0.011143172 -0.0040844725
0000d0 9e 25 96 3c de 2a 07 bd d3 88 43 3d 16 60 60 bd
       0.018328484 -0.032999866 0.047737908 -0.054779135
0000e0 30 85 d5 3d 31 50 8c 3d 80 53 20 3a d3 19 82 3c
       0.10425794 0.06851233 0.0006115958 0.015881455
0000f0 08 46 0d bd 2a ff bd 3d e5 bd a7 bd ae a1 5d 3d
       -0.034490615 0.09277184 -0.081905164 0.054109268

touchscreen_data_network.rnn.bias_hh_l0 f4 [64]
000000 90 f3 02 3c 29 b3 c1 3d 4f 08 9e bd 79 88 f5 3d
       0.00799264 0.09458 -0.077164285 0.11988921
000010 df be 90 bd a7 bf 04 3e 46 8e b0 bd 1a 6f ca bd
       -0.07067656 0.12963735 -0.086208865 -0.09884472
000020 31 f4 a1 3c b3 30 36 bd 98 dd cd bb 96 c2 d1 bd
       0.01976976 -0.044480037 -0.0062825195 -0.102421924
000030 4f 25 1d bd 5a 6b 82 3d 84 84 77 bd 44 42 16 3d
       -0.03836566 0.06368132 -0.06042911 0.03668429
000040 51 e6 b7 bc ee 8f 27 3d 10 15 92 ba cd 84 15 3d
       -0.02244869 0.040908746 -0.0011145193 0.0365036
000050 65 31 8f 3d db fa 91 bd 1c 6f 2b 3d 20 88 c0 bc
       0.06991843 -0.07127925 0.04185401 -0.02350241
000060 b5 1b 1a bc 5b b6 dc 3d fc 23 c0 bc 8b ab 24 bc
       -0.00940602 0.10776969 -0.023454659 -0.010050665
000070 f8 5f ff bc e3 c2 e2 3d 1a 76 cc 3d 14 f5 20 bd
       -0.031173691 0.11072328 0.099834636 -0.039296225
000080 83 90 d0 bd 96 d3 ae bb 6f 8a e7 bd e8 b6 be bd
       -0.101838134 -0.0053352816 -0.11305701 -0.0931223
000090 f2 9b 72 3d aa 18 dc 3b ce 4c 14 3c f4 08 4e 3b
       0.059230752 0.0067168074 0.009051515 0.0031438442
0000a0 82 b3 e4 bc 27 3b fc bc 95 f6 97 bd 64 ab 17 3d
       -0.027917627 -0.030789925 -0.07420079 0.037028685
0000b0 71 63 42 bd dd 53 1b 3d 35 08 8a 3d ea 8c dc 3d
       -0.047458116 0.037921775 0.067398466 0.10769065
0000c0 ad 93 b1 3d 51 b2 9d bd 8a e9 96 bd 92 89 a8 3d
       0.08670745 -0.07700027 -0.07368763 0.082293645
0000d0 d3 a6 bd 3d 42 c6 3d bd 54 93 b4 bd 54 a7 7a bb
       0.09260335 -0.04633165 -0.08817163 -0.0038246708
0000e0 f4 32 83 bd 86 6e 4e bd 20 59 b8 3a 19 bb 9f bd
       -0.06406203 -0.050398372 0.0014064647 -0.07799358
0000f0 f0 bd ce 3d 66 d9 cc 3c a4 4d 98 3d 84 09 06 3e
       0.100948215 0.025006007 0.07436684 0.13089567

sensor_data_network.rnn.weight_ih_l0 f4 [64, 6]
000000 2e 93 55 3c 0c d5 b6 bd 86 b3 0a bd 46 0c 6e bd
       0.013035579 -0.08927354 -0.033862613 -0.058117174
000010 52 f3 be 3c cc cf 96 3d 7d 54 ab 3d 5a 6d 88 bd
       0.023309384 0.07363853 0.08365724 -0.06661482
000020 6a 7f b2 3d 01 76 ab 3d b3 ba f7 3d b8 70 f8 3c
       0.087157086 0.08372117 0.12096157 0.030327186
000030 48 62 f9 bc 18 dd a6 bc c0 3d 18 bb 40 e3 76 bd
       -0.030442372 -0.020369098 -0.0023230165 -0.060275316
000040 96 a1 4a 3c 1d 33 c4 3d d1 79 fb 3d 2c 84 fb 3c
       0.012367627 0.095800616 0.12279094 0.030702673
000050 7c a0 79 bd 2f 4b 18 3d b7 24 04 be 03 87 28 bd
       -0.060944065 0.037181076 -0.1290463 -0.041144382
000060 35 a7 db bd 3d 8c ec bd e0 b1 04 3b 1a e6 98 bd
       -0.107252516 -0.11550186 0.0020247623 -0.074657634
000070 cf 17 cc bd 22 f4 61 3c a3 de f6 3d cc 6e 16 3d
       -0.09965479 0.013791116 0.12054183 0.036726758
000080 f9 7f 00 3e 7f 6c 04 3e f3 95 29 3d 37 e0 d6 3c
       0.12548818 0.12932013 0.04140277 0.02622996
000090 f4 48 c0 3d 9e 45 83 3d 34 38 75 bd c6 98 6c 3d
       0.09388915 0.06409763 -0.059868053 0.057762884
0000a0 b6 eb 01 be 54 d9 6f 3d c2 5d 23 3d 8a 28 a5 3d
       -0.12687573 0.05855687 0.039884336 0.08064373
0000b0 e2 7a c6 bd 8c 5d e7 3c 55 ac db 3d 35 6a f5 bd
       -0.09691407 0.028242849 0.10726229 -0.11983148
0000c0 31 86 f0 bd d6 b2 53 3d cf b8 ab bd 1c 70 0e 3d
       -0.11744345 0.051684223 -0.08384859 0.034774885
0000d0 f8 81 80 3d 04 bf e7 bc f6 f8 e7 3d a2 e3 73 bc
       0.062747896 -0.028289326 0.113267824 -0.014885815
0000e0 a0 21 96 3d 86 e4 cd bd fa 30 8d bb d0 9f ed bd
       0.07330632 -0.10053353 -0.004308817 -0.116027474
0000f0 b4 83 7c bd d2 3a aa 3b 31 2d 08 3e 0d 82 04 3d
       -0.06164904 0.005195 0.13298489 0.03235059
000100 05 68 f5 bd de ad a3 3c c4 6d ea 3c d8 82 27 3d
       -0.11982731 0.019980367 0.028616793 0.040896267
000110 84 fa c1 3d 1b 92 da 3d 0a da 07 bd 3a de d9 bd
       0.0947161 0.10672399 -0.033166923 -0.106380895
000120 05 44 e3 bd a2 eb b6 bc 20 8f d4 3c d4 d9 7b bd
       -0.11096958 -0.022329155 0.025947154 -0.061487034
000130 c5 9b ef 3c 20 f7 b2 3c 2c d7 22 bd 12 47 8b bd
       0.029249081 0.021846354 -0.039755985 -0.06800665
000140 8c fd e3 3c a6 b9 88 bc ec 74 ca 3d 28 ef 1b bb
       0.027830862 -0.016690087 0.09885582 -0.0023793671
000150 8a 6f 92 bd 1a 86 ab 3d ef 34 cf bd c4 d1 ec bc
       -0.07150181 0.08375187 -0.10117518 -0.028908618
000160 c3 fb 89 bd 42 5d 26 3d 64 ea ab bd 9c bc 0c 3c
       -0.06737473 0.04061628 -0.08394316 0.00858989
000170 56 62 c0 3d 06 c3 7a bd ac 96 98 bd 69 34 ee 3c
       0.09393756 -0.061221145 -0.074506134 0.029077725
000180 b9 a8 ae 3d bc 43 ea bd af e9 e9 bd 25 b7 b4 bd
       0.08528275 -0.114387006 -0.11421525 -0.088239945
000190 ec 75 89 bd 43 e0 d1 bd 2c 3c 57 3b 21 f3 1b 3d
       -0.06711945 -0.10247853 0.0032842262 0.038073663
0001a0 36 4f b0 3c ec ff 06 bd 5c 44 17 3d 5a 6a 01 3e
       0.021522146 -0.03295891 0.036930427 0.12638226
0001b0 f8 eb 5d bd 9e 68 9a bd 6c 52 06 3e 8c 01 81 3c
       -0.054180115 -0.075394854 0.13117379 0.015747808
0001c0 8c 93 b3 3d 5c 47 67 bd 9e b2 ae 3d b3 7e f9 3d
       0.08768377 -0.056464538 0.08530162 0.12182369
0001d0 3c fa 07 be d8 53 d4 bd 52 9d 65 3d d1 c9 ec 3d
       -0.1327905 -0.103675544 0.056058235 0.11561931
0001e0 27 26 fd bd 0a 1e ef 3c e5 d5 a1 bd e5 c8 a2 bd
       -0.123607926 0.029189128 -0.07902125 -0.07948474
0001f0 dc c3 5a bd 68 8b 16 bc 6c 87 d0 3d bc 87 04 bd
       -0.053409442 -0.0091885105 0.1018208 -0.03235601
000200 46 0d 6d bc 02 4b 28 3d c0 a0 89 3a bb fa da bc
       -0.014468497 0.041087158 0.0010500178 -0.026730886
000210 58 3e a3 bd 87 c6 94 3d c2 d7 3b 3d ea e2 98 3c
       -0.079708755 0.072644286 0.04586006 0.018662889
000220 2c 62 c6 3d 50 50 e7 3b 20 b7 36 bc ea 55 fb 3d
       0.096866935 0.0070591345 -0.011152059 0.12272246
000230 11 9d e8 bd e8 1f b5 3d cd ce bb 3d 7a 58 2c bd
       -0.11358083 0.08843976 0.091703035 -0.042076565
000240 64 a7 1a 3d 8a 0b 8b bd d3 c4 c1 bd c5 30 e5 3c
       0.037757292 -0.0678931 -0.09461369 0.027977357
000250 1c f1 06 be d0 8f e4 3d dc f3 08 3d 5c 79 e7 bc
       -0.13177913 0.111602426 0.033435687 -0.02825611
000260 dc 20 7b 3d 93 12 f0 3d d9 f8 c9 3d 24 9e 02 3e
       0.061310634 0.11722293 0.09861917 0.12755638
000270 47 34 e8 bc d0 0c bd bd 96 89 03 be 04 be 88 3d
       -0.02834524 -0.092309594 -0.12845454 0.066768676
000280 30 54 f4 3a 8f 87 c4 bd 45 93 83 3d 55 55 b2 bd
       0.0018640812 -0.09596168 0.06424574 -0.08707682
000290 c5 86 d3 3d 37 10 05 be da 9b e3 bd b2 4d ac 3c
       0.103284396 -0.12994467 -0.11113711 0.021033142
0002a0 e8 83 99 3d de 68 7c bd 68 a6 a8 3d 9c 78 a8 bd
       0.07495862 -0.061623447 0.082348645 -0.082261294
0002b0 8b 41 cd bd 96 70 66 bd c2 5e d2 bd b4 b6 28 3c
       -0.10022267 -0.056259714 -0.1027198 0.010297466
0002c0 5b 4e 5f bc 23 78 ca bd e0 c3 d9 bd bf fe 97 bc
       -0.013629521 -0.098861955 -0.10633063 -0.01855409
0002d0 7e cd 85 bd 8b df 73 bc a6 40 83 3d b7 5f 76 3d
       -0.06533335 -0.01488484 0.06408815 0.060149875
0002e0 57 3a dd bd 3f ac 3c 3c 52 46 71 bc bb 4e bd bd
       -0.10802143 0.011515676 -0.014726238 -0.09243532
0002f0 82 8f f5 3d 56 de df 3d fb cb 72 bc 16 d9 76 3d
       0.119902626 0.10931079 -0.014819141 0.060265623
000300 c0 f7 f1 bc 0c b0 9d bb ce 11 cd 3d fe 90 97 bc
       -0.029537082 -0.004812246 0.100131616 -0.018501755
000310 75 ae 5e 3c 6b d8 ce bd be 49 cf bd 7e 69 0e bd
       0.0135913985 -0.10099872 -0.10121487 -0.034768574
000320 98 f9 b8 3c 88 c4 0f bd a8 01 70 bd de 85 71 bd
       0.022579953 -0.035099536 -0.05859533 -0.058965556
000330 ca 53 a9 3d 46 6a bd 3d 7e a4 cc 3d 07 69 fc bd
       0.082679346 0.09248786 0.09992312 -0.1232472
000340 2f 1a 8f 3d d8 e8 03 bd c7 96 67 bd fc 61 ae 3c
       0.06987416 -0.03220448 -0.056540277 0.021286957
000350 4c 48 8b bc 1c 2b 57 3d 6b af 20 bd 64 99 ce bd
       -0.017002247 0.052531347 -0.03922979 -0.10087851
000360 f1 57 8c bd 74 24 6d bd 1b 28 92 3d b5 d4 ac bd
       -0.06852711 -0.057896093 0.07136556 -0.08439008
000370 41 58 f4 bd 10 60 9f 3d ae c3 c1 bd d7 af 61 3d
       -0.119308956 0.07781994 -0.09461151 0.055099335
000380 bf 77 ca 3c e7 08 cd bd 1c 58 81 bd 57 c9 bf bd
       0.024715303 -0.100114636 -0.06315634 -0.093645744
000390 98 0b 4b 3d c7 99 85 bd f7 b2 b5 bd a4 77 61 bd
       0.049571604 -0.06523471 -0.088720255 -0.05504574
0003a0 ac b9 c7 bd d8 06 fd ba 32 fa 0d 3d 00 1b f4 3d
       -0.09752211 -0.0019304408 0.034662433 0.11919212
0003b0 57 76 99 bd 97 2f c6 bd a6 2c 2e bd 1e 12 cc bc
       -0.07493275 -0.09677046 -0.04252305 -0.024910983
0003c0 c1 41 87 bd 3e 01 6f bc dc 24 c0 3c 5b 06 a2 bd
       -0.066043384 -0.0145876985 0.023455076 -0.079113685
0003d0 a7 bb 65 3d 40 66 61 bd 45 04 74 3c 2f 6b 93 bd
       0.056087162 -0.055029154 0.014893596 -0.07198178
0003e0 5e 2f d6 3d a6 10 c2 bd 34 e8 05 be f6 d6 a5 3d
       0.10458253 -0.09475832 -0.1307686 0.08097641
0003f0 0b 4b 08 3e a7 b4 dc bd 15 eb fa bc 10 65 f5 3c
       0.13309877 -0.10776644 -0.030629674 0.029955417

sensor_data_network.rnn.weight_hh_l0 f4 [64, 64]
000000 0d cb 61 bc 7f 0d c7 3d af 79 09 bd 68 ad b2 ba
       -0.013781321 0.09719371 -0.033563312 -0.0013632001
000010 d5 f7 3a bd 64 1e cc bd 70 f7 04 be 70 b9 96 bd
       -0.045646507 -0.09966734 -0.12985015 -0.07359588
000020 4c d9 82 3d 2c cb fd bc 13 10 c7 3d e3 49 76 bd
       0.06389102 -0.030980669 0.09719863 -0.060129058
000030 04 a1 4b 3d 10 b6 0b ba 5e a3 d3 3c 07 19 a2 3d
       0.049714103 -0.00053295586 0.025834735 0.0791493
000040 a9 6a 6b 3d ff d9 ee 3d 22 ff 01 3e 30 03 57 3d
       0.057474766 0.11662673 0.12694982 0.052493274
000050 d1 af e4 bd f8 bd 03 3d f2 03 62 3d 80 79 cc 3d
       -0.11166347 0.03216359 0.055179544 0.09984112
000060 58 9f 90 3c 0e 34 ee 3d ba ca cb bc 3d 97 8c bd
       0.017654106 0.116310224 -0.024876941 -0.06864784
000070 61 8e 55 3d 46 ad 5d 3d b4 68 6b bb f4 20 b2 3d
       0.052137736 0.054120325 -0.0035920562 0.086976916
000080 66 79 d7 bd 24 69 ad 3d 38 d2 bb bd 48 4e f1 3a
       -0.10521202 0.084673196 -0.091709554 0.001841017
000090 53 56 65 3d e7 ae c5 bd ea 71 c7 bd b0 b6 02 bd
       0.05599053 -0.096525006 -0.09738524 -0.031912506
0000a0 c5 63 ec bd a3 74 51 3d 4b d1 b4 bd cb 60 72 3d
       -0.11542467 0.051136624 -0.08828982 0.05917434
0000b0 fc 78 bd bc 3d e6 3c 3d 97 cd 08 3e cd 9b db bd
       -0.023128979 0.04611801 0.13359676 -0.10723076
0000c0 82 02 bd 3d 00 6f 4a bd 6f 24 f1 bc 1d dd 03 3c
       0.09228994 -0.049422264 -0.029436318 0.008048323
0000d0 96 8f 39 3d d6 c8 fc 3d 92 6d 53 3d fc 21 d6 bc
       0.04530295 0.12342994 0.051618166 -0.026139252
0000e0 9b 7f 17 bd b9 49 90 3d 58 f8 c9 bd ee 49 42 bd
       -0.03698693 0.070453115 -0.09861821 -0.047433786
0000f0 4b e4 a2 3d d5 11 ef bd bf b0 c8 bd a1 5c 90 3d
       0.079537 -0.11673323 -0.09799337 0.070489176
000100 b5 e2 4c bd df da 21 bd 69 47 ce 3c 9d 0a 8a bd
       -0.050020892 -0.039515372 0.025180535 -0.067403056
000110 d8 47 be bc 5d 2c 04 3e f1 5c 90 3d c0 57 04 b9
       -0.023227617 0.12907548 0.07048977 -0.0001262119
000120 b0 e6 21 3d 2b 4d 90 3d 5f 65 41 bd 22 c0 99 bd
       0.03952664 0.070459686 -0.047215816 -0.075073496
000130 82 85 d7 3d 7c 0f 5a 3d 92 fa 25 3c 36 69 ff 3c
       0.105235115 0.053237423 0.010130541 0.031178098
000140 0b 65 a6 bd b4 00 ab bd d0 73 4a 3d ff 96 78 bd
       -0.08124741 -0.083497435 0.049426854 -0.060690876
000150 28 02 1f bd 93 26 b4 3d c4 e8 80 3c 65 5f 72 bd
       -0.038820416 0.0879642 0.015735991 -0.059173007
000160 06 50 eb 3d 3d bc 9d bd ce 03 02 3d c2 2d bb bc
       0.11489873 -0.07701919 0.03174191 -0.022848967
000170 28 56 6a bd 56 ef 2d 3d 87 82 d5 bc 19 d7 d6 bd
       -0.05721107 0.042464577 -0.026063217 -0.10490245
000180 1c 5f 7a 3d 4e 01 a4 bb b1 76 b0 3d 04 3c 7a bd
       0.06112586 -0.0050050383 0.086163886 -0.06109239
000190 b6 32 de 3d e5 7a 7e 3d ae 4a 05 bd 2b d9 c1 bd
       0.10849516 0.06212892 -0.032541923 -0.0946525
0001a0 68 37 9e 3c fa 79 4f bc 2f b6 79 3c 30 ea bf 3d
       0.01931353 -0.012663359 0.01524119 0.093708396
0001b0 86 91 f0 bd 90 74 c6 3d 87 84 87 bd fa 90 f4 3d
       -0.117465064 0.09690201 -0.066170745 0.119417146
0001c0 1a 92 92 bd 8a b4 86 bc 70 7f d5 3d 1d dd ae bd
       -0.07156773 -0.01644351 0.104246974 -0.08538268
0001d0 82 5c ad bc bf b6 65 bd dc a7 66 3d 72 93 8b bd
       -0.021162275 -0.056082483 0.056312427 -0.06815232
0001e0 7c 97 0d bb 32 24 b4 bd 2d 61 dd 3d d5 29 16 bc
       -0.0021605184 -0.08795966 0.108095504 -0.009165247
0001f0 80 f1 01 bd 6a 2b 2f bd f1 3f b7 bd 28 b2 db 3c
       -0.031724453 -0.042766012 -0.08947743 0.02681835
000200 8a e0 d1 bd 39 20 08 bd 18 a5 e3 ba d8 d7 06 3c
       -0.102479056 -0.033233855 -0.0017367927 0.008230172
000210 cb e0 82 3d ee 1b 51 3d c9 41 07 3e e5 c3 22 bd
       0.06390532 0.051052026 0.13208689 -0.0397376
000220 cf 80 db bd f1 2c ce bd 62 43 34 bd e5 a0 35 bc
       -0.10717928 -0.10067166 -0.044009574 -0.0110857235
000230 a8 77 90 bc 99 23 df bd ae a6 ae 3d 00 e1 d3 3d
       -0.017635182 -0.108954616 0.085278854 0.1034565
000240 80 22 13 ba 9b 8b d4 3d 66 ec c4 bd 0e ef 79 bd
       -0.0005612746 0.1037819 -0.09615402 -0.061018996
000250 6c 81 4f 3d d7 26 4e bd 21 29 8c 3d 68 1f 92 3c
       0.050660536 -0.05033001 0.06843782 0.017837241
000260 ec 58 bd 3d 68 e1 bf 3c 29 a3 ca 3d e0 45 de bd
       0.09245476 0.023422912 0.098944016 -0.10853171
000270 ba 3a d2 3d 78 9e bb bd 10 b5 35 3a c1 49 39 3d
       0.102651075 -0.09161085 0.00069315825 0.045236353
000280 0e ba 95 bb 98 e4 8b bc f5 2a 5f bd 46 62 c0 3c
       -0.0045692986 -0.017076775 -0.054484326 0.02348436
000290 f8 04 70 3b ac d4 fc 3d 22 19 93 3d 54 c5 53 bd
       0.0036624055 0.123452514 0.07182528 -0.05170186
0002a0 39 93 33 bc 40 b2 e4 bb 13 67 93 bc 1d f5 78 bc
       -0.010960394 -0.006979257 -0.017993486 -0.015195158
0002b0 8c 2c f7 bd c8 34 4a bd d8 10 01 be 6b 10 9f 3d
       -0.120690435 -0.049366742 -0.12604082 0.07766803
0002c0 63 66 90 3d 84 32 02 be 9f 2e 04 3e d0 51 a8 ba
       0.07050779 -0.12714583 0.1290841 -0.0012841765
0002d0 45 08 e7 3d 4b da 5c 3d bc 85 eb 3d 92 6e cc bd
       0.11280874 0.053919118 0.11500117 -0.09982027
0002e0 0c bd e8 bd 16 fb 5e 3d 0e 0a a9 3d c3 29 d2 bc
       -0.11364183 0.054438673 0.08253871 -0.02565468
0002f0 03 c3 82 3d 30 9b 52 bd ac 59 9c 3c 67 7a d9 3d
       0.06384852 -0.05141753 0.019085728 0.106190495
000300 5a c9 49 3d e2 4c 0f bd 0d 45 c9 bc f2 ef 85 3d
       0.04926429 -0.03498543 -0.024569059 0.065399066
000310 a1 25 15 3d 01 c2 ac 3c cf 48 32 3d 86 34 ad bd
       0.03641284 0.021088602 0.043526467 -0.08457284
000320 1d e3 81 bd 47 d5 48 3d 81 55 8f 3d a6 21 9c bd
       -0.063421465 0.049031522 0.069987305 -0.076236054
000330 4a bb d3 bd ce 6b fe 3c 6a a8 cd 3c 0e 2a 09 3e
       -0.10338457 0.031057265 0.02510472 0.13394949
000340 e0 2c 91 bd f3 f7 a1 3d c1 ee a9 3d f8 08 f7 bc
       -0.07088637 0.07908621 0.08297492 -0.030155644
000350 58 f5 64 3d 53 69 81 bd e0 24 a5 bd 1f ed e7 bd
       0.05589804 -0.06318917 -0.08063674 -0.11324524
000360 50 10 b4 bc 39 8e a4 3c a9 5f 9b bd dd 63 e5 3d
       -0.021980435 0.020087348 -0.07586605 0.11200688
000370 21 1f 84 bd 75 3f 29 3c 11 d3 de 3d ed d4 8a 3d
       -0.0645125 0.010330071 0.108801015 0.067788936
000380 7e 28 86 3d 22 c7 34 3d a1 a3 b3 bd 97 36 00 3e
       0.06550692 0.04413522 -0.08771444 0.12520824
000390 41 f5 59 bd 1d 41 e5 3d 50 b3 ad bb 21 5e 9c 3d
       -0.053212408 0.1119406 -0.0053009167 0.07635141
0003a0 70 88 90 3d 76 a8 e8 3d 57 f7 a2 3d 9a ad f5 bd
       0.070572734 0.113602564 0.079573326 -0.119960025
0003b0 0e 2d 8b bd 00 00 bd b7 4b 47 d5 bd e6 a3 02 be
       -0.06795703 -2.2530556e-05 -0.10413989 -0.12757835
0003c0 84 74 ff 3b 15 bc 8e 3d aa 28 58 bd 75 39 aa 3d
       0.007795872 0.069694676 -0.052773155 0.0831174
0003d0 ba 85 fc 3d e5 8a 07 3e e4 f2 d2 3d f8 bb 09 3d
       0.12330194 0.13236578 0.10300234 0.033626527
0003e0 5d eb d4 bd 0c 91 fb 3c 4e 84 29 bd 5b f2 b3 bc
       -0.103964545 0.030708812 -0.04138594 -0.02196615
0003f0 7b 37 ac 3d 24 ab c8 bb 9f f7 4a 3c d3 38 e7 3d
       0.084090196 -0.006123917 0.012388139 0.11290135

sensor_data_network.rnn.bias_ih_l0 f4 [64]
000000 ea e2 1c bd e6 f6 bc bd e9 f7 fd bd 10 33 a3 3c
       -0.03830234 -0.0922678 -0.12400801 0.01992181
000010 00 e3 2a 3c a2 e2 26 bd 23 2d d6 3d 8c 43 94 3c
       0.010430098 -0.040743478 0.10457828 0.018098615
000020 80 0c f7 3c 3a 24 8f 3d 6b 07 21 3c 98 3f b6 3d
       0.030157328 0.069893315 0.009828429 0.08898848
000030 7a 7e 82 3d 7f 2a ff 3d 88 fb 4c 3c 77 f3 78 bd
       0.0637178 0.12459277 0.012511142 -0.06077906
000040 6e 57 bb 3d f8 b5 03 3d bf a9 c5 bd dc 68 63 bd
       0.09147535 0.03215596 -0.09651517 -0.055519924
000050 f4 a2 2c 3d a0 04 34 3b f3 44 cc bd af 55 f5 bd
       0.04214759 0.0027468577 -0.099740885 -0.119792335
000060 e2 c9 88 bd 2c 4b 92 3c 05 21 b0 bd f1 c5 bb 3d
       -0.06679131 0.01785811 -0.08600048 0.09168614
000070 b0 17 a0 3a 67 c4 01 3d 21 84 b7 3d 5a 66 df bd
       0.0012214091 0.031681444 0.089607485 -0.10908194
000080 b1 4b d5 bd 31 87 c7 3d a5 2e ac 3d 2a 74 a3 bd
       -0.104148276 0.097425826 0.08407334 -0.07981141
000090 1e 49 a4 3d 3e 5c 89 3d 6f 32 e5 3d 99 d7 2d bd
       0.080217585 0.06707047 0.1119126 -0.042441938
0000a0 b7 0b bd 3c f0 53 12 bd 1f 16 96 3d 3b 1c 7a 3d
       0.023076875 -0.03572458 0.07328438 0.06106208
0000b0 9c 1c 8f 3d f6 ea 36 3d 91 4f bc bc ea 6d e9 bc
       0.06987879 0.04465767 -0.022987159 -0.028494794
0000c0 31 94 88 3d 7e 55 88 bd c6 98 d6 3c 0e 2c 73 bc
       0.0666889 -0.06656931 0.026195895 -0.014842046
0000d0 41 fe 04 3d ea a7 72 3d 57 f5 d9 bd 4f 65 08 bd
       0.032469038 0.059242167 -0.10642498 -0.03329974
0000e0 5e f3 67 3d 47 ce cc bd 1d a6 6f bd 25 b3 13 3c
       0.056628577 -0.10000282 -0.058508027 0.009014879
0000f0 88 ec 93 3d 2e 56 84 3d e3 b9 00 3c 9b 20 bc bd
       0.07222849 0.0646175 0.007856819 -0.091859065

sensor_data_network.rnn.bias_hh_l0 f4 [64]
000000 ca 77 24 bd fc 98 45 3d fb 68 43 bd a9 91 ce bd
       -0.040153302 0.0482416 -0.04770754 -0.10086376
000010 ae 70 7a bd 8d 7e 77 3c e0 d6 bb ba 4b 09 f2 3d
       -0.061142616 0.015105856 -0.0014331006 0.11818179
000020 27 e4 88 bd 46 04 1d bc ea 17 ac bd 24 0d 10 bd
       -0.066841416 -0.009583538 -0.08402999 -0.035168782
000030 88 6f 41 3d ee 6d 69 3d ac be 94 3d 16 6d 84 3d
       0.047225505 0.056989603 0.0726293 0.06466119
000040 66 7f 80 3c a2 8b a8 3d a4 6d 4d 3b 3c e3 92 3d
       0.015685748 0.08229758 0.0031345868 0.07172248
000050 a4 c2 b0 3d 25 be 81 3d 4a ba 05 bd 9e e7 2a 3d
       0.08630875 0.06335095 -0.032648362 0.041724794
000060 e0 f0 62 bc 4c 85 07 3b 94 e2 38 3c 42 b9 ba bd
       -0.013851374 0.0020678816 0.011284489 -0.091173664
000070 db 5b b2 bd 58 37 a7 3d 9e 56 6e 3c 48 f4 c1 3c
       -0.08708926 0.08164853 0.014547018 0.023676053
000080 98 34 de bd 10 f2 ef 3d 20 e3 b0 3d 1c f5 c7 3b
       -0.10849875 0.11716092 0.08637071 0.0061022174
000090 79 f8 f1 3c e3 3a e6 3d e3 40 ee 3d a7 01 9f 3d
       0.029537426 0.112417005 0.1163347 0.07763987
0000a0 37 9b 08 3d 78 71 5e bd f8 9d 16 bc 29 c9 d9 bd
       0.03335115 -0.05430743 -0.009192936 -0.106340714
0000b0 da 6c d7 3d e4 1a 91 3d fa 0b b9 3d 0b 09 76 bd
       0.10518809 0.07085207 0.090354875 -0.060067218
0000c0 c8 b7 bd 3d da dd 1d bd 87 91 91 3d 82 86 13 bd
       0.09263569 -0.038541652 0.07107835 -0.03601695
0000d0 f4 89 09 3e 72 77 95 3d be 85 84 3b b3 04 82 bd
       0.13431531 0.07298173 0.0040442636 -0.063485526
0000e0 ef 16 e3 3d 1e 77 dd 3c 04 a3 89 bd de 24 b6 3d
       0.110883586 0.027034339 -0.06720546 0.088937506
0000f0 97 d2 89 3c 21 0d ae bd a0 8b 71 bd 53 3b 4f 3d
       0.01682405 -0.08498598 -0.058971047 0.050593685

fc.weight f4 [64, 130]
000000 0b 22 75 bd 80 6e 86 bd 08 eb 57 bc ea 46 45 bd
       -0.05984692 -0.06564045 -0.013178594 -0.048163332
000010 7f 66 a6 3c 29 6a 85 3d 9a 7f bf 3d 2f 13 33 bd
       0.020312546 0.06514389 0.0935051 -0.043719467
000020 50 ff 24 3d 77 a7 37 3c 56 e9 96 bd 6a 3c 24 bd
       0.040282547 0.01120936 -0.07368724 -0.040096678
000030 4c 75 4a 3d e0 4d 83 3d 86 d5 0e bd ec c1 e2 3c
       0.04942827 0.06411338 -0.0348716 0.02768036
000040 b6 ef a1 bc f1 92 79 3c a6 e5 89 3c da 47 c7 3d
       -0.019767623 0.0152327875 0.016833138 0.097305015
000050 9a e5 82 bd 31 38 15 3d c0 25 93 3d 94 08 93 3c
       -0.06391449 0.03643054 0.071849346 0.017948426
000060 ba e2 3b bd 9c d9 63 bd 26 b7 b9 3d 80 08 a0 3a
       -0.04587052 -0.05562745 0.09068136 0.0012209564
000070 08 2b da 3c c6 1d 89 3c d8 15 e1 bc 40 01 95 3b
       0.026631847 0.01673783 -0.027476236 0.004547268
000080 74 56 84 bd 74 c7 58 bc e9 ba 30 bd 2e c9 5c bd
       -0.06461802 -0.013231147 -0.043147 -0.053902797
000090 f9 a2 49 3c 43 66 68 3d de 54 32 bd 72 e5 3f bd
       0.012306922 0.05673815 -0.043537967 -0.046849675
0000a0 82 02 72 bd 71 95 18 3d 38 10 8a bd 6b f2 a3 3c
       -0.059084423 0.037251893 -0.06741375 0.020013055
0000b0 32 1c 99 3d 61 83 0f 3d 94 a9 82 bd 84 96 b8 bd
       0.07476081 0.035037402 -0.06380001 -0.090130836
0000c0 2e 06 c5 3d 1b 55 3e bd 6a 49 64 3c 0f 75 91 3d
       0.09620319 -0.04646788 0.013933519 0.07102405
0000d0 86 fa 1c 3b 3a da ef bc 2d e1 87 bd 8c b0 5d bd
       0.0023953035 -0.029278863 -0.06634746 -0.054123446
0000e0 88 1b b8 bc 94 ae 5e 3d ac 63 20 3d 48 72 92 3c
       -0.022474065 0.05436571 0.039157555 0.01787676
0000f0 3f 6a 5f 3c 2d e9 80 bd 78 ce 0c 3d 4a b8 2a bc
       0.013636171 -0.06294475 0.03437659 -0.0104199145
000100 54 d5 73 bc e8 a9 5a 3d 22 1e 6c 3c 64 cd 9d 3d
       -0.014882404 0.05338469 0.014411481 0.07705191
000110 20 dd e2 bc 6e fb 42 3c d2 ab e6 3c 76 dd 7e 3d
       -0.027693331 0.011900766 0.028158102 0.06222292
000120 c8 52 0d 3d 19 0d 27 bc 26 ae 5b bd 26 f3 41 3c
       0.034502774 -0.010195994 -0.053632878 0.011837756
000130 fe 81 67 3b a7 43 16 bd 36 db 1b 3d 9f 4c 85 bc
       0.0035325284 -0.036685612 0.038050853 -0.016271887
000140 55 68 88 3d 58 82 52 3d 3e fd 77 bc 99 44 98 3d
       0.06660525 0.051393837 -0.015136061 0.07434959
000150 4e c7 bb 3d 31 f1 40 bd ca d7 00 3d b6 e1 7d bd
       0.09168874 -0.047105018 0.031455792 -0.061982833
000160 80 e1 7e bd 46 e3 7e bd b4 ec aa bd 68 ee 2c 3d
       -0.062226772 -0.062228464 -0.08345929 0.04221955
000170 b8 a7 4f 3d 06 56 3d bd c7 53 8b bd 80 8f 87 bc
       0.05069706 -0.046224616 -0.06803089 -0.016547918
000180 90 4c 7e 3d 3e bd be bc 90 0a 54 bd 01 3d 17 3d
       0.062084734 -0.023283597 -0.051767886 0.036923412
000190 3a e1 a2 3c 68 a8 ab bd 34 d3 bd 3c 21 5c e6 3b
       0.019882787 -0.0838173 0.023171999 0.0070300256
0001a0 22 9f 91 3c 98 76 95 3d 7a f8 39 3d f8 9b d9 bc
       0.017776076 0.072980106 0.04540298 -0.02656363
0001b0 74 74 2f bc 2f 29 80 bd ee 7f f1 bc ef f1 18 3d
       -0.010708917 -0.06257855 -0.029479947 0.0373401
0001c0 16 38 49 3d 99 f5 51 3d d0 45 fe bc 3a f7 07 3d
       0.049125753 0.05125961 -0.031039149 0.033194758
0001d0 04 04 0f bd f9 3a 49 bd d9 78 27 3d b1 0f b8 bd
       -0.03491594 -0.049128506 0.040886734 -0.08987368
0001e0 d6 75 f9 3b 4f ef aa 3b d1 9a 9c bd 08 15 4a 3d
       0.007612924 0.005216516 -0.076467164 0.049336463
0001f0 d3 b5 80 bd 8a 15 1a 3b fd a3 d3 3c d1 dd 17 3c
       -0.0628468 0.0023511373 0.025835032 0.009269194
000200 b3 61 f9 3b 90 55 a9 bd c7 2a 31 bc 80 9a 3e ba
       0.0076105236 -0.08268273 -0.010813422 -0.0007270947
000210 10 97 83 3c 64 96 e6 3c d5 a4 2c 3d 78 20 16 3d
       0.016063243 0.028147884 0.042149384 0.03665206
000220 54 c7 ff bc 5b bb a6 bd ed 4e 96 bc 73 e8 41 bd
       -0.031222977 -0.08141204 -0.018348182 -0.04734082
000230 83 d8 66 bd 5c a8 8f bd 78 1f d9 3c c4 40 75 bd
       -0.056358825 -0.07014534 0.026504263 -0.05987622
000240 df 35 8a bb 66 17 90 bc b0 8a 64 ba 8a 35 5b bd
       -0.0042178477 -0.017589282 -0.0008718176 -0.053517856
000250 78 c1 8e bd bc 3a e3 3c 6a 55 42 3b af c3 c9 3c
       -0.06970495 0.027737968 0.0029652962 0.024629442
000260 83 e5 73 3d af 37 4d bc ed c0 65 3c ab f3 0d bd
       0.05954505 -0.012525483 0.014023048 -0.034656208
000270 bb bc 9e bd d8 76 26 bd 34 e7 4c 3d 04 98 0e bb
       -0.07750841 -0.040640682 0.05002518 -0.002175809
000280 c5 15 c3 3d c6 ee da 3c 3c 7b ba 3b c0 4d e7 bc
       0.095256366 0.026725184 0.00569096 -0.028235316
000290 cb 0d 53 bd af fa 48 3d b0 b6 43 3a 56 4f 6e bc
       -0.051526826 0.049067196 0.0007465882 -0.014545282
0002a0 f8 69 db bc 50 c6 5f bd a3 2a 43 3d 0f ef b2 bd
       -0.026783928 -0.054632485 0.047648083 -0.08737003
0002b0 95 eb 75 3d 67 f6 36 3d 78 3e 98 bd e0 6a 64 bd
       0.06003912 0.04466858 -0.0743379 -0.055765986
0002c0 ff 0e 1f bd 1d 29 a4 3d 05 b9 92 3d f0 f5 90 3c
       -0.03883266 0.08015654 0.07164196 0.017695397
0002d0 27 dc ec 3c 5e 0c b0 3c 3d 12 97 3d 40 d3 77 bd
       0.02891357 0.021490272 0.073765256 -0.060504198
0002e0 aa 2c 3f 3c 87 03 80 3d 92 f9 39 bc f8 20 ac 3d
       0.011668364 0.06250673 -0.011351006 0.08404726
0002f0 0d 47 78 3c c6 77 48 3d 72 4f bf 3d 89 10 14 3d
       0.015153659 0.04894235 0.09341325 0.03614858
000300 86 4c 87 3d fb bd 30 bd 71 d6 8c bd eb 5f 9d 3d
       0.066063926 -0.04314993 -0.06876839 0.076843105
000310 d3 e5 b8 3c 12 24 67 bd 7a bd 80 3d ad 39 9f bd
       0.022570526 -0.056430884 0.0628614 -0.07774673
000320 51 3b b9 3c 8b e7 8e 3d a4 16 8b 3d 86 72 80 bb
       0.022611292 0.06977757 0.06791428 -0.0039199023
000330 cb 5d 67 bd 22 fd b8 3b 1a 85 54 3b 7a 3e 04 bd
       -0.056485932 0.00564541 0.0032427968 -0.032286145
000340 4e 1d b1 bd 0a 91 a1 3c 76 5a be 3d 93 2c dc bc
       -0.086481676 0.01972248 0.09294598 -0.026876723
000350 78 ae a6 3d 15 a9 45 bd 91 2d 94 bd c7 ca 42 3d
       0.08138746 -0.048256952 -0.072352536 0.047556665
000360 37 47 0c bd ef 12 43 bd eb 13 2d 3d 63 68 a6 3d
       -0.034247603 -0.04762548 0.042255323 0.08125379
000370 63 e0 ae 3d 76 e3 bf bb d2 4c b2 3c 1d f9 95 bd
       0.08538892 -0.005855973 0.021765146 -0.07322905
000380 04 8b 6a bd e7 aa 55 bd ef ec 80 bd 24 8d d9 3c
       -0.057261482 -0.05216494 -0.062951915 0.026556559
000390 f8 f8 73 bd 5c a2 8e bd 35 63 c2 3d 85 1d 43 3c
       -0.059563607 -0.06964561 0.094915785 0.0119088935
0003a0 85 7d 13 bc 4c 52 3e 3b 4f 39 9e 3d 30 3c d4 bc
       -0.009002094 0.0029040752 0.077257745 -0.025907606
0003b0 5c eb 6a 3d 0d 21 c0 bd f7 38 5c bc 66 36 67 3d
       0.057353362 -0.09381304 -0.013441316 0.056448363
0003c0 7d 12 17 bd 95 bf 40 3d 26 35 56 bd 92 da af 3d
       -0.036882866 0.047057707 -0.05229678 0.08586611
0003d0 72 00 81 bd 38 dc 43 3d da a0 4c 3d 1c 31 c2 3d
       -0.06298913 0.04781744 0.049958088 0.09482023
0003e0 2c fa 83 bd 12 51 42 bd e8 f6 5a 3d cf 61 3b 3d
       -0.06444201 -0.047440596 0.053458124 0.045747574
0003f0 5f a1 07 bd a3 92 38 bc 26 f0 13 3c 0c 44 24 bd
       -0.03311288 -0.01126543 0.009029424 -0.040103957

fc.bias f4 [64]
000000 ba 18 20 bd 93 e3 87 bd 30 bd 80 bd b1 17 65 3d
       -0.03908608 -0.06635203 -0.06286085 0.055930797
000010 dc 6c ec bc fe ca 91 bd a7 54 4b 3d b0 6c 21 ba
       -0.028860502 -0.07118796 0.049641278 -0.00061578583
000020 ef f3 94 3c 06 3f e1 3c 09 ad 56 3c 65 5b 13 bc
       0.018182723 0.027495872 0.013102778 -0.008993958
000030 0c 74 0f 3d b2 51 dd 3c 76 aa 44 bd 67 3a 41 bd
       0.03502278 0.027016494 -0.048014127 -0.047174837
000040 00 30 ad b8 c4 2e 1f bc 8c 5d b0 bc fe 55 e7 3c
       -8.2582235e-05 -0.00971574 -0.021528982 0.028239246
000050 76 19 f4 bc 76 bb 35 bb 66 92 15 bd 87 36 07 bc
       -0.029797297 -0.0027730144 -0.03651657 -0.008252746
000060 c0 0e 4d bd b5 c5 9c bd dd ce 20 3d c6 e0 2c bd
       -0.050062895 -0.07654897 0.03925978 -0.04220655
000070 80 95 b2 3c 52 e8 28 bd 5c 82 79 3d e8 f2 51 3c
       0.021799803 -0.041237183 0.060915336 0.012814261
000080 d6 23 0a 3d fa 2c 9e 3d 89 4d 92 bd 2e 18 07 bd
       0.033725582 0.07723422 -0.07143695 -0.032982044
000090 5c 9c a4 3c 60 c6 87 bc 64 9a 68 bd d9 53 04 bd
       0.02009409 -0.016574085 -0.056787863 -0.032306526
0000a0 76 12 ed 3b 28 57 8b 3a 22 d2 47 3d 8d d0 d0 bc
       0.0072348667 0.0010630833 0.048784383 -0.02549007
0000b0 f8 b0 99 bd 24 9b 77 bd 2d 2e dc 3b c9 e9 96 3b
       -0.07504457 -0.060450688 0.006719372 0.004605506
0000c0 41 59 1a 3c ae d7 27 bd d9 36 54 bc c6 b0 6f 3d
       0.009420694 -0.040977173 -0.01295253 0.058518194
0000d0 0f 76 6f 3d 53 ba 07 bc 64 cc 94 3b 04 a5 92 3b
       0.0584622 -0.008284169 0.004540967 0.004475238
0000e0 c0 32 ba bb c2 49 b8 bc 12 d0 d2 3c 8c 30 a6 3c
       -0.0056823194 -0.022496108 0.025733981 0.02028682
0000f0 51 b2 93 3d 79 6d 3b bd 24 3d 90 bd 3c 90 e4 bc
       0.072117455 -0.045758698 -0.07042912 -0.027900808
