checkpoints/NoGestureNetwork_2023-08-11_13-42-58.pth (torch, 57059 bytes, 10 tensors)

touchscreen_data_network.rnn.weight_ih_l0 f4 [64, 4]
000000 50 2a ea ba 6c bd bf 3d a8 05 1f 3d 8e 2d cd bd
       -0.0017865393 0.09362301 0.038823754 -0.100184545
000010 1c 06 40 3d a7 8d 73 bd d3 f2 0a bc 3e 82 48 3d
       0.046880826 -0.059461262 -0.008480745 0.048952334
000020 b2 73 7f 3d 8b 6e 95 3d d5 f6 99 3d c7 1a 91 bd
       0.062366195 0.07296475 0.075177826 -0.070851855
000030 ce 38 92 3d f2 26 76 bd c8 c5 d7 bd 8c eb 62 3d
       0.07139741 -0.060095735 -0.10535771 0.055400416
000040 c9 6f 3b 3c fb 20 5d 3c 60 5b 70 ba 82 a1 a3 3c
       0.011440226 0.013496633 -0.00091688894 0.019974474
000050 2e ac 6a 3d 1f 7f ed 3d e5 d9 d6 bd 49 c4 69 bd
       0.05729311 0.11596512 -0.10490779 -0.057071958
000060 19 fb 7e bd 6e 54 d3 bd 1c a8 78 3c ad 28 cd bd
       -0.062251184 -0.10318838 0.015176799 -0.10017524
000070 7c d7 99 bd ad 47 3a bd c1 91 69 bd 2c 98 24 bc
       -0.075118035 -0.04547851 -0.057023767 -0.010046046
000080 d4 ce b5 bb 2b 55 ea 3d 51 7d d3 3d 54 64 92 3d
       -0.0055483375 0.11442026 0.103266366 0.07148042
000090 0e d0 81 bc e9 ad 60 bc d0 7f 81 bd ed a7 c2 bd
       -0.015846279 -0.013713338 -0.063232064 -0.095046856
0000a0 d5 18 86 3c 03 8a c9 3d 05 52 d7 bd 6e 94 f5 3d
       0.016369263 0.09840777 -0.10513691 0.11991201
0000b0 65 80 8e bd 97 31 97 bd ed 03 a7 3d 6b 31 7a 3d
       -0.06958083 -0.073825054 0.08155046 0.061082285
0000c0 33 d7 12 3d 7d 9b b8 bd da a0 a2 bc 6f 33 cc bd
       0.03584976 -0.09014032 -0.01985209 -0.09970748
0000d0 78 f5 b7 ba af 76 91 bd b7 ff 9e bd 50 e1 f1 bc
       -0.0014034947 -0.07102715 -0.077636175 -0.029526383
0000e0 59 69 c2 bd 5c 2d da bd 37 b8 e1 bc 78 bb b3 3c
       -0.0949275 -0.10653183 -0.02755366 0.021939978
0000f0 d8 ca 58 3b e6 af 9d 3c f8 9d b4 3d e3 b3 ad bd
       0.0033079889 0.019248914 0.08819193 -0.08481576
000100 ff 91 d1 bd 34 cb 79 3c d3 00 ae 3d 66 20 ca bd
       -0.10232925 0.015246201 0.08496251 -0.09869461
000110 27 be c9 3d 47 b4 b0 bd a6 a5 5b 3c 2f 3b 2d bd
       0.09850722 -0.08628135 0.013406193 -0.04229277
000120 48 bc cc 3b cf 97 88 bd b4 c2 78 bd 3d 95 cb 3d
       0.006248031 -0.0666958 -0.06073256 0.09940574
000130 e5 d9 cd 3d 64 2d 8c bc 2b 97 c7 3d 68 71 f8 bc
       0.10051326 -0.017111488 0.0974563 -0.030327514
000140 97 91 97 bd 3c 09 ee bc b0 1d 0f ba 8b b0 01 3e
       -0.07400816 -0.029057138 -0.0005459441 0.12665002
000150 a7 ad a9 3d 23 3b 8d bc 9b 03 2f 3c fe 83 e0 3d
       0.08285075 -0.017240113 0.010682012 0.109626755
000160 f8 5d 68 3d 9d df dd 3d c4 95 8e 3b 1c 73 82 3d
       0.05673024 0.108336665 0.0043513495 0.063696116
000170 c3 d7 8e 3d b2 c8 ee 3b 72 26 f4 3b 33 f7 e8 3d
       0.06974747 0.0072871083 0.007450872 0.113752745
000180 ac de c0 bd a1 e5 90 bd 82 43 b6 bd 5c 8f d7 bd
       -0.09417471 -0.07075048 -0.08899595 -0.105253905
000190 82 8a 3c 3d fe ab 11 bd c9 e3 c5 3d 32 96 7f 3d
       0.04603053 -0.035564415 0.09662587 0.062399097
0001a0 7d f5 e3 bd a5 8c d1 3d c6 3a 70 bd 94 48 b9 3d
       -0.111308075 0.10231904 -0.0586498 0.09047046
0001b0 36 63 4d 3d 4f 9d bd 3d 45 19 c6 bd 5e 4d d3 3d
       0.050143443 0.0925852 -0.096727885 0.10317491
0001c0 40 af 17 bd 6c 65 29 bd 9a 6f 2f bd e2 14 d2 bc
       -0.037032366 -0.04135649 -0.04283104 -0.025644723
0001d0 ed 08 4a bd 31 1f 9f 3d 3a 4a 41 bd 55 45 9e 3d
       -0.04932492 0.07769621 -0.04718993 0.07728068
0001e0 fb 8b 4f 3d 54 49 00 bd fb d6 5b bd 40 8d 60 3a
       0.050670605 -0.03131993 -0.05367182 0.000856597
0001f0 2e 64 02 bd 1d dd c4 bd 2c e4 80 bb 70 07 dc bb
       -0.03183382 -0.096124865 -0.00393345 -0.006714754
000200 cc ac 57 bd 79 9b 8a bd 05 ec 13 bd 7e 09 87 bb
       -0.052655026 -0.06767935 -0.036113758 -0.0041210046
000210 b9 f8 b6 bd 73 7e 83 bd 01 dc 82 3d 86 1f f9 bd
       -0.08934159 -0.06420603 0.06389619 -0.12164216
000220 87 36 3e bd 5f 1d b1 3d ea 3b c4 3d 62 12 fb 3c
       -0.04643872 0.0864818 0.0958174 0.030648414
000230 ac c9 bc bd 4e 0a d4 bd 96 4b 24 3d e6 dc 51 3d
       -0.09218153 -0.10353528 0.040111147 0.051236056
000240 46 cc 9a bb f7 77 ca bd ae c1 1f bd 76 1f 0a 3d
       -0.0047240583 -0.09886163 -0.039003067 0.03372141
000250 9e 67 61 bd d3 dc cf bd 92 dd f4 3c cb 0b 0b bd
       -0.055030458 -0.10149541 0.02989081 -0.033946794
000260 cc 7f 54 3b 8e 8e 55 3d 72 b9 ce 3c 4f 31 8d 3d
       0.0032424806 0.052137904 0.025234912 0.068941705
000270 ce 94 d1 bd e3 94 a4 bd 00 aa 01 3e 55 58 a1 bd
       -0.1023346 -0.080362104 0.12662506 -0.07878176
000280 28 e9 8b bb 9f bb 93 3d 55 8c b3 bd ea 52 3f bd
       -0.0042697378 0.0721352 -0.087670006 -0.046709932
000290 f7 0a 79 bc 8a d9 08 3d 79 83 dc bd e3 8c 47 3c
       -0.015200368 0.033410586 -0.10767264 0.012179586
0002a0 91 d7 02 bd 44 d6 93 bc 82 0d b5 3d 3f 8f a6 3d
       -0.03194386 -0.018046506 0.08840467 0.08132791
0002b0 06 9e e7 bd 40 2e ce 3a 08 1d 28 bc 4a 58 3a bc
       -0.113094375 0.0015730336 -0.010260828 -0.011373589
0002c0 1d 06 d2 bd 7f de ae bd 4a 1d 6a 3d a4 59 91 3d
       -0.10255072 -0.085385315 0.05715684 0.07097176
0002d0 5e 03 9d 3d 4a 3d 33 bd 8f 24 e1 bd e6 84 4f 3d
       0.07666658 -0.04375962 -0.10993301 0.05066385
0002e0 76 54 2f 3d 20 c4 4b bd 42 6c f9 bc d2 93 ed bd
       0.042805158 -0.049747586 -0.03044713 -0.1160046
0002f0 36 fc 60 bd ff d5 92 bd cf 0b 9e 3d b3 19 08 bc
       -0.054928027 -0.07169723 0.07717096 -0.008306908
000300 c5 61 c8 bd 08 a8 86 ba ec 1d ef bc 46 9e 78 3d
       -0.09784273 -0.0010273466 -0.029189073 0.060697816
000310 39 fb d1 3d d9 9d 5d bc 75 ae fc bc 89 75 25 3d
       0.10252995 -0.013526403 -0.030844906 0.040395293
000320 7a 93 1d bd 31 f9 b5 bd 12 ab 40 3d b3 d4 02 be
       -0.038470723 -0.0888542 0.047038145 -0.12776451
000330 32 68 5e 3d 9d 18 eb bd 35 63 d4 3d 1d b8 e6 3d
       0.054298587 -0.11479304 0.10370485 0.112655856
000340 40 2e 98 ba 08 8f 54 bd 7a 9b 90 bd 8c 76 31 bd
       -0.0011610463 -0.051894218 -0.07060905 -0.043325946
000350 0c 07 e3 bc d3 82 9a bd f4 f9 8b 3c e9 ed c7 bd
       -0.027713321 -0.07544484 0.01708696 -0.09762175
000360 14 21 d7 bd e4 b2 81 3c 6c db 9d 3d e6 39 a9 3c
       -0.10504356 0.015832372 0.07707867 0.020657491
000370 5c 94 d1 3c de 5f b7 3d 74 34 e6 3d 5b 66 e2 bd
       0.025583439 0.08953832 0.112404734 -0.11054679
000380 6a c5 a9 bd 22 1d 69 3d 22 0b a8 3d 48 0f 6e bd
       -0.08289607 0.05691255 0.082052484 -0.058120042
000390 99 5c e8 3d f2 7d 83 bd 5f b3 41 bd 47 7c 3a 3d
       0.113457866 -0.064205065 -0.047290202 0.045528676
0003a0 2c 98 a4 bd 97 c3 66 bd e0 02 f7 bb 27 a0 d4 bd
       -0.08036837 -0.056338873 -0.0075381845 -0.10382109
0003b0 65 51 83 bd cc 66 e4 bd ab 5b 8c 3d 02 be fa 3d
       -0.06412009 -0.111524194 0.06853422 0.12243272
0003c0 ec fc 54 bd 08 3a 22 bb 53 37 d2 3d eb 1d bf 3d
       -0.051999018 -0.0024753828 0.102644585 0.09331878
0003d0 e0 1c 80 3d 7f 10 ae bd 32 f6 c3 bc 93 c1 e8 bd
       0.062555075 -0.0849924 -0.023921106 -0.11365046
0003e0 40 fb ca 3d e6 de a5 3d 46 3c cd 3d ae 29 da 3c
       0.099112034 0.08099155 0.10021262 0.026631203
0003f0 cc ea 81 3c 3d 03 0a bc 54 39 1c 3d a0 69 e3 3c
       0.01585903 -0.008423624 0.03814061 0.027760327

touchscreen_data_network.rnn.weight_hh_l0 f4 [64, 64]
000000 77 2f ad bc 68 a4 e2 bd df 3e 69 bc 3c 16 8e bd
       -0.021140797 -0.11066514 -0.014236181 -0.069378346
000010 60 f8 cb ba a7 a0 b5 3d 0c ee a6 bc 36 88 be bd
       -0.0015561692 0.08868533 -0.020377181 -0.09303324
000020 f8 17 1e 3d a2 44 8b bd 8d ac 8c 3d 70 81 f6 bc
       0.038597077 -0.068002 0.06868849 -0.030091017
000030 3f e8 ac 3d 88 c8 ef bc 9a bb 27 bc 52 c8 eb 3c
       0.08442735 -0.029270425 -0.010237599 0.028782044
000040 52 b6 77 bd b2 f9 5e bd ce 50 57 bd 04 11 9a bd
       -0.06047661 -0.054437347 -0.052567296 -0.07522777
000050 f7 d6 48 3d cf 21 3b 3d e2 55 8a 3c 37 71 96 bd
       0.04903313 0.04568654 0.016886655 -0.07345813
000060 48 2d 87 3c 60 0c cd bd 72 17 e4 bc ae 2f e9 3d
       0.016501084 -0.10012126 -0.02784321 0.11386047
000070 7a 13 8e 3c 86 06 94 bd 2e c2 cc bd 40 98 53 b9
       0.017343272 -0.07227807 -0.09997974 -0.00020179246
000080 22 be a9 bd 38 55 e5 bd 32 1a ea 3d 10 e8 b0 bd
       -0.08288218 -0.11197895 0.114307776 -0.086380124
000090 84 9e b0 3d 68 4b bd 3d 65 34 22 bd ca cb db bb
       0.086239845 0.09242898 -0.03960075 -0.006707643
0000a0 08 7c 44 bc a8 7d d1 bc 82 d4 2b bc 37 07 d7 3d
       -0.011992462 -0.025572613 -0.0104876775 0.10499423
0000b0 b8 2e fe 3c 2e 9f 1f 3d f8 e3 ad 3c c4 fb 8b bd
       0.031028137 0.038970165 0.021226868 -0.0683513
0000c0 68 70 eb 3d 3b a6 51 3d 03 94 e5 bd d7 0f 04 3c
       0.11496049 0.05118392 -0.112098716 0.008060417
0000d0 4a 34 5c 3d 9c 52 78 3b 66 86 25 3d b6 0e 1c bd
       0.053760804 0.0037891036 0.040411375 -0.038099967
0000e0 d4 c9 f9 3c bc f6 a0 bb d4 9e c0 3d d0 e9 ca 3d
       0.030491747 -0.0049122255 0.09405294 0.099078774
0000f0 e3 a2 3f bc 6e 30 c9 bd 6e 73 e0 3b 2b 6c 17 3d
       -0.01169655 -0.0982369 0.006849698 0.03696839
000100 fc e1 62 3d e1 cb ce bd 3d 9c 98 3d 84 b3 98 bc
       0.055391297 -0.100974806 0.07451675 -0.018640287
000110 15 e6 86 3d 06 d3 cd 3b 96 e4 ed 3c df df 85 3d
       0.065868534 0.0062812595 0.029039662 0.06536841
000120 05 94 d7 3d 6f 65 59 bd 60 ed 8f bd 51 bb 68 3d
       0.10526279 -0.05307525 -0.070276976 0.056819264
000130 e1 3d 72 3d ff f9 ca bd 5a 40 90 3d f0 80 4a 3b
       0.059141044 -0.09910964 0.07043524 0.0030899607
000140 da 1a 86 3c b2 d8 a6 bd ea 92 dc 3d 28 10 b3 3c
       0.016370226 -0.081468 0.10770209 0.02185829
000150 08 55 c8 3d 10 a5 c9 3a 18 4e 60 bd 4c 42 cc 3b
       0.097818434 0.0015384275 -0.054761976 0.006233489
000160 95 b6 8e 3d 35 47 8e 3c 38 04 90 bb c0 55 b7 3b
       0.069684185 0.017367939 -0.004395034 0.005594939
000170 42 10 0f bd e2 bf e2 bd 2c b3 e0 3c 60 26 05 bd
       -0.034927614 -0.11071755 0.027429186 -0.0325073
000180 b6 2d d0 bc 66 95 a2 bd a7 5b 96 3d db b8 e7 3d
       -0.025412422 -0.07938652 0.073417 0.11314555
000190 03 6a a1 bd 7d 81 22 bd 30 3e 32 ba 4c c0 cc 3c
       -0.07881548 -0.03967427 -0.0006799428 0.024994038
0001a0 f4 40 d8 3b bf 79 5e 3c 26 c3 1e bd 05 a5 ae bd
       0.00659954 0.013578831 -0.038760327 -0.08527569
0001b0 00 9d 98 39 41 c9 16 bd 61 f7 d4 bd c4 0f e0 3d
       0.00029108673 -0.036813024 -0.10398746 0.10940507
0001c0 96 83 5e 3d d9 9f 98 bc b0 f4 23 bd 30 69 b4 3b
       0.05432471 -0.018630909 -0.040028274 0.0055057034
0001d0 19 85 92 3d fe e5 b7 3b d5 49 14 3d f9 3b be bc
       0.071542926 0.005612134 0.036203224 -0.023221957
0001e0 5f 25 2c 3c 21 e8 e8 3d 35 89 72 3c b1 cb 8f bd
       0.010506957 0.113724 0.0148032205 -0.07021273
0001f0 7e 61 bd 3b 36 49 39 bd 7d b3 13 3d 8e 7a bb 3b
       0.0057794442 -0.045235835 0.036059845 0.0057213968
000200 cb fc 0d 3c 56 00 6e 3d 14 2a b5 3c 16 86 d5 bd
       0.008666228 0.05810579 0.022114791 -0.104259655
000210 7b 0b 56 3d 8a 50 b9 3c fc dc 00 bd 96 5c ed bb
       0.052257042 0.022621412 -0.031460747 -0.007243703
000220 0c 1c 8d 3c 37 08 20 bd f0 56 46 bb 16 b5 85 3d
       0.017225288 -0.039070334 -0.003026422 0.0652868
000230 84 b8 db 3d e4 36 a6 3d 74 a3 66 bd e2 e6 1a bd
       0.10728553 0.08115938 -0.056308225 -0.037817843
000240 e2 88 98 bd b4 1f ff bb b4 2e 16 3d 7a b7 0c bc
       -0.07447983 -0.0077857617 0.036665633 -0.008588666
000250 94 1c 81 bd c5 6c 67 3d 3c 63 01 bd e0 e9 e6 3d
       -0.06304279 0.056500215 -0.031588778 0.11275077
000260 eb 67 e2 3d c6 e1 c0 3d a2 f8 95 bd 63 05 ee bc
       0.11054977 0.09418063 -0.073228136 -0.029055303
000270 f8 1c de bc 2c 64 ae bb bc b2 d1 bd a2 2e 11 bd
       -0.027113423 -0.005322 -0.10239169 -0.035444863
000280 4e c0 d9 3d c6 c0 65 bd 03 59 a0 bd 9c 6d d4 3d
       0.10632382 -0.056092046 -0.07829478 0.10372469
000290 99 18 54 3d 8d 9f 0d 3d 0d e4 30 bd 90 2e 35 ba
       0.05178127 0.034575988 -0.043186236 -0.00069115404
0002a0 db 49 bf 3c 85 66 c4 bd f7 26 5f 3d 14 4f c7 bd
       0.023350647 -0.095898665 0.05448052 -0.0973188
0002b0 b2 2a 88 bd 01 8e 25 bd c0 25 5e bc 39 d9 37 3d
       -0.066487685 -0.04041863 -0.013558805 0.044884894
0002c0 42 f5 c2 3b 02 5b 4f bc 5a 60 3b 3d 92 d9 ea bd
       0.005949647 -0.012655975 0.045746185 -0.114672795
0002d0 c0 e4 e6 3d ca fc ae bd c6 82 a8 3d e6 94 83 3d
       0.11274099 -0.085443094 0.08228068 0.064248845
0002e0 12 a4 4b bd 4f 3d a6 3c ff 4b b3 3d 22 5b b2 bd
       -0.049717017 0.020292906 0.087547295 -0.087087885
0002f0 a1 f6 26 3d b6 d3 76 bc 2a fb e4 bd fe e9 ca 3d
       0.040762547 -0.015065124 -0.11180718 0.09907912
000300 af c4 7f 3d 98 42 50 3b e4 e3 95 3b 4e 80 8e bb
       0.06244343 0.0031777974 0.004574286 -0.004348791
000310 3e c5 69 bc 5c ed c1 bd 5d 68 94 bd 43 d3 e5 bb
       -0.014268218 -0.09469101 -0.07246468 -0.0070137098
000320 5c 9e 14 3d 62 c7 66 3d 92 cc 6b bd d8 15 c7 bd
       0.036283836 0.05634249 -0.05756814 -0.09720963
000330 9c 52 82 3b 5d 62 9c 3d c0 d6 77 3d f2 d2 d8 bd
       0.003977133 0.07635949 0.060507536 -0.105871096
000340 4b 74 91 bd 2a 49 f7 3b a9 0a 82 3d d4 5d 8f 3d
       -0.07102259 0.0075465636 0.063496895 0.07000318
000350 86 b4 9d 3d 66 1b bc 3d 15 4c cc 3d c3 bb da 3d
       0.07700448 0.09184913 0.09975449 0.10680344
000360 5e 25 74 3c ea ce 61 3d 5a a1 e4 3c d0 c2 f3 3b
       0.014901487 0.05512897 0.02790897 0.007438995
000370 1e bf e8 bd 3e f2 3b 3d cd 2d 2a 3d 1a de 8a bd
       -0.11364578 0.045885317 0.041547585 -0.06780644
000380 ca a7 48 bd 91 15 9e 3d ca 1d ed bc aa 08 1f bd
       -0.04898814 0.07718957 -0.028944869 -0.038826622
000390 c7 e0 37 3c b0 6b c8 bb 7a 42 e0 bb 34 e2 37 bd
       0.011223025 -0.006116353 -0.006843862 -0.04489346
0003a0 76 95 d9 3b 65 e3 d8 3c 24 84 78 3c e8 c6 89 3d
       0.0066401316 0.026475618 0.0151682235 0.067273915
0003b0 cc c5 03 bd 04 b3 b6 3c c2 7f cc 3d a3 5f 6d bd
       -0.032171056 0.022302158 0.09985305 -0.057952534
0003c0 c5 76 77 3d 14 c3 af bd 9a 07 60 3d c6 44 61 bd
       0.060416 -0.0858213 0.05469475 -0.054997228
0003d0 d2 cf d3 3c 06 b6 e1 bb 17 56 81 3d 80 3d a7 3c
       0.025855932 -0.006888154 0.063152485 0.020415068
0003e0 17 53 e4 3d 0a 90 87 3c f7 10 4c 3c cd b8 81 bd
       0.11148661 0.016548175 0.012455217 -0.06334076
0003f0 b3 aa ba bd ca 7f e9 bd c0 67 49 bd 83 a6 9a 3d
       -0.091145895 -0.11401327 -0.04917121 0.07551291

touchscreen_data_network.rnn.bias_ih_l0 f4 [64]
000000 0c 0b 95 bd 6e 30 ae 3d 3d a5 66 3c 62 44 92 3b
       -0.07277498 0.08505331 0.014077482 0.0044637183
000010 c6 b6 de 3d 83 ee c4 bd b0 49 cd bd 08 b3 dc 3d
       0.10874705 -0.09615805 -0.100238204 0.10776335
000020 cf f5 dd bc 20 23 ff b9 87 e3 84 3d d4 b0 a8 bd
       -0.02709475 -0.0004866356 0.0648871 -0.08236852
000030 d8 e1 15 bd 46 6d 4f 3d e8 70 14 3b 80 27 7b 39
       -0.036592335 0.05064132 0.0022650305 0.0002395194
000040 91 0f 24 bd 4e 9a f6 bb 22 1e 81 bd 94 01 03 3d
       -0.040053908 -0.007525719 -0.063045755 0.031983927
000050 33 f6 db bd 18 b4 d7 bd 45 52 a3 3c dc 62 29 bd
       -0.10740318 -0.10532397 0.01993669 -0.041354045
000060 4d d4 d9 bd b2 44 df bc 18 4f 07 be 4d d5 ab 3d
       -0.10636196 -0.027254436 -0.13213766 0.08390293
000070 4a 7e e9 3d 7b d6 1c bd bc e7 f9 3c a1 e4 90 3d
       0.11401041 -0.038290482 0.030506007 0.070748575
000080 1f 79 bb bd 84 37 e0 3c 4e ae a3 bd d2 a0 fa 3c
       -0.091539614 0.027370222 -0.0799223 0.030594263
000090 fc 8c 44 3d b4 bb 74 3d 28 9e e7 ba 48 6a 6d 3d
       0.047986016 0.05974932 -0.0017671036 0.057962686
0000a0 e0 ab 05 3d a6 8a da 3c 3c 8f 83 bd 80 72 cc 3d
       0.032634616 0.02667744 -0.06423804 0.09982777
0000b0 18 12 3c 3d fa db ce bd 88 9c b3 bd 43 8b dd 3c
       0.045915693 -0.10100551 -0.0877009 0.027043944
0000c0 f0 6f cc 3d 94 18 01 be 98 be 19 3d 59 6a a8 bd
       0.09982288 -0.12607032 0.03753528 -0.08223409
0000d0 4c 62 17 3d 5c 78 e5 3b 18 eb e8 bd 1a b8 0d bd
       0.036958978 0.0070028733 -0.113729656 -0.0345994
0000e0 31 2e e4 bd 84 42 27 bb 52 ef a5 3b b7 43 5a bd
       -0.11141623 -0.0025521824 0.0050639296 -0.053287234
0000f0 cc 27 91 bd fc ac 72 3c 4e 14 6a bd 12 58 e5 bd
       -0.07087669 0.0148117505 -0.05714827 -0.11198439

touchscreen_data_network.rnn.bias_hh_l0 f4 [64]
000000 be a7 d7 bd bd f6 69 bd c6 96 98 bb 3e eb b0 bd
       -0.10530041 -0.057120074 -0.0046566455 -0.08638619
000010 de 93 d4 bb 57 8f a2 bd ee dd b5 3b c3 47 a7 bd
       -0.0064873537 -0.07937496 0.0055501377 -0.08167984
000020 b7 df 38 bd 7c d9 1b bc 6a 9a 2c 3d 21 c8 07 be
       -0.045135226 -0.009512302 0.04213945 -0.13259937
000030 ff bf cf 3d d4 f2 dc 3d 75 57 8f 3d e4 22 94 3c
       0.10144042 0.10788503 0.06999103 0.018083043
000040 58 84 0e 3d da 49 31 bd 6c d2 8d 3d 12 fa c4 bd
       0.03479418 -0.04328332 0.069249004 -0.096180096
000050 27 83 21 bc 75 c3 56 3d b4 6b f7 3c 30 02 25 bd
       -0.009857929 0.052432496 0.030202724 -0.04028529
000060 ab eb d7 3d 25 62 23 3d 31 fd cf 3d de ee 72 bd
       0.10542997 0.03988852 0.10155714 -0.059309833
000070 c7 da 27 bd f0 e1 be 3d a8 36 89 3d ab 6c 58 3d
       -0.040980127 0.09320438 0.06699878 0.05283801
000080 c2 48 c7 bd d6 97 bc 3d 62 21 16 bd e5 39 db 3d
       -0.09730674 0.09208648 -0.03665293 0.10704402
000090 c8 ec e5 bd cb 6b 03 be 8e ef 74 bc 16 db ef 3d
       -0.11226803 -0.12834089 -0.014949692 0.11711709
0000a0 21 46 f7 bd 24 80 6c bd 12 28 ed bd 12 c4 d1 3c
       -0.12073923 -0.057739392 -0.115799084 0.025606189
0000b0 c2 e9 b8 3b fb 98 ba 3d c6 ae 89 3d 29 86 ec 3d
       0.0056431005 0.0911121 0.067227885 0.115490265
0000c0 df 15 91 3d 33 76 6d bd 88 e4 75 3d b2 ab 5b bd
       0.0708425 -0.05797405 0.060032398 -0.05363054
0000d0 78 88 55 bd 9c 23 db bd 92 6c c3 bd 13 06 a3 3d
       -0.0521321 -0.10700151 -0.095421925 0.07960143
0000e0 f6 e3 60 3d 45 70 a6 3d 78 06 c8 3c 5b cd 30 3d
       0.0549049 0.081268825 0.024417147 0.043164592
0000f0 85 2b d4 bd e6 cb d3 bd 1a 5b 95 bd c4 1c b8 3b
       -0.10359863 -0.10341625 -0.07292767 0.0056186635

sensor_data_network.rnn.weight_ih_l0 f4 [64, 6]
000000 0b d9 05 3e d6 46 82 3d 99 44 c4 3d 44 09 98 bd
       0.13071077 0.06361167 0.095833965 -0.07423642
000010 11 96 19 bd aa a0 d2 3c 67 4d 9d bd 6e f1 e6 3d
       -0.03749663 0.025711376 -0.07680779 0.11276518
000020 94 79 42 3d b6 24 1a bd 70 36 9c bd 8f 2a 97 3d
       0.047479227 -0.037632667 -0.07627571 0.07381164
000030 34 20 ef 3d 2e f4 b9 3b 1a f4 ca 3b 7b bc b8 3d
       0.11676064 0.0056748604 0.00619365 0.09020325
000040 12 d5 fb bd fe 21 19 bd 68 99 26 bd ae 6a bb bd
       -0.12296499 -0.037385933 -0.040673643 -0.09151207
000050 ee 8a ae bb e7 aa 59 3d 7e 3f b5 bc 12 40 a4 3b
       -0.0053266203 0.0531415 -0.022125002 0.0050125206
000060 e2 7e 5e 3d 34 1b 25 3d b5 75 8f 3d 22 cd 79 3d
       0.054320224 0.040309146 0.07004873 0.060986646
000070 3a f6 85 bd a4 88 47 3d 83 7a c2 3d 4a c5 be bd
       -0.065411046 0.048714295 0.094960235 -0.09314974
000080 f2 f8 69 bd 23 b9 d5 bd 28 fe 22 3d 39 fc 1d bd
       -0.05712218 -0.10435703 0.039793164 -0.038570616
000090 d6 11 d6 bc e3 1e e8 3d f1 69 92 bd ac 52 9b 3d
       -0.026131552 0.11334016 -0.07149113 0.07584128
0000a0 fe 9e 28 3d b2 23 cb bd f6 b3 1c 3d d3 f7 2b bc
       0.04116725 -0.09918918 0.03825756 -0.010496098
0000b0 13 a4 07 3e 86 a9 73 3d 64 aa 9a bc 51 d8 8f bc
       0.13246183 0.059487842 -0.018880077 -0.017559202
0000c0 1b a9 75 3d 2f 12 0a be 62 af dc 3d 28 6a dd bd
       0.059975725 -0.13483499 0.10775639 -0.10811263
0000d0 4d 42 19 3d a0 44 ff 3c 0b 0e 9f bd 84 61 9c 3d
       0.037416745 0.031160653 -0.0776635 0.07635787
0000e0 12 89 f1 3c 7d 4b d1 3d 28 08 44 bd 16 06 4f 3d
       0.029484306 0.10219476 -0.04785934 0.050542913
0000f0 7a ec 6b 3c 8e f3 f2 3c 63 f2 b2 3d b0 31 4d 3c
       0.014399642 0.029657152 0.08737638 0.012524053
000100 ff 56 7f 3d 0c 1f 3b bc a6 dc dc bd 22 45 42 bd
       0.062338825 -0.011420976 -0.10784273 -0.04742921
000110 1a 1b fe bd db bf a7 bd 56 df 11 bc 04 94 c9 3d
       -0.12407513 -0.081908904 -0.008903345 0.09842685
000120 59 36 53 bc 1e 58 aa 3d 36 70 c4 3c 3b 02 e0 3d
       -0.012891375 0.08317588 0.023979288 0.109379254
000130 58 4b 42 bd 06 f8 58 bd ad 1c 1d bd 18 1f ab 3d
       -0.047435135 -0.05297091 -0.038357425 0.0835554
000140 4a a6 01 be e5 e5 c9 bd f7 33 ca 3d b7 0e a6 3d
       -0.1266109 -0.09858302 0.09873193 0.081082754
000150 e4 bd d8 3d df 6b 03 be 97 23 e0 3d 50 47 b6 3d
       0.10583094 -0.12834118 0.10944288 0.089003205
000160 e2 d3 2c 3d cb f4 cd 3d 60 92 8e bd f8 fc d3 3d
       0.042194255 0.10056456 -0.069615126 0.10350984
000170 4a 2b 09 3e 98 2b c7 bc bc 1a 27 3d dd 0f 32 bd
       0.1339542 -0.02431278 0.04079698 -0.04347216
000180 c5 f8 08 3d 38 21 9b 3b 22 41 d2 3d dc 81 80 bd
       0.03344037 0.0047341846 0.10266329 -0.06274769
000190 6b dd 0a 3d a5 5a 99 3d ef cb 20 bd f7 d0 9e bd
       0.033902567 0.07487992 -0.039256986 -0.07754701
0001a0 30 e6 cd bd f2 1f cd 3d 61 86 c5 3d 71 da 48 bc
       -0.100536704 0.10015859 0.09644771 -0.012259112
0001b0 5c fc d5 3c de 8c eb bd 48 e5 ed 3d 3b 60 d8 bc
       0.02612131 -0.11501478 0.116159976 -0.026413074
0001c0 5a a1 cc bd 1a c5 9b 3b 91 21 8b bd 7a 46 97 3d
       -0.09991713 0.004753721 -0.06793512 0.07386489
0001d0 3d 5b 29 bd b6 83 f7 3b 74 40 b9 3d 08 08 e2 bc
       -0.041346777 0.007553543 0.090454966 -0.02759172
0001e0 96 48 ce 3c 00 cc e2 3c 09 14 56 bd 58 58 8b bd
       0.025181096 0.027685165 -0.0522652 -0.068039596
0001f0 71 fc ce 3d 83 79 e2 bd 1c 22 1a bd 7d 56 92 3d
       0.10106743 -0.11058333 -0.037630185 0.071454026
000200 ae 94 b2 bd d2 92 97 3d 56 27 8e 3d 68 01 a0 bd
       -0.08719765 0.074010506 0.069410965 -0.07812768
000210 c4 9c 67 3d 0c 29 fc 3d 28 9a b9 bd 8a 8c e4 3d
       0.056545988 0.123125166 -0.09062606 0.11159618
000220 58 bd 11 bd 81 d1 89 3d b2 24 0a bc 55 f3 08 3d
       -0.035580963 0.06729413 -0.0084316 0.033435185
000230 5a 1a fc bb 10 6d 9f 3d 7a 68 be bb 3b ff 5b bd
       -0.007693571 0.07784474 -0.0058107944 -0.053710204
000240 d0 3c 07 be 94 57 08 bd a3 64 ab bd 36 f6 f0 3d
       -0.13206792 -0.033286646 -0.08368804 0.11765711
000250 28 3b fc bd b4 eb a5 3d cc 90 09 3d d2 fd f6 3c
       -0.12315971 0.081015974 0.033585355 0.030150328
000260 0e 62 38 3d 77 46 e8 bd c7 96 6c bd 19 c3 de bd
       0.045015387 -0.11341565 -0.05776098 -0.10877056
000270 7b 4a e3 3d 1e 97 a4 bd 1e 6e b2 3d 9d 78 4a bc
       0.110981904 -0.08036636 0.087124094 -0.012357858
000280 73 b4 02 3e 0f b0 f3 3d dc 30 c0 3d 2b a5 0f 3d
       0.12764148 0.11898815 0.09384319 0.035069626
000290 d6 01 56 3d 42 fb 82 bd 38 80 ba 3d a5 2c ad bd
       0.052247845 -0.0639558 0.09106487 -0.08455781
0002a0 41 32 1d bc 1a 00 d1 3d e8 bf b8 3c 3c ba e8 3d
       -0.009594501 0.102050975 0.022552446 0.113636464
0002b0 86 e4 91 3c a7 5b 2a bc bb 36 ba bd 52 75 f8 3b
       0.017809164 -0.010397828 -0.0909247 0.007582345
0002c0 6c 87 27 bb 61 ab c4 3d 20 ce 2e bd 6c 9a 18 3d
       -0.0025562895 0.096030004 -0.042677045 0.037256643
0002d0 6a c9 9c bd 20 96 e6 3b b1 a8 67 3d 64 8f da bd
       -0.07655604 0.0070369393 0.05655736 -0.10671881
0002e0 92 e4 e8 bc 04 ea d2 bd 45 f2 c5 3c 52 c7 42 bd
       -0.028429303 -0.10298541 0.024163375 -0.047553368
0002f0 e2 58 28 bc dc 99 8a bc fa bb 1f bd 79 ec a8 bd
       -0.010275098 -0.016919069 -0.038997628 -0.082482286
000300 61 04 27 3d a5 da 01 be 32 c7 61 3d e0 03 95 3c
       0.04077566 -0.12681063 0.055121608 0.018190324
000310 98 f1 95 3d 3f 46 9a 3d 48 30 10 bd d5 d7 4c 3d
       0.07321471 0.0753293 -0.035202295 0.05001052
000320 74 1a a5 3c 05 95 05 be b1 d1 d1 bc 5e b1 5f 3d
       0.020154215 -0.13045128 -0.025612684 0.05461251
000330 23 1d 79 bd 26 e5 aa 3d b6 a3 e0 3d 30 b1 60 bd
       -0.060818803 0.08344488 0.109687254 -0.05485648
000340 14 6e 5d bb 7f 2e c4 bd 16 a1 ba bd 0a 54 c6 3d
       -0.0033787536 -0.09579181 -0.09112756 0.09683998
000350 26 b3 03 be 2a 4e a0 3d d1 62 7d bd 3f c5 11 3d
       -0.12861308 0.078274086 -0.061861817 0.0355885
000360 87 b4 7c bd 55 84 b1 bd 7c 0d 92 3d 46 89 82 3c
       -0.0616956 -0.086678185 0.07131478 0.015934598
000370 cc 5e ad bc 56 48 53 3d 8b a7 67 bc fc 19 74 bd
       -0.021163367 0.051582657 -0.014139066 -0.059595093
000380 d8 24 85 bc c8 de 8e 3d 56 11 f0 3d 0e 3a 01 3e
       -0.01625292 0.06976086 0.117220566 0.12619802
000390 e6 b5 5b 3c 24 79 1b bc fe da e8 bc 5e 0b fe bc
       0.013410067 -0.009489331 -0.028424736 -0.03101128
0003a0 ae 05 de bd 8c 5a e8 3d 66 16 83 bd 93 ac 6a bd
       -0.10840927 0.113453954 -0.064007565 -0.057293486
0003b0 b8 70 83 ba 72 ab d6 3b d6 5f ed 3c c1 a4 04 3e
       -0.00100281 0.0065511996 0.028976362 0.12953474
0003c0 44 50 4a bd 54 36 2d bc 1c e4 4b 3d 79 83 78 3c
       -0.049392954 -0.010572035 0.04977809 0.015168064
0003d0 f2 f5 48 3d b6 5a 8f 3d 3a d0 01 3c 40 8f c5 3a
       0.049062677 0.069997236 0.00792318 0.0015072599
0003e0 07 99 b6 3d 7d 79 a4 bc ca b5 a2 bd a0 3c 45 3a
       0.089159064 -0.020077461 -0.0794483 0.00075239874
0003f0 64 2f b9 3d d8 99 10 3c 12 fa 05 3d 8a 73 00 be
       0.09042242 0.008825742 0.03270919 -0.12544075

sensor_data_network.rnn.weight_hh_l0 f4 [64, 64]
000000 04 5d 6b 3c 69 76 41 3d 54 11 72 bd ef b7 6b bc
       0.014365438 0.047232065 -0.059098557 -0.014387115
000010 c5 63 e9 3d a6 4c f1 3d f9 14 87 3d c9 d9 6e bd
       0.11395983 0.11782198 0.06595797 -0.058313165
000020 a3 73 79 3d 92 70 f2 bd 4b 9f 9c bd ca 60 ed bd
       0.060901295 -0.11837877 -0.0764757 -0.11590727
000030 2c 34 ad bd cb 2e cb 3d 7e d5 e8 3d c2 55 fd bd
       -0.084572166 0.099210344 0.113688454 -0.12369873
000040 f2 41 9f 3c 7e 34 1b 3d c0 fa 9c bc ea 7b 8e bd
       0.019440625 0.037891857 -0.019162536 -0.069572285
000050 93 9f e5 bd 44 4a ba bc b0 37 3c 3d 02 ed 5d 3d
       -0.11212077 -0.02274049 0.045951545 0.054181106
000060 88 77 b6 bc 0b 32 db bd 89 61 a0 3d 86 fe 65 bc
       -0.022273794 -0.10702904 0.07831103 -0.014037734
000070 fa 99 09 3d 8e db 03 3d b3 62 44 bd c0 e3 89 bc
       0.03359411 0.032191806 -0.04794569 -0.016832232
000080 9d b3 2a bd 17 12 cd 3d be a8 65 bd d8 cb 05 be
       -0.0416752 0.10013216 -0.05606913 -0.13066041
000090 e0 61 b0 bb 42 f0 d3 3c 34 a0 e5 bd 56 46 81 3d
       -0.0053827614 0.0258714 -0.11212197 0.06312244
0000a0 60 56 3c 3c 44 60 8e bd e2 b0 c2 3d 75 90 bf bc
       0.011495203 -0.06951955 0.09506394 -0.023384312
0000b0 91 e4 60 bd 02 d4 5c bd 97 61 8f 3d 34 43 91 3d
       -0.054905478 -0.053913124 0.07001036 0.07092896
0000c0 58 3c a5 3d 9a e5 bd bc 64 30 65 3b 17 77 52 3d
       0.0806815 -0.023180772 0.003497147 0.051383104
0000d0 49 a4 da 3d 8f 92 bf 3d de c9 38 3d 7c d4 c6 bb
       0.10675866 0.09354126 0.04511439 -0.0060678106
0000e0 3c b5 60 3b b4 f4 16 bd ed d7 74 bd 3c 82 d0 bc
       0.0034287712 -0.03685446 -0.059776235 -0.025452726
0000f0 17 cd c6 3d b7 9a 80 bd 0f 15 46 3d 6d 3f e2 bd
       0.097070865 -0.062795095 0.048359927 -0.11047254
000100 2a 10 fa 3c f0 18 51 bc c0 cd d3 bb 9b 6f 6e bd
       0.030525286 -0.012762293 -0.0064637363 -0.058211904
000110 d2 3b 09 3e 52 58 05 3d 69 42 0e bd 6d b2 92 bc
       0.13401726 0.032554932 -0.034731302 -0.017907346
000120 49 0e 6a bd f6 b0 82 3c 96 4c a5 3d 58 19 01 bd
       -0.05714253 0.015953522 0.08071248 -0.03151831
000130 bc bb 7e 3d d9 58 d8 bd 2c b4 c3 3d d4 b3 ba 3c
       0.062190756 -0.10563821 0.095558494 0.022790827
000140 e5 d8 20 3d 58 e3 c5 3c 44 69 db 3d 17 66 f9 bd
       0.039269347 0.024156258 0.10713437 -0.12177675
000150 27 94 c1 3c 82 78 8a 3d 49 b6 6d bc 43 9d d7 bd
       0.023630215 0.06761266 -0.014508792 -0.10528042
000160 fd ad 13 bd 20 d0 a6 3d 4e c5 b0 3d 18 e0 80 3d
       -0.0360546 0.081451654 0.08631383 0.062927425
000170 bc 09 5e bd 39 1f e3 3d a0 20 71 bd e5 7e df bd
       -0.054208502 0.110899396 -0.058869004 -0.10912875
000180 b7 8e 34 bd a3 b3 f7 bc d3 70 4a 3c e1 33 ce bd
       -0.044081416 -0.030237025 0.012356001 -0.10068489
000190 c4 4a df 3d f6 dd fb 3d ae 0f 55 bd 3a 96 e7 bb
       0.10902932 0.12298195 -0.052016906 -0.007067469
0001a0 18 a3 96 3c a8 68 24 bb eb 48 ab bd a2 45 db bc
       0.018388316 -0.0025086794 -0.083635174 -0.026766602
0001b0 52 b1 d8 bd 91 73 fa bc 98 6d 84 3d e2 e7 84 bc
       -0.10580696 -0.030572684 0.06466216 -0.016223852
0001c0 00 9d 7f 39 0d 65 b7 bd a0 11 66 bd 63 a6 db bc
       0.00024377182 -0.08954821 -0.056169152 -0.026812738
0001d0 8c 7d 4b bd 8a 95 9a bd d6 91 a0 3b f8 46 fa 3a
       -0.049680278 -0.075480536 0.0049001975 0.0019094637
0001e0 be d4 2a bd 34 26 20 3d bf 19 c4 3d 22 45 1a bd
       -0.041706793 0.039098933 0.09575223 -0.037663586
0001f0 9a 44 23 3d c6 5a 90 bd 8f d0 46 3d 96 be e9 bd
       0.039860345 -0.07048564 0.04853874 -0.114133045
000200 23 a3 07 3d 54 cc 7d 3d d2 06 a2 3d c0 b9 72 3a
       0.033114564 0.06196244 0.07911457 0.0009259246
000210 94 a7 a9 bd d7 82 40 3d 73 9d be 3d 28 34 02 3c
       -0.08283916 0.04699978 0.09307375 0.007947005
000220 9f e3 08 3e 61 49 d5 bd 06 49 de bc c2 c6 90 3d
       0.1336808 -0.104143865 -0.02713443 0.0706916
000230 b5 0e b3 bd 17 99 42 bd 84 e9 88 3d 7f 3e e1 bd
       -0.087430395 -0.04750928 0.066851646 -0.10998248
000240 3f 50 28 3d 74 62 20 3d a5 1b 02 bd a7 3e 67 3d
       0.041092154 0.039156392 -0.031764645 0.056456234
000250 ad 7e 13 bd ae fe 63 3d 8f 5d ac bd ac 9b a4 bd
       -0.03600948 0.055662803 -0.084162824 -0.080375046
000260 aa e0 cb 3c ae e6 b5 bd c3 be 7a 3d 93 3c 67 bd
       0.024887402 -0.08881889 0.06121708 -0.056454252
000270 b5 11 49 3d 85 d3 f8 3c 76 f6 c2 bd bc 55 9f bd
       0.049089152 0.030374298 -0.09519665 -0.077800244
000280 d6 d0 95 bd e0 c9 aa bb 91 4a 05 3e 98 2a 4d bd
       -0.07315223 -0.0052120537 0.13016726 -0.05008945
000290 38 ba 86 3d 7b 67 bf bd da 99 81 3d 7c 42 18 bd
       0.06578487 -0.09345909 0.06328173 -0.03717278
0002a0 1a 27 7e bd f8 d9 49 bd a2 72 eb bc 95 74 c1 bd
       -0.06204901 -0.049280137 -0.028741185 -0.094460644
0002b0 fb 82 0e bc b8 c3 d7 3d 2f 0b b2 bd d5 4d d4 bd
       -0.00869822 0.10535377 -0.08693539 -0.10366408
0002c0 46 3e f2 3d 22 33 ee 3d df 5d 73 bd 96 9b 8e 3b
       0.11828284 0.116308466 -0.059415694 0.0043520434
0002d0 9a c3 02 3e c0 44 63 3d 27 e2 de 3d 63 71 b8 bd
       0.12769929 0.055485487 0.10882979 -0.09006002
0002e0 32 30 95 3c d0 ac 9b bd 28 fd 7a bb 93 6a 9a bd
       0.018211458 -0.07601321 -0.0038297866 -0.07539859
0002f0 41 99 5f bd 1a 87 40 bd b6 32 e2 bd dd 51 70 bc
       -0.054589514 -0.047003843 -0.110448286 -0.014667955
000300 3b 80 09 bc 96 59 d6 bd eb 8b b7 3d ed a5 07 3e
       -0.008392389 -0.10466306 0.08962234 0.1324689
000310 e7 4a 00 be db f1 9a bd a1 64 d7 bd c6 11 d2 bb
       -0.12528573 -0.075656615 -0.1051724 -0.00641081
000320 b2 bc 71 bd bc eb d4 3d 3f df 1a bd 21 89 95 3d
       -0.059017844 0.10396525 -0.03781056 0.07301546
000330 ea 18 63 3d 40 c4 c5 3c a4 bc 88 bd 4e d1 a8 3c
       0.05544368 0.02414143 -0.06676605 0.020607617
000340 34 4b e0 bd e9 7e 73 bc 30 b6 49 bb f2 cf b3 3d
       -0.10951844 -0.014861801 -0.0030778758 0.08779897
000350 24 51 b8 bd 8a 87 b2 3c 48 e7 04 3e bd 90 50 3d
       -0.08999851 0.021793146 0.12978852 0.050919283
000360 2c 10 ca 3c 41 7d da bc bd a3 06 bd fe 53 95 3d
       0.024665914 -0.026671054 -0.032870997 0.07291411
000370 87 b6 21 bc 29 82 98 bd ca f4 84 bd b8 3d fe 3d
       -0.009870178 -0.07446701 -0.06492002 0.12414116
000380 9f a0 22 bc 3b ae 9c 3d 80 d8 63 bd 73 63 e9 bd
       -0.00992599 0.07650419 -0.055626392 -0.113959216
000390 fd a5 a6 3c c1 99 a2 bd 7a d2 a4 3c c6 7a 48 3d
       0.020342821 -0.079394825 0.020119894 0.04894521
0003a0 f5 f5 53 bd ac c6 8c 3c a3 39 ae 3d fc c0 c7 bd
       -0.051748235 0.017184578 0.08507087 -0.09753606
0003b0 f4 dd ea 3d c6 bb 8c 3d ad 85 62 bd 99 39 3a 3d
       0.114681154 0.068717524 -0.055303264 0.045465086
0003c0 90 8e 80 bc 58 61 99 3d fe 0b c8 3d 3b cf dc bd
       -0.01569298 0.0748927 0.09767912 -0.107817136
0003d0 fa 3f d1 bd 70 6e 98 bd a2 8a 81 3c b4 62 96 bd
       -0.10217281 -0.07442939 0.015813176 -0.07343045
0003e0 9b be 1c bc b0 03 91 3d b4 a2 90 bd 15 a7 81 3d
       -0.009566928 0.070807815 -0.07062283 0.063306965
0003f0 35 13 0a 3c ab ee d1 3d 72 71 e3 bd 5e d5 c4 3d
       0.008427431 0.102506004 -0.11105622 0.09611009

sensor_data_network.rnn.bias_ih_l0 f4 [64]
000000 12 a2 2f 3c 7d 9c 69 bd 7c dd 1f 3d fb 3f 2b 3d
       0.010719793 -0.057034004 0.039029583 0.041809063
000010 02 70 c6 bb ca aa de 3c e8 d4 90 bc 68 5f cb 3c
       -0.006055833 0.027181048 -0.017679647 0.024825767
000020 12 c9 8a bd 71 ed 18 3d aa d8 28 3d f4 53 e7 bd
       -0.06776632 0.037335817 0.041222252 -0.1129531
000030 ec 89 b0 3c ac d1 f8 3b f2 86 3d 3d e2 91 b4 3c
       0.021550141 0.007593354 0.046271272 0.022042219
000040 bb b5 48 3d 94 65 07 be d2 1e a1 bd f6 7d d5 3c
       0.049001437 -0.13222343 -0.07867207 0.02606104
000050 03 21 84 3d 24 44 04 3d 8f 35 10 3d 8a c3 f9 3c
       0.06451609 0.032291546 0.035207327 0.030488748
000060 83 d8 9f bd 28 2c 6d bc 48 31 a9 3d a3 a2 99 3c
       -0.07804968 -0.01447586 0.08261353 0.018754309
000070 41 34 40 3d 06 3b 55 bd 05 e0 dd bd 8e 70 25 3c
       0.046924833 -0.052058242 -0.10833744 0.010097636
000080 4e 79 8d bd 48 a7 26 3d 81 04 9f 3d d8 13 ba bd
       -0.06907903 0.040686876 0.07764531 -0.09085816
000090 ca 80 99 bc 03 54 17 3d 08 90 c5 bd 20 ae 87 3c
       -0.01873817 0.036945354 -0.096466124 0.016562521
0000a0 20 5a e7 bd c5 2b 11 bd 34 93 78 bd 90 85 d8 bc
       -0.11296487 -0.035442133 -0.06068726 -0.026430875
0000b0 a8 6c 13 bd b2 89 fc bd 62 13 d9 3d c9 e7 f6 3d
       -0.035992295 -0.12330951 0.105994 0.12055928
0000c0 d6 fd 8b 3d 65 5a 78 bd 04 4d a5 3d 03 0c 05 bd
       0.06835525 -0.060633082 0.0807133 -0.03248216
0000d0 bc 52 96 bd a8 12 7c bd c4 37 ba 3c 38 78 7f 3b
       -0.07339999 -0.06154123 0.02273167 0.0038981568
0000e0 10 c3 18 bd 08 2d 32 3d 10 92 b5 3d 73 7e ca 3d
       -0.0372954 0.043499976 0.0886575 0.098873995
0000f0 fe 00 d3 bd cf 04 ef 3d 2c 94 e8 3b 94 77 d5 bd
       -0.103029236 0.11670839 0.0070977416 -0.10423198

sensor_data_network.rnn.bias_hh_l0 f4 [64]
000000 bb 6e 9b 3d 1c c9 3c 3b 11 bd 01 bc 7a a5 dc 3d
       0.075894795 0.0028806394 -0.007918612 0.1077375
000010 8a d5 06 3c 23 08 83 bd 34 04 c8 3c e8 df b8 bd
       0.008229623 -0.06398036 0.024416067 -0.09027082
000020 d4 96 1a 3d ec 65 e8 3c 9b 7e 6e 3c 71 00 ca bd
       0.037741497 0.028368913 0.014556552 -0.098633654
000030 79 2b b1 bd 5b 1e d2 3c 6b c9 ac bd d2 f6 e5 bb
       -0.0865087 0.02564924 -0.08436855 -0.0070179487
000040 8a 23 18 bd 2e 52 6b 3d 39 f4 8b bd 29 22 60 bc
       -0.037143268 0.05745142 -0.06833691 -0.013680019
000050 95 dd ae 3d f8 20 bd 3d 47 32 d5 3d 53 18 b1 bd
       0.08538357 0.09234804 0.1040998 -0.086472176
000060 3a b1 08 be ec 05 cb bd 03 87 25 3c c8 66 46 3d
       -0.13348857 -0.09913239 0.01010299 0.048437864
000070 1c 53 6c 3d a4 f8 f9 bd 65 90 00 be a7 f0 2b bd
       0.057696447 -0.122056276 -0.12555082 -0.04197755
000080 e0 80 ea 39 f0 c2 69 3d 98 61 c6 bc ae 36 b9 3d
       0.00044727977 0.057070673 -0.024216458 0.090436324
000090 6b ec 4a 3c 88 b3 ea 3d 2b e0 bf 3d 36 38 4f 3d
       0.012385468 0.11460024 0.093689285 0.050590716
0000a0 87 78 59 bd 88 bb b8 bc b7 05 87 3d c8 f7 aa bd
       -0.05309346 -0.02255036 0.06592887 -0.08348042
0000b0 6a 8b e3 bd ba 3d 63 3d a3 14 ac bd 6d d0 cd 3d
       -0.111105755 0.05547879 -0.08402374 0.1004952
0000c0 20 7a 03 bd e6 21 ee bd d8 c3 b8 bd be 19 02 be
       -0.03209889 -0.11627559 -0.09021729 -0.12705132
0000d0 e4 ac ab bd 84 dd fe bc 93 56 9b bd 42 41 a8 3c
       -0.08382586 -0.031111486 -0.07584872 0.02053893
0000e0 ba b5 9f bd f1 6c 08 3e 0b f9 00 3e 00 c2 7e 38
       -0.077983335 0.13322808 0.12595002 6.0738996e-05
0000f0 2f 30 84 3d 9a 3b 1e 3c 90 e9 55 ba a5 f8 dc bc
       0.06454503 0.009657765 -0.00081601087 -0.026974032

fc.weight f4 [32, 130]
000000 68 0c 5a bd 8c 93 e9 bc ce 0b 6c 3d 0a 9f c7 bc
       -0.053234488 -0.028512739 0.057628445 -0.024367828
000010 43 bb b3 bd 53 fb 99 bd 70 93 25 ba d2 71 53 bc
       -0.08775952 -0.075186394 -0.00063162204 -0.012905555
000020 a3 63 83 bd b0 0b c4 3b f4 fd 27 bd 67 31 66 3d
       -0.064154886 0.0059828386 -0.041013673 0.056199457
000030 44 c6 6f bd d6 50 62 bb 17 bd 06 3c f6 44 79 3d
       -0.05853869 -0.0034533045 0.0082237935 0.060856782
000040 13 b9 86 bd b0 4b bd bd be 9b 50 3c 86 67 7d 3c
       -0.06578269 -0.09242952 0.012732444 0.015466576
000050 92 7c 8e 3d 67 00 c8 bd a8 2a 37 3d 31 5a 4a bd
       0.06957354 -0.09765702 0.044718415 -0.04940242
000060 84 6f 21 3d ea 32 98 3d 2e b0 b9 3d 5d 45 4a 3d
       0.03941299 0.07431586 0.09066807 0.049382556
000070 75 f8 42 3d bc d8 13 3d 8c f8 1f bd 0c 72 46 bd
       0.04760023 0.036095366 -0.039055392 -0.048448607
000080 5c 6a 41 3d 94 c3 8d bd e7 ce 90 3d b3 2a 96 3c
       0.047220573 -0.06922069 0.070707135 0.018330907
000090 10 a0 28 bb 20 24 2e 3d 24 59 c9 3c 48 9e 69 3c
       -0.002573017 0.04251492 0.024578638 0.014258929
0000a0 92 83 5e 3d a0 0f 25 3b 47 52 95 bd a5 f9 1b 3d
       0.054324694 0.0025186315 -0.07291084 0.038079876
0000b0 7f 53 f8 bc ba 08 88 bc 48 4e 8d bd 45 bf 16 bd
       -0.030313252 -0.016605724 -0.068996966 -0.036803503
0000c0 9c 30 3a 3b b5 1e 94 3d 1e 8f b4 bd 7c 95 34 bb
       0.002841032 0.072324194 -0.0881636 -0.002755492
0000d0 b4 02 00 bc 82 b3 17 bc ea d5 46 bd 93 91 9b bc
       -0.0078131445 -0.009259107 -0.048543848 -0.018990314
0000e0 a8 24 8a 3d ec bd 9e bd e0 02 3e 3d 53 2e 18 3d
       0.06745273 -0.077510685 0.04638946 0.037153553
0000f0 9c fa 87 bd 84 5b ad 3c 50 16 02 bd 4c 4c cd bb
       -0.06639597 0.021161802 -0.03175956 -0.006265199
000100 d7 c0 b0 bd c3 cb 0d 3d 9a 47 b6 3d ec 2e 46 bd
       -0.08630531 0.03461815 0.08900376 -0.048384592
000110 c2 a9 52 bc 9c 1b ec bc 2d 7b 6e bd f6 92 5d bd
       -0.012857856 -0.028821759 -0.05822294 -0.05409523
000120 36 3b 2b 3d 96 87 83 bd 86 70 51 bd ea cf 89 bb
       0.041804515 -0.06422345 -0.0511327 -0.0042056935
000130 e1 16 1c 3c 1c 95 0a bd d3 62 8d bd 02 42 c1 bc
       0.009526939 -0.033833608 -0.06903615 -0.023591045
000140 f4 2d 7c bd 53 e5 a5 bd cd 63 e1 bc 56 b3 24 3d
       -0.06156726 -0.08100381 -0.027513409 0.04021009
000150 12 0a 2b 3d 8b 70 15 bc 26 bf 41 bc f8 9f c7 3d
       0.04175765 -0.009121071 -0.0118253585 0.097473085
000160 2e 38 6b 3b 7f 0f 92 bd cb 01 8b bc ce c0 29 3d
       0.003589164 -0.07131862 -0.016968628 0.04144364
000170 04 9c c8 bc a8 2a 3a 3c 28 25 58 bd 07 38 35 bd
       -0.024488457 0.011362709 -0.05276981 -0.044242885
000180 d9 a6 ad 3c f0 c4 84 3d 0f c0 a6 3c 1a 19 6c bd
       0.021197723 0.06482875 0.020355253 -0.057641126
000190 f2 3a d2 3c 40 c5 77 3d d8 91 ae 3a e0 66 e0 39
       0.025662873 0.060490847 0.0013318611 0.00042801257
0001a0 16 71 b5 bd b1 37 a7 bc 87 19 8f bc 21 7a 2e 3d
       -0.0885946 -0.020412298 -0.017468227 0.04259694
0001b0 e4 24 ba bd 2a f4 ab 3d fa 05 06 bd 1c 1f 1c bb
       -0.090890676 0.0839618 -0.032720543 -0.0023822254
0001c0 04 5b 6c 3d 8c 25 8f bd e4 25 24 3d a0 1f 71 3d
       0.057703987 -0.069895834 0.040075198 0.05886805
0001d0 eb dc 80 bd 57 e4 8c bd 6e 6b 9c 3d f2 57 f2 3c
       -0.06292137 -0.0687949 0.07637678 0.029582951
0001e0 22 da 99 3d a1 4e 65 3c c9 31 22 3c 76 fe 7f 3d
       0.07512309 0.013995797 0.009899565 0.062498532
0001f0 ae 32 65 3d 90 c6 09 bd c9 ea 95 bd d6 7e 83 bd
       0.055956535 -0.03363663 -0.07320172 -0.064206764
000200 83 cd 15 3c a8 33 83 3d 60 74 88 bd d9 6e 2c bc
       0.009143236 0.06406337 -0.06662822 -0.010524475
000210 52 06 c8 bc 36 9b ee 3b 96 b3 b8 bc 07 d1 a7 bc
       -0.024417076 0.007281686 -0.02254657 -0.020485414
000220 6d 02 9c bd 7e 72 24 3d 3e e4 e4 3c d2 24 8c bd
       -0.0761765 0.04014825 0.027940866 -0.068429604
000230 47 c3 a9 bd ea b5 55 3d da 92 97 3c 72 05 8e 3d
       -0.08289199 0.05217544 0.018502641 0.06934632
000240 1b 56 64 3d 24 52 91 bb 90 77 8f ba fa 44 82 3c
       0.05574618 -0.0044348408 -0.0010945667 0.015902031
000250 dc 7d 53 bd be 6f 9a bd 96 5f 07 3d d0 75 2b 3a
       -0.0516337 -0.075408444 0.033050142 0.0006540688
000260 c0 b1 2f bc c7 0a 0a bc 2e 48 46 bd d1 98 8e 3d
       -0.010723531 -0.008425421 -0.04840868 0.06962741
000270 04 7a d7 3b 1c 4f 61 3d 88 16 93 3d 28 13 21 bc
       0.0065758247 0.055007085 0.07182032 -0.009831227
000280 40 83 62 3d 07 a1 51 3d 67 bc 9a 3d cf ab 55 3d
       0.05530095 0.05117896 0.07555466 0.052165803
000290 2e 2f 65 bd c2 4f e6 bc d8 c9 fd bb c2 bd 8e bd
       -0.055953197 -0.028114203 -0.007745009 -0.06969787
0002a0 a3 29 a0 bc b2 d5 b7 bc 0b 9e b4 bc a2 48 3c bd
       -0.019551104 -0.022440765 -0.022048017 -0.045967706
0002b0 da 79 db 3c 8e 5b ff bc be 70 67 bd 76 49 0a 3d
       0.026791502 -0.031171586 -0.056504004 0.033761464
0002c0 64 8a c7 3d 96 1f 4d bd 5a a6 c2 3b 82 74 67 3d
       0.09743193 -0.05007895 0.005940241 0.056507595
0002d0 4d f7 bc 3d 15 d6 9e bd 68 da 81 bd 43 ca 2d 3d
       0.092268564 -0.07755677 -0.06340486 0.04242922
0002e0 0e 3d 43 3d a3 07 3a 3d 48 e8 da 3c db c1 28 3d
       0.04766565 0.04541744 0.026722088 0.0412005
0002f0 d9 f1 82 bd a6 44 9b bd 8e f7 f0 bc a6 53 bd bc
       -0.06393785 -0.07581453 -0.029414918 -0.023111176
000300 97 0c 96 bd 5a 2b 5e 3d cc f2 29 3d ea 8d b8 3c
       -0.0732662 0.054240562 0.041491315 0.022528607
000310 28 db a1 3d 22 1f 10 3c f3 05 bf 3d 4c b6 59 bd
       0.07903129 0.008796485 0.093273066 -0.053152367
000320 fc 04 df bc f3 25 20 bd 4f 7e ee 3c a8 66 06 bd
       -0.027224056 -0.03909869 0.029112963 -0.032812744
000330 ca 9c 6f bd 07 1d 82 bd d5 60 c2 3c 5e 98 25 3d
       -0.058499135 -0.06353193 0.023727814 0.04042851
000340 06 5b aa 3d 65 44 31 3d 0b 5e c4 3d c9 62 53 bc
       0.083181426 0.043278117 0.0958825 -0.01290197
000350 0e 24 b2 3d 37 da cc 3c c4 f2 75 bd 13 b0 42 bc
       0.08698283 0.025006397 -0.060045972 -0.0118828
000360 60 7d eb bc c6 45 0d 3d 99 80 87 bd c8 f2 0b 3c
       -0.028746307 0.03449037 -0.06616325 0.00854177
000370 e7 3b 88 bd 22 22 de 3c 0b a4 96 bd 2b 05 4b bc
       -0.066520505 0.027115885 -0.073555075 -0.012391369
000380 f2 64 4f bc 20 00 93 3a c0 5b 92 3d a3 07 67 3c
       -0.012658345 0.0011215247 0.07146406 0.014100942
000390 5a bf 8d bd da 4a 3c 3d c4 0c 04 3d 80 ef 92 3d
       -0.06921263 0.04596982 0.032238737 0.07174587
0003a0 ef 5c 60 3c 6c 90 b4 bd 79 a1 b0 3d 64 9f 9c bc
       0.013694032 -0.08816609 0.086245485 -0.019118972
0003b0 d3 85 4c bd 66 a5 85 bc 41 a0 c7 3d 41 45 51 3d
       -0.049932312 -0.01631422 0.09747363 0.051091436
0003c0 ad 45 e3 bc f6 43 54 3d ee f9 b2 bc 50 e2 6d 3d
       -0.027743185 0.051822625 -0.021847691 0.058077157
0003d0 f7 25 7d bc 94 20 a7 3d fc 67 61 3d 9d ab 9e 3d
       -0.015450946 0.08160511 0.055030808 0.077475764
0003e0 16 24 e7 bc 75 84 b6 bd b8 13 7a 3d a2 44 90 bd
       -0.02821545 -0.08911983 0.06105396 -0.07044341
0003f0 f7 a9 95 3d 80 88 74 3c 3c 24 3e bd ba 93 49 3d
       0.07307809 0.014925122 -0.046421275 0.04921315

fc.bias f4 [32]
000000 4b 74 55 3c 10 e7 2d ba 74 65 1e bc 58 e7 96 3d
       0.013028215 -0.0006633857 -0.009667743 0.07368344
000010 8a ea de bc 55 ca ab bb 11 cf 8b bd 54 68 7f bd
       -0.027211446 -0.0052426257 -0.06826604 -0.062355354
000020 51 54 67 bd bf fd 73 bc 02 2e 5b 3c 4a e0 0a 3d
       -0.056476895 -0.014892041 0.013377668 0.033905305
000030 5e e9 d7 3c 6f 7d 4e bd 18 71 8d 3d b1 88 91 3d
       0.026356395 -0.05041259 0.069063365 0.0710615
000040 62 55 b4 3b 65 4a 05 bd 40 72 75 b9 3d 92 9c bd
       0.0055033425 -0.03254165 -0.00023407582 -0.0764508
000050 3c bd b0 bc 05 11 61 3c 05 c0 0c bd 0e 38 7c 3d
       -0.021574609 0.013736968 -0.03436281 0.061576895
000060 74 87 dc bc 88 bd 14 bd db 25 dd 3c ae 05 93 bd
       -0.026920058 -0.036313564 0.02699559 -0.07178818
000070 10 f8 34 ba da 77 8c bc fa 55 56 3d 2d 7a 15 bd
       -0.0006903419 -0.017146993 0.052328087 -0.03649347
