checkpoints/NoGestureNetwork_2023-08-11_13-10-09.pth (torch, 57059 bytes, 10 tensors)

touchscreen_data_network.rnn.weight_ih_l0 f4 [64, 4]
-0.09046393 0.0022299793 -0.021188147 -0.028797882 -0.06720128 -0.04973685 0.03620509 0.08107148
-0.005920848 -0.07071864 0.11235545 0.044597328 -0.013781736 0.05675935 0.043273777 0.09367016
-0.03753216 -0.01919248 0.07350855 -0.05481978 -0.028679393 -0.082679056 -0.00041202642 0.09396323
0.07603581 0.0463277 0.028803758 -0.091832146 -0.008352639 0.04322242 0.038389854 0.032105245
0.016602928 -0.08877989 0.10274289 -0.034934085 -0.04652352 0.0072132265 -0.043494556 -0.00576948
0.10348597 0.037998844 0.08204356 0.063338466 -0.094060265 0.13294853 0.015278408 -0.05321446
0.11050082 0.01445336 0.0031061564 0.060101964 -0.011640278 0.10228305 0.09766735 -0.018729953
0.04119561 -0.017649032 0.005539573 0.12384353 -0.13044623 -0.07195697 0.045989044 0.061106373
0.09682892 -0.050337493 -0.09349715 -0.045867007 -0.05079762 0.07305703 -0.014860562 0.08409396
0.097404495 0.047482975 0.0025710324 -0.0071594073 -0.011276906 -0.056849815 0.041485645 -0.110658824
0.08627606 -0.056046702 -0.11172667 0.059607074 -0.100653596 0.0062312232 -0.10163757 -0.0059756273
0.043730862 0.012797219 0.10345509 -0.021332555 -0.018166997 -0.05347495 -0.048971903 0.065579034
0.06057335 -0.10070854 -0.045810603 0.007667532 0.05076749 -0.040253095 0.07047061 0.027795147
0.062361855 -0.08006528 0.10534231 -0.06731187 0.027764298 -0.08130501 -0.04259052 -0.07587082
-0.016189061 0.09351554 -0.11383472 0.10088156 0.077516 -0.074207224 0.08354504 0.061582457
0.09836092 -0.036343962 -0.12990706 -0.10265753 -0.06475923 -0.057787426 0.12152041 -0.06387914
-0.033918884 0.089550674 0.08452366 -0.08106453 0.029449034 -0.0017082207 -0.03294087 -0.05685774
0.12527305 -0.0049237525 0.11309705 0.10964898 0.11329813 -0.12348859 -0.038949046 0.048370805
0.06453886 -0.1078207 0.07346482 0.0058062524 0.054637272 0.07168731 0.052090164 0.08682884
0.054362327 -0.102675684 -0.061476868 -0.022878459 0.08037193 -0.052947205 -0.06310097 -0.05874121
-0.07983299 -0.077393465 -0.037738156 0.0025574537 0.08951676 0.0029939534 0.09832246 -0.004134274
0.109314024 -0.07327705 0.08855284 0.06590373 0.04536734 0.07312187 -0.057890825 0.071539685
-0.032201532 0.036907833 -0.0035784924 -0.04211931 0.038655497 -0.0034264866 0.11881206 -0.0964143
-0.036362655 -0.01616557 -0.063102625 -0.10869271 -0.0852525 0.076833285 -0.09408108 0.068935536
0.0007550204 0.098050974 -0.034488775 -0.09701728 0.015024177 0.09854128 -0.0794388 -0.09676942
-0.12322267 0.08247781 -0.11249928 -0.09819749 -0.13336854 0.012265228 -0.09829175 -0.07347694
0.13041723 0.12602685 -0.008327387 0.0605837 0.12699726 -0.094563685 0.04389397 -0.06268284
-0.12544024 -0.06828924 0.01806401 0.026504584 -0.001439265 -0.04832468 -0.10321277 0.006311889
0.020013195 -0.05993832 0.016363809 -0.017600007 -0.06941765 -0.0628944 0.03833366 -0.073705256
0.05786664 -0.053032283 -0.061715595 0.0072327163 0.055733092 -0.118668295 0.10668037 0.07479309
-0.09500956 0.016609695 -0.10840784 0.07835392 0.06881065 -0.036679056 0.08114537 0.026355581
0.04111207 -0.062412865 -0.033213012 -0.020232834 -0.07782107 0.009366443 0.096180335 0.066844575
00000000: 2745 b9bd d824 123b c492 adbc 89e9 ebbc
00000010: d3a0 89bd deb8 4bbd ca4b 143d ce08 a63d
00000020: ac03 c2bb efd4 90bd 9d1a e63d b0ab 363d
00000030: cacc 61bc 7e7c 683d d83f 313d 24d6 bf3d
00000040: 52bb 19bd 8c39 9dbc a78b 963d b58a 60bd
00000050: 0cf1 eabc a353 a9bd 4005 d8b9 cb6f c03d
00000060: aab8 9b3d 1dc2 3d3d dcf5 eb3c 7e12 bcbd
00000070: 82d9 08bc fe09 313d ae3e 1d3d ca80 033d
00000080: dd02 883c 3bd2 b5bd dd6a d23d 0b17 0fbd
00000090: 728f 3ebd ee5c ec3b 5927 32bd e80d bdbb
000000a0: 74f0 d33d ada4 1b3d 7406 a83d 99b7 813d
000000b0: aba2 c0bd a923 083e 4a52 7a3c 68f7 59bd
000000c0: 414e e23d c9cd 6c3c a890 4b3b 7a2d 763d
000000d0: ddb6 3ebc c779 d13d d205 c83d 8f6f 99bc
000000e0: babc 283d b494 90bc 4e85 b53b ada1 fd3d
000000f0: b293 05be 2d5e 93bd 025f 3c3d ad4a 7a3d
00000100: 3e4e c63d b02e 4ebd 6f7b bfbd 0bdf 3bbd
00000110: 2a11 50bd ed9e 953d b779 73bc 7439 ac3d
00000120: 027c c73d 827d 423d c47e 283b 7699 eabb
00000130: c6c2 38bc 5adb 68bd daec 293d 18a1 e2bd
00000140: 81b1 b03d 3a91 65bd f4d0 e4bd 8c26 743d
00000150: 7923 cebd 4a2f cc3b 5c27 d0bd 32cf c3bb
00000160: 221f 333d 6dab 513c 43e0 d33d 9cc1 aebc
00000170: f4d2 94bc 8d08 5bbd c396 48bd 4d4e 863d
00000180: c31b 783d 4740 cebd e6a3 3bbd ec3f fb3b
00000190: 92f1 4f3d 6ee0 24bd e552 903d a6b2 e33c
000001a0: 256f 7f3d 44f9 a3bd b6bd d73d ceda 89bd
000001b0: f471 e33c 3e83 a6bd 6673 2ebd 2962 9bbd
000001c0: ec9e 84bc 1385 bf3d 2d22 e9bd fe9a ce3d
000001d0: b5c0 9e3d f5f9 97bd a919 ab3d e33d 7c3d
000001e0: 7371 c93d 68dd 14bd 5b06 05be 1c3e d2bd
000001f0: 7da0 84bd 82b2 6cbd b1df f83d 11d3 82bd
00000200: 87ee 0abd 5866 b73d be1a ad3d 2905 a6bd
00000210: 1a3f f13c 60e6 dfba 01ed 06bd a9e3 68bd
00000220: 9447 003e 6e57 a1bb 6d9f e73d a58f e03d
00000230: da08 e83d 96e7 fcbd 0989 1fbd 7720 463d
00000240: f32c 843d 19d1 dcbd b974 963d 6042 be3b
00000250: 55cb 5f3d ccd0 923d 7f5c 553d 52d3 b13d
00000260: 08ab 5e3d a147 d2bd 2bcf 7bbd 9b6b bbbc
00000270: 0a9a a43d 2bdf 58bd 153b 81bd 9f9a 70bd
00000280: 7b7f a3bd 7780 9ebd 5393 1abd f49a 273b
00000290: 9054 b73d 3436 443b 495d c93d ce78 87bb
000002a0: 08e0 df3d 4712 96bd 315b b53d 89f8 863d
000002b0: 1bd3 393d ebc0 953d ee1e 6dbd 6683 923d
000002c0: c1e5 03bd ab2c 173d 2485 6abb 4c85 2cbd
000002d0: 3a55 1e3d e88e 60bb bd53 f33d dc74 c5bd
000002e0: 02f1 14bd a86d 84bc f33b 81bd 499a debd
000002f0: dd98 aebd c55a 9d3d 95ad c0bd 132e 8d3d
00000300: 90ec 453a f3ce c83d 1a44 0dbd ffb0 c6bd
00000310: f727 763c 03d0 c93d cfb0 a2bd 0c2f c6bd
00000320: 2b5c fcbd 20ea a83d 0666 e6bd c41b c9bd
00000330: c391 08be 18f4 483c 2f4d c9bd 147b 96bd
00000340: 188c 053e 2f0d 013e 986f 08bc 9d26 783d
00000350: 920b 023e 9baa c1bd 2aca 333d dc5f 80bd
00000360: 6873 00be 3bdb 8bbd fafa 933c 2420 d93c
00000370: b8a5 bcba 1af0 45bd 3761 d3bd f6d3 ce3b
00000380: b6f2 a33c e281 75bd 650d 863c e42d 90bc
00000390: d72a 8ebd c7ce 80bd c203 1d3d c8f2 96bd
000003a0: 9205 6d3d 6138 59bd 7ec9 7cbd 6c00 ed3b
000003b0: 6248 643d 5d08 f3bd 3d7b da3d 1f2d 993d
000003c0: 5f94 c2bd 0e11 883c ee04 debd 0578 a03d
000003d0: 99ec 8c3d c73c 16bd 8b2f a63d a9e7 d73c
000003e0: 2165 283d a2a4 7fbd 5e0a 08bd 54bf a5bc
000003f0: a760 9fbd b675 193c 32fa c43d cfe5 883d

touchscreen_data_network.rnn.weight_hh_l0 f4 [64, 64]
-0.044332694 0.053461008 0.045772653 -0.061335064 -0.0735544 0.073493995 0.04941096 -0.07145681
0.07434433 -0.023042379 0.08978208 -0.0683719 -0.048124127 -0.045844726 -0.08848918 0.09731265
0.101124845 0.10861879 -0.053169988 -0.080845155 0.13021883 -0.008666417 0.06251136 0.023662023
-0.06661136 -0.091064766 -0.10555029 0.052400284 -0.050668478 -0.068875924 0.06667013 -0.10694705
-0.0036892975 -0.009211115 0.1097989 0.024069436 0.13423027 0.09075489 0.022642784 0.1143663
0.050865613 -0.06434616 -0.006682316 -0.03337892 0.10244224 -0.08822196 0.06397297 0.08365305
0.08718995 0.036047928 -0.07399714 -0.0051156795 -0.026504226 -0.029824145 -0.07179401 0.028414033
0.077538945 -0.0097740805 -0.029880485 -0.030537045 -0.090753846 0.06557847 -0.04943294 -0.11515636
-0.12841737 -0.10056269 -0.11159582 0.04912595 -0.06325389 0.12974153 -0.12884372 0.09208723
0.005676927 0.109127015 -0.04557994 -0.058390845 -0.078989394 -0.06752321 -0.09791754 0.064587176
-0.04664379 0.03151916 -0.012066514 0.10165119 -0.08202488 0.024156988 -0.034859613 0.07364948
-0.11050428 0.0078021176 -0.037116893 -0.017004918 -0.015152471 0.03158024 0.018473852 -0.11126925
0.029563528 -0.030171033 -0.13043055 -0.103984796 -0.08480884 0.11470804 0.0012335945 0.116206706
0.049926624 -0.046496525 0.08422017 0.047749244 -0.07424867 -0.095320046 -0.08129694 -0.022008259
-0.0041419743 -0.06559196 0.09627071 -0.099972844 -0.1071154 0.122272395 -0.0038659396 -0.054150876
-0.09978049 0.039234757 -0.064865954 0.10197311 0.074333206 -0.038700253 -0.100293286 0.02916714
0.015311372 -0.12083572 -0.0890686 0.07925871 -0.010415313 -0.019856978 0.041423798 0.00036828406
0.06535916 0.06265391 0.040354256 0.04893059 0.06395437 0.02980182 -0.1049202 -0.046066955
0.10185099 -0.07000825 -0.09238401 -0.08790825 -0.111503676 -0.02906013 0.09983997 -0.10608958
-0.11010811 -0.042741712 -0.015232152 0.012889397 -0.025610603 -0.08372984 -0.09716502 0.011384942
-0.082679376 -0.103427306 0.09027977 -0.0011751968 0.05320838 0.06945293 -0.06192647 -0.03956367
-0.112162694 0.02586596 0.08463491 -0.021629928 0.05449878 0.0689815 0.037785377 0.043943603
-0.026442586 -0.018528758 -0.07878015 -0.0033929814 0.045301765 -0.12366125 0.010308143 0.0002773367
0.038011145 0.083366886 -0.07290791 0.063563064 -0.06326158 0.028249595 0.09473581 0.011811811
-0.05820878 -0.008727736 -0.033922754 0.08035934 -0.07479042 0.0028496552 0.003592644 0.047279816
0.043568343 0.047220245 0.008143537 0.08328338 -0.062571496 -0.0069028223 0.06871816 -0.020787863
0.08619989 -0.08455768 -0.059140727 -0.040501744 -0.060207095 -0.04051025 -0.07326951 -0.07679894
0.00012755673 0.08558357 0.07435037 0.073253416 0.017958185 -0.09854248 0.006280273 0.012425934
-0.023745537 -0.06758632 0.040655315 -0.021301124 -0.105983235 0.027079538 -0.058536176 -0.10752641
-0.032712266 0.044952393 -0.0011115074 0.08384618 0.095397964 0.04591865 0.048175752 -0.022875119
0.10694634 -0.010331116 -0.104719296 0.00907621 0.03678584 -0.0856877 -0.0015600864 0.03809107
0.062630385 0.0029125828 0.089634605 0.03392126 0.0074682664 0.0060353735 -0.030248817 -0.027079206
00000000: 3396 35bd eef9 5a3d 1b7c 3b3d 7a3a 7bbd
00000010: b0a3 96bd 0584 963d 2663 4a3d f357 92bd
00000020: d741 983d 5fc3 bcbc abdf b73d 9106 8cbd
00000030: ce1d 45bd aec7 3bbd d139 b5bd db4b c73d
00000040: 8b1a cf3d 8773 de3d c6c8 59bd 2592 a5bd
00000050: 1658 053e 96fd 0dbc f505 803d dcd6 c13c
00000060: 896b 88bd 2a80 babd c02a d8bd aea1 563d
00000070: c089 4fbd d20e 8dbd 598a 883d 0e07 dbbd
00000080: 24c8 71bb 37ea 16bc 3fde e03d 442d c53c
00000090: a973 093e b3dd b93d 5c7d b93c e138 ea3d
000000a0: 7658 503d ebc7 83bd 54f7 dabb 56b8 08bd
000000b0: 3dcd d13d b7ad b4bd 4304 833d 4a52 ab3d
000000c0: a590 b23d fea6 133d d08b 97bd 6ea1 a7bb
000000d0: 641f d9bc c451 f4bc bd08 93bd 8cc4 e83c
000000e0: bdcc 9e3d 7723 20bc ebc7 f4bc d328 fabc
000000f0: 27dd b9bd 014e 863d 327a 4abd 19d7 ebbd
00000100: d87f 03be d0f3 cdbd 598c e4bd 4b38 493d
00000110: 418b 81bd f7da 043e 9cef 03be 3b98 bc3d
00000120: 8405 ba3b fc7d df3d 08b2 3abd 3d2b 6fbd
00000130: 31c5 a1bd 9c49 8abd fe88 c8bd 4846 843d
00000140: 8f0d 3fbd 3c1a 013d a1b2 45bc 802e d03d
00000150: a9fc a7bd e0e4 c53c f4c8 0ebd 8ad5 963d
00000160: 1150 e2bd e8a8 ff3b e207 18bd e64d 8bbc
00000170: 1242 78bc 485a 013d 7a56 973c 22e1 e3bd
00000180: 362f f23c 3e29 f7bc 968f 05be fbf5 d4bd
00000190: 42b0 adbd 0dec ea3d 90b0 a13a c8fd ed3d
000001a0: dc7f 4c3d 2473 3ebd a07b ac3d b694 433d
000001b0: b00f 98bd 2837 c3bd 037f a6bd aa4a b4bc
000001c0: 66b9 87bb 1455 86bd 9429 c53d 90be ccbd
000001d0: 525f dbbd f369 fa3d b45b 7dbb 4fcd 5dbd
000001e0: b759 ccbd a0b4 203d 71d8 84bd 47d7 d03d
000001f0: 023c 983d 2884 1ebd 9166 cdbd edef ee3c
00000200: 8cdc 7a3c b878 f7bd 9969 b6bd 6452 a23d
00000210: fda4 2abc 1aab a2bc 00ac 293d 4016 c139
00000220: 06db 853d b150 803d 814a 253d 716b 483d
00000230: 82fa 823d f222 f43c 67e0 d6bd b4b0 3cbd
00000240: 4097 d03d 7c60 8fbd d433 bdbd 3e09 b4bd
00000250: 0a5c e4bd 820f eebc e678 cc3d 7e45 d9bd
00000260: 5c80 e1bd ef11 2fbd 4790 79bc 0d2e 533c
00000270: 54cd d1bc 8d7a abbd 74fe c6bd e887 3a3c
00000280: ce53 a9bd b2d1 d3bd 9ae4 b83d 1009 9aba
00000290: 08f1 593d 563d 8e3d 9ca6 7dbd 840d 22bd
000002a0: 8eb5 e5bd dae4 d33c 1155 ad3d 3f31 b1bc
000002b0: 1d3a 5f3d 2c46 8d3d d7c4 1a3d 35fe 333d
000002c0: 1f9e d8bc 9fc9 97bc 7d57 a1bd c85c 5ebb
000002d0: 588e 393d 1c42 fdbd 7ce3 283c 8067 9139
000002e0: 93b1 1b3d 42bc aa3d be50 95bd 5a2d 823d
000002f0: 4a8f 81bd b26b e73c d904 c23d 5386 413c
00000300: 546c 6ebd c7fe 0ebc 96f2 0abd 7093 a43d
00000310: b82b 99bd 48c1 3a3b 9072 6b3b 7ba8 413d
00000320: b874 323d 046a 413d 786c 053c 7a90 aa3d
00000330: 7c25 80bd 1231 e2bb 1bbc 8c3d 4f4b aabc
00000340: 9189 b03d 942c adbd 8c3d 72bd 28e5 25bd
00000350: b79b 76bd 13ee 25bd 530e 96bd c348 9dbd
00000360: c0c0 0539 7046 af3d 0245 983d e305 963d
00000370: 0b1d 933c a4d0 c9bd c0ca cd3b 2596 4b3c
00000380: 0086 c2bc b26a 8abd 3086 263d b27f aebc
00000390: bd0d d9bd e8d5 dd3c a1c3 6fbd ce36 dcbd
000003a0: 4cfd 05bd 0020 383d 00b0 91ba 8cb7 ab3d
000003b0: 0260 c33d 3215 3c3d f053 453d 9a64 bbbc
000003c0: af06 db3d d743 29bc 1277 d6bd 62b4 143c
000003d0: c0ac 163d 087d afbd d07b ccba 6205 1c3d
000003e0: 5c44 803d 08e1 3e3b 5992 b73d 05f1 0a3d
000003f0: 5cb8 f43b 62c4 c53b 5ecc f7bc 36d5 ddbc

touchscreen_data_network.rnn.bias_ih_l0 f4 [64]
-0.046720468 0.024833824 -0.083183914 -0.0096485345 0.028396202 0.07934281 0.086263135 0.10172466
0.01726161 -0.027688531 -0.0774515 -0.083443694 0.1049939 0.0014393684 0.120479524 -0.07049751
0.07152158 0.04545958 -0.009997106 -0.072631225 -0.08473043 -0.00568635 -0.068811476 -0.052941084
0.054361865 0.08025826 -0.026425209 -0.06978354 0.12303844 0.007018348 -0.028042816 -0.041349538
0.09566654 -0.10472818 -0.016619563 0.08980838 -0.10812309 -0.038711887 -0.0020513246 -0.10498546
0.0942618 -0.07613172 0.04199987 0.045771185 -0.019011527 0.07937098 0.114917606 -0.08376081
0.08151636 0.015218864 0.06503487 0.013495439 -0.02013106 -0.014785856 -0.051605772 0.012669569
0.064670384 -0.034092978 0.0016500112 0.09709198 -0.12118922 0.0077332472 0.055558786 -0.041493557
00000000: f65d 3fbd 4e70 cb3c 545c aabd e314 1ebc
00000010: 279f e83c 7c7e a23d baaa b03d 0555 d03d
00000020: 3868 8d3c 0fd3 e2bc e49e 9ebd 87e4 aabd
00000030: 0b07 d73d 30a9 bc3a f8bd f63d 0061 90bd
00000040: e879 923d d333 3a3d e7ca 23bc aebf 94bd
00000050: 2687 adbd 9054 babb 08ed 8cbd c0d8 58bd
00000060: 8caa 5e3d 715e a43d ae79 d8bc acea 8ebd
00000070: 94fb fb3d 2cfa e53b 0cba e5bc 225e 29bd
00000080: d2ec c33d ba7b d6bd c025 88bc 75ed b73d
00000090: a36f ddbd 5b90 1ebd 846f 06bb 9e02 d7bd
000000a0: 550c c13d f2ea 9bbd 0e08 2c3d 917a 3b3d
000000b0: 10be 9bbc 418d a23d ec59 eb3d ca8a abbd
000000c0: 0df2 a63d 8b58 793c 0031 853d f91b 5d3c
000000d0: e5e9 a4bc 6040 72bc 9360 53bd 0694 4f3c
000000e0: e871 843d 14a5 0bbd 3045 d83a 29d8 c63d
000000f0: 0e32 f8bd 2e67 fd3b 9c91 633d 26f5 29bd

touchscreen_data_network.rnn.bias_hh_l0 f4 [64]
0.0016629016 0.019641291 0.026142286 -0.08561713 0.046672374 -0.05978329 0.02012551 -0.056093387
-0.015340296 -0.022637129 -0.068625316 -0.022926431 -0.013914442 0.018659007 0.12896599 0.048531137
0.08673727 -0.022153335 -0.11112762 -0.06833041 0.053608578 -0.020555064 0.0019429028 0.065053605
-0.04356631 0.0041084858 0.08377611 -0.02684046 -0.086853355 0.07975573 -0.0843608 0.03651089
-0.06380809 0.024574343 -0.057361383 0.07098329 0.12580451 0.027598005 -0.033732884 0.0057707196
-0.0712359 -0.014827859 -0.008923023 0.02271454 -0.089172445 -0.08133415 -0.048212998 -0.04919807
0.085280724 0.09426692 -0.11363999 -0.115007535 0.11809082 0.13087279 -0.10190843 -0.023769714
-0.09574053 -0.047013067 -0.061414402 0.011736089 -0.018507171 -0.029501118 -0.0073763384 -0.0025339965
00000000: b8f5 d93a c6e6 a03c 5928 d63c 0958 afbd
00000010: 882b 3f3d 53df 74bd 41de a43c 2ec2 65bd
00000020: dd55 7bbc 8071 b9bc 6e8b 8cbd 36d0 bbbc
00000030: 66f9 63bc c6da 983c a90f 043e 96c8 463d
00000040: 4fa3 b13d e97a b5bc e196 e3bd d0f0 8bbd
00000050: ab94 5b3d 1863 a8bc 00a9 fe3a d33a 853d
00000060: 9672 32bd 7aa0 863b cf92 ab3d 86e0 dbbc
00000070: 2ce0 b1bd f956 a33d 5bc5 acbd 718c 153d
00000080: d1ad 82bd 2250 c93c c5f3 6abd b05f 913d
00000090: e6d2 003e 3615 e23c 7e2b 0abd 4e18 bd3b
000000a0: 21e4 91bd 8cf0 72bc df31 12bc d813 ba3c
000000b0: 0ba0 b6bd 8592 a6bd fe7a 45bd ea83 49bd
000000c0: a9a7 ae3d 040f c13d 15bc e8bd 1289 ebbd
000000d0: 9ad9 f13d 8403 063e 5eb5 d0bd b4b8 c2bc
000000e0: 9c13 c4bd c690 40bd ab8d 7bbd ba48 403c
000000f0: 5a9c 97bc 54ac f1bc 36b5 f1bb 6811 26bb

sensor_data_network.rnn.weight_ih_l0 f4 [64, 6]
-0.03161008 -0.028619483 0.10968227 0.081865035 0.011412429 -0.048303094 -0.11328842 0.022073997
0.06214774 0.08421595 -0.12831281 0.019369356 0.08276348 0.003706715 0.031105326 -0.009043285
-0.050692834 -0.12401451 -0.03496387 0.105215475 0.08122942 -0.107239425 0.045541164 0.020797078
0.10269033 -0.061904438 -0.10049662 0.10874653 0.020825807 -0.012909422 0.09181429 0.060519397
0.027950007 0.09220686 -0.08295254 0.036260538 0.0016732682 0.055623434 0.026904851 -0.0026526656
-0.0036721462 0.04500427 -0.011301579 -0.0427994 0.092873335 0.008095066 -0.034711786 0.005371657
0.0034860577 -0.13069308 0.045891806 0.0023572557 -0.06456652 -0.13148564 -0.084137514 -0.09669329
0.05034443 -0.023055451 0.07298709 0.07707271 -0.041292273 -0.0554574 -0.04153066 0.0193218
-0.11211808 0.013223255 -0.004813241 -0.099836975 0.100956015 0.10863121 0.10327723 -0.12308195
0.052223254 -0.12330586 0.12955792 -0.06306304 -0.05223376 -0.0779029 -0.07303692 0.027701102
0.06960371 -0.09917393 -0.023189358 0.06343046 -0.09681019 0.082326986 -0.00022202823 -0.029602423
0.08978231 -0.026888022 0.05088668 -0.038726173 -0.093088426 -0.07773664 -0.10515778 0.037849996
0.0020019459 0.062074654 0.025116883 0.12340267 -0.037810765 0.021974344 -0.048584707 -0.112332046
-0.020641506 0.10484001 0.011487713 0.024553526 -0.11622951 0.11088656 -0.07250603 0.061623063
0.12839939 -0.013994832 0.11000038 -0.109274365 -0.10555662 -0.059342556 0.10541767 -0.013621945
0.045819484 0.05157383 -0.07920107 0.05307427 -0.06138068 0.039208032 -0.10159968 -0.05025665
0.12347787 -0.061042484 -0.017886536 0.1145146 -0.043221362 -0.032872185 0.07508668 -0.034777395
-0.00050079264 -0.0017589414 0.0073008565 0.10767276 -0.063110396 0.047895193 0.01198277 0.06352062
-0.12240163 -0.11443863 0.08241546 -0.002713859 -0.05666061 -0.01695916 -0.09770776 -0.0065811137
-0.042841308 0.09120284 -0.09662551 -0.06507979 0.11308998 -0.08039495 0.081191555 -0.0481703
0.024283715 0.028428774 0.07827071 -0.0047513237 -0.01648945 -0.117227666 0.044386744 0.10551384
-0.000566083 0.098503195 0.06458124 0.004881217 0.076240845 0.104641244 0.13036026 0.011326884
-0.11027379 0.07251536 -0.12250379 -0.0151598025 0.012006815 -0.07349499 -0.0065546716 -0.07508674
0.08228615 -0.049849074 -0.105253875 -0.07309437 0.09524555 0.0349413 0.057147615 -0.036817968
0.12720469 0.0034886617 -0.0065141907 0.0042333454 -0.08565723 -0.010795448 0.07945151 -0.058608826
-0.08157077 0.06101698 -0.03083137 0.097321324 0.0013423199 -0.10793659 0.079533525 -0.08249082
-0.11644275 -0.095146224 0.016120607 0.03102657 -0.021993984 0.025661426 0.09515467 -0.109266974
-0.13407508 0.05238964 -0.01786864 -0.07963766 -0.01444818 -0.07490709 -0.05191552 -0.012589865
0.041678794 -0.046689853 0.034381356 0.019697059 0.060300067 0.12626949 0.038882107 0.047818907
-0.10015214 0.07354373 -0.055402283 0.092522085 0.08119469 0.064995915 0.087272294 0.04747656
-0.072670445 0.1008893 -0.10986601 -0.12505816 0.105021864 0.010723241 0.11118702 -0.071574196
0.050630257 -0.052156866 -0.11871918 -0.0029549403 -0.083088435 -0.036748506 0.059838794 -0.034802087
00000000: 9279 01bd 6873 eabc 19a1 e03d dba8 a73d
00000010: 32fb 3a3c 77d9 45bd c203 e8bd 87d4 b43c
00000020: a18e 7e3d 6979 ac3d 6f64 03be 7cac 9e3c
00000030: e67f a93d 5cec 723b 99d0 fe3c 492a 14bc
00000040: 4aa3 4fbd 52fb fdbd 4636 0fbd 367b d73d
00000050: 9c5b a63d 58a0 dbbd 5f89 3a3d a25e aa3c
00000060: 4f4f d23d 828f 7dbd 2cd1 cdbd 80b6 de3d
00000070: e29a aa3c 0a82 53bc 2109 bc3d 30e3 773d
00000080: 6af7 e43c f3d6 bc3d 05e3 a9bd ee85 143d
00000090: 9051 db3a 66d5 633d 9067 dc3c 58d8 2dbb
000000a0: 64a8 70bb 6656 383d 422a 39bc 6c4e 2fbd
000000b0: 6034 be3d 2ba1 043c f22d 0ebd ba04 b03b
000000c0: 5876 643b 68d4 05be 0cf9 3b3d 307c 1a3b
000000d0: 743b 84bd 2ca4 06be 4a50 acbd 2207 c6bd
000000e0: f635 4e3d c9de bcbc 417a 953d 4cd8 9d3d
000000f0: 1622 29bd 4c27 63bd 0e1c 2abd c048 9e3c
00000100: 2a9e e5bd 5aa6 583c 64b8 9dbb 5477 ccbd
00000110: 07c2 ce3d 0a7a de3d 0383 d33d 6412 fcbd
00000120: 0de8 553d c887 fcbd d5aa 043e 3227 81bd
00000130: 11f3 55bd 8e8b 9fbd 6194 95bd 6ced e23c
00000140: 648c 8e3d b41b cbbd 9cf7 bdbc d4e7 813d
00000150: 6c44 c6bd 0d9b a83d 40d0 68b9 c880 f2bc
00000160: cadf b73d 4544 dcbc 8d6e 503d 569f 1ebd
00000170: 25a5 bebd 6334 9fbd f65c d7bd 9908 1b3d
00000180: 1433 033b fe41 7e3d ecc1 cd3c 8aba fc3d
00000190: 76df 1abd 8a03 b43c c200 47bd 580e e6bd
000001a0: 6018 a9bc 5cb6 d63d f636 3c3c 7a24 c93c
000001b0: bd09 eebd 7e18 e33d 0b7e 94bd 7768 7c3d
000001c0: 217b 033e 944a 65bc e147 e13d 3dcb dfbd
000001d0: 122e d8bd 2e11 73bd 38e5 d73d 942e 5fbc
000001e0: 36ad 3b3d 153f 533d 2c34 a2bd 6864 593d
000001f0: 4f6a 7bbd 9a98 203d 7e13 d0bd ebd9 4dbd
00000200: f7e1 fc3d af07 7abd c986 92bc a186 ea3d
00000210: e208 31bd fca4 06bd 0cc7 993d be72 0ebd
00000220: a047 03ba 488c e6ba 063c ef3b 8983 dc3d
00000230: 0640 81bd c02d 443d 6153 443c 1917 823d
00000240: b5ad fabd cd5e eabd 70c9 a83d 00db 31bb
00000250: f514 68bd f0ed 8abc 021b c8bd 62a6 d7bb
00000260: 5e7a 2fbd 8ec8 ba3d 98e3 c5bd 8e48 85bd
00000270: b89b e73d 1ca6 a4bd c247 a63d 384e 45bd
00000280: a4ee c63c 76e3 e83c 654c a03d feb0 9bbb
00000290: e214 87bc 0f15 f0bd e0ce 353d a417 d83d
000002a0: 3065 14ba 0bbc c93d 2b43 843d 9ef2 9f3b
000002b0: 2924 9c3d 264e d63d 297d 053e 6594 393c
000002c0: 3ad7 e1bd ef82 943d 44e3 fabd d260 78bc
000002d0: 3bb8 443c 8b84 96bd 92c8 d6bb 14c7 99bd
000002e0: a485 a83d 8b2e 4cbd 588f d7bd 80b2 95bd
000002f0: 1910 c33d 9c1e 0f3d 9e13 6a3d 70ce 16bd
00000300: f241 023e 08a2 643b fe74 d5bb e0b7 8a3b
00000310: 0f6d afbd 64df 30bc 79b7 a23d cf0f 70bd
00000320: 930e a7bd f1ec 793d 1292 fcbc 6750 c73d
00000330: c8f0 af3a dc0d ddbd 79e2 a23d f2f0 a8bd
00000340: 8979 eebd 06dc c2bd 5d0f 843c 6f2b fe3c
00000350: ba2c b4bc e937 d23c 74e0 c23d 5dc7 dfbd
00000360: fa4a 09be 8596 563d 4161 92bc 1219 a3bd
00000370: 0fb8 6cbc e368 99bd 5ea5 54bd b945 4ebc
00000380: 62b7 2a3d dc3d 3fbd 77d3 0c3d ba5b a13c
00000390: 34fd 763d ca4c 013e d842 1f3d c2dd 433d
000003a0: 911c cdbd 189e 963d 81ed 62bd 387c bd3d
000003b0: 6749 a63d 941c 853d d1bb b23d c876 423d
000003c0: 3ed4 94bd 0d9f ce3d 6e01 e1bd 3f0f 00be
000003d0: b415 d73d 88b0 2f3c 05b6 e33d 7e95 92bd
000003e0: ac61 4f3d 70a2 55bd 0b23 f3bd aca7 41bb
000003f0: 452a aabd 9a85 16bd 8619 753d a28c 0ebd

sensor_data_network.rnn.weight_hh_l0 f4 [64, 64]
-0.073405884 0.027255304 -0.050495196 -0.017949857 -0.010570138 -0.13267219 0.09812809 0.04670845
0.006757564 -0.0788761 0.0050485805 0.1031247 -0.0895227 -0.046712004 -0.03543025 -0.003327027
-0.026569858 0.012231841 -0.054636583 0.04318091 -0.030511282 -0.08888262 -0.04245275 0.017977193
-0.095398195 -0.047383312 -0.056518946 -0.103143655 -0.069632314 -0.04686007 0.11296393 -0.07012144
0.056923512 0.056881193 -0.10519693 -0.05070425 0.008015678 -0.059336677 0.04002822 0.057002798
0.025599921 -0.009392185 0.0044977367 0.10476273 0.010318241 -0.100396246 -0.06569854 0.076883115
0.1225275 -0.101809785 0.013601057 -0.059440315 -0.09193578 -0.05726948 -0.056749072 0.064708665
-0.01529384 0.0007394925 -0.029782373 -0.009575649 -0.10898392 0.06819701 0.08438665 0.038419053
-0.094289705 0.059073746 -0.10118092 0.04552475 -0.109757856 -0.042212572 -0.103422694 0.07194415
-0.0048193233 -0.040449917 -0.03649181 0.058447655 -0.10256983 -0.10493155 0.11327309 0.047222644
0.0836 -0.06087788 -0.12185826 -0.023398643 -0.023961306 0.11014905 -0.11006096 0.07924075
0.0072527723 -0.07393052 0.056006752 -0.13211472 -0.026336595 0.1167191 -0.026641674 -0.0022131577
-0.001076648 0.12937926 0.018711388 0.113946974 0.03262267 -0.033921152 0.022578554 0.062080234
0.016751915 -0.02678425 0.03752612 -0.067992605 -0.06978824 -0.07331059 -0.108758554 0.11144335
-0.049601436 -0.020641573 -0.008117783 -0.039730612 -0.09230345 -0.028425489 -0.11025278 -0.0017906232
-0.08775963 0.042225342 0.09340922 -0.032063894 0.07315695 0.123424724 0.070671536 0.052526496
-0.09668425 0.030415483 -0.044886462 -0.08282752 -0.079091266 -0.11877011 0.030115262 0.0860413
-0.08329344 -0.0039195716 -0.09497509 -0.050049834 0.06777334 0.0034815567 -0.12713568 0.11397886
0.0076822797 -0.016224988 0.04153787 0.13476567 -0.07076348 0.0032811956 -0.10265569 -0.0016971976
0.015504096 -0.03279334 -0.0028499719 -0.0037497077 0.034343608 -0.11011207 0.11289017 -0.03730396
0.03125772 0.068560764 0.11856817 -0.12822947 -0.0185032 -0.008465273 -0.048692364 0.040199712
0.08817166 -0.044485837 -0.029654784 0.12997063 0.0020416975 -0.08736115 -0.05371345 0.11060481
-0.034937132 -0.034891516 0.09419955 -0.032906607 0.0078107314 -0.052280698 0.05117086 0.014090049
0.11285483 -0.08815201 -0.064783484 0.054701153 0.10905971 0.11579323 -0.038018405 0.07386001
-0.005679873 0.03525261 -0.038709287 -0.07849828 0.009346655 0.10368836 0.11081256 0.0058257794
-0.019773815 0.07855269 0.068116985 0.00518429 0.1003759 0.056444306 0.046407707 0.059930928
-0.005228458 0.093525335 0.08777188 -0.029266374 -0.060081333 0.10691881 -0.042064365 -0.075475186
0.09929758 0.049283333 0.052260805 -0.09871089 0.08819978 0.052430805 0.047176994 -0.12911847
-0.078575656 -0.040616594 0.010331499 0.07553067 0.081930846 -0.049741536 -0.098235235 -0.08389031
0.020591028 -0.104008555 0.10112768 0.005712894 0.067868404 0.045066856 -0.031095793 -0.052241135
0.11454708 0.09167828 0.101278014 -0.058540326 -0.052742537 0.030174334 0.111205906 -0.10243767
0.052577775 0.11713803 0.038086876 -0.006959224 0.050953 -0.081027016 -0.07491061 0.05478679
00000000: d355 96bd 8446 df3c 0dd4 4ebd 940b 93bc
00000010: 5f2e 2dbc 38db 07be 61f7 c83d 5c51 3f3d
00000020: 8e6e dd3b cb89 a1bd 906e a53b 0b33 d33d
00000030: ad57 b7bd 1655 3fbd 4f1f 11bd 400a 5abb
00000040: 08a9 d9bc 0f68 483c 9cca 5fbd 77de 303d
00000050: ccf2 f9bc 1708 b6bd efe2 2dbd e844 933c
00000060: 2160 c3bd 0115 42bd 6980 67bd fb3c d3bd
00000070: 639b 8ebd 58f0 3fbd a259 e73d d49b 8fbd
00000080: a128 693d 41fc 683d 7d71 d7bd 42af 4fbd
00000090: 3154 033c 040b 73bd a1f4 233d c47b 693d
000000a0: edb6 d13c aee1 19bc c061 933b d88d d63d
000000b0: d70d 293c 8c9c cdbd f58c 86bd e574 9d3d
000000c0: b3ef fa3d a681 d0bd f8d6 5e3c b077 73bd
000000d0: d448 bcbd 6793 6abd b771 68bd fa85 843d
000000e0: 0493 7abc 80da 413a 2afa f3bc 2fe3 1cbc
000000f0: f632 dfbd e0aa 8b3d e8d2 ac3d 4c5d 1d3d
00000100: f61a c1bd 50f7 713d f137 cfbd 2978 3a3d
00000110: bac8 e0bd 17e7 2cbd 47cf d3bd 7457 933d
00000120: 6aeb 9dbb d0ae 25bd 7078 15bd cf66 6f3d
00000130: 2210 d2bd 5ae6 d6bd b9fb e73d 886c 413d
00000140: 7a36 ab3d 155b 79bd d390 f9bd 83ae bfbc
00000150: 804a c4bc d395 e13d a467 e1bd f948 a23d
00000160: aaa8 ed3b e268 97bd 5667 653d 1549 07be
00000170: d8bf d7bc 6c0a ef3d a43f dabc a00a 11bb
00000180: 501e 8dba ff7b 043e a048 993c 085d e93d
00000190: 599f 053d e8f0 0abd a9f6 b83c d847 7e3d
000001a0: 503b 893c a56a dbbc fdb4 193d b53f 8bbd
000001b0: 23ed 8ebd dd23 96bd cebc debd 693c e43d
000001c0: e02a 4bbd 8418 a9bc 7300 05bc 91bc 22bd
000001d0: 9709 bdbd 92dc e8bc 36cc e1bd 58b3 eaba
000001e0: 52bb b3bd 7bf4 2c3d 554d bf3d 6e55 03bd
000001f0: 50d3 953d 1ac6 fc3d 3dbc 903d 0626 573d
00000200: 6402 c6bd e429 f93c deda 37bd 7aa1 a9bd
00000210: 9afa a1bd be3d f3bd 48b4 f63c 6c36 b03d
00000220: c095 aabd c06f 80bb 4d82 c2bd 0e01 4dbd
00000230: c0cc 8a3d d42a 643b db2f 02be c06d e93d
00000240: a2bb fb3b 44ea 84bc 9d23 2a3d 0300 0a3e
00000250: 72ec 90bd 5409 573b 253d d2bd 8074 deba
00000260: e404 7e3c 4f52 06bd 98c6 3abb a8bd 75bb
00000270: e2ab 0c3d 7082 e1bd f632 e73d 0acc 18bd
00000280: 1808 003d 9669 8c3d ded3 f23d 964e 03be
00000290: 0694 97bc eeb1 0abc a571 47bd 74a8 243d
000002a0: 5893 b43d c836 36bd 97ee f2bc 0517 053e
000002b0: 00ce 053b 67ea b2bd a202 5cbd c684 e23d
000002c0: 3d1a 0fbd 68ea 0ebd b2eb c03d 14c9 06bd
000002d0: 2af1 ff3b 4924 56bd 8998 513d f3d9 663c
000002e0: 6f20 e73d 0b89 b4bd 34ad 84bd 510e 603d
000002f0: b25a df3d 0025 ed3d 30b9 1bbd eb43 973d
00000300: 3a1e babb 0a65 103d a18d 1ebd b5c3 a0bd
00000310: b622 193c 905a d43d b2f1 e23d 2ee6 be3b
00000320: b2fc a1bc 3ce0 a03d eb80 8b3d fae0 a93b
00000330: e191 cd3d 2532 673d 0216 3e3d 227a 753d
00000340: 7c53 abbb 368a bf3d bec1 b33d 09c0 efbc
00000350: d817 76bd 40f8 da3d af4b 2cbd bc92 9abd
00000360: 885c cb3d 52dd 493d 6d0f 563d ef28 cabd
00000370: 16a2 b43d afc1 563d aa3c 413d a237 04be
00000380: 46ec a0bd 965d 26bd 7345 293c d3af 9a3d
00000390: 5ccb a73d c8bd 4bbd 8e2f c9bd afce abbd
000003a0: 84ae a83c 7002 d5bd 071c cf3d 3a33 bb3b
000003b0: 97fe 8a3d 0698 383d 9bbc febc cdfa 55bd
000003c0: a997 ea3d d2c1 bb3d d96a cf3d fbc7 6fbd
000003d0: 8f08 58bd 2a30 f73c ecbf e33d d7ca d1bd
000003e0: cb5b 573d 10e6 ef3d fc00 1c3d 340a e4bb
000003f0: 18b4 503d 7ef1 a5bd bc6a 99bd 1d68 603d

sensor_data_network.rnn.bias_ih_l0 f4 [64]
0.036180794 0.1074653 0.026996087 0.09433164 0.0677223 0.13419062 -0.030539475 -0.063458875
-0.066537604 0.04219386 0.09123336 -0.010062784 0.114849344 -0.036020935 -0.09511564 -0.039019898
0.13187169 0.023758693 -0.025118198 0.008222018 -0.045637786 0.08591533 0.10770863 -0.058528043
-0.060819454 0.03696367 0.12716337 0.049303256 -0.06641921 0.09655114 0.12698503 0.0026026797
-0.06483602 0.10396379 -0.040156268 0.02192432 -0.12582824 -0.017138 0.11322145 0.06437576
-0.052439805 -0.055943273 -0.10549046 -0.030393196 0.09577825 0.07840126 -0.091434985 0.03907518
-0.1125064 -0.0033701286 -0.09210839 -0.016073087 0.012327555 -0.015525467 0.09798892 0.08770453
-0.07502196 -0.067619815 -0.00036814343 -0.045764357 0.08101724 0.042507328 0.00424424 0.061170563
00000000: 5032 143d c416 dc3d e626 dd3c f230 c13d
00000010: fdb1 8a3d 4469 093e ec2d fabc baf6 81bd
00000020: de44 88bd 78d3 2c3d 8ed8 ba3d 60de 24bc
00000030: 2236 eb3d b08a 13bd fdcb c2bd 54d3 1fbd
00000040: 5f09 073e 97a1 c23c aec4 cdbc a5b5 063c
00000050: b0ee 3abd 60f4 af3d 5896 dc3d 1abb 6fbd
00000060: d21d 79bd 3867 173d 1d37 023e 36f2 493d
00000070: cb06 88bd 9bbc c53d 5d08 023e b891 2a3b
00000080: bfc8 84bd f8ea d43d e67a 24bd a29a b33c
00000090: 1ed9 00be fe64 8cbc a6e0 e73d 70d7 833d
000000a0: 1fcb 56bd c624 65bd 620b d8bd 27fb f8bc
000000b0: 6327 c43d d790 a03d 4442 bbbd 4c0d 203d
000000c0: c169 e6bd 60dd 5cbb 53a3 bcbd b5ab 83bc
000000d0: 83f9 493c 875e 7ebc 6aae c83d 6f9e b33d
000000e0: 1da5 99bd 427c 8abd 6003 c1b9 6873 3bbd
000000f0: 5eec a53d 2a1c 2e3d 4413 8b3b fc8d 7a3d

sensor_data_network.rnn.bias_hh_l0 f4 [64]
-0.029491378 0.009828276 -0.01912652 0.13096724 0.112470515 -0.08001526 0.0073320745 0.11218102
0.112335324 0.018169846 -0.041699264 0.026577242 0.09734854 -0.016527966 0.058209367 0.13254595
-0.0648348 0.0423816 0.060068507 -0.06334856 -0.10007371 -0.09976914 -0.064281605 -0.043635346
-0.11971332 -0.07640598 -0.08129116 -0.04007982 -0.028922286 -0.10895878 0.04941657 0.048600253
0.029534161 0.015533297 0.03952741 0.096010625 -0.06562948 -0.014677182 -0.008554905 -0.051894877
0.08735051 -0.009517392 -0.110267214 0.05294334 -0.01951421 0.017541952 0.02472286 -0.027115311
0.032477126 0.012998658 0.09139499 0.10488199 -0.11362759 0.124448165 0.035161875 0.059392273
0.115468554 -0.09569124 -0.031525556 -0.0851085 0.105128504 -0.09926135 0.12158366 0.013859167
00000000: e797 f1bc c706 213c 38af 9cbc 471c 063e
00000010: f156 e63d 0adf a3bd e641 f03b 2abf e53d
00000020: 1010 e63d eed8 943c d9cc 2abd 84b8 d93c
00000030: ac5e c73d a865 87bc f26c 6e3d 20ba 073e
00000040: 1cc8 84bd 5498 2d3d 650a 763d e4bc 81bd
00000050: 72f3 ccbd c353 ccbd 13a6 83bd faba 32bd
00000060: 422c f5bd bd7a 9cbd fb7b a6bd bd2a 24bd
00000070: 6eee ecbc c825 dfbd 0869 4a3d 0f11 473d
00000080: a0f1 f13c 5f7f 7e3c 7ee7 213d 38a1 c43d
00000090: c068 86bd 9078 70bc df29 0cbc b98f 54bd
000000a0: d3e4 b23d d6ee 1bbc c7d3 e1bd 1edb 583d
000000b0: 44dc 9fbc 24b4 8f3c 9887 ca3c ee20 debc
000000c0: bc06 053d 53f8 543c 4c2d bb3d 5ecc d63d
000000d0: 95b5 e8bd aede fe3d e605 103d 5045 733d
000000e0: c77a ec3d c5f9 c3bd f120 01bd 5e4d aebd
000000f0: 9d4d d73d 8949 cbbd db00 f93d 8f11 633c

fc.weight f4 [32, 130]
0.0811011 -0.006242129 0.0020387033 -0.019832624 0.073573604 0.042858556 -0.07162218 -0.020095672
0.035689726 0.08333818 -0.034909256 -0.0028410815 -0.042127803 0.06494289 0.057155892 -0.00037810113
-0.07567665 0.071945325 0.0628596 -0.09228483 0.027859986 0.00818619 -0.043236252 0.024814993
-0.02369966 0.015166786 -0.052417397 0.0017098077 0.06082609 0.04023455 -0.07648776 0.025804963
0.028679188 0.04890573 0.062917165 0.0589445 -0.06964445 0.03523714 0.052451313 0.0036077085
0.0051163808 0.072095856 0.066605985 -0.013631782 -0.020295847 -0.051849887 0.05994167 -0.0052929837
-0.07601861 -0.0535298 0.079843245 -0.011018272 -0.054608382 0.026457291 0.05307973 -0.025399063
0.033197667 -0.010298028 -0.032312613 -0.08447902 0.052450545 0.028929204 -0.020912582 0.07210409
-0.0315592 0.0029479926 -0.054656275 0.06447854 0.0006519966 0.07841597 0.015719464 -0.07488812
-0.007537201 -0.07935091 0.025694087 -0.027617343 -0.016778775 -0.06752658 0.024757002 0.077118084
-0.08612895 -0.07748814 -0.020365058 0.06826126 -0.054735012 0.014422713 -0.063771404 0.0034283581
-0.031573057 0.043187473 -0.06419153 0.06427086 0.0038340017 0.05955887 -0.055135228 0.03801906
0.065922104 -0.045650292 -0.08312776 -0.006728746 -0.04329183 -0.084692694 0.046006955 -0.036109015
-0.026107531 -0.05921716 -0.0820806 -0.010699561 0.010044852 -0.078536555 0.08494322 0.035309747
-0.0864362 0.015504337 -0.09328039 0.057607554 -0.056887 0.045443535 -0.038595844 -0.008097743
0.08149499 -0.054744385 -0.07473058 -0.027179454 0.04515276 -0.034074537 0.030305602 -0.014256049
-0.03514058 -0.02755008 0.019314399 -0.030749075 0.0922683 0.06410636 0.08119357 -0.04043126
0.054082498 0.0057837106 -0.00010682829 -0.07942087 -0.036175005 0.07507221 -0.07004461 0.028475001
0.0025235168 0.0013462128 0.028724063 -0.09386639 0.02024646 -0.0022794493 -0.04639359 0.0055014286
0.074284084 -0.051148437 0.06825545 0.071030796 -0.006118182 0.0020470293 -0.06623222 0.031708367
-0.009490945 0.039253794 -0.009930349 0.062513754 -0.02165505 -0.006331387 -0.06667272 0.055870794
-0.02798386 -0.057576496 0.046442214 -0.061745916 -0.061891638 -0.024006607 -0.024877576 -0.0086713005
0.050898015 -0.07864277 0.0703497 0.009275665 0.07554693 0.025826667 -0.06202813 -0.05573091
-0.06921343 0.055195715 -0.015881136 0.033054277 -0.08026721 0.06955456 -0.034418143 0.053816654
-0.003200477 0.0058860406 -0.029794767 -0.044614334 0.006811103 0.096917845 0.066440314 -0.08288585
-0.03287633 -0.04726659 0.08592287 -0.0026021851 0.05665066 -0.025968228 0.049721926 0.024727635
-0.044351947 -0.09650433 -0.056503493 -0.042056587 -0.09387836 0.086169004 -0.052319065 -0.014151025
0.061552048 -0.088644214 0.01210005 0.0150690945 -0.02951391 0.0040834723 -0.050161686 0.048235968
0.0081948545 -0.047815792 -0.09250641 0.06439798 -0.07197459 -0.024907526 0.05326291 0.0733973
-0.052300014 -0.0976022 -0.08186662 -0.057801086 -0.05285514 0.026494365 0.025961727 -0.075111285
0.026923379 0.024071781 0.061161585 0.09093156 0.022569703 0.048698734 -0.022509761 -0.055297613
0.07076757 0.07623388 -0.09710371 0.014983552 -0.03406181 -0.007447265 -0.025489075 -0.009799269
00000000: 5518 a63d c68a ccbb c49b 053b 0778 a2bc
00000010: c2ad 963d 748c 2f3d a6ae 92bd ae9f a4bc
00000020: 642f 123d 35ad aa3d 02fd 0ebd 7031 3abb
00000030: 348e 2cbd c700 853d 4c1c 6a3d e03b c6b9
00000040: 5cfc 9abd 1258 933d 89bc 803d d4ff bcbd
00000050: a03a e43c 5f1f 063c 7f18 31bd d048 cb3c
00000060: ca25 c2bc 1c7e 783c a0b3 56bd a01b e03a
00000070: c724 793d fccc 243d 9da5 9cbd ee64 d33c
00000080: 9ef0 ea3c 6051 483d b7da 803d ca6f 713d
00000090: c0a1 8ebd d254 103d 30d7 563d 4e6f 6c3b
000000a0: 50a7 a73b fea6 933d b868 883d d657 5fbc
000000b0: 7a43 a6bc 8c60 54bd 6685 753d c470 adbb
000000c0: a5af 9bbd 1042 5bbd db84 a33d fb85 34bc
000000d0: 0aad 5fbd f6bc d83c 226a 593d b211 d0bc
000000e0: 47fa 073d 0fb9 28bc 3b5a 04bd 5603 adbd
000000f0: 62d6 563d f0fc ec3c dd50 abbc 4fab 933d
00000100: 3844 01bd 1c33 413b 42df 5fbd 530d 843d
00000110: c0ea 2a3a 8d98 a03d 1bc6 803c f15e 99bd
00000120: a0fa f6bb bb82 a2bd 687c d23c c43d e2bc
00000130: a473 89bc 604b 8abd 32cf ca3c 16f0 9d3d
00000140: 6064 b0bd 1ab2 9ebd 9fd4 a6bc 8fcc 8b3d
00000150: d231 60bd 3e4d 6c3c 959a 82bd 4eae 603b
00000160: c052 01bd 59e5 303d d976 83bd 71a0 833d
00000170: e043 7b3b 00f4 733d 7ad5 61bd e0b9 1b3d
00000180: 2b02 873d cdfb 3abd e33e aabd d07c dcbb
00000190: c652 31bd 5d73 adbd ca71 3c3d 0ce7 13bd
000001a0: 76df d5bc b18d 72bd e019 a8bd 364d 2fbc
000001b0: 2a93 243c c6d7 a0bd b6f6 ad3d f4a0 103d
000001c0: 7605 b1bd e705 7e3c ca09 bfbd e6f5 6b3d
000001d0: 5802 69bd 0023 3a3d ad16 1ebd 65ac 04bc
000001e0: d8e6 a63d a63b 60bd 590c 99bd 72a7 debc
000001f0: 1af2 383d be91 0bbd 7443 f83c 3492 69bc
00000200: 92ef 0fbd b5b0 e1bc 3b39 9e3c 7ce5 fbbc
00000210: 2af7 bc3d 324a 833d d048 a63d 409b 25bd
00000220: 9c85 5d3d 4885 bd3b 0009 e0b8 69a7 a2bd
00000230: 3e2c 14bd 75bf 993d 8c73 8fbd 6844 e93c
00000240: 9661 253b 6873 b03a ba4e eb3c 063d c0bd
00000250: e7db a53c d062 15bb 3407 3ebd 5445 b43b
00000260: 4122 983d 0681 51bd 83c9 8b3d 9878 913d
00000270: 087b c8bb 7427 063b c2a4 87bd a2e0 013d
00000280: e97f 1bbc 96c8 203d e7b2 22bc 3607 803d
00000290: ee65 b1bc 8677 cfbb b58b 88bd c6d8 643d
000002a0: 683e e5bc 55d5 6bbd 313a 3e3d 49e9 7cbd
000002b0: 1682 7dbd 81a9 c4bc 0fcc cbbc 1212 0ebc
000002c0: 707a 503d 760f a1bd 8113 903d f5f8 173c
000002d0: 59b8 9a3d 7292 d33c 3511 7ebd 1846 64bd
000002e0: c5bf 8dbd e714 623d 2819 82bc ec63 073d
000002f0: 2363 a4bd 9f72 8e3d 0afa 0cbd da6e 5c3d
00000300: 18bf 51bb b0df c03b 2814 f4bc 85bd 36bd
00000310: ac2f df3b dd7c c63d dc11 883d 0ec0 a9bd
00000320: 55a9 06bd 9d9a 41bd 54f8 af3d 6c89 2abb
00000330: 860a 683d 52bb d4bc 38a9 4b3d 9c91 ca3c
00000340: 63aa 35bd 10a4 c5bd 3570 67bd 8743 2cbd
00000350: 4c43 c0bd 6079 b03d 844c 56bd b3d9 67bc
00000360: 001e 7c3d 198b b5bd 4a3f 463c 5de4 763c
00000370: 28c7 f1bc a6ce 853b 5776 4dbd 1493 453d
00000380: b643 063c 7eda 43bd 0074 bdbd 17e3 833d
00000390: 6a67 93bd de0a ccbc 362a 5a3d 5351 963d
000003a0: 8a38 56bd aae3 c7bd b0a9 a7bd d5c0 6cbd
000003b0: a27e 58bd b60a d93c b0ad d43c f2d3 99bd
000003c0: 6b8e dc3c 2f32 c53c 9284 7a3d 533a ba3d
000003d0: 19e4 b83c 5378 473d 6466 b8bc c07f 62bd
000003e0: 96ee 903d 8220 9c3d 4fde c6bd 927d 753c
000003f0: 6584 0bbd 3008 f4bb 77ce d0bc 1d8d 20bc

fc.bias f4 [32]
-0.030410886 -0.072355255 -0.049518906 0.07613218 0.047988765 0.0678847 -0.0007892372 -0.0028377762
-0.044267677 0.015261874 0.004517747 -0.0060268096 0.024300672 -0.0048660403 -0.042783998 -0.04258678
0.015790287 0.018278223 -0.028367892 -0.06513789 0.02519135 0.025923641 0.04034803 0.03613037
0.04388723 0.055567488 -0.0285215 -0.00868345 -0.053818442 0.055503815 0.006940401 0.0033535436
00000000: 4020 f9bc fe2e 94bd 56d4 4abd 30eb 9b3d
00000010: de8f 443d 2207 8b3d d0e4 4eba fcf9 39bb
00000020: 0652 35bd f00c 7a3c 9c09 943b 8b7c c5bb
00000030: 3412 c73c 4e73 9fbb 463e 2fbd 7a6f 2ebd
00000040: a25a 813c 36bc 953c c863 e8bc 0467 85bd
00000050: 175e ce3c d15d d43c fa43 253d 70fd 133d
00000060: 19c3 333d bc9a 633d eca5 e9bc 0745 0ebc
00000070: ba70 5cbd f857 633d 4e6c e33b 20c7 5b3b
