checkpoints/NoGestureNetwork_2023-08-11_13-12-29.pth (torch, 48675 bytes, 10 tensors)

touchscreen_data_network.rnn.weight_ih_l0 f4 [64, 4]
0	0x3c09884d	0.008394313
1	0x3d08d080	0.033401966
2	0x3d130442	0.035892732
3	0x3d8548b9	0.06508011
4	0x3db3aa34	0.08772698
5	0xbdd4e921	-0.10396028
6	0xbd70d6a8	-0.058798462
7	0xbdc1f5fc	-0.09470746
8	0x3d9f7f9f	0.07788014
9	0x3d63f332	0.05565185
10	0xbbac91ee	-0.0052664196
11	0x3d3dc8c2	0.046334036
12	0x3db003e6	0.085944936
13	0x3d635dfb	0.05550955
14	0xbd8bc3ba	-0.06824441
15	0xbd43ae82	-0.047773845
16	0x3c911bcc	0.01771345
17	0xbdadf89f	-0.08494686
18	0x3d02fcd2	0.03197939
19	0x3d339061	0.043838862
20	0x3b3d4b18	0.002888387
21	0x3bd2ee6e	0.0064371144
22	0xbdd2fc83	-0.10302069
23	0xb9547d40	-0.00020264555
24	0xbdd97494	-0.10617939
25	0xbdbb1903	-0.0913563
26	0xbc5246e6	-0.012834286
27	0xbd48043c	-0.048832163
28	0xbdadb88c	-0.08482465
29	0xbd9fcb53	-0.07802453
30	0x3cfc893c	0.030827157
31	0xbcd07c1e	-0.025449809
32	0x3c6ce29a	0.014458323
33	0x3ccc8877	0.024967415
34	0xbb508760	-0.003181897
35	0xbd5bb182	-0.05363608
36	0xbd94764a	-0.07249124
37	0xbd3784f0	-0.044804513
38	0xbd389b71	-0.045070115
39	0xbbd902ca	-0.006622647
40	0xbd895695	-0.06705967
41	0xbde9b0b4	-0.114106566
42	0xbddfa76e	-0.109206066
43	0x3d5f9030	0.054580867
44	0xbdeec9c8	-0.116595805
45	0x3da22444	0.07917073
46	0xbdbc9488	-0.092080176
47	0x3d6581aa	0.05603186
48	0x3d17e7c4	0.037086263
49	0xbddad9a7	-0.10686045
50	0x3d7fc2ae	0.06244152
51	0x3c891307	0.016732706
52	0xbd9e09fb	-0.077167474
53	0xbdd54826	-0.10414152
54	0x3d9183da	0.07105227
55	0x3b3a7a0c	0.0028454093
56	0xbbddfa20	-0.006774202
57	0x3d08b807	0.033378627
58	0x3d09038a	0.03345064
59	0x3cf75ff0	0.030197114
60	0x3d779cec	0.060452387
61	0xbbd54574	-0.0065085236
62	0xbde97086	-0.11398415
63	0xbd25be8a	-0.040464915
64	0xbc87b4be	-0.016565677
65	0xbd1f7327	-0.038928177
66	0xbdc99a3e	-0.098438725
67	0xbac5b768	-0.0015084567
68	0x3c565919	0.013082766
69	0xbdff54c7	-0.12467342
70	0xbb0a57a4	-0.0021109367
71	0x3dceb96c	0.1009396
72	0xbd8e4d02	-0.06948282
73	0x3d51c229	0.051210556
74	0x3dd34a46	0.10316901
75	0xbd9db05e	-0.07699655
76	0x3d816efd	0.063199975
77	0x3d143b72	0.036189504
78	0xbcf3c563	-0.029757207
79	0x3db7dbfe	0.08977507
80	0x3c02e8c0	0.007990062
81	0xbd6d7e54	-0.057981804
82	0xbdd5b80e	-0.10435496
83	0x3ad39f78	0.0016145548
84	0x3dd0ad52	0.10189308
85	0x39f3b340	0.00046482123
86	0x3dc62a2d	0.09676013
87	0x3e0340ae	0.12817642
88	0xbdb4415f	-0.08801531
89	0x3b59c6a8	0.003322998
90	0x3da9dd99	0.082942195
91	0x3e09d8d0	0.13461614
92	0xbcdf2cd4	-0.027243055
93	0x3c270646	0.010194367
94	0xbdcd342f	-0.10019719
95	0xbd8b6313	-0.06806006
96	0x3bd16b42	0.00639096
97	0xbd694250	-0.056948006
98	0xbcd68118	-0.026184604
99	0x3dcf3887	0.101182036
100	0xbdcf80b8	-0.10131973
101	0x3cdc6cb4	0.026907302
102	0xbda7a960	-0.081866026
103	0xbda44ac3	-0.08022072
104	0xbde7af17	-0.113126926
105	0xbe05f066	-0.13079986
106	0x3d7e9542	0.062154062
107	0xbdb85cd2	-0.09002079
108	0xbd39ccd5	-0.04536136
109	0x3d33baf3	0.04387946
110	0xbcee0453	-0.029054796
111	0xbd6968ad	-0.056984592
112	0xbde02a02	-0.10945512
113	0x3d4a076e	0.04932349
114	0x3df1da23	0.118091844
115	0xbd3495d2	-0.044088192
116	0xbda3d55f	-0.07999682
117	0xbcc5f8fb	-0.024166575
118	0x3d963603	0.07334521
119	0x3c263fe1	0.010147066
120	0x3e04e800	0.12979126
121	0x3deeaa1a	0.11653538
122	0xbc339459	-0.010960662
123	0x3d68f691	0.05687577
124	0x3c93a18d	0.01802137
125	0x3d1693ec	0.036762163
126	0xbd647e4a	-0.0557845
127	0x3dc4aa20	0.09602761
128	0xbdaf8475	-0.08570186
129	0xbce3fec3	-0.02783144
130	0x3e03b613	0.12862425
131	0x3dd701eb	0.10498413
132	0x3de7e625	0.113231935
133	0x3cead3e5	0.028665492
134	0xbdc78ff5	-0.097442545
135	0xbd986269	-0.07440645
136	0x3ba913de	0.005159839
137	0x3d335b4b	0.043788236
138	0xbbdb2d74	-0.006688768
139	0xbdcdab9c	-0.100424975
140	0xbccb1d32	-0.024794195
141	0xbddcfe6a	-0.10790713
142	0x3c8fb1a5	0.017540762
143	0x3d8ff6fd	0.07029531
144	0xbd4fff0f	-0.050780352
145	0xbdc1e471	-0.094674
146	0xbbad7ace	-0.0052941805
147	0xbb077548	-0.002066927
148	0xbdcb2f5d	-0.09921143
149	0xbc69e159	-0.0142749185
150	0x3d976257	0.07391804
151	0xbc68cf53	-0.014209586
152	0xbdaa753b	-0.08323141
153	0x3c86fee5	0.016478965
154	0x3d2175de	0.039419048
155	0x3d556b9e	0.052104585
156	0xbd4fb45f	-0.050709125
157	0xbbbcda2a	-0.005763312
158	0xbd75fc76	-0.06005522
159	0x3d55b399	0.05217323
160	0xbdb4ed52	-0.08834328
161	0xbd684145	-0.05670287
162	0xbdea9d90	-0.11455834
163	0xbb7e416c	-0.0038796319
164	0x3c74a535	0.014931967
165	0x3b937b64	0.0045007933
166	0x3d54ae71	0.051924173
167	0x3d847f19	0.064695545
168	0xbcb9852c	-0.02264651
169	0x3d959005	0.0730286
170	0xbd79609a	-0.060883142
171	0xbd9782aa	-0.07397969
172	0x3d836273	0.06415262
173	0xbd971b45	-0.07378248
174	0x3dc3a16f	0.095522754
175	0xbd918622	-0.07105662
176	0xbca0d5fc	-0.019633286
177	0x3ab64148	0.0013904953
178	0x3d9d09d1	0.07667888
179	0xbd20f20d	-0.039293338
180	0x3d9cae35	0.07650415
181	0xbcefc39c	-0.029268079
182	0x3d8b991b	0.06816312
183	0x3d5628c0	0.052284956
184	0x3c409d09	0.01175619
185	0xbdeeeae9	-0.11665899
186	0x3d3f83d6	0.046756588
187	0x3db80233	0.089847945
188	0x3da73560	0.08164477
189	0x3dca4600	0.09876633
190	0x3d01fe5d	0.03173672
191	0xbc770103	-0.015075925
192	0x3d2f47b7	0.042793002
193	0x3ceb3a1a	0.028714228
194	0xbc143bb9	-0.009047442
195	0x3dddc0f8	0.108278215
196	0x3d8fbec3	0.07018807
197	0x3d23aac6	0.039957784
198	0x3d2ca805	0.042152423
199	0xbd67c8a4	-0.05658783
200	0xbe0067be	-0.12539575
201	0xbd0c75be	-0.034291975
202	0x3c66b036	0.014080098
203	0xbdb5047c	-0.08838746
204	0x3dc92025	0.09820584
205	0xbd76bb9a	-0.060237505
206	0x3d923b69	0.07140238
207	0x3e01a66d	0.12661143
208	0x3d451712	0.048117705
209	0xbd38a192	-0.04507596
210	0x3d922f1b	0.07137891
211	0x3db973dc	0.090553015
212	0x3da1b5e7	0.07896023
213	0x3d4a8aff	0.049448963
214	0xbc97609b	-0.018478682
215	0x3dc458ed	0.09587274
216	0xbd862686	-0.065503165
217	0xbd14652e	-0.036229305
218	0xbd78499a	-0.060617067
219	0x3c860868	0.01636143
220	0xbd1988c1	-0.037483934
221	0xbd8d07e5	-0.068862714
222	0xbdb93230	-0.09042776
223	0xbd344250	-0.044008553
224	0xbd6c2e5f	-0.05766141
225	0x3ada1dc0	0.0016640946
226	0xbd0b7e34	-0.034055904
227	0xbd8753ec	-0.06607804
228	0xbc6a962b	-0.014318029
229	0xbc6b7f46	-0.014373606
230	0xbd676fa2	-0.056502946
231	0xbdcfae8f	-0.10140716
232	0x3d7df5d9	0.062002037
233	0x3d31c779	0.043403123
234	0x3d4a9c12	0.049465246
235	0x3d5c3d5d	0.053769458
236	0x3de638d0	0.11241305
237	0x3d42066e	0.047369413
238	0x3d6caa81	0.057779793
239	0xbbc27c16	-0.0059352024
240	0xbde860c1	-0.11346579
241	0xbd9f2ea7	-0.0777257
242	0xbddc92ea	-0.10770209
243	0xbbacf414	-0.00527812
244	0xbcbd78ae	-0.023128834
245	0xbdd04c49	-0.101708
246	0xbce9bf54	-0.028533615
247	0xbdaf1395	-0.08548657
248	0x3a923620	0.0011155047
249	0xbcfed980	-0.031109571
250	0xbd8d077d	-0.06886194
251	0xbdc0bf27	-0.094114594
252	0x3dd2a6f9	0.10285754
253	0x3d997ba3	0.07494285
254	0xbd115a5e	-0.03548657
255	0xba886100	-0.0010404885

touchscreen_data_network.rnn.weight_hh_l0 f4 [64, 64]
0	0xbb208610	-0.002449397
1	0x3d77fe2c	0.06054513
2	0x3d1f7024	0.038925305
3	0x3d9d293d	0.07673881
4	0xbda0ccb0	-0.07851541
5	0x3cfed5d0	0.031107813
6	0xbc2e965c	-0.010655966
7	0xbb247e78	-0.0025099795
8	0xbda75432	-0.08170356
9	0xbd84a0f2	-0.064760104
10	0xbdaf94f5	-0.08573333
11	0x3d98238c	0.07428655
12	0xbadbd408	-0.0016771564
13	0xbd9eb1f9	-0.07748789
14	0x3db4a142	0.0881982
15	0x3ab5b9c0	0.0013864562
16	0x3dca361e	0.09873603
17	0xbd0476e6	-0.032339953
18	0x3d0bf02e	0.0341646
19	0x3dc9fa83	0.098622344
20	0xbc2d557f	-0.010579466
21	0xbd87b57c	-0.06626412
22	0x3b095b74	0.0020959051
23	0x3dd966cf	0.10615312
24	0xbb4ce308	-0.003126325
25	0xbd3199b4	-0.043359473
26	0xbcfa5c8e	-0.030561712
27	0xbb05fb30	-0.002044391
28	0x3db13009	0.0865174
29	0xbdc709a1	-0.097186334
30	0x3d5d1d1f	0.05398285
31	0xbc7efc70	-0.0155631155
32	0xbd8101bd	-0.0629916
33	0x3de5a280	0.11212635
34	0xbc43be0b	-0.011947165
35	0x3d7b95a8	0.06142202
36	0x3d9c3045	0.07626394
37	0xbb147608	-0.002265336
38	0x3d4fba3c	0.050714716
39	0x3d0a8810	0.033821166
40	0xbcb06302	-0.021531586
41	0x3ca50570	0.020144194
42	0x3de6ea67	0.112751774
43	0x3dba8299	0.09106941
44	0x3cdfabd6	0.027303617
45	0x3d9ccd17	0.07656305
46	0x3dd0274b	0.101637445
47	0xbd3727f6	-0.044715844
48	0xbddd1bc4	-0.107963115
49	0x3dc8f6a3	0.09812667
50	0xbcd5c98a	-0.026097078
51	0x3d989655	0.074505486
52	0xbd4a4ee8	-0.049391657
53	0x3da44c2f	0.08022343
54	0xbd853af9	-0.06505389
55	0xbdde315f	-0.108492605
56	0x3d078eb9	0.033095095
57	0xbbaf463c	-0.0053489488
58	0x3d0ff998	0.03515014
59	0x3d87f1d3	0.06637921
60	0x3b595300	0.0033161044
61	0xbd47be92	-0.048765726
62	0x3dc48216	0.095951244
63	0x3d6ee8bf	0.058327433
64	0x3dd1fd97	0.102534465
65	0x3c4ea679	0.012612932
66	0xbd6c6d8b	-0.057721656
67	0xbdc5c74d	-0.09657154
68	0x3a8ca160	0.0010729246
69	0xbde4fc1a	-0.11180897
70	0xbbc0eac8	-0.005887363
71	0xbd978d7d	-0.074000336
72	0x3d44e717	0.048071947
73	0xbd94dff2	-0.07269277
74	0xbdd30deb	-0.10305389
75	0xbc23eb05	-0.0100047635
76	0x3c51f1b1	0.012813971
77	0x3d9a2ff9	0.07528681
78	0xbd0b3dee	-0.033994608
79	0x3db91c90	0.09038651
80	0xbc9e82e8	-0.01934953
81	0x3a088730	0.0005208133
82	0x3ddcf509	0.10788924
83	0xbd82a6e3	-0.06379487
84	0xbd2fb38a	-0.04289583
85	0x3c59a7e8	0.013284661
86	0x3da24146	0.07922606
87	0xbdb4bbd0	-0.08824885
88	0x3dc5f79a	0.09666367
89	0x3caef40c	0.021356605
90	0x3de8ee34	0.11373559
91	0xbd0c9308	-0.034319907
92	0xbb77e800	-0.0037827492
93	0x3cd17633	0.025569057
94	0x3c0484ff	0.008088349
95	0xbb92630a	-0.004467373
96	0x3d182752	0.037146874
97	0x3dc67aeb	0.096914135
98	0x3d8b6c60	0.0680778
99	0x3d311363	0.04323138
100	0x3dbeb4a7	0.093118005
101	0xbcf170b4	-0.029472686
102	0xbda03b93	-0.07823863
103	0xbd4aaddd	-0.049482215
104	0xbdb7b5b6	-0.089702055
105	0xbdb0ca4f	-0.08632337
106	0xbdae4db3	-0.08510914
107	0x3d8c3fac	0.06848082
108	0x3d59483f	0.053047415
109	0xbdb31450	-0.08744109
110	0x3db9380e	0.09043895
111	0xbdd37bb9	-0.103263326
112	0x3dd51fbf	0.10406446
113	0x3cd66ace	0.026173975
114	0xbddf2d3e	-0.10897301
115	0x3d60d787	0.054893043
116	0xbd496581	-0.049169067
117	0xbbf4dee4	-0.0074728597
118	0xbc8c966f	-0.017161576
119	0xbdbf98f6	-0.09355347
120	0x3dc531ca	0.09628637
121	0x3d9b456d	0.07581601
122	0x3b968964	0.004594015
123	0xbdcb4704	-0.099256545
124	0x3d6f678a	0.058448352
125	0xbdb1382e	-0.086532936
126	0x3d9e4bc8	0.07729298
127	0x3ba91f76	0.005161221
128	0xbd8951c8	-0.06705052
129	0x3dbf66da	0.09345789
130	0x3c2dff7c	0.010619994
131	0xbd9c2cb8	-0.07625717
132	0x3d800825	0.062515534
133	0x3d5bff51	0.053710286
134	0x3d905322	0.07047106
135	0x3ae77ca8	0.0017661052
136	0x3d03526b	0.03206102
137	0x3d4058b5	0.046959598
138	0xbd6a3a37	-0.057184424
139	0xbd42f39f	-0.047595616
140	0xbd096c85	-0.033550758
141	0xbd425cd5	-0.047451813
142	0xbdaf1df7	-0.08550637
143	0x3d3b22e5	0.045687575
144	0x3d105d75	0.035245378
145	0x3d3c1d25	0.045926232
146	0x3df10b91	0.11769784
147	0x3c952102	0.018204216
148	0x3d252c29	0.040325318
149	0x3d1c12fb	0.03810404
150	0x3cc4c5ee	0.024020161
151	0x3de7ed59	0.11324567
152	0x3de49c18	0.11162585
153	0xbdf2a958	-0.11848706
154	0x3d6fd42e	0.05855196
155	0xbdf67691	-0.120343335
156	0x3df6743b	0.12033888
157	0x3e0a1ad5	0.13486798
158	0xbbb0016a	-0.0053712623
159	0x3cb3eaf2	0.021962617
160	0x3bb69a78	0.0055726133
161	0x3d227b71	0.039668504
162	0xbcba5842	-0.022747163
163	0xbc7ce7bd	-0.01543611
164	0xbda1b022	-0.07894923
165	0x3da0b11a	0.078462794
166	0xbd4d02ae	-0.050051384
167	0xbddc77d3	-0.10765042
168	0xbd04120f	-0.032243785
169	0xbd872f0b	-0.066007696
170	0x3dc47d25	0.09594182
171	0x3d8d8476	0.069100305
172	0x3dac17d8	0.08402985
173	0xbd7663d9	-0.060153816
174	0x3de6a1eb	0.11261352
175	0xbddb2d0a	-0.1070195
176	0xbce00da2	-0.02735025
177	0x3dc3d1ef	0.09561526
178	0x3d541641	0.051779035
179	0x3a5a3cb0	0.0008325083
180	0xbda5f860	-0.081040144
181	0x3d14a604	0.036291137
182	0x3dcc0b2d	0.09963069
183	0x3dc0007e	0.09375094
184	0xbd4c57bf	-0.04988837
185	0xbd1e09f7	-0.038583722
186	0xb872b400	-5.7864934e-05
187	0x3e09e27b	0.13465302
188	0xbce3849e	-0.027773198
189	0x3dcc8dfb	0.09988018
190	0x3b522f0c	0.00320715
191	0x3bbecd5a	0.0058228197
192	0xbd1f8748	-0.038947374
193	0xbc6b9a8c	-0.014380109
194	0x3c1803bc	0.009278234
195	0x3d79253d	0.06082653
196	0x3db11e30	0.08648336
197	0xbd85a63d	-0.06525848
198	0x3de761be	0.1129794
199	0xbc5b14ee	-0.013371689
200	0xbe068284	-0.13135725
201	0xbce24b70	-0.027623862
202	0xba260c90	-0.00063342694
203	0xbc7751e1	-0.015095205
204	0xbdce1cec	-0.1006411
205	0x3c0dd094	0.008655686
206	0xbd1b53d6	-0.03792175
207	0x3cb337da	0.021877218
208	0xbd3a4ea2	-0.045485146
209	0x3de2f6ef	0.11082255
210	0x3d9a4334	0.07532349
211	0x3c229c5e	0.009924976
212	0x3de3d204	0.11124042
213	0xbde2f331	-0.11081541
214	0xbcab9346	-0.020944249
215	0x3e078f49	0.13238253
216	0x3cd18d1b	0.02557998
217	0x3db09192	0.08621515
218	0x3d562262	0.052278884
219	0x3dda2711	0.106519826
220	0x3deb4e84	0.11489585
221	0xbc63bb61	-0.013899655
222	0xbddb6afc	-0.10713765
223	0x3d06de5c	0.032926902
224	0xbd122db4	-0.035688117
225	0x3e0078bd	0.12546058
226	0xbdc60bcc	-0.09670219
227	0x3ddd9458	0.1081931
228	0xbcff1cb2	-0.031141613
229	0xbe042d2b	-0.12907855
230	0x3dde22a6	0.108464524
231	0x3dca8c92	0.09890093
232	0xbdb748e4	-0.0894945
233	0xbd8a7c1d	-0.06761954
234	0x3d8b7048	0.06808525
235	0x3d22a974	0.039712384
236	0xbc92ab8a	-0.017904062
237	0x3d5f7daf	0.05456322
238	0x3dc9d779	0.09855551
239	0xbcc26bf7	-0.023733122
240	0xbb90ce8a	-0.0044191526
241	0x3d9e7a94	0.07738224
242	0xbd861274	-0.065464884
243	0x3ddf0cce	0.10891114
244	0xbd668534	-0.056279376
245	0x3dbbc964	0.091692716
246	0xbd11eb06	-0.035624526
247	0xbdd4c497	-0.10389059
248	0x3d952956	0.07283275
249	0x3d73e23b	0.059541922
250	0x3ddae85e	0.10688852
251	0xbd6508fa	-0.055916764
252	0xbd0582ec	-0.03259556
253	0xbd3ca896	-0.046059214
254	0xbd692d22	-0.056927808
255	0xbdeffd08	-0.11718184

touchscreen_data_network.rnn.bias_ih_l0 f4 [64]
0	0x3db951e1	0.0904882
1	0xbc62e7a7	-0.013849176
2	0x3d7830b3	0.06059332
3	0xbd9aefa4	-0.07565239
4	0xbd046c6e	-0.03232997
5	0xbd944ffd	-0.07241819
6	0xbd8132d2	-0.06308521
7	0xbd87a40c	-0.06623086
8	0xba83d178	-0.0010056933
9	0xbbbd1d74	-0.0057713334
10	0xbd3a7a14	-0.04552658
11	0x3ce4e9c2	0.027943496
12	0xbd97008f	-0.073731534
13	0xbd35b954	-0.044366196
14	0x3c41051d	0.011781004
15	0xbd0ba17a	-0.034089543
16	0x3d565f26	0.052336834
17	0xbdf88099	-0.12133903
18	0x3d7db8c4	0.061943784
19	0x3ded3c94	0.1158382
20	0x3c03896a	0.0080283675
21	0x3dda69a5	0.10664681
22	0x3ddd12b1	0.10794581
23	0x3c8c3268	0.01711388
24	0x3d9442f2	0.07239331
25	0x3d010b4c	0.031504914
26	0xbd43fe4b	-0.047849935
27	0x3d984432	0.07434882
28	0xbdd835e3	-0.10557153
29	0x3d0c3871	0.034233514
30	0xbcb4825f	-0.022034822
31	0x3daa78c0	0.083238125
32	0xbd11d784	-0.035605922
33	0xbd9a1485	-0.07523445
34	0x3db3b624	0.08774975
35	0xbd97e2ec	-0.07416329
36	0x3c8a4c2a	0.016882021
37	0xbdc66456	-0.09687106
38	0x3d877114	0.06613365
39	0xbd0d9ba1	-0.034572247
40	0x3d8b3378	0.06796926
41	0x3d698be4	0.057018176
42	0x3c08b783	0.008344534
43	0x3d59db1e	0.053187482
44	0xbd999e7d	-0.07500932
45	0x3e0718ba	0.13193026
46	0x3d1e6dd4	0.03867896
47	0xbd64cd18	-0.055859655
48	0xbd48aaf3	-0.048991155
49	0x3bc66512	0.006054529
50	0x3d6750d8	0.056473583
51	0xbd72cb67	-0.05927601
52	0xbc68e017	-0.014213583
53	0x3cf5a615	0.02998642
54	0xbcba9913	-0.02277807
55	0xbd758097	-0.059937086
56	0xbdfb060b	-0.12257012
57	0xbdd740a6	-0.105103776
58	0x3cb26386	0.021775972
59	0x3dd78fe0	0.10525489
60	0x3b6ff2c4	0.0036613205
61	0xbd3b2837	-0.04569265
62	0xbd84b1cf	-0.06479227
63	0xbd7dce80	-0.061964512

touchscreen_data_network.rnn.bias_hh_l0 f4 [64]
0	0xbd7f00a0	-0.062256455
1	0x3d79c8d8	0.060982555
2	0xbd736841	-0.059425596
3	0x3d800423	0.06250789
4	0xbdbff1f0	-0.09372318
5	0xbcc315b4	-0.02381406
6	0xbc12751e	-0.008939056
7	0xbd7ff960	-0.062493682
8	0x3b427b8c	0.002967569
9	0xbd049bcd	-0.032375146
10	0xbd9e9972	-0.07744111
11	0x3cda923b	0.026681056
12	0xbdff549a	-0.12467308
13	0xbd211796	-0.039329134
14	0xbbc48060	-0.005996749
15	0xbd44a734	-0.04801102
16	0x3bf94b4a	0.007607852
17	0xbd793e7e	-0.060850613
18	0x3d21af42	0.03947378
19	0x3db8b36e	0.090185985
20	0x3d841ac6	0.06450419
21	0x3d37de93	0.044889998
22	0xbdb44da1	-0.08803869
23	0x3d90076a	0.07032664
24	0x3c890af7	0.016728861
25	0xbdd28d34	-0.102808386
26	0xbdeedc2d	-0.11663089
27	0xbc0ec45d	-0.008713809
28	0xbd849941	-0.06474543
29	0xbddc99d1	-0.10771526
30	0xbd6a28fd	-0.057167996
31	0xbd129fe7	-0.035797026
32	0xbd50faf0	-0.051020563
33	0x3d86ceff	0.0658245
34	0x3da200b0	0.079102874
35	0xbd697228	-0.056993634
36	0x3d093484	0.03349735
37	0xbdd27a26	-0.10277204
38	0x3da353d2	0.07974972
39	0xbdc8eaff	-0.09810447
40	0xbd1f7303	-0.038928043
41	0x3e009990	0.1255858
42	0x3db2a136	0.08722155
43	0x3c5e7987	0.013578779
44	0xbd845c5f	-0.06462931
45	0x3d86d2be	0.06583165
46	0x3d164330	0.03668517
47	0xbd968e1a	-0.073513225
48	0x3d2d7be6	0.042354487
49	0xbd2aca52	-0.041696854
50	0xbd95db2c	-0.07317194
51	0x3df49fd4	0.11944547
52	0x3df7a89b	0.12092706
53	0x3df27271	0.11838234
54	0x3d7fa818	0.062416166
55	0xbbfe6b8c	-0.0077642854
56	0x3dadf382	0.08493711
57	0xbcc61284	-0.02417875
58	0x3d113222	0.0354482
59	0xbd5d9dfc	-0.054105744
60	0xbd721da9	-0.059110317
61	0x3afb7b50	0.001918653
62	0xbd53f7b7	-0.05174991
63	0x3e002f4f	0.12518047

sensor_data_network.rnn.weight_ih_l0 f4 [64, 6]
0	0x3da299b8	0.07939476
1	0x3e089c42	0.13340858
2	0x3e04b060	0.12957907
3	0x3d48159c	0.048848733
4	0xbd537f49	-0.05163506
5	0xbdadec13	-0.08492293
6	0x3dd02e72	0.10165109
7	0x3d4da60a	0.050207175
8	0xbd2c8acf	-0.042124566
9	0xbd18d833	-0.03731556
10	0xbdb89118	-0.090120494
11	0xbc766ff0	-0.015041336
12	0xbdcaf422	-0.09909846
13	0x3d517d1f	0.051144715
14	0x3d8c543d	0.06852005
15	0x3d039c67	0.03213158
16	0x3d60091b	0.054696184
17	0xbcf67f80	-0.030090094
18	0xbdf02aae	-0.117268905
19	0x3d0377bb	0.032096606
20	0xbcabe76e	-0.020984378
21	0xbddf5bda	-0.10906191
22	0xbcf49295	-0.029855052
23	0xbdd84dc1	-0.105617054
24	0xbd791a7f	-0.060816284
25	0xbd1c1b27	-0.038111832
26	0x3dce254a	0.10065706
27	0xbdb425f0	-0.087962985
28	0x3dba2428	0.090889275
29	0xbdfa37ad	-0.122176506
30	0xbd3055a9	-0.043050442
31	0x3da38bff	0.079856865
32	0x3db85138	0.08999866
33	0xbdaebc54	-0.085320145
34	0xbb36aae4	-0.0027872855
35	0xbd5af130	-0.05345267
36	0x3cb72edf	0.022361217
37	0x3de027cd	0.109450914
38	0x3dcac59c	0.09900972
39	0x3d6d06ae	0.0578677
40	0xbc674b79	-0.014117115
41	0x3daf2c65	0.085533895
42	0x3daaddee	0.08343111
43	0xbd28677a	-0.041114308
44	0x3d88535a	0.06656523
45	0xbe018128	-0.12646925
46	0x3df5f593	0.1200973
47	0x3d10eb89	0.035380874
48	0x3ab17af0	0.0013540667
49	0x3dda7f3a	0.10668798
50	0xbd4a5a12	-0.049402304
51	0xbdafbe49	-0.08581216
52	0xbde0ab93	-0.10970225
53	0x3cf0b08b	0.029381057
54	0x3ccd0fa8	0.02503188
55	0x3cada054	0.021194614
56	0x3cb74a58	0.022374317
57	0xbde16991	-0.11006463
58	0x3dae84ce	0.08521424
59	0xbd9768c0	-0.07393026
60	0xbde44e62	-0.11147763
61	0xbdae3961	-0.08507038
62	0x3d834f75	0.064116396
63	0x3da221d4	0.079166085
64	0x3d2f8c59	0.042858455
65	0x3c83ab30	0.01607284
66	0xbdc9361e	-0.09824775
67	0x3de6dafa	0.11272235
68	0x3cda5ab3	0.026654577
69	0xbd97d920	-0.0741446
70	0xbc8cf5b5	-0.017207006
71	0x3dcc8d83	0.09987929
72	0x3dca3d32	0.09874953
73	0xbc243379	-0.010022038
74	0x3dc48490	0.09595597
75	0x3a3dc600	0.0007239282
76	0x3db1f07e	0.08688448
77	0xbdaf7d09	-0.085687704
78	0x3c3d75dc	0.011563744
79	0xbd0e0bad	-0.034679104
80	0xbdbe0c08	-0.092796385
81	0xbda1b487	-0.07895761
82	0x3dd90647	0.105969004
83	0x3cccebcc	0.02501478
84	0xbdc908c9	-0.09816129
85	0xbc000379	-0.007813328
86	0x3dcf75a9	0.10129864
87	0x3d65ff45	0.056151647
88	0x3dd79b92	0.105277196
89	0xbcbb7fdc	-0.022888117
90	0xbdd1b07b	-0.10238739
91	0xbe090cd1	-0.13383795
92	0x3dec8963	0.11549642
93	0xbd92495c	-0.071428984
94	0x3de2c873	0.11073389
95	0x3dbae95e	0.091265425
96	0x3dc299fe	0.09502028
97	0xbcebd3c4	-0.028787501
98	0x3ccab5e8	0.024744943
99	0x3d86c671	0.065808184
100	0xbd55f433	-0.05223484
101	0x3de50b2c	0.111837715
102	0x3dc0eaeb	0.09419807
103	0x3ca437fc	0.020046227
104	0xbdd5936a	-0.104285076
105	0xbda8a70d	-0.082349874
106	0x3c3a3e0b	0.011367331
107	0x3c8b6efc	0.017020695
108	0xbc3c743c	-0.011502322
109	0x3d23e6c6	0.040015005
110	0x3d1642f3	0.03668494
111	0x3d857891	0.06517137
112	0x3d9587fe	0.07301329
113	0xbd4f7d49	-0.05065659
114	0xbd844882	-0.06459142
115	0x3daa928d	0.083287336
116	0x3da65cd0	0.08123171
117	0x3cb033e5	0.02150912
118	0xbdcfbe02	-0.10143663
119	0x3dee1c5b	0.11626502
120	0xbd896dff	-0.06710433
121	0xbd2d9081	-0.042374138
122	0x3de2683d	0.11055038
123	0x3dc9191e	0.09819244
124	0xbce5da64	-0.028058238
125	0xbc7d3a5e	-0.01545581
126	0xbca8834c	-0.02057042
127	0x3d8f9716	0.07011239
128	0x3cf98b89	0.030462043
129	0xbd7d4114	-0.06182964
130	0xbc0acee7	-0.008472181
131	0xbda4e03e	-0.08050583
132	0xbd8b6cd3	-0.06807866
133	0xbd8ebd8a	-0.069697455
134	0xbdaa205e	-0.08306955
135	0xbdaac70c	-0.083387464
136	0x3d8edfd0	0.069762826
137	0xbdcc968c	-0.09989652
138	0x3e07c131	0.1325729
139	0x3da16a58	0.078816116
140	0xbdccd823	-0.10002162
141	0x3dd639ef	0.10460269
142	0x3df0a800	0.117507935
143	0xbd57cca8	-0.05268541
144	0xbd8ee1b6	-0.06976645
145	0xbd852c0c	-0.06502542
146	0xbd872e02	-0.06600572
147	0x3d60a82e	0.05484789
148	0xbd4ed58c	-0.050496623
149	0x3bf96f2e	0.0076121306
150	0xbd9dee02	-0.07711412
151	0xbd920d9e	-0.071315035
152	0xbddbfc72	-0.107415095
153	0xbd82956b	-0.063761555
154	0xbd5e2dc5	-0.054242868
155	0xbd418582	-0.047246464
156	0xbc0c8a95	-0.008577962
157	0x3d48b2c5	0.048998613
158	0x3d8db5a2	0.06919409
159	0x3d8d4f5f	0.068999045
160	0xbde7a562	-0.11310841
161	0x3ddbd19a	0.10733338
162	0xbdb51e76	-0.088437006
163	0x3df5d0d6	0.12002723
164	0xbd2a5ed0	-0.041594326
165	0xbd79f07a	-0.061020352
166	0x3ca50578	0.02014421
167	0xbcae84a6	-0.021303486
168	0x3de251b7	0.11050742
169	0xbd9298a6	-0.07158022
170	0xbdb1bb8b	-0.08678349
171	0xbd05b090	-0.032639086
172	0xbd4291ac	-0.047502205
173	0x3dbb812d	0.09155498
174	0x3dde430d	0.10852633
175	0xbd7e698a	-0.06211237
176	0xbdc03f69	-0.093870945
177	0x3db02dc8	0.08602482
178	0x3ca85eb4	0.02055297
179	0xbde06044	-0.10955861
180	0x3c087b67	0.008330203
181	0xbd8e1f38	-0.06939548
182	0x3d54cfd5	0.051956017
183	0xbd9b1203	-0.07571795
184	0x3d0f871c	0.03504096
185	0xbc653a5e	-0.013990967
186	0x3b486ec8	0.003058361
187	0xbde2d52e	-0.11075817
188	0xbcbfd05e	-0.023414787
189	0xbdcc736e	-0.09982954
190	0x3df22756	0.11823909
191	0xbdccb42e	-0.09995304
192	0x3de20a10	0.110370755
193	0xbe061e6b	-0.13097541
194	0x3ddfc26a	0.109257534
195	0xbd1121c6	-0.0354326
196	0x3d66875b	0.05628143
197	0x3ccd1ab6	0.02503715
198	0xbcdb5d74	-0.02677796
199	0xbceb9bf6	-0.028760891
200	0x3dd1f8dc	0.10252544
201	0xbd932378	-0.071844995
202	0x3c2748f6	0.010210266
203	0xbba4993c	-0.00502315
204	0xbcfe61f6	-0.03105257
205	0xbd5c8eb5	-0.053847034
206	0xbd038f2f	-0.032118972
207	0xbd937ce9	-0.07201559
208	0x3dd0912c	0.10183939
209	0x3d903102	0.070405975
210	0xbcf28068	-0.029602244
211	0x3d57a1af	0.052644428
212	0xbde9748e	-0.11399184
213	0x3dab1249	0.08353097
214	0xbd6ac0b0	-0.057312667
215	0x3de4e855	0.11177126
216	0xbde2e8c7	-0.11079555
217	0xbde91d84	-0.11382583
218	0x3d7bb3b3	0.06145067
219	0x3e05d4ad	0.1306941
220	0xbd8fad9b	-0.070155345
221	0xbdcad461	-0.09903789
222	0xbe0301ae	-0.1279361
223	0xbdc2be6c	-0.09508976
224	0x3dc2a2c8	0.09503704
225	0x3dbf15f8	0.09330362
226	0xbd87168f	-0.065960996
227	0x3dfed840	0.1244359
228	0x3ddefc47	0.10887962
229	0x3c8d67de	0.017261442
230	0x3d942fed	0.072357036
231	0x3da2b113	0.079439305
232	0x3dbb4488	0.09143931
233	0xbb0001bc	-0.0019532284
234	0x3db9d52f	0.09073865
235	0xbdcd1bf8	-0.100151
236	0xbe04b903	-0.12961201
237	0x3ddbc80d	0.10731516
238	0xbdf18b34	-0.11794129
239	0x3dea5bfd	0.114433266
240	0x3d8b580d	0.06803904
241	0x3de96697	0.113965206
242	0xbd875aea	-0.06609137
243	0xbd7dd726	-0.06197276
244	0xbbcb7360	-0.006208822
245	0xbe00c80d	-0.12576313
246	0xbd6a355a	-0.057179786
247	0x3dbab048	0.09115654
248	0x3d8f0def	0.069850795
249	0x3de8b93f	0.11363458
250	0x3d741a32	0.059595294
251	0xbc810b76	-0.015752535
252	0xbe041aaa	-0.12900797
253	0x3ccf7e31	0.025328727
254	0x3dc20f2a	0.094755486
255	0xbcfe3e45	-0.031035552

sensor_data_network.rnn.weight_hh_l0 f4 [64, 64]
0	0x3dccf133	0.100069426
1	0xbca9dc5a	-0.020734955
2	0xbde8c602	-0.11365892
3	0xbcb785a4	-0.022402592
4	0x3b58259c	0.0032981401
5	0xbdb8cfa1	-0.09023977
6	0x3d99e42c	0.075142235
7	0xbd80f827	-0.06297331
8	0x3d88809c	0.06665155
9	0xbd941364	-0.07230261
10	0xbcc4c954	-0.024021782
11	0x3d308a69	0.04310075
12	0x3d4d2892	0.05008752
13	0xbcaba1f4	-0.020951249
14	0xbdb3ac49	-0.08773095
15	0x3d29bb25	0.04143824
16	0x3cba894b	0.022770545
17	0xbc0d2dae	-0.008616848
18	0xbdb5a2f7	-0.08868974
19	0x3dc7f930	0.097643256
20	0xbd9884b0	-0.07447183
21	0x3da7b6a4	0.08189133
22	0x3d7fa47f	0.062412735
23	0xbce7e35c	-0.028306656
24	0xbd620587	-0.055181053
25	0xbaaae338	-0.0013037687
26	0xbca8dcea	-0.020613153
27	0x3d630ae0	0.055430293
28	0xbdc9cebd	-0.09853885
29	0xbdd4d93e	-0.10392998
30	0x3d8b3c49	0.06798608
31	0x3c3abd0c	0.011397611
32	0xbdde4688	-0.108532965
33	0x3deed6ec	0.11662087
34	0xbdced337	-0.1009888
35	0x3dde3fa5	0.10851983
36	0x3c9b84ac	0.018984161
37	0x3c6308c7	0.013857073
38	0x3c82a824	0.015949316
39	0x3d9b8711	0.07594121
40	0x3dc8e9db	0.098102294
41	0x3c81d64a	0.015849251
42	0xbc671a81	-0.01410544
43	0x3de937d3	0.11387601
44	0xbc555c20	-0.013022453
45	0x3d5cbe37	0.05389234
46	0xbc8147fc	-0.015781395
47	0x3dc7137b	0.097205125
48	0xbda0b105	-0.07846264
49	0xbd42ed97	-0.047589865
50	0x3dd05028	0.101715386
51	0x3da470bb	0.08029314
52	0xbdf67f08	-0.12035948
53	0xbd8acd80	-0.06777477
54	0x3df02dfa	0.11727519
55	0x3df365a2	0.11884619
56	0xbd67d4b7	-0.056599345
57	0xbd35da23	-0.044397485
58	0x3cb243a0	0.021760762
59	0xba10bca0	-0.00055212714
60	0xbd364148	-0.04449585
61	0xbb128b94	-0.0022361027
62	0xbd836add	-0.06416867
63	0x3d079cb2	0.03310842
64	0x3d8b8bea	0.06813796
65	0xbd915d4d	-0.07097874
66	0xbd4b7970	-0.04967636
67	0xbc847b1c	-0.016171984
68	0xbdc1e0d9	-0.094667144
69	0xbd5ac7b4	-0.053413108
70	0x3dd96916	0.10615747
71	0x3d22b2ac	0.039721176
72	0xbddf746f	-0.1091088
73	0x3dafa2bc	0.08575961
74	0x3def7104	0.11691478
75	0x3d0b3e85	0.03399517
76	0x3c8019fa	0.015637387
77	0xbc0e62b0	-0.008690521
78	0xbde53e99	-0.1119358
79	0x3da67cb0	0.08129251
80	0x3d88dee7	0.0668314
81	0xbdb1143e	-0.08646439
82	0xbd82f185	-0.063937224
83	0x3de5dd6d	0.11223874
84	0x3dace00f	0.08441173
85	0x3db4d31a	0.08829327
86	0xbd8a95b6	-0.06766836
87	0xbd84163b	-0.064495526
88	0x3d793fd7	0.060851898
89	0xbd86812a	-0.06567605
90	0x3dc87456	0.09787814
91	0xbdaf083d	-0.08546493
92	0x3c241c29	0.0100164795
93	0xbb996ac4	-0.004681917
94	0xbd89fc45	-0.0673757
95	0xbdca52a2	-0.09879042
96	0x3d839b4c	0.06426105
97	0xbda1385c	-0.07872078
98	0x3d79c6cd	0.060980607
99	0x3a08f930	0.000522512
100	0xbb0c4564	-0.0021403665
101	0x3e07c8e4	0.13260227
102	0xbd5f000c	-0.054443404
103	0x3d6d0a2c	0.05787103
104	0x3dc1845a	0.09449072
105	0x3d08886e	0.033333234
106	0x3dcc36e1	0.09971405
107	0xbac258d8	-0.0014827503
108	0xbd8059d3	-0.062671326
109	0x3d8d8985	0.069109954
110	0xbddcb479	-0.1077661
111	0xbd6665a4	-0.056249276
112	0x3cfe4389	0.031038063
113	0xbccccabe	-0.024999019
114	0xbd07855e	-0.033086173
115	0x3e06af5a	0.13152829
116	0x3d2b47fa	0.04181669
117	0x3d3e977e	0.046531193
118	0xbae7afd0	-0.0017676298
119	0x3c388bed	0.01126383
120	0xbd91917f	-0.07107829
121	0xbd3f52ec	-0.04670994
122	0x3bbb48c6	0.0057154624
123	0x3de72621	0.112865694
124	0xbda6195c	-0.08110306
125	0xbd150557	-0.036382046
126	0x3d34b494	0.044117525
127	0xbdc05a9e	-0.09392284
128	0x3d55ca37	0.0521948
129	0xbdbc3273	-0.0918931
130	0xbd0900ad	-0.03344791
131	0xbbb6d826	-0.005579966
132	0x3d47403c	0.048645243
133	0x3dcf0904	0.101091415
134	0xbd8cbae5	-0.06871585
135	0x3dae0e9a	0.08498879
136	0xbd0ba088	-0.03408864
137	0x3bfccc60	0.007714793
138	0x3d69f9d5	0.057123024
139	0x3d02813e	0.031861536
140	0xbdf35cd8	-0.11882943
141	0x3da71b7e	0.081595406
142	0x3db59c83	0.08867743
143	0x3d873e2a	0.06603654
144	0xbb002c6c	-0.0019557728
145	0xbdc87bd8	-0.09789246
146	0x3d527fa0	0.051391244
147	0x3d42e190	0.047578394
148	0xbc69ade2	-0.014262648
149	0xbd346fb5	-0.044051845
150	0x3dca0574	0.09864321
151	0x3db392d4	0.087682396
152	0xbdddc84a	-0.10829218
153	0x3d31247e	0.043247692
154	0x3cf02f86	0.029319536
155	0xbade1330	-0.0016942974
156	0x3dc3c98c	0.095599264
157	0x3d93eb04	0.0722256
158	0xbde2fc13	-0.110832356
159	0xbde53b2b	-0.11192926
160	0xbd805c61	-0.0626762
161	0xbe07af16	-0.13250384
162	0xbb040794	-0.0020146118
163	0xbdd973da	-0.106178
164	0x3d8503c2	0.06494857
165	0x3d34d791	0.044150893
166	0x3dd34c96	0.10317342
167	0x3dd1d716	0.102461025
168	0xbd390a98	-0.04517612
169	0xbb360de8	-0.0027779285
170	0x3ce41198	0.02784042
171	0x3dd78852	0.10524048
172	0xbc2d6309	-0.010582694
173	0x3c8b29dc	0.016987734
174	0xbd46bfd2	-0.048522778
175	0xbd4f0193	-0.05053861
176	0xbd38d70e	-0.045126967
177	0x3cd059a6	0.025433373
178	0x3da76b54	0.08174768
179	0x3c4b521c	0.012409713
180	0xbcbec8fc	-0.023289196
181	0x3dcfc220	0.10144448
182	0xbdcf57ad	-0.10124145
183	0x3d8f5db2	0.07000293
184	0xbdfb5f47	-0.12274032
185	0xbd9fdaf7	-0.07805436
186	0x3d8ede46	0.06975989
187	0xbdd9cabf	-0.10634374
188	0xbd68a173	-0.056794595
189	0xbd44bfff	-0.048034664
190	0xbd9ffa98	-0.07811469
191	0xbc51f84e	-0.012815548
192	0xbd08a90a	-0.033364333
193	0x3dced9fa	0.101001695
194	0x3da78eaa	0.08181508
195	0x3dc0a8b4	0.094071776
196	0x3d859fa2	0.06524588
197	0xbb1e7bbc	-0.0024182638
198	0xbd3d72d9	-0.046252105
199	0xbc161be8	-0.009161927
200	0x3d6ecae6	0.058298968
201	0x3cefaa2d	0.02925595
202	0xbc911fd4	-0.017715372
203	0x3cd6d1fe	0.026223179
204	0x3df654ca	0.12027891
205	0x3d2e446e	0.04254573
206	0xbdb6844b	-0.08911952
207	0xbcfdc4c3	-0.030977612
208	0xbd600518	-0.054692358
209	0x3d860570	0.06544006
210	0xbde1575e	-0.11002992
211	0xbd8d603b	-0.0690312
212	0xbae579f8	-0.0017507663
213	0x3bd7157a	0.0065638395
214	0xb9ff85a0	-0.00048736949
215	0x3b8d5f38	0.0043143295
216	0xbd355d3a	-0.04427836
217	0xbd72048e	-0.059086375
218	0x3d3c3b74	0.045955136
219	0x3d86fcc2	0.065911785
220	0x3c410ce0	0.011782855
221	0xbdd62310	-0.104559064
222	0xbc6d2d9e	-0.014476208
223	0x3d934cb7	0.071923666
224	0x3d859c61	0.065239675
225	0xbd6051fd	-0.05476569
226	0xbe008edd	-0.12554498
227	0x3da6e745	0.0814958
228	0xbc9e85c3	-0.019350892
229	0x3d4ccff0	0.050002992
230	0x3ce2043c	0.02758991
231	0x3e048caf	0.12944292
232	0xbde7d7af	-0.11320435
233	0x3d8600d8	0.0654313
234	0x3d2e02de	0.042483203
235	0xbd64742e	-0.05577486
236	0x3da402a8	0.08008319
237	0xbe077e55	-0.13231786
238	0x3d669c47	0.05630138
239	0x3cf51e2e	0.029921617
240	0x3dd30f99	0.103057094
241	0x39694540	0.00022246409
242	0x3cc61a00	0.02418232
243	0x3da871b1	0.0822481
244	0xbd153e60	-0.03643644
245	0x3d39fd6c	0.045407698
246	0xbbfe173a	-0.0077542337
247	0x3dc54e34	0.09634057
248	0x3d435126	0.04768481
249	0xbdf7a7b0	-0.12092531
250	0x3d7e8ef2	0.062148042
251	0x3e063643	0.13106637
252	0xbba00538	-0.0048834346
253	0xbdf94415	-0.12171189
254	0xbc8bc46a	-0.017061431
255	0xbd13288e	-0.035927348

sensor_data_network.rnn.bias_ih_l0 f4 [64]
0	0x3d49fe9d	0.049315084
1	0x3dae3f33	0.08508148
2	0xbddaa092	-0.106751576
3	0x3d07bfd0	0.03314191
4	0x3c7656f1	0.015035377
5	0x3d80ef8f	0.06295692
6	0x3cbb25e2	0.022845212
7	0xbdd39124	-0.10330418
8	0x3d30caa8	0.043162018
9	0xbd42ffbc	-0.04760717
10	0xbdb20275	-0.08691875
11	0xbd70f1d7	-0.058824386
12	0x3d8191f0	0.063266635
13	0x3ce21dbb	0.027602067
14	0xbd639c08	-0.055568725
15	0xbd4e3915	-0.050347406
16	0xbd9d3fb0	-0.07678163
17	0xbdd49c64	-0.10381392
18	0xbd0f6fa3	-0.035018574
19	0xbcd2ab34	-0.025716402
20	0x3adbb2f8	0.0016761711
21	0xbdee044a	-0.11621912
22	0x3da5cfc4	0.08096269
23	0x3dd23434	0.10263863
24	0xbdd830aa	-0.10556157
25	0x3ddd6b03	0.108114265
26	0x3cb59eea	0.022170503
27	0xbd9f71a1	-0.07785345
28	0xbe0776cc	-0.13228911
29	0xbddb0d9a	-0.10695954
30	0x3dcbc992	0.09950556
31	0xbce30f39	-0.02771722
32	0x3daee4db	0.085397445
33	0x3db763a3	0.08954551
34	0xbc619283	-0.013767841
35	0x3e088a60	0.13334036
36	0xba855c30	-0.0010174569
37	0xbd13a0c7	-0.036042
38	0xbcc84cd0	-0.02445069
39	0xbd367e8f	-0.04455429
40	0x3c8ec149	0.01742615
41	0x3e094082	0.13403514
42	0xbd6ed86a	-0.058311857
43	0x3d522ec4	0.05131413
44	0xbdb8df59	-0.09026975
45	0xbdb8b8a8	-0.090195954
46	0xbccaf67c	-0.024775736
47	0x3d1fb21e	0.038988225
48	0xbd7fb3d4	-0.062427357
49	0xbda263af	-0.079291694
50	0xbd2f809e	-0.04284727
51	0x3cc28db0	0.023749202
52	0x3df8a4bc	0.121407956
53	0x3d27b707	0.040946033
54	0xbde20399	-0.110358424
55	0x3d135253	0.035967182
56	0xbd2baaae	-0.04191082
57	0xbe076058	-0.13220346
58	0xbdd3023f	-0.10303163
59	0x3da3fe57	0.08007496
60	0x3d2e52da	0.042559482
61	0x3dfd2a0c	0.123615354
62	0xbd67c838	-0.056587428
63	0xbd6a82ce	-0.05725365

sensor_data_network.rnn.bias_hh_l0 f4 [64]
0	0xbd125afd	-0.035731304
1	0xbd329ba2	-0.043605454
2	0xbddfdc79	-0.10930724
3	0x3df92954	0.12166086
4	0x3dae79c3	0.08519318
5	0xbde71095	-0.1128246
6	0xbe016322	-0.12635472
7	0x3da89176	0.082308695
8	0xbd1eb396	-0.038745485
9	0xba3815f0	-0.0007022312
10	0x3d9f5577	0.07779973
11	0x3dd12ed5	0.102140106
12	0x3dda4702	0.10658075
13	0xbe020add	-0.12699457
14	0x3db21b00	0.08696556
15	0x3dcc6806	0.099807784
16	0xbe07f388	-0.13276494
17	0x3de0ae94	0.10970798
18	0x3d2a640b	0.041599315
19	0x3da2b650	0.079449296
20	0xbbea520e	-0.007150895
21	0xbdd9ddbb	-0.10637995
22	0x3d87c96b	0.06630214
23	0xbd913528	-0.07090217
24	0x3b2c5eb0	0.0026301555
25	0xbcaf1e9c	-0.0213769
26	0x3dcfa4a0	0.101388216
27	0x3de870a4	0.113496095
28	0x3d211fe6	0.03933706
29	0x3d8d1727	0.068891816
30	0xbdcc1ca7	-0.099664025
31	0x3d3788ca	0.044808187
32	0x3ddffed1	0.10937274
33	0xbdc10620	-0.094249964
34	0x3ca66390	0.020311147
35	0xbd8bee99	-0.06832618
36	0x3de81276	0.11331646
37	0x3dc30120	0.09521699
38	0xbda41fc6	-0.08013873
39	0x3e042d6d	0.12907954
40	0x3d6188db	0.055062156
41	0xbd13b06a	-0.036056913
42	0xbd2e4292	-0.042543955
43	0x3ca2673c	0.019824617
44	0xb9abce20	-0.00032769237
45	0xbccbb89f	-0.024868308
46	0x3d84a56c	0.06476864
47	0x3d7ef4a6	0.062245034
48	0xbcd4e36c	-0.02598735
49	0xbc18002b	-0.009277384
50	0x3de8787e	0.11351107
51	0x3dd00828	0.10157806
52	0xbdb71227	-0.08939009
53	0x3e00d06e	0.1257951
54	0xbd06fd34	-0.032956317
55	0xbd85164a	-0.06498392
56	0xbde36903	-0.11104014
57	0x3d5cef9e	0.053939454
58	0x3d93b6a0	0.07212567
59	0x3d93bc2c	0.07213625
60	0x3d8b338f	0.067969434
61	0x3dad1ada	0.08452387
62	0xbd2ae858	-0.041725487
63	0xbc632bb4	-0.0138654

fc.weight f4 [16, 130]
0	0xbcd4791d	-0.025936658
1	0xbb46b6e8	-0.0030321423
2	0xbd911c41	-0.07085467
3	0x3d9fe4fc	0.07807347
4	0xbd134242	-0.03595186
5	0x3d8492cd	0.064733125
6	0x3d401697	0.046896543
7	0xbd5fa1c9	-0.05459765
8	0x3cbebead	0.02328428
9	0xbd3fb114	-0.046799734
10	0xbd01576f	-0.031577524
11	0x3d32f8b1	0.0436942
12	0x3d1bbaa4	0.03801979
13	0xbd1abe45	-0.03777911
14	0xbd9a17b3	-0.075240515
15	0xbd981e98	-0.0742771
16	0x3d2c6c82	0.04209567
17	0x3c55dced	0.013053161
18	0xbd9d730c	-0.07687959
19	0x3d9fcde4	0.078029424
20	0xbcd7069b	-0.026248267
21	0x3d8095a2	0.0627854
22	0x3c5dbe61	0.013534159
23	0xbd2bf320	-0.04197991
24	0x3bcf29a0	0.0063221008
25	0xbd9d035d	-0.07666657
26	0x3d802e54	0.062588364
27	0x3cb23579	0.021754013
28	0x3d809f18	0.06280345
29	0xbdad9817	-0.084762745
30	0xbcace862	-0.021106903
31	0x3d521ed0	0.051298916
32	0x3d0ca178	0.034333676
33	0xbd2ce7b0	-0.042213142
34	0x3c6c67f8	0.014429085
35	0x3cc94afc	0.024571888
36	0x3d9a50a2	0.07534911
37	0x3c2f3beb	0.010695438
38	0xbd8347e9	-0.064102
39	0x3d2721c8	0.0408037
40	0x3c7f2239	0.015572124
41	0x3d49ba8e	0.049250178
42	0x3cf636a2	0.030055348
43	0x3d90ccaa	0.070702866
44	0x3d0648c0	0.032784224
45	0xbd90a8fa	-0.0706348
46	0xbcf87264	-0.030327983
47	0xbbfc1712	-0.00769318
48	0x3dbc2b43	0.09187939
49	0x3cd54bba	0.026037086
50	0x3ca5a9b7	0.020222528
51	0xbda27256	-0.07931964
52	0x3d306934	0.04306908
53	0x3c93fb1c	0.018064074
54	0x3d96b329	0.07358391
55	0x3c847c60	0.016172588
56	0xb9673bc0	-0.00022052135
57	0xbc3946d6	-0.0113083925
58	0xbc8bf788	-0.017085806
59	0xbd16a429	-0.03677765
60	0xbd2a391e	-0.041558377
61	0x3d887987	0.066638045
62	0x3d70b3f4	0.058765367
63	0xbd932088	-0.07183939
64	0xbcc575c3	-0.024104005
65	0x3d9133e1	0.07089973
66	0x3c0bbafd	0.008528468
67	0x3d24d026	0.04023757
68	0x3d1041ad	0.035218883
69	0xbd97cb55	-0.074118294
70	0x3c2122b5	0.009834935
71	0xbd7762eb	-0.06039707
72	0xba037630	-0.0005014865
73	0xba6ffbd0	-0.00091546495
74	0xbd71067d	-0.05884408
75	0x3cbb53d2	0.022867117
76	0xbdc74569	-0.09730036
77	0x3ce88f1b	0.02838855
78	0xbcb8e1e2	-0.022568647
79	0xbd8a4640	-0.067516804
80	0x3cb3ef06	0.021964561
81	0x3d8271a9	0.06369335
82	0xbc962daa	-0.018332321
83	0x3dc76358	0.09735745
84	0xbd9222b0	-0.07135522
85	0xbd75d028	-0.060012966
86	0xbd5a7727	-0.05333629
87	0x3cd01bb0	0.025403827
88	0x3c3ee5c4	0.01165146
89	0x3d9b6131	0.07586897
90	0xbc91e5e8	-0.017809823
91	0xbd2b4265	-0.041811366
92	0xbd7b4a66	-0.06135025
93	0xbd184de6	-0.037183665
94	0xbd5f1725	-0.05446543
95	0xbc833b9c	-0.016019635
96	0x3c995858	0.018718883
97	0xbd50c0c2	-0.05096508
98	0xbd17fe16	-0.03710755
99	0xbd36f9f4	-0.044671968
100	0xbd64dbd7	-0.055873718
101	0x3d2fe700	0.04294491
102	0xbc4d1696	-0.012517592
103	0xbb42f9e2	-0.0029750993
104	0x3cc3affe	0.02388763
105	0x3c326952	0.010889368
106	0xbc0829ff	-0.008310794
107	0xbc2632c1	-0.010143937
108	0x3c31734a	0.01083071
109	0x3d886066	0.066590115
110	0x3d943682	0.07236959
111	0xbc97a536	-0.018511396
112	0xbd580466	-0.05273857
113	0xbdbbd216	-0.0917093
114	0x3cf2efe5	0.029655406
115	0x3db53ba9	0.0884927
116	0xbc3abccd	-0.011397553
117	0xbd3d988e	-0.046288066
118	0xbcdb7663	-0.02678985
119	0x3d843c3d	0.06456802
120	0x3d9927d2	0.07478298
121	0x3d7d034a	0.061770715
122	0xbd880578	-0.06641668
123	0xbd9a64af	-0.07538735
124	0xbce5c49e	-0.028047856
125	0xbd96a75e	-0.073561415
126	0xbd4e58e8	-0.050377756
127	0xbcc43fc9	-0.023956196
128	0xbd97cd05	-0.07412151
129	0x3b6a965a	0.0035795183
130	0x3cd713de	0.02625459
131	0x3b391ca0	0.0028245822
132	0x3ca0074c	0.01953473
133	0xbd4ea753	-0.05045254
134	0xbc5a2aad	-0.013315839
135	0xbc8365c2	-0.016039733
136	0x3d9c4670	0.076306224
137	0xbad61640	-0.0016333535
138	0xbcc90666	-0.024539184
139	0xbc86f4e6	-0.016474199
140	0x3d5210fc	0.05128573
141	0x3d555a73	0.052088212
142	0xbbd59af1	-0.0065187146
143	0x3cc1eee4	0.023673482
144	0x3d81c25e	0.06335901
145	0xbd46f280	-0.04857111
146	0xbced7fc9	-0.028991597
147	0x3d5e9c70	0.05434841
148	0xbd2526a3	-0.04032005
149	0x3c8e11f6	0.017342549
150	0xbd202303	-0.03909589
151	0x3d14ce12	0.036329336
152	0xbd689318	-0.056780905
153	0xbd51d644	-0.05122973
154	0xbd892401	-0.0669632
155	0xbd4f288f	-0.05057579
156	0x3d497ca5	0.049191136
157	0x3d5d534f	0.054034527
158	0x3d8c2a56	0.068440124
159	0xbcbd4d04	-0.023108013
160	0x3d0f9527	0.035054352
161	0x3d8ffca1	0.07030607
162	0xbcbe8421	-0.023256363
163	0x3d0a7ae5	0.033808608
164	0x3bd61581	0.006533325
165	0xbd39a4e8	-0.045323282
166	0xbcdf40c9	-0.027252572
167	0xbd2a0c19	-0.041515443
168	0x3c397823	0.011320147
169	0x3d7c42b3	0.061587047
170	0x3c6c8a2c	0.01443724
171	0xbd6c6e5e	-0.05772244
172	0x3dc3ed10	0.095667005
173	0xbdc7cc46	-0.09755759
174	0xbd404e8a	-0.0469499
175	0xbd8172aa	-0.063206986
176	0xbd68bff5	-0.05682369
177	0x3d2935f6	0.041311227
178	0xbc8813d6	-0.016611021
179	0x3c883753	0.016627943
180	0xbd44539a	-0.04793129
181	0xbd91c6a5	-0.071179666
182	0xbd20e32a	-0.03927914
183	0xbcc1439a	-0.023591805
184	0xbb3f9552	-0.002923329
185	0x3b7f3310	0.0038940348
186	0xbd2c8123	-0.042115342
187	0x3c1d2ec3	0.009593668
188	0x3d52aa0c	0.0514317
189	0xbd80b4f5	-0.06284515
190	0x3d3c1237	0.04591581
191	0xbbf423d0	-0.0074505582
192	0x3d03c8d6	0.032173954
193	0xbd41bf37	-0.047301497
194	0xbd220605	-0.039556522
195	0xbcf388c2	-0.029728297
196	0x3d79014f	0.060792264
197	0xbd5ae461	-0.053440455
198	0xbd105dad	-0.035245586
199	0x3cc6b6b2	0.024257038
200	0x3d9fee4d	0.07809124
201	0x3d37dafc	0.044886574
202	0x3cc2bc81	0.023771526
203	0xbd983c57	-0.07433384
204	0xbdbad2dc	-0.091222495
205	0xbd86ddc8	-0.0658527
206	0xbd20c610	-0.039251387
207	0xbd633ecb	-0.055479806
208	0xbc1dcdf7	-0.009631625
209	0x3d89c9ea	0.06727965
210	0x3d9db4f4	0.0770053
211	0x3d9601c6	0.07324557
212	0x3dc53016	0.09628312
213	0x3c838329	0.016053753
214	0xbdad178c	-0.08451757
215	0x3d4e9669	0.05043641
216	0xbcfee244	-0.031113751
217	0x3cd764fa	0.026293267
218	0xbda3a23b	-0.079899274
219	0xbbb356ec	-0.0054730084
220	0x3da1cb1c	0.07900068
221	0xbd8d2667	-0.0689209
222	0xbd6e8a20	-0.058237195
223	0xbd70026a	-0.058596052
224	0x3d708976	0.058724843
225	0xbd7d42de	-0.061831348
226	0xbd21c04c	-0.03949003
227	0xbd72f144	-0.05931212
228	0xbd547430	-0.051868618
229	0x3d7c71a7	0.061631825
230	0xbaeddaa8	-0.001814683
231	0xbc4fedec	-0.012691002
232	0x388b9480	6.655697e-05
233	0x3d2b3c46	0.041805528
234	0x3d9ebc40	0.077507496
235	0x3d7959d7	0.060876694
236	0x3ccc6ce5	0.024954269
237	0xbd76e82b	-0.060280006
238	0xbc8ab172	-0.016930316
239	0x3d8eeb0a	0.06978424
240	0x3d2e4cac	0.04255359
241	0x3cb4c29a	0.02206545
242	0xbd5a78de	-0.053337924
243	0xbc5b1d34	-0.013373662
244	0xbc40e49a	-0.011773253
245	0x3caaa8fc	0.020832531
246	0xbd94b4b3	-0.07261028
247	0x3d8fb9b5	0.07017843
248	0x3d0bdfd6	0.034149013
249	0x3d5a701f	0.053329583
250	0xbd99860c	-0.074962705
251	0x3d1e0bf4	0.03858562
252	0xbd07bbfc	-0.03313826
253	0x3c505376	0.012715211
254	0xbd53779a	-0.051627733
255	0x3d2ec58e	0.04266887

fc.bias f4 [16]
0	0x3d1207e2	0.03565205
1	0xbd88972c	-0.06669459
2	0xbd0f9048	-0.035049707
3	0xbd825601	-0.0636406
4	0xbc51311a	-0.012768054
5	0xbb3aafb4	-0.0028486075
6	0x3b70d7f2	0.0036749807
7	0xbd1a902f	-0.03773516
8	0x3d8fc10c	0.07019243
9	0xbb948141	-0.00453201
10	0x3d48bb0a	0.0490065
11	0xbbe72e2e	-0.0070550656
12	0xbc2009fa	-0.009768004
13	0x3af33028	0.001855378
14	0xbbd6bc66	-0.0065532206
15	0xbd549413	-0.051899027
