checkpoints/NoGestureNetwork_RNN_RNN_2023-08-11_12-25-25.pth (torch, 48771 bytes, 10 tensors)

touchscreen_data_network.rnn.weight_ih_l0 f4 [64, 4]
-0.09354983 -0.094677955 -0.013973993 0.005568697 -0.033798207 0.09534261 0.03614216 0.021042254
0.111666694 -0.057388414 -0.09266801 -0.03321842 0.105225675 0.09248679 -0.083953686 -0.05092701
-0.007817022 0.057834096 -0.097475134 -0.034778476 0.10231801 -0.07850384 0.019998603 -0.0035088565
0.07248319 0.090309046 -0.055163823 -0.09708857 0.013339838 -0.109608464 0.10712566 0.07109899
0.13061123 0.04617188 -0.09013774 0.009089641 -0.04129388 0.111149564 0.10943872 -0.06078111
0.06628485 0.101951756 0.07326814 0.022213046 -0.032066517 -0.0043882215 0.0015070802 0.083903834
-0.03845653 0.057047993 0.11121349 -0.0065164417 -0.11075098 0.049529742 -0.009139619 0.024412576
-0.05489807 -0.03863147 -0.06963739 0.0049796756 -0.08077444 -0.11272019 -0.018393094 -0.0007325411
0.03508654 -0.05923649 -0.029295541 -0.12958992 -0.056734007 -0.04005012 -0.09216558 0.081644684
0.052590232 -0.01601755 0.007937571 -0.10789591 -0.102355786 -0.09337295 0.03640636 0.05771726
-0.0706776 -0.054607622 0.0030689435 -0.0275625 -0.037038986 0.018066965 -0.070316724 -0.043346275
0.056613855 0.07502384 -0.075932465 0.008312011 0.1100123 -0.08590203 0.093265094 0.09608929
-0.08229393 -0.058777347 -0.09886115 -0.058976755 0.03808039 0.006409499 -0.0022880808 -0.059080496
0.019477649 0.07402626 0.096633285 -0.0015816204 -0.13417228 0.012895101 0.00967995 -0.043313332
0.067475304 0.092418045 -0.07246325 -0.025136173 -0.052021284 0.08735079 0.01198853 -0.06292979
-0.029918943 0.09726962 0.10394041 -0.07177588 0.056874625 0.020861404 0.06051223 -0.0015463345
0.014211021 0.035150815 0.06382055 -0.10121814 0.07028056 0.015378379 -0.00090882834 0.08029669
0.07844382 0.021946754 0.03229461 0.019621193 -0.06482356 0.04746116 -0.058573432 0.009756406
-0.061939675 -0.034846045 -0.008064931 0.07498433 0.110843346 0.05276996 -0.04490496 0.102671325
-0.016374622 0.09884827 0.035704434 -0.11413529 0.014710969 0.11292564 -0.04510718 0.039325755
-0.07273003 -0.10848596 0.05907861 -0.08936427 -0.066355065 -0.0493454 -0.0078171985 -0.058733635
0.124233045 -0.0066977795 0.075529195 0.109095395 -0.074144155 -0.069745034 -0.053557094 -0.0794162
-0.09866322 0.038493313 -0.08327735 -0.07312978 0.058016714 0.10659478 0.10514857 -0.0017230324
-0.10879134 -0.04517997 -0.020564158 0.021616317 -0.07388575 -0.054872565 0.04125796 0.114575624
0.056759465 0.048130516 0.04487004 0.036543902 0.032408193 0.0986051 0.08206064 -0.108426176
0.09147717 -0.013735041 -0.1025056 0.092810534 -0.121299274 -0.11742264 -0.002051901 -0.06778461
-0.10516931 -0.0874942 -0.019669872 0.005188682 -0.04032248 -0.0055972496 -0.084105656 0.02150629
0.11444282 -0.10526728 0.12140744 0.1080284 -0.111739665 0.031194204 0.12483905 -0.08892132
0.017509999 0.030538317 0.09713529 -0.0020642886 0.003083717 -0.05337964 0.018010909 -0.11919231
0.031885877 0.021381276 0.01572778 0.12462218 0.041861422 -0.0942815 -0.083011255 -0.0695081
0.09744952 -0.014792301 0.011345242 0.02778951 -0.110658094 0.056117952 -0.030218858 0.10715983
0.09628024 0.05811117 -0.037987553 0.06403246 0.00055009965 -0.037859015 0.121132426 -0.040941954
00000000: 0e97 bfbd 84e6 c1bd 2df3 64bc 9e79 b63b
00000010: fd6f 0abd fc42 c33d cd09 143d ce60 ac3c
00000020: 82b1 e43d 1d10 6bbd bac8 bdbd 0a10 08bd
00000030: 8f80 d73d b769 bd3d e9ef abbd d798 50bd
00000040: f712 00bc 72e3 6c3d 0ba1 c7bd e073 0ebd
00000050: 1b8c d13d 9fc6 a0bd 1cd4 a33c d8f4 65bb
00000060: 1172 943d f3f3 b83d 76f3 61bd 5fd6 c6bd
00000070: 568f 5a3c 677a e0bd b364 db3d 599c 913d
00000080: f3be 053e ba1e 3d3d 239a b8bd b8ec 143c
00000090: c623 29bd 62a2 e33d 6821 e03d 9df5 78bd
000000a0: 5ac0 873d 15cc d03d 9b0d 963d 22f8 b53c
000000b0: 2e58 03bd 12cb 8fbb 3889 c53a c6d5 ab3d
000000c0: 9884 1dbd 28ab 693d e6c3 e33d e087 d5bb
000000d0: 69d1 e2bd b3df 4a3d 57be 15bc e2fc c73c
000000e0: ccdc 60bd 083c 1ebd 0c9e 8ebd 8c2c a33b
000000f0: 126d a5bd d8d9 e6bd 1dad 96bc 0008 40ba
00000100: e7b6 0f3d f6a1 72bd 34fd efbc 38b3 04be
00000110: eb61 68bd 980b 24bd 4fc1 bcbd 5435 a73d
00000120: db68 573d 3d37 83bc 960c 023c 88f8 dcbd
00000130: e99f d1bd 513a bfbd d61e 153d ef68 6c3d
00000140: 6bbf 90bd 3eac 5fbd 5420 493b c1ca e1bc
00000150: 31b6 17bd 2c01 943c 3702 90bd dd8b 31bd
00000160: eee3 673d 19a6 993d 7b82 9bbd 1a2f 083c
00000170: 214e e13d 67ed afbd c501 bf3d 76ca c43d
00000180: b889 a8bd 84c0 70bd b777 cabd 9c91 71bd
00000190: 2ffa 1b3d c606 d23b a0f3 15bb 64fe 71bd
000001a0: 978f 9f3c 149b 973d ace7 c53d 604e cfba
000001b0: 7564 09be f945 533c a798 1e3c 5269 31bd
000001c0: 7e30 8a3d ac45 bd3d 9d67 94bd 60ea cdbc
000001d0: 4514 55bd f9e4 b23d 8a6b 443c 55e1 80bd
000001e0: 9218 f5bc 4b35 c73d b6de d43d 3cff 92bd
000001f0: 5ef5 683d 89e5 aa3c acdb 773d 60ae caba
00000200: 58d5 683c 4dfa 0f3d 59b4 823d 754b cfbd
00000210: 41ef 8f3d 99f5 7b3c 703e 6eba 9772 a43d
00000220: 27a7 a03d aec9 b33c 5a47 043d a0bc a03c
00000230: 37c2 84bd a266 423d b2ea 6fbd 55d9 1f3c
00000240: 75b4 7dbd baba 0ebd c622 04bc 6291 993d
00000250: d601 e33d 5025 583d 43ee 37bd 5845 d23d
00000260: 1224 86bc f670 ca3d d03e 123d c3bf e9bd
00000270: 4706 713c 8f45 e73d 4ec2 38bd 0b14 213d
00000280: 7bf3 94bd e32d debd 6afc 713d 9d04 b7bd
00000290: 2ae5 87bd 671e 4abd b513 00bc ae92 70bd
000002a0: e56d fe3d 0c79 dbbb 0daf 9a3d 686d df3d
000002b0: e4d8 97bd 7cd6 8ebd af5e 5bbd f6a4 a2bd
000002c0: f10f cabd 2aab 1d3d 518d aabd 11c5 95bd
000002d0: efa2 6d3d 5d4e da3d 2258 d73d 60d7 e1ba
000002e0: fecd debd a20e 39bd 2a76 a8bc b414 b13c
000002f0: 6951 97bd 0ec2 60bd 1bfe 283d a0a6 ea3d
00000300: 9d7c 683d 8124 453d a6c9 373d 0faf 153d
00000310: 74be 043d 78f1 c93d 690f a83d 8b0e debd
00000320: 6258 bb3d f008 61bc 75ee d1bd 7313 be3d
00000330: c16b f8bd 487b f0bd 3079 06bb a8d2 8abd
00000340: 0263 d7bd 2930 b3bd b622 a1bc d205 aa3b
00000350: 2f29 25bd 2269 b7bb 963f acbd f62d b03c
00000360: ff60 ea3d 5f96 d7bd 77a4 f83d fe3d dd3d
00000370: c4d7 e4bd fd8a ff3c 9eab ff3d 621c b6bd
00000380: 2171 8f3c 7e2b fa3c deee c63d 0449 07bb
00000390: 3018 4a3b 9ca4 5abd 9d8b 933c 191b f4bd
000003a0: c49a 023d c927 af3c 8cd7 803c ea39 ff3d
000003b0: e276 2b3d a916 c1bd ce01 aabd 435a 8ebd
000003c0: 9d93 c73d 685b 72bc 65e1 393c d4a6 e33c
000003d0: b6a0 e2bd f0db 653d 8a8d f7bc 9d76 db3d
000003e0: 932e c53d fa05 6e3d d698 1bbd 7323 833d
000003f0: 9034 103a 0e12 1bbd 4714 f83d c0b2 27bd

touchscreen_data_network.rnn.weight_hh_l0 f4 [64, 64]
0.062621236 0.08663479 0.07069946 -0.03750069 -0.071254015 -0.11359373 -0.013108052 0.009725139
0.010750267 -0.07054571 0.050422944 0.10365917 0.10905088 0.052881848 0.025405802 0.03493035
-0.03487029 -0.088665485 -0.041480787 -0.10873355 0.09907291 0.07587819 0.07837558 -0.10748025
0.0040768543 0.0289615 0.043727297 -0.03764557 -0.06889573 -0.01847684 -0.017143544 0.08111127
0.03433415 0.0011711642 0.066861965 -0.08484066 0.09728506 0.0632461 0.04383163 0.06620082
-0.003768159 0.023305062 -0.012135191 0.08385779 -0.07509959 -0.05451668 -0.002158639 0.113217786
-0.017603656 0.041016545 0.017373066 -0.032310273 -0.0055166595 -0.06801893 0.049124908 0.0977854
0.09348309 -0.04910004 0.070593655 0.0011743689 -0.0835347 -0.054827727 -0.08574915 0.042533107
-0.02857254 -0.018115075 0.044844758 -0.070761845 0.06382682 -0.042097427 -0.0050882185 0.058178335
-0.0039209565 0.023491615 0.008540811 -0.05259279 -0.014866808 -0.061739802 0.03257446 -0.009681747
0.009647949 0.016236028 -0.0156047875 -0.10083513 -0.066092305 0.008082667 -0.08607044 -0.086303905
-0.039042376 -0.022416428 0.013006935 0.09541826 0.11199058 0.021429442 -0.05136602 0.10031853
-0.01765195 -0.030473914 0.038217403 -0.026221748 0.022268225 0.10047592 -0.01609644 -0.025217753
0.10512978 -0.05858501 -0.033366516 -0.09194063 -0.06250656 -0.07733919 0.03147375 -0.002095893
0.00024773087 0.018184721 -0.065653674 -0.064169884 -0.08705468 0.020364631 -0.002964585 -0.051584158
0.11197265 0.05855919 0.06283835 0.09978953 -0.044874065 -0.09671048 0.013286637 -0.058807082
-0.011162811 -0.04708828 0.08487217 0.114731684 0.012987775 -0.057711385 -0.0030730227 0.018014356
0.08363691 -0.051532265 -0.03688939 -0.100373566 0.052534025 -0.10980652 0.13250902 0.06412827
-0.07459822 0.00628753 0.085658625 0.026014112 0.060293727 -0.035787955 -0.010836417 -0.09251959
0.09857606 -0.008979035 -0.012646329 0.050327566 0.07040696 0.03661473 -0.10244493 0.10531854
0.05462224 -0.07505143 -0.07558012 -0.053335536 0.01547904 0.07833919 0.046258654 -0.078650564
0.03522377 0.120388046 0.017391227 -0.07973863 0.08215317 0.041748136 -0.023575356 0.06299382
0.054495774 0.030883033 -0.08142088 0.10153214 0.111364126 -0.068013325 -0.08191152 0.07025562
0.080215245 0.0031881481 0.004922387 -0.060101874 -0.04174106 -0.08396505 0.049997397 0.07988635
0.09260368 0.05703175 0.13218941 0.10671838 0.10355665 0.015034095 -0.082624614 -0.08985695
0.089163095 -0.09681821 -0.05528791 0.0005826494 -0.112071216 0.13121432 0.06734876 0.011991185
0.095347166 0.08732122 0.029922765 0.06358394 -0.030967297 -0.054816917 0.06995749 0.054925755
0.04011969 -0.12997179 0.08998905 0.10974563 0.034236163 0.06115167 0.097931474 0.041085854
-0.02942301 0.09972945 -0.042927977 0.06825365 -0.11151901 -0.10121635 0.01748632 0.09506178
-0.023678213 -0.006919669 0.020826463 -0.07503091 0.0062052263 -0.055884104 0.06995742 0.11639656
-0.12891734 0.013608086 -0.019579474 0.09100938 0.07665597 -0.09729755 -0.03836532 -0.13249795
0.10662736 0.10972183 0.047125686 0.016470175 0.026124004 0.0003842404 0.0063789664 -0.013203501
00000000: 903f 803d 956d b13d e1ca 903d 539a 19bd
00000010: a0ed 91bd d4a3 e8bd 28c3 56bc 3056 1f3c
00000020: e321 303c 457a 90bd 4a88 4e3d 424b d43d
00000030: 1156 df3d a39a 583d d41f d03c 2013 0f3d
00000040: 26d4 0ebd 4096 b5bd c2e7 29bd b2af debd
00000050: bde6 ca3d 0666 9b3d 6083 a03d 9b1e dcbd
00000060: 2297 853b ab40 ed3c 651b 333d 3e32 1abd
00000070: 3419 8dbd be5c 97bc 9e70 8cbc aa1d a63d
00000080: f7a1 0c3d c081 993a edee 883d f1c0 adbd
00000090: 643d c73d 2c87 813d cc88 333d 4c94 873d
000000a0: 38f3 76bb 42ea be3c aed2 46bc a2bd ab3d
000000b0: d0cd 99bd e24c 5fbd f477 0dbb bade e73d
000000c0: 8b35 90bc f700 283d f651 8e3c c757 04bd
000000d0: 18c5 b4bb 824d 8bbd 3337 493d b643 c83d
000000e0: 1074 bf3d 201d 49bd 6893 903d 48ed 993a
000000f0: 3e14 abbd 0a93 60bd 409d afbd 3237 2e3d
00000100: f610 eabc 1166 94bc 23af 373d 96eb 90bd
00000110: a3b7 823d 5a6e 2cbd 12bb a6bb 684c 6e3d
00000120: 5e7b 80bb 7d71 c03c c2ee 0b3c 8a6b 57bd
00000130: ea93 73bc e0e2 7cbd cc6c 053d 31a0 1ebc
00000140: 6e12 1e3c 6b01 853c 39ab 7fbc a682 cebd
00000150: 675b 87bd 2a6d 043c b345 b0bd 1ac0 b0bd
00000160: e6ea 1fbd a8a2 b7bc 0a1b 553c a66a c33d
00000170: 515b e53d cc8c af3c 2d65 52bd cd73 cd3d
00000180: d29a 90bc 6ea4 f9bc da89 1c3d fece d6bc
00000190: da6b b63c 52c6 cd3d aedc 83bc 7695 cebc
000001a0: 484e d73d d6f6 6fbd 54ab 08bd 5e4b bcbd
000001b0: 7003 80bd 0264 9ebd 9eea 003d 405b 09bb
000001c0: e0e1 8139 20f8 943c 6f75 86bd 806b 83bd
000001d0: b949 b2bd bad3 a63c 7c49 42bb e949 53bd
000001e0: eb51 e53d c3db 6f3d 65b1 803d 745e cc3d
000001f0: decd 37bd 2510 c6bd 32b0 593c b2df 70bd
00000200: 39e4 36bc a4df 40bd 76d1 ad3d 72f8 ea3d
00000210: adca 543c c662 6cbd c464 49bb d892 933c
00000220: d449 ab3d 7f13 53bd 5419 17bd a890 cdbd
00000230: eb2d 573d 3ee2 e0bd 72b0 073e af55 833d
00000240: f4c6 98bd a007 ce3b ca6d af3d 8c1b d53c
00000250: 8ef6 763d 6496 12bd 3a8b 31bc e97a bdbd
00000260: 3fe2 c93d cd1c 13bc 8c32 4fbc 4724 4e3d
00000270: 8631 903d 54f9 153d a6ce d1bd 3fb1 d73d
00000280: 92bb 5f3d 90b4 99bd c0c9 9abd 5d76 5abd
00000290: cd9b 7d3c 4c70 a03d b779 3d3d 8c13 a1bd
000002a0: cd46 103d 028e f63d 0c78 8e3c 024e a3bd
000002b0: ec3f a83d 1800 2b3d 1b21 c1bc e702 813d
000002c0: f636 5f3d 6afe fc3c febf a6bd 15f0 cf3d
000002d0: e012 e43d 924a 8bbd 3ac1 a7bd 2ee2 8f3d
000002e0: e447 a43d 40f0 503b fa4b a13b 622d 76bd
000002f0: acf8 2abd def5 abbd 12ca 4c3d 749b a33d
00000300: 00a7 bd3d 209a 693d a95c 073e 2a8f da3d
00000310: 8215 d43d 9151 763c 1837 a9bd ec06 b8bd
00000320: 249b b63d a048 c6bd 9375 62bd f0bc 183a
00000330: 9885 e5bd 0c5d 063e 26ee 893d ad76 443c
00000340: 6045 c33d 78d5 b23d 9620 f53c 4c38 823d
00000350: 21af fdbc b487 60bd df45 8f3d d4f9 603d
00000360: 8b54 243d 5317 05be 2e4c b83d 51c2 e03d
00000370: 383b 0c3d 2c7a 7a3d 4c90 c83d a449 283d
00000380: 8608 f1bc f43e cc3d 3fd5 2fbd 92c8 8b3d
00000390: 1464 e4bd 854a cfbd 793f 8f3c c0af c23d
000003a0: d0f8 c1bc 64be e2bb 429c aa3c cea9 99bd
000003b0: 3655 cb3b bbe6 64bd d645 8f3d 5261 ee3d
000003c0: e802 04be 73f4 5e3c 2265 a0bc 2063 ba3d
000003d0: cefd 9c3d f043 c7bd f424 1dbd 8bad 07be
000003e0: 725f da3d d7b5 e03d dd06 413d 76ec 863c
000003f0: 0202 d63c e073 c939 a606 d13b 7f53 58bc

touchscreen_data_network.rnn.bias_ih_l0 f4 [64]
0.037430212 0.022531219 -0.011451972 -0.013409537 -0.07463895 -0.048819896 0.121408954 0.09470452
0.005600988 -0.012739052 0.038850933 0.11016525 0.092311226 0.08055049 0.11355333 0.09408603
0.054501608 -0.10147278 0.111067325 0.028471487 0.11470372 0.09961446 0.078759134 -0.05537764
0.10740138 0.0017122049 0.079952754 -0.06597029 -0.054574244 0.096717805 -0.0045664245 -0.013621754
-0.11268486 0.11784227 0.018533424 -0.0019182814 -0.07852332 0.055763796 -0.038001597 0.03614352
-0.011244623 -0.056451395 -0.026796235 -0.05761559 0.0022453656 0.08593738 0.09735856 -0.017375775
-0.09080497 0.018310063 0.018674873 -0.019226441 -0.07069202 0.027215289 0.07149336 0.09868385
-0.024673045 -0.050382525 0.12307416 -0.001076282 -0.028768932 -0.04666299 0.07371063 0.11981584
00000000: 6c50 193d 6493 b83c 0da1 3bbc adb3 5bbc
00000010: 4edc 98bd 5ff7 47bd 42a5 f83d 72f4 c13d
00000020: 7e88 b73b 75b7 50bc 2822 1f3d 529e e13d
00000030: ab0d bd3d a8f7 a43d a68e e83d 2db0 c03d
00000040: 143d 5f3d f6d0 cfbd 4477 e33d 093d e93c
00000050: c9e9 ea3d aa02 cc3d 784c a13d aad3 62bd
00000060: 41f5 db3d 106c e03a 45be a33d 6e1b 87bd
00000070: 3e89 5fbd fc13 c63d f2a1 95bb c72d 5fbc
00000080: 52c7 e6bd 4a57 f13d 68d3 973c d86e fbba
00000090: d6d0 a0bd 9468 643d 90a7 1bbd 3a0b 143d
000000a0: 5e3b 38bc 9439 67bd c783 dbbc 53fe 6bbd
000000b0: fc26 133b f0ff af3d ed63 c73d a457 8ebc
000000c0: f5f7 b9bd fcfe 953c 0cfc 983c c580 9dbc
000000d0: fac6 90bd 99f2 de3c 1c6b 923d c21a ca3d
000000e0: 201f cabc e85d 4ebd 4e0e fc3d 0812 8dba
000000f0: d3ac ebbc b121 3fbd 99f5 963d 0262 f53d

touchscreen_data_network.rnn.bias_hh_l0 f4 [64]
-0.10891688 -0.08665742 0.062601455 -0.016534638 -0.088443905 -0.06409479 -0.007872448 -0.021082535
-0.007744776 -0.04574337 0.030055651 0.103599444 -0.079004645 -0.13283049 -0.075085275 0.10148284
0.09308137 -0.066178046 0.041471884 -0.018847642 -0.0835096 -0.111506194 0.06841366 0.010000399
-0.038815156 0.04166506 -0.06644544 -0.093923405 -0.038289364 0.10223085 0.008224868 0.11247918
-0.050223723 -0.034463566 -0.070343085 0.10381885 -0.08443888 -0.08529304 -0.111096695 0.11936069
0.06300197 -0.0074137794 0.082263045 0.091474116 -0.10815209 -0.072988436 -0.030314103 -0.06228959
-0.08773456 -0.016756395 0.07171709 0.045214288 0.06992825 0.05472587 -0.039681584 0.050813496
-0.096119314 -0.1060043 0.026099186 0.020106798 0.019663269 0.032258682 -0.014849791 0.043993935
00000000: d00f dfbd 7279 b1bd 3135 803d a673 87bc
00000010: 1422 b5bd 2144 83bd 71fb 00bc 48b5 acbc
00000020: e4c7 fdbb 665d 3bbd 4537 f63c f22b d43d
00000030: 30cd a1bd b704 08be 4fc6 99bd 3cd6 cf3d
00000040: 72a1 be3d 5b88 87bd 6cde 293d 5f66 9abc
00000050: 1507 abbd 5c5d e4bd 761c 8c3d b7d8 233c
00000060: a4fc 1ebd fba8 2a3d 8c14 88bd ea5a c0bd
00000070: 4fd5 1cbd 685e d13d 99c1 063c 7c5b e63d
00000080: 64b7 4dbd ab29 0dbd 0910 90bd fa9e d43d
00000090: 4bee acbd 1eae aebd aa86 e3bd 6173 f43d
000000a0: 2d07 813d 4aef f2bb 8779 a83d c856 bb3d
000000b0: d87e ddbd f67a 95bd 4855 f8bc 5e23 7fbd
000000c0: 2dae b3bd b544 89bc 69e0 923d 9e32 393d
000000d0: 8b36 8f3d 3c28 603d 2889 22bd d021 503d
000000e0: 34da c4bd c818 d9bd f6cd d53c 03b7 a43c
000000f0: dd14 a13c ae21 043d 8a4c 73bc fc32 343d

sensor_data_network.rnn.weight_ih_l0 f4 [64, 6]
-0.0780885 -0.079793245 -0.09106511 -0.0007268507 0.1051748 0.08502808 -0.04733182 0.05579318
0.07666122 -0.039695177 0.079867624 -0.018662084 -0.06471876 -0.05213575 -0.10306033 0.09513745
-0.049284376 -0.06286029 0.056086 0.061327856 0.053416867 0.103685685 -0.03223221 -0.0645711
-0.033508398 0.07413405 -0.0397103 -0.09587766 -0.11077053 -0.027102165 -0.027661087 -0.051946353
0.052850105 0.06162977 0.10385972 -0.034153022 -0.053113177 -0.07289195 0.10039787 -0.08930087
0.04031576 -0.095075995 0.109989844 -0.06827299 -0.044373862 -0.091519415 0.055008564 0.055635367
0.035303928 0.011874015 -0.10557517 0.0025479775 0.12701258 0.080483384 0.07420332 0.097072095
-0.074706756 0.06526718 -0.03895669 0.1268241 -0.07388844 0.11337023 0.013374162 -0.056756493
0.10008796 0.008514588 0.09714034 -0.08506296 -0.0028731674 0.029044706 0.04073165 0.1346068
-0.050732374 -0.082238555 -0.08828308 -0.10899746 -0.03787441 0.0680522 0.030764654 -0.036787584
0.10928671 -0.093878485 -0.10881245 0.082106754 0.1311456 -0.08673264 -0.110704355 0.094782665
0.025086075 -0.09982154 0.06842669 0.1046343 0.010011372 -0.064660944 0.013576591 -0.10218076
0.08554627 -0.030951988 -0.07848821 -0.1039049 -0.031342905 0.025788575 0.06134641 -0.08225648
0.12579624 0.033855982 0.047804527 0.034535564 -0.09743189 -0.10599672 -0.08997075 0.04951687
-0.042525258 -0.10163484 -0.12420093 -0.022718398 0.021267526 0.038508732 -0.12709296 -0.12518778
-0.016752165 0.056156095 0.09602483 0.05829776 0.030979894 0.0023565767 -0.085596755 -0.030061442
0.075178795 0.09865204 0.033706326 0.12955624 -0.11136262 0.07652071 -0.007222159 -0.10516407
-0.011329951 0.025319617 0.116302066 -0.08672107 -0.083513685 0.100868076 0.09108065 0.02248646
-0.008424513 0.064853504 -0.023441248 0.06299752 0.004666549 0.028419856 -0.07980133 0.07352537
-0.100974105 0.0033895671 -0.11002119 -0.11349048 0.13105509 -0.035344705 -0.077781476 -0.12944071
0.03702845 -0.0853887 -0.11934875 -0.12103379 0.11551993 0.10815255 0.121450804 0.024384975
0.012915553 0.09801112 -0.119397886 -0.13393055 -0.065120466 0.07104937 0.039663233 -0.030991625
-0.06891941 0.11105507 -0.0045136195 -0.074060924 -0.027331105 -0.04903323 0.0011343667 0.0019084094
0.054900847 -0.01624655 0.023443028 -0.09765691 0.08199172 0.012966239 -0.037042014 0.007756212
-0.095375344 0.016948666 -0.0051040268 0.023826461 -0.08403065 -0.08937713 -0.0559174 0.06480089
-0.05481472 0.027381834 -0.028536305 0.10373806 0.050976187 -0.12743409 0.105935514 0.08725818
-0.02007048 0.03479721 -0.019661127 0.10293198 0.00310372 -0.01420737 0.05328366 -0.11633675
0.12593366 -0.0897602 0.10342715 -0.0013935119 -0.08669145 -0.09434548 -0.09991903 -0.062123757
-0.025667556 0.035547785 -0.08024797 -0.040516056 -0.13170867 -0.020672373 0.111796245 -0.10403449
-0.050308846 -0.033517927 -0.055385295 0.019032318 0.021470895 -0.04259196 0.078338414 0.0108528705
0.1141354 -0.03051756 -0.09636318 0.01929209 -0.04218623 -0.00020569749 -0.06263814 -0.051536605
-0.013294036 0.11169876 0.07938188 0.09580889 0.08431456 -0.0076308735 -0.05338429 0.01758029
00000000: ddec 9fbd a46a a3bd 5880 babd 208a 3eba
00000010: e365 d73d 3423 ae3d 03df 41bd 6487 643d
00000020: 8f00 9d3d 6997 22bd a391 a33d 3ae1 98bc
00000030: 458b 84bd 4c8c 55bd 4b11 d3bd 6cd7 c23d
00000040: 6ade 49bd e5bc 80bd 6fba 653d eb32 7b3d
00000050: a5cb 5a3d 2959 d43d ec05 04bd da3d 84bd
00000060: 1a40 09bd 98d3 973d 44a7 22bd 825b c4bd
00000070: a9db e2bd 5c05 debc 8199 e2bc b3c5 54bd
00000080: 5a79 583d 7f6f 7c3d 68b4 d43d 0ae4 0bbd
00000090: 348d 59bd 6048 95bd 669d cd3d 60e3 b6bd
000000a0: 2322 253d 34b7 c2bd 5b42 e13d b6d2 8bbd
000000b0: 5ec1 35bd 886e bbbd a950 613d e9e1 633d
000000c0: da9a 103d 3b8b 423c cb37 d8bd f8fb 263b
000000d0: 960f 023e 79d4 a43d e9f7 973d bccd c63d
000000e0: dbff 98bd cdaa 853d 0d91 1fbd 2dde 013e
000000f0: d352 97bd a72e e83d 4d1f 5b3c 7f79 68bd
00000100: ebfa cc3d c580 0b3c 84f1 c63d 7d35 aebd
00000110: c04b 3cbb 2aef ed3c 3bd6 263d 5dd6 093e
00000120: c0cc 4fbd b06c a8bd c2cd b4bd 0f3a dfbd
00000130: 3322 1bbd f45e 8b3d 2806 fc3c 94ae 16bd
00000140: b6d1 df3d 5d43 c0bd 10d9 debd 9627 a83d
00000150: 084b 063e e2a0 b1bd f7b8 e2bd 6a1d c23d
00000160: 5081 cd3c 3c6f ccbd 4b23 8c3d 824a d63d
00000170: bd06 243c f56c 84bd 5a70 5e3c 2544 d1bd
00000180: e232 af3d 068f fdbc 6dbe a0bd 18cc d4bd
00000190: 6b61 00bd 9042 d33c 6046 7b3d 1676 a8bd
000001a0: bbd0 003e 92ac 0a3d aece 433d 2a75 0d3d
000001b0: 5f8a c7bd cf14 d9bd 9642 b8bd 34d2 4a3d
000001c0: f72e 2ebd ed25 d0bd 0f5d febd ef1b babc
000001d0: 3c39 ae3c 55bb 1d3d a824 02be 3a31 00be
000001e0: d63b 89bc ef03 663d aba8 c43d a2c9 6e3d
000001f0: 8cc9 fd3c cc70 1a3b 5a4d afbd 6a43 f6bc
00000200: 57f7 993d 150a ca3d a50f 0a3d 64aa 043e
00000210: 1612 e4bd e4b6 9c3d dca7 ecbb 4360 d7bd
00000220: 42a1 39bc 166b cf3c c72f ee3d d19a b1bd
00000230: 3909 abbd ec93 ce3d 7e88 ba3d 8635 b83c
00000240: f806 0abc ead1 843d dc07 c0bc d804 813d
00000250: dae9 983b c2d0 e83c e16e a3bd 7894 963d
00000260: 83cb cebd 8023 5e3b ca52 e1bd b26d e8bd
00000270: 4e33 063e 9cc5 10bd e54b 9fbd 1b8c 04be
00000280: 25ab 173d 45e0 aebd 1e6d f4bd 90e0 f7bd
00000290: b795 ec3d 167f dd3d 33bb f83d 00c3 c73c
000002a0: c19b 533c 0eba c83d e186 f4bd 1725 09be
000002b0: e15d 85bd 5582 913d ea75 223d 26e2 fdbc
000002c0: 9f25 8dbd d770 e33d fce6 93bb 41ad 97bd
000002d0: 7be5 dfbc 11d7 48bd 08af 943a 9823 fa3a
000002e0: b6df 603d 7c17 85bc 980b c03c 5900 c8bd
000002f0: 46eb a73d 5970 543c 5eb9 17bd d227 fe3b
00000300: 2654 c3bd eed7 8a3c ae3f a7bb b62f c33c
00000310: 4318 acbd 5b0b b7bd a509 65bd 54b6 843d
00000320: 6685 60bd de4f e03c f8c4 e9bc 9f74 d43d
00000330: 68cc 503d 157e 02be b8f4 d83d 6bb4 b23d
00000340: d96a a4bc 8587 0e3d 5f10 a1bc 00ce d23d
00000350: c867 4b3b 07c6 68bc f83f 5a3d f641 eebd
00000360: c1f4 003e 32d4 b7bd 9dd1 d33d 80a6 b6ba
00000370: 498b b1bd 3438 c1bd 59a2 ccbd 7b75 7ebd
00000380: c444 d2bc 8e9a 113d 0c59 a4bd 2af4 25bd
00000390: a3de 06be 1c59 a9bc 6ef5 e43d 0910 d5bd
000003a0: a610 4ebd 184a 09bd b1db 62bd aae9 9b3c
000003b0: bbe3 af3c e874 2ebd e46f a03d 3dd0 313c
000003c0: d2bf e93d f6ff f9bc 0f5a c5bd 720a 9e3c
000003d0: 78cb 2cbd 80b0 57b9 6d48 80bd 0c18 53bd
000003e0: 3acf 59bc 52c2 e43d f892 a23d 7437 c43d
000003f0: 1dad ac3d 680c fabb 7ca9 5abd 8a04 903c

sensor_data_network.rnn.weight_hh_l0 f4 [64, 64]
0.09599189 0.063110925 0.13347803 0.095938414 -0.11314673 0.045457162 -0.0039741257 -0.056229293
-0.13481349 -0.016531862 0.083419904 -0.001381821 -0.03879928 0.032889184 -0.08423479 -0.13186365
0.05287259 -0.034559563 0.12748063 0.059395842 0.058867835 0.1123951 0.047765646 -0.0157343
-0.08602309 0.05716503 0.0883741 0.051503584 0.022595797 -0.06437939 -0.008613258 -0.035230927
-0.107687466 0.014732372 -0.048947003 0.0018431572 -0.0974305 -0.022352643 -0.038818378 0.08771095
0.022911545 -0.0052424185 -0.070800185 0.007841989 0.034279644 0.102701664 0.1253017 0.098029085
-0.07222555 0.100771286 0.08893861 -0.033031512 0.024469633 0.02761205 -0.10854158 0.062305063
0.0016357116 0.03017374 0.080051824 0.109829016 -0.10397454 -0.080555946 0.10009769 -0.10999234
0.013551032 0.013873044 -0.011302002 0.006760069 -0.110401675 -0.046208695 0.0641354 0.10527751
-0.0767615 -0.09804015 -0.0031216852 0.06416842 0.033450626 0.05865062 0.11344554 -0.082971804
-0.086651 -0.10139686 -0.09690039 0.044887956 -0.067606 0.002479813 -0.08424194 0.030056871
-0.0665576 -0.052681893 -0.09696561 -0.007465642 -0.020802662 0.11155615 -0.04728901 -0.12883712
0.028129574 0.05580826 0.0046202764 0.082599886 0.09631435 -0.017491668 0.1171185 0.12637042
-0.097563796 -0.12011281 0.027277268 -0.110994026 0.07920612 0.1077537 0.0842862 0.017077204
0.056073647 -0.07084293 0.007992546 -0.08496332 0.07186335 0.09017256 -0.04260672 -0.08867772
0.09324577 0.05535024 0.020730466 0.035288833 -0.1015815 -0.053679347 -0.047006678 -0.030755498
0.06129957 -0.056014143 0.11458026 0.06152497 0.016173154 -0.11415637 -0.059765663 -0.026294332
0.069232345 -0.0005855197 0.098903485 -0.115943626 0.037864365 0.09485357 0.02124127 -0.11148641
0.109607115 0.07934573 -0.11220014 0.037862696 0.022123735 -0.0862996 -0.097472705 0.11313278
0.041491374 0.12898313 -0.0394785 0.048256382 -0.09003064 -0.026986059 0.073588364 -0.08869961
0.09135717 0.0536736 -0.02544476 -0.060734224 -0.0033941325 0.017259587 -0.050455377 -0.029785983
0.10736994 -0.006658472 -0.11265117 0.04715672 -0.09719139 0.044060674 0.063333966 -0.07535428
0.13022889 0.059937827 0.0862211 0.042786233 0.08770389 -0.121393874 0.10827172 0.003645732
0.0658033 -0.11878148 -0.019922778 0.029768776 0.051887605 -0.12998089 0.10457654 -0.045416627
0.056798212 0.029735425 -0.09375355 0.030398278 0.12576377 0.0023938464 -0.03494641 0.04192652
0.011737274 0.054617863 -0.06310389 0.09079103 0.07429086 -0.07586188 -0.034574486 -0.06504117
-0.025249764 0.024921747 -0.10996183 -0.10188908 -0.05420864 -0.035773817 -0.092748284 0.009201228
-0.055611894 0.063628234 0.092888795 -0.094590984 0.13387172 -0.11626118 -0.13358729 -0.1133527
0.106776476 -0.0015161494 0.035403326 0.047797643 0.026339862 0.01988962 0.037042376 0.033292536
0.10623296 -0.13433243 0.073615134 0.06811478 -0.043953426 0.0014000991 0.06828377 0.033799734
0.10458274 -0.0129384035 0.02971432 -0.0056145387 0.07602581 -0.07745599 -0.086119145 0.07947471
-0.032227628 0.01037714 -0.07826964 -0.09675552 0.054413136 0.08665011 -0.06521645 -0.005946229
00000000: 6597 c43d 4d40 813d 77ae 083e 5c7b c43d
00000010: 79b9 e7bd 4a31 3a3d 6239 82bb b050 66bd
00000020: 8c0c 0abe d46d 87bc 0ed8 aa3d 381e b5ba
00000030: feeb 1ebd cfb6 063d 4a83 acbd 4407 07be
00000040: ee90 583d 548e 0dbd 488a 023e 0e49 733d
00000050: 661f 713d 672f e63d e9a5 433d 38e5 80bc
00000060: e02c b0bd e125 6a3d 7bfd b43d 6cf5 523d
00000070: d21a b93c 57d9 83bd 9f1e 0dbc 4e4e 10bd
00000080: 3f8b dcbd 0c60 713c a77c 48bd 1896 f13a
00000090: a489 c7bd e41c b7bc 0500 1fbd cca1 b33d
000000a0: feb0 bb3c 98c8 abbb b0ff 90bd b07b 003c
000000b0: d068 0c3d 4055 d23d 174f 003e 79c3 c83d
000000c0: fdea 93bd 2d61 ce3d 7225 b63d 0d4c 07bd
000000d0: 8a74 c83c aa32 e23c 0c4b debd 9833 7f3d
000000e0: 6065 d63a eb2e f73c 36f2 a33d 09ee e03d
000000f0: 9bf0 d4bd 84fa a4bd 0500 cd3d aa43 e1bd
00000100: 2605 5e3c c44b 633c 082c 39bc 9283 dd3b
00000110: 461a e2bd 5445 3dbd 6c59 833d bc9b d73d
00000120: 2235 9dbd 46c9 c8bd 3095 4cbb bc6a 833d
00000130: 8603 093d a23b 703d 2356 e83d 1fed a9bd
00000140: 1476 b1bd 28a9 cfbd b673 c6bd 6fdc 373d
00000150: 0475 8abd 5c84 223b 0a87 acbd d439 f63c
00000160: 5a4f 88bd f8c8 57bd e895 c6bd 58a2 f4bb
00000170: 586a aabc 8d77 e43d 1fb2 41bd e1ed 03be
00000180: fe6f e63c 3497 643d b065 973b 212a a93d
00000190: 7540 c53d b04a 8fbc d3db ef3d 3f67 013e
000001a0: 87cf c7bd b4fd f5bd 9474 df3c d650 e3bd
000001b0: d136 a23d f9ad dc3d 3e9e ac3d 7ee5 8b3c
000001c0: 7bad 653d 1916 91bd 2bf3 023c 4001 aebd
000001d0: 182d 933d 64ac b83d 6284 2ebd aa9c b5bd
000001e0: a3f7 be3d efb6 623d f0d2 a93c 068b 103d
000001f0: f609 d0bd e0de 5bbd 138a 40bd f4f2 fbbc
00000200: 4215 7b3d 166f 65bd 0ea9 ea3d 9b01 7c3d
00000210: 907d 843c d1ca e9bd d7cc 74bd 3667 d7bc
00000220: b0c9 8d3d 907d 19ba e98d ca3d da73 edbd
00000230: aa17 1b3d 9742 c23d 2c02 ae3c fd52 e4bd
00000240: b279 e03d 0480 a23d 30c9 e5bd ea15 1b3d
00000250: d63c b53c d8bd b0bd c59f c7bd 29b2 e73d
00000260: dcf2 293d 2714 043e 35b4 21bd 7ca8 453d
00000270: fc61 b8bd de11 ddbc 7fb5 963d 24a8 b5bd
00000280: 7819 bb3d d9d8 5b3d 8871 d0bc 73c4 78bd
00000290: 1870 5ebb fa63 8d3c 4caa 4ebd bc01 f4bc
000002a0: c5e4 db3d 502f dabb a8b5 e6bd 6827 413d
000002b0: 480c c7bd f778 343d 3db5 813d 5853 9abd
000002c0: b95a 053e 5e81 753d b094 b03d 9e40 2f3d
000002d0: 199e b33d 5a9d f8bd 90bd dd3d 3ced 6e3b
000002e0: e1c3 863d b443 f3bd 1835 a3bc a6dd f33c
000002f0: 1988 543d b619 05be 3a2c d63d c906 3abd
00000300: 3ea5 683d b597 f33c dc01 c0bd cf05 f93c
00000310: 38c8 003e 14e2 1c3b f823 0fbd 25bb 2b3d
00000320: b24d 403c fbb6 5f3d 9d3c 81bd a6f0 b93d
00000330: ce25 983d 795d 9bbd fa9d 0dbd 4e34 85bd
00000340: 98d8 cebc b128 cc3c ab33 e1bd 39ab d0bd
00000350: e109 5ebd 9187 12bd d0f2 bdbd bfc0 163c
00000360: 4cc9 63bd 854f 823d 7b3c be3d ebb8 c1bd
00000370: ab15 093e 571a eebd 1bcb 08be 7625 e8bd
00000380: a0ad da3d 88b9 c6ba 1403 113d 76c7 433d
00000390: b2c6 d73c 8eef a23c bfb9 173d c15d 083d
000003a0: ab90 d93d 718e 09be 88c3 963d c37f 8b3d
000003b0: 8208 34bd 8883 b73a 5cd8 8b3d 9771 0a3d
000003c0: 7a2f d63d 99fb 53bc 726b f33c 2afa b7bb
000003d0: 6bb3 9b3d 3fa1 9ebd 3c5f b0bd a3c3 a23d
000003e0: 1e01 04bd e104 2a3c d54b a0bd c227 c6bd
000003f0: 4fe0 5e3d 9d75 b13d 3490 85bd 96d8 c2bb

sensor_data_network.rnn.bias_ih_l0 f4 [64]
0.072807856 -0.081793256 0.036774926 0.0739388 -0.054432537 0.08233078 -0.056471292 -0.109106675
0.025239967 -0.07224391 0.06835565 -0.13411838 0.040947374 0.11402635 0.0023185173 0.035497
-0.026046483 -0.086396396 0.12653106 -0.10026234 0.122933745 0.06827758 0.06872855 -0.030779071
0.07219732 -0.00026929285 0.06045445 -0.024766818 -0.1163903 0.0852238 0.07764639 0.050942257
0.010717615 0.030422172 0.110863686 -0.002407032 0.12089808 0.042930726 -0.12973332 -0.018327892
0.05400984 0.023963656 0.07470832 0.026577521 0.0004500989 0.036955047 0.1021924 -0.06548817
0.027552042 -0.09246707 -0.018919393 0.057014477 0.017586663 -0.0696592 0.02104488 -0.014201827
0.025952265 -0.09345309 0.038642585 -0.07159175 -0.091818616 0.06228088 0.095306635 0.0016797185
00000000: 491c 953d 3983 a7bd 4ea1 163d 3a6d 973d
00000010: a7f4 5ebd 0a9d a83d 714e 67bd 5273 dfbd
00000020: 0cc4 ce3c 9df4 93bd 0cfe 8b3d 5456 09be
00000030: 6fb8 273d a686 e93d 44f2 173b 4d65 113d
00000040: 6f5f d5bc 98f0 b0bd 5c91 013e 5756 cdbd
00000050: b0c4 fb3d 1ed5 8b3d 8ec1 8c3d 6424 fcbc
00000060: 30dc 933d e02f 8db9 169f 773d c8e3 cabc
00000070: 0a5e eebd d189 ae3d 1205 9f3d d4a8 503d
00000080: ef98 2f3c eb37 f93c 800c e33d 4cbf 1dbb
00000090: 6a99 f73d 21d8 2f3d d0d8 04be 6024 96bc
000000a0: 6c39 5d3d 6e4f c43c ad00 993d 1ab9 d93c
000000b0: 40fb eb39 2d5e 173d 404a d13d a91e 86bd
000000c0: d2b4 e13c 605f bdbd d8fc 9abc 0388 693d
000000d0: e811 903c 7ca9 8ebd 5066 ac3c c8ae 68bc
000000e0: d899 d43c 5564 bfbd b047 1e3d b29e 92bd
000000f0: 660b bcbd 3c1a 7f3d 2030 c33d 002a dc3a

sensor_data_network.rnn.bias_hh_l0 f4 [64]
-0.086495265 0.11804582 -0.056115545 -0.024108775 -0.09047819 0.09251893 -0.020592514 0.0064439904
0.061915476 -0.019425822 0.10018236 0.07147719 -0.124657124 0.11846379 -0.030344054 -0.04515811
0.079030916 0.12309807 -0.011557545 -0.037759732 -6.172061e-05 -0.0020190142 0.11840105 -0.06549453
0.06832957 0.016728302 -0.03182918 0.006268424 -0.01575479 0.10109951 -0.030422825 -0.039992392
0.04083541 0.024670266 0.017412923 -0.09793865 0.09061979 0.083490826 -0.06897551 -0.031006694
0.066617906 -0.06586848 0.018050298 -0.054179754 0.10342249 0.06350621 -0.05472619 0.022093713
0.09048559 0.012193687 0.040724844 0.053761974 0.10840539 -0.038222447 0.0756259 0.020829149
-0.032214116 0.10901371 -0.073406935 0.079717904 0.10004838 0.11272351 0.08611329 0.051031765
00000000: 6e24 b1bd 02c2 f13d 6ad9 65bd c47f c5bc
00000010: a14c b9bd 917a bd3d a2b1 a8bc 1c28 d33b
00000020: 159b 7d3d e722 9fbc 692c cd3d a262 923d
00000030: 3c4c ffbd 259d f23d 1894 f8bc b6f7 38bd
00000040: f6da a13d d71a fc3d db5b 3dbc f3a9 1abd
00000050: 0070 81b8 7051 04bb 407c f23d ff21 86bd
00000060: 60f0 8b3d cb09 893c 505f 02bd 5a67 cd3b
00000070: 3010 81bc 430d cf3d 4a39 f9bc 10cf 23bd
00000080: 0843 273d 4c19 ca3c 8ca5 8e3c 0f94 c8bd
00000090: de96 b93d 3dfd aa3d 0843 8dbd c001 febc
000000a0: f86e 883d 0ee6 86bd 38de 933c 97eb 5dbd
000000b0: 2ccf d33d 8b0f 823d 9228 60bd e0fd b43c
000000c0: 8250 b93d 08c8 473c 18cf 263d 8435 5c3d
000000d0: a503 de3d 248f 1cbd c0e1 9a3d e4a1 aa3c
000000e0: f3f2 03bd 9442 df3d 6056 96bd 2443 a33d
000000f0: 2ae6 cc3d 95db e63d 2a5c b03d af06 513d

fc.weight f4 [16, 130]
0.0058591845 0.06629335 -0.03648325 -0.081876695 -0.031201918 0.097206905 -0.08224597 0.08002495
0.06977041 -0.024895057 -0.0025363378 0.09594921 0.05497675 0.040630613 -0.008648564 -0.031117994
0.060571212 -0.031810507 -0.07290603 -0.05622638 0.033006866 -0.030203573 -0.06318302 -0.06751381
0.050946943 -0.08733944 0.0044733076 0.005281257 -0.056310385 -0.05464015 -0.061755147 0.02577168
-0.04110958 0.026175879 0.073441595 0.0425766 -0.068798326 -0.046339795 -0.008186915 0.054104917
0.036892265 8.709729e-05 -0.075533204 -0.05632897 0.070382215 -0.0735021 -0.022206632 -0.010818711
0.018310152 0.014152567 -0.006589871 0.012797062 0.003718718 -0.07554562 -0.000699847 0.048667762
0.021722373 0.033980146 0.01202852 -0.041669518 -0.037471443 -0.0067451727 -0.0014122464 0.0027721943
-0.07534461 0.048678484 0.07665839 0.036084108 0.027450198 -0.041144837 -0.022346407 -0.0942558
-0.0362625 0.065296024 -0.0046494417 -0.031807616 -0.06518848 0.061235867 -0.010114129 0.036996804
0.0014225552 -0.0067291325 0.06795249 -0.006374644 -0.05294547 0.009748373 -0.050970435 -0.011564613
-0.013146319 0.02100128 -0.009642792 0.036176313 -0.03502079 -0.07120735 0.05624892 0.06528534
0.05255282 0.084505215 0.012830077 -0.036510885 -0.03375839 0.041574836 -0.056932263 -0.050553087
-0.030151932 0.094726406 -0.022366583 0.094603084 -0.06771809 0.074655704 -0.054532327 -0.07790284
0.017911162 -0.057161044 0.030138236 -0.003050461 -0.030020794 0.0890283 0.030959483 0.021057755
-0.024100771 0.0068354877 0.055388674 -0.08866183 0.06795579 0.038511634 0.06956707 -0.005109575
-0.00045335945 -0.02618116 -0.07373027 0.0609936 0.042835556 -0.0077534453 -0.08717593 0.060758512
-0.040579572 -0.011508753 -0.075346276 -0.047548063 -0.030964684 -0.034283765 0.006350483 0.043668736
0.044763774 -0.00088141207 -0.030508403 -0.07392678 0.018077914 0.021232799 -0.016701216 0.04061068
-0.02647857 0.05008908 -0.006039218 -0.047858182 0.0038065175 -0.07130112 0.07677457 -0.07247279
-0.013216524 0.0065529123 -0.044639222 0.025814757 0.010468464 -0.0680573 -0.067559704 0.05275854
-0.028823258 -0.048583254 0.09356332 0.036868453 -0.035522 0.00852158 0.01736854 -0.0006192783
0.0011735745 0.036448915 0.0413262 0.01580732 0.008888792 -0.063647956 -0.06182091 -0.02490685
-0.046652712 0.0014536092 0.043182995 -0.003853119 0.015347709 0.015915092 0.028357007 -0.009502111
-0.048097454 0.009677582 -0.057725843 -0.0013192659 0.051481772 -0.014668794 0.015381864 0.03963098
0.084539324 -0.06051721 0.076255254 0.011162551 -0.041448787 0.0045760116 -0.050313864 0.077559434
0.057997838 -0.08528386 -0.003564327 -0.005785914 0.04078065 -0.015508985 -0.071506016 -0.069247685
0.01451905 -0.04770187 -0.045908242 0.066630945 -0.02683992 0.0013344157 -0.005420541 -0.043101292
0.0098187355 0.09092611 -0.024811493 -0.046364926 0.08732318 0.025408085 -0.03237001 -0.024420839
-0.008199806 0.04010854 -0.035633072 0.04720669 0.057430796 -0.030833717 0.018052032 0.062890895
-0.007815741 0.03613706 -0.040710896 0.042141877 -0.046638116 0.05797951 -0.01962315 -0.06746343
-0.06645352 -0.040298954 -0.07172871 0.07084535 -0.097522214 -0.0688999 -0.05142122 0.010399347
00000000: 67fe bf3b cfc4 873d 766f 15bd f8ae a7bd
00000010: 2a9b ffbc 6a14 c73d 9370 a8bd 1fe4 a33d
00000020: cae3 8e3d b8f0 cbbc b038 26bb 0581 c43d
00000030: 4d2f 613d 496c 263d b5b2 0dbc 2aeb febc
00000040: 8519 783d bc4b 02bd c24f 95bd a24d 66bd
00000050: 3532 073d 7c6d f7bc 1966 81bd ae44 8abd
00000060: bead 503d 05df b2bd d394 923b 650e ad3b
00000070: b8a5 66bd 5ace 5fbd f7f2 7cbd 211f d33c
00000080: 8562 28bd cc6e d63c 8c68 963d cd64 2e3d
00000090: 23e6 8cbd ccce 3dbd 6922 06bc 1e9d 5d3d
000000a0: 581c 173d 00a8 b638 27b1 9abd 35b9 66bd
000000b0: 8d24 903d 4588 96bd afea b5bc f640 31bc
000000c0: 2cff 953c 2be0 673c d8ef d7bb c5aa 513c
000000d0: bcb5 733b a9b7 9abd f075 37ba d957 473d
000000e0: 1ef3 b13c c42e 0b3d 4513 453c a8ad 2abd
000000f0: a87b 19bd 9c06 ddbb 201b b9ba b4ad 353b
00000100: 464e 9abd 1763 473d 13ff 9c3d eecc 133d
00000110: 3ddf e03c 7d87 28bd d00f b7bc 2f09 c1bd
00000120: fd87 14bd ecb9 853d 585a 98bb b448 02bd
00000130: 8a81 85bd 76d2 7a3d bbb5 25bc f689 173d
00000140: 0875 ba3a 0e80 dcbb ad2a 8b3d 64e2 d0bb
00000150: 59dd 58bd a4b7 1f3c 60c6 50bd 8179 3dbc
00000160: a963 57bc e00a ac3c cdfc 1dbc 9d2d 143d
00000170: f671 0fbd 29d5 91bd 4465 663d 52b4 853d
00000180: a041 573d 1211 ad3d 3e35 523c 708c 15bd
00000190: 3d46 0abd 604a 2a3d ce31 69bd c110 4fbd
000001a0: 2f01 f7bc ebff c13d 203a b7bc 43bf c13d
000001b0: c8af 8abd 17e5 983d 4a5d 5fbd 868b 9fbd
000001c0: 6eba 923c b321 6abd 76e4 f63c 3eea 47bb
000001d0: 2bee f5bc 7854 b63d be9e fd3c 5081 ac3c
000001e0: fb6e c5bc 3afc df3b 3cdf 623d 5594 b5bd
000001f0: 682c 8b3d 60be 1d3d 2e79 8e3d 396e a7bb
00000200: e0b0 edb9 df79 d6bc e5ff 96bd 6dd4 793d
00000210: 5674 2f3d 9d10 febb 4b89 b2bd ebdd 783d
00000220: c436 26bd 358f 3cbc 264f 9abd c2c1 42bd
00000230: a6a9 fdbc 226d 0cbd b617 d03b fddd 323d
00000240: 385a 373d 900e 67ba c2ec f9bc ec66 97bd
00000250: 2218 943c 68f0 ad3c fdd0 88bc 6257 263d
00000260: 96e9 d8bc 352a 4d3d a2e4 c5bb f106 44bd
00000270: c476 793b 5206 92bd fc3b 9d3d 9d6c 94bd
00000280: 1f8a 58bc d0b9 d63b 9ed7 36bd 7879 d33c
00000290: ec83 2b3c a061 8bbd be5c 8abd 5719 583d
000002a0: c11e ecbc 3cff 46bd 209e bf3d 6003 173d
000002b0: 847f 11bd 199e 0b3c 7848 8e3c 1057 22ba
000002c0: a0d2 993a 754b 153d a945 293d 5a7e 813c
000002d0: 4ca2 113c dc59 82bd ec37 7dbd 7309 ccbc
000002e0: ea16 3fbd 0887 be3a a7e0 303d 9c84 7cbb
000002f0: f574 7b3c 5e60 823c f44c e83c beae 1bbc
00000300: d601 45bd b98e 1e3c ef71 6cbd 38eb acba
00000310: 8dde 523d 6255 70bc 3704 7c3c 1854 223d
00000320: f422 ad3d e5e0 77bd b72b 9c3d 22e3 363c
00000330: 34c6 29bd 5ef2 953b e915 4ebd 7bd7 9e3d
00000340: 248f 6d3d 4ea9 aebd 7c97 69bb c497 bdbb
00000350: 9c09 273d 6619 7ebc bf71 92bd bbd1 8dbd
00000360: 4fe1 6d3c 0963 43bd 480a 3cbd ce75 883d
00000370: 64df dbbc 90e7 ae3a cb9e b1bb fb8a 30bd
00000380: c3de 203c 7837 ba3d 7941 cbbc 26e9 3dbd
00000390: 7fd6 b23d 9e24 d03c 6a96 04bd 360e c8bc
000003a0: 7b58 06bc da48 243d fcf3 11bd cd5b 413d
000003b0: 8e3c 6b3d fe96 fcbc dbe1 933c f1cc 803d
000003c0: 980d 00bc 7404 143d 78c0 26bd f69c 2c3d
000003d0: 9c07 3fbd ec7b 6d3d bac0 a0bc 442a 8abd
000003e0: c818 88bd 8410 25bd 80e6 92bd 5e17 913d
000003f0: bab9 c7bd 641b 8dbd 0f9f 52bd 0662 2a3c

fc.bias f4 [16]
-0.071076706 -0.050170135 -0.009159782 0.06311793 -0.044423006 -0.00085653085 -0.04438812 0.021308152
-0.020987527 -0.011371818 0.0023243949 0.0015491284 0.04681124 0.074186355 -0.0059805494 0.074894056
00000000: aa90 91bd 337f 4dbd e912 16bc f943 813d
00000010: e6f4 35bd d088 60ba 51d0 35bd 6f8e ae3c
00000020: 09ee abbc dd50 3abc e054 183b 200c cb3a
00000030: 25bd 3f3d 04ef 973d 7cf8 c3bb 0e62 993d
